results/firstry3/KartAgent/KartAgent-0.onnx (onnx, 305043 bytes, 13 tensors)

network_body.observation_encoder.processors.0.normalizer.running_mean f4 [20]
000000 00 00 00 00 00 00 00 00 00 00 00 00 00 00 00 00
       0.0 0.0 0.0 0.0
000010 00 00 00 00 00 00 00 00 00 00 00 00 00 00 00 00
       0.0 0.0 0.0 0.0
000020 00 00 00 00 00 00 00 00 00 00 00 00 00 00 00 00
       0.0 0.0 0.0 0.0
000030 00 00 00 00 00 00 00 00 00 00 00 00 00 00 00 00
       0.0 0.0 0.0 0.0
000040 00 00 00 00 00 00 00 00 00 00 00 00 00 00 00 00
       0.0 0.0 0.0 0.0

network_body.observation_encoder.processors.1.normalizer.running_mean f4 [12]
000000 00 00 00 00 00 00 00 00 00 00 00 00 00 00 00 00
       0.0 0.0 0.0 0.0
000010 00 00 00 00 00 00 00 00 00 00 00 00 00 00 00 00
       0.0 0.0 0.0 0.0
000020 00 00 00 00 00 00 00 00 00 00 00 00 00 00 00 00
       0.0 0.0 0.0 0.0

network_body.observation_encoder.processors.2.normalizer.running_mean f4 [3]
000000 00 00 00 00 00 00 00 00 00 00 00 00
       0.0 0.0 0.0

network_body._body_endoder.seq_layers.0.weight f4 [256, 35]
000000 ec 30 db 3d 79 15 2b bd 74 cd ac bd d8 d1 ea bc
       0.107026905 -0.041768525 -0.084376246 -0.028664514
000010 aa 2d a3 3d ba 89 2c bd 4f 76 00 be 7b 43 e0 bc
       0.07967694 -0.042123534 -0.12545131 -0.027375927
000020 73 4c d8 bd 33 bf be bd cd e9 33 3e 13 f0 db 3d
       -0.105614565 -0.09313812 0.17569657 0.1073915
000030 b4 57 42 be 6b 94 87 be 88 8a 95 bd fa c2 e5 3d
       -0.18978769 -0.2648042 -0.07301813 0.112188295
000040 a3 cd 9d 3c 68 91 2e be 82 1c 0a 3e e6 76 93 3d
       0.019263094 -0.17047656 0.13487437 0.072004125
000050 6f 88 35 3e 5d c7 22 3e f3 f9 f3 bd 57 b9 f4 bd
       0.17727827 0.15896364 -0.119129084 -0.11949413
000060 35 54 33 be 31 a8 9d 3e 88 51 e6 3d eb b5 f0 3d
       -0.17512591 0.30792382 0.112460196 0.11753448
000070 94 8b 96 3c 17 05 0d be 44 9a 14 3c 93 f4 56 3d
       0.018377103 -0.13771473 0.009069983 0.052479338
000080 b0 54 c0 3c b0 a8 06 be 0e cf 93 3c 0c fc 8a 3d
       0.023477882 -0.13150287 0.018043067 0.067863554
000090 17 bd d5 bd 19 88 5f 3e 60 d6 2b be 24 1b de bd
       -0.10436457 0.21829261 -0.16780996 -0.108450204
0000a0 8d 6c ba be 57 a1 92 3d c9 31 89 bd b9 8d 63 3e
       -0.36410943 0.071596794 -0.06698949 0.22222032
0000b0 19 06 76 3d 59 fb d3 bd 59 58 0c bd d1 2e 82 bd
       0.06006441 -0.10350675 -0.034263942 -0.06356586
0000c0 36 25 77 3d 28 bf 99 3e 70 f4 97 3d 82 bd a3 3e
       0.06033822 0.30028653 0.0741967 0.3198052
0000d0 f8 c9 df 3d 38 8d be bb a1 68 36 3d f9 df da 3d
       0.10927194 -0.0058151744 0.044533376 0.10687251
0000e0 68 5d b2 3d d7 7c 4b 3e 99 01 b4 3c 50 26 21 be
       0.08709222 0.19871841 0.021973418 -0.15737271
0000f0 e8 0f 3a be b0 4b 9b 3c 9c aa 36 3c 5b 01 89 bd
       -0.1817013 0.018956989 0.011149075 -0.06689712
000100 bf a3 07 be d0 6e 22 3e f8 d4 21 bd 11 f3 91 bc
       -0.13246058 0.15862584 -0.039509743 -0.017816098
000110 24 8b 61 be 59 22 7a be a6 4b 54 be 67 b9 59 be
       -0.22025734 -0.24427165 -0.20731983 -0.21262132
000120 80 43 ab bd f0 c7 14 be 2c 3f 8b be 72 eb 8d 3e
       -0.08362484 -0.14529395 -0.27196634 0.27718693
000130 7b cd d2 3c cc 77 e5 bc e3 7b 80 be 63 6d 3d be
       0.025732746 -0.028011225 -0.25094518 -0.18498759
000140 cb 62 68 3c 8a 6e 74 3e af f2 d1 3c 95 8a 50 be
       0.01418371 0.23870292 0.025628416 -0.20365365
000150 34 3c 80 3c 75 6a c6 bd 56 19 9c be ca 4c 78 be
       0.015653707 -0.09688274 -0.3048808 -0.24248043
000160 34 ad 5c be 4e cc bc 3d c4 c7 66 3e a7 4a 1e 3e
       -0.21550447 0.092186555 0.22537142 0.15458165
000170 29 c7 8c bd b2 50 4f bd 9a 5d 2e be 6f 39 42 be
       -0.06873924 -0.050614066 -0.17027894 -0.18967222
000180 02 2a 6c 3e a4 14 75 3e 02 91 d1 be 9a 1b d0 3e
       0.230629 0.23933655 -0.40930945 0.40646058
000190 ea 06 75 bd ca e3 c7 be 11 af 82 bd d0 27 50 3e
       -0.059821047 -0.39040977 -0.063810475 0.20327687
0001a0 4b 73 84 3e ad b9 7e be 9e c9 30 be db 52 da bd
       0.25869212 -0.24875517 -0.17264411 -0.10660335
0001b0 f4 c2 bb 3d 80 4c d2 bc 74 f0 57 bd c4 24 db bb
       0.09168044 -0.025671244 -0.05271955 -0.0066877324
0001c0 f2 67 34 be c7 c5 a8 3d 03 eb d1 3d 74 fe 09 3e
       -0.17617777 0.08240848 0.10249903 0.13475972
0001d0 51 d7 b9 3a f4 0d 7d be c2 4e 0a 3e 8f 80 99 3d
       0.0014178549 -0.24712354 0.13506606 0.07495224
0001e0 45 4d 9d be 9d f4 1f 3d 8c 16 bd 3d 11 4f b4 3d
       -0.30723014 0.03905164 0.09232816 0.08804143
0001f0 46 c3 f6 3c 36 d1 94 3e 8c 91 e4 bd d5 e9 3c 3e
       0.03012241 0.29065865 -0.11160573 0.18448575
000200 d2 62 0c be e0 60 e2 3c ae df 28 be e9 56 69 be
       -0.13709572 0.027634084 -0.16491577 -0.2278706
000210 a2 ed d7 bd a4 41 6a 3e fc a4 18 3e f1 68 30 3e
       -0.10543372 0.22876602 0.14906687 0.17227532
000220 c8 bf 12 be d1 9c 09 3e d8 47 ef bc f5 58 a4 be
       -0.14330971 0.13438727 -0.029209062 -0.3209912
000230 a9 73 95 3d 76 74 c8 3d c1 e4 b9 3d 62 23 db bd
       0.07297451 0.09787838 0.090768345 -0.10700108
000240 ad d7 7f 3e 8f 66 49 3e 84 74 83 bd 4b b4 72 be
       0.24984618 0.19668029 -0.06418708 -0.23701589
000250 8a b8 a9 be b7 01 61 3e f7 d1 4c be 72 38 c1 be
       -0.33148605 0.2197331 -0.2000197 -0.37738377
000260 09 b4 4a 3d d0 f6 b4 3d f8 39 97 3d 2d df 1c be
       0.0494881 0.08836138 0.073841035 -0.1531951
000270 a1 d3 45 3e ba e3 7c 3e 86 6f 9f bd a5 fc 4c 3d
       0.19319011 0.24696246 -0.07784943 0.050045628
000280 1a 2d 43 be 40 87 26 3d 13 48 6c 3e 3c 8f 0e 3e
       -0.19060174 0.04065633 0.23074369 0.13921827
000290 76 72 cb bc c5 47 3f be cf 1b 81 be e0 ee 64 bd
       -0.024834853 -0.18679722 -0.2521653 -0.05589187
0002a0 72 61 dd 3d 38 85 fc bc 95 86 4e bd f5 83 98 bd
       0.10809602 -0.030825242 -0.050421316 -0.07447044
0002b0 db 69 d2 3d 91 58 15 3d b6 d3 ba bd 5f bc 94 bd
       0.102740966 0.036461417 -0.09122412 -0.072624914
0002c0 5a 37 96 bc a2 d1 3e bc 89 0b 48 3e 32 66 98 ba
       -0.01833694 -0.01164666 0.1953565 -0.0011627136
0002d0 40 ca 5a 3e fe b1 40 bd 7e 3f 1a 3e 98 45 ae bd
       0.21366215 -0.047044747 0.15063283 -0.08509368
0002e0 47 19 90 3c 94 6a 1a 3c cc e4 d3 bd ac 57 f8 bd
       0.017590178 0.009424824 -0.10346374 -0.12126097
0002f0 e9 68 c7 bd af 64 71 bd fe 12 53 be 0a 9b f1 3d
       -0.09736807 -0.05893391 -0.20612714 0.117971495
000300 f8 80 a5 be 20 db 0d be 4d 98 60 3e 27 76 6d bd
       -0.32324958 -0.13853121 0.21933098 -0.057974007
000310 3f 49 96 3d a6 fc 1a 3e 4b 4e b1 3c 15 e7 ae bd
       0.07338189 0.1513544 0.021643778 -0.08540169
000320 38 7e 97 bd 33 22 11 3e 18 d9 2f be 3a 5b 64 be
       -0.07397121 0.14173202 -0.17172658 -0.22300425
000330 a3 26 28 be ea 90 33 3d b6 b9 9d bd 3e 85 c0 bd
       -0.16420989 0.043839373 -0.07701437 -0.09400414
000340 6f 84 01 3e 8f dd 0e bb 1a 93 fd bc 4f 23 9e 3e
       0.12648176 -0.002179954 -0.030953933 0.30886313
000350 47 1f 49 3e f5 a1 64 bc e5 9c 2f 3e b2 c1 1b be
       0.19640838 -0.013954629 0.17149694 -0.15210608
000360 05 4d 49 3e 38 78 83 3d f3 c4 ae be 9f 3e 15 be
       0.19658287 0.06419414 -0.34134635 -0.1457467
000370 d4 f4 48 3e d2 48 1c bd c4 a5 6b bd 50 c6 32 be
       0.19624645 -0.038155384 -0.057531133 -0.17458463
000380 08 d4 a1 3d 6c d4 65 bc e2 3e f6 3d 29 3b ee bd
       0.0790177 -0.014027696 0.12023713 -0.11632378
000390 18 98 7f bc 8d f2 ca 3e d2 67 92 be b9 9c c6 be
       -0.015600227 0.39638177 -0.28594834 -0.38791445
0003a0 8e 7b 80 3d 1b 10 8e bd 8c 2f 84 3e 8d 45 75 3e
       0.06273566 -0.069366656 0.25817525 0.23952313
0003b0 92 44 a0 be 11 1c 5f be d3 a7 8c 3d ec b2 8b 3d
       -0.31302315 -0.2178805 0.068679474 0.06821236
0003c0 c7 5a 55 bb ac a7 c7 bc 7d ed 28 be 69 16 84 3d
       -0.0032555328 -0.024371944 -0.16496845 0.06449587
0003d0 d7 94 6a be 88 7f 9a bc ec 27 d8 3b 9b ee 89 bd
       -0.2290834 -0.01885964 0.006596556 -0.067349635
0003e0 43 8c 2e 3e 5c 68 82 be a4 45 99 be 2f f7 18 be
       0.17045693 -0.25470245 -0.29935944 -0.14938043
0003f0 03 06 14 3e 20 07 38 be ae 69 a4 bd 7e d0 18 be
       0.14455418 -0.17971468 -0.08027969 -0.14923283

network_body._body_endoder.seq_layers.0.bias f4 [256]
000000 00 00 00 00 00 00 00 00 00 00 00 00 00 00 00 00
       0.0 0.0 0.0 0.0
000010 00 00 00 00 00 00 00 00 00 00 00 00 00 00 00 00
       0.0 0.0 0.0 0.0
000020 00 00 00 00 00 00 00 00 00 00 00 00 00 00 00 00
       0.0 0.0 0.0 0.0
000030 00 00 00 00 00 00 00 00 00 00 00 00 00 00 00 00
       0.0 0.0 0.0 0.0
000040 00 00 00 00 00 00 00 00 00 00 00 00 00 00 00 00
       0.0 0.0 0.0 0.0
000050 00 00 00 00 00 00 00 00 00 00 00 00 00 00 00 00
       0.0 0.0 0.0 0.0
000060 00 00 00 00 00 00 00 00 00 00 00 00 00 00 00 00
       0.0 0.0 0.0 0.0
000070 00 00 00 00 00 00 00 00 00 00 00 00 00 00 00 00
       0.0 0.0 0.0 0.0
000080 00 00 00 00 00 00 00 00 00 00 00 00 00 00 00 00
       0.0 0.0 0.0 0.0
000090 00 00 00 00 00 00 00 00 00 00 00 00 00 00 00 00
       0.0 0.0 0.0 0.0
0000a0 00 00 00 00 00 00 00 00 00 00 00 00 00 00 00 00
       0.0 0.0 0.0 0.0
0000b0 00 00 00 00 00 00 00 00 00 00 00 00 00 00 00 00
       0.0 0.0 0.0 0.0
0000c0 00 00 00 00 00 00 00 00 00 00 00 00 00 00 00 00
       0.0 0.0 0.0 0.0
0000d0 00 00 00 00 00 00 00 00 00 00 00 00 00 00 00 00
       0.0 0.0 0.0 0.0
0000e0 00 00 00 00 00 00 00 00 00 00 00 00 00 00 00 00
       0.0 0.0 0.0 0.0
0000f0 00 00 00 00 00 00 00 00 00 00 00 00 00 00 00 00
       0.0 0.0 0.0 0.0
000100 00 00 00 00 00 00 00 00 00 00 00 00 00 00 00 00
       0.0 0.0 0.0 0.0
000110 00 00 00 00 00 00 00 00 00 00 00 00 00 00 00 00
       0.0 0.0 0.0 0.0
000120 00 00 00 00 00 00 00 00 00 00 00 00 00 00 00 00
       0.0 0.0 0.0 0.0
000130 00 00 00 00 00 00 00 00 00 00 00 00 00 00 00 00
       0.0 0.0 0.0 0.0
000140 00 00 00 00 00 00 00 00 00 00 00 00 00 00 00 00
       0.0 0.0 0.0 0.0
000150 00 00 00 00 00 00 00 00 00 00 00 00 00 00 00 00
       0.0 0.0 0.0 0.0
000160 00 00 00 00 00 00 00 00 00 00 00 00 00 00 00 00
       0.0 0.0 0.0 0.0
000170 00 00 00 00 00 00 00 00 00 00 00 00 00 00 00 00
       0.0 0.0 0.0 0.0
000180 00 00 00 00 00 00 00 00 00 00 00 00 00 00 00 00
       0.0 0.0 0.0 0.0
000190 00 00 00 00 00 00 00 00 00 00 00 00 00 00 00 00
       0.0 0.0 0.0 0.0
0001a0 00 00 00 00 00 00 00 00 00 00 00 00 00 00 00 00
       0.0 0.0 0.0 0.0
0001b0 00 00 00 00 00 00 00 00 00 00 00 00 00 00 00 00
       0.0 0.0 0.0 0.0
0001c0 00 00 00 00 00 00 00 00 00 00 00 00 00 00 00 00
       0.0 0.0 0.0 0.0
0001d0 00 00 00 00 00 00 00 00 00 00 00 00 00 00 00 00
       0.0 0.0 0.0 0.0
0001e0 00 00 00 00 00 00 00 00 00 00 00 00 00 00 00 00
       0.0 0.0 0.0 0.0
0001f0 00 00 00 00 00 00 00 00 00 00 00 00 00 00 00 00
       0.0 0.0 0.0 0.0
000200 00 00 00 00 00 00 00 00 00 00 00 00 00 00 00 00
       0.0 0.0 0.0 0.0
000210 00 00 00 00 00 00 00 00 00 00 00 00 00 00 00 00
       0.0 0.0 0.0 0.0
000220 00 00 00 00 00 00 00 00 00 00 00 00 00 00 00 00
       0.0 0.0 0.0 0.0
000230 00 00 00 00 00 00 00 00 00 00 00 00 00 00 00 00
       0.0 0.0 0.0 0.0
000240 00 00 00 00 00 00 00 00 00 00 00 00 00 00 00 00
       0.0 0.0 0.0 0.0
000250 00 00 00 00 00 00 00 00 00 00 00 00 00 00 00 00
       0.0 0.0 0.0 0.0
000260 00 00 00 00 00 00 00 00 00 00 00 00 00 00 00 00
       0.0 0.0 0.0 0.0
000270 00 00 00 00 00 00 00 00 00 00 00 00 00 00 00 00
       0.0 0.0 0.0 0.0
000280 00 00 00 00 00 00 00 00 00 00 00 00 00 00 00 00
       0.0 0.0 0.0 0.0
000290 00 00 00 00 00 00 00 00 00 00 00 00 00 00 00 00
       0.0 0.0 0.0 0.0
0002a0 00 00 00 00 00 00 00 00 00 00 00 00 00 00 00 00
       0.0 0.0 0.0 0.0
0002b0 00 00 00 00 00 00 00 00 00 00 00 00 00 00 00 00
       0.0 0.0 0.0 0.0
0002c0 00 00 00 00 00 00 00 00 00 00 00 00 00 00 00 00
       0.0 0.0 0.0 0.0
0002d0 00 00 00 00 00 00 00 00 00 00 00 00 00 00 00 00
       0.0 0.0 0.0 0.0
0002e0 00 00 00 00 00 00 00 00 00 00 00 00 00 00 00 00
       0.0 0.0 0.0 0.0
0002f0 00 00 00 00 00 00 00 00 00 00 00 00 00 00 00 00
       0.0 0.0 0.0 0.0
000300 00 00 00 00 00 00 00 00 00 00 00 00 00 00 00 00
       0.0 0.0 0.0 0.0
000310 00 00 00 00 00 00 00 00 00 00 00 00 00 00 00 00
       0.0 0.0 0.0 0.0
000320 00 00 00 00 00 00 00 00 00 00 00 00 00 00 00 00
       0.0 0.0 0.0 0.0
000330 00 00 00 00 00 00 00 00 00 00 00 00 00 00 00 00
       0.0 0.0 0.0 0.0
000340 00 00 00 00 00 00 00 00 00 00 00 00 00 00 00 00
       0.0 0.0 0.0 0.0
000350 00 00 00 00 00 00 00 00 00 00 00 00 00 00 00 00
       0.0 0.0 0.0 0.0
000360 00 00 00 00 00 00 00 00 00 00 00 00 00 00 00 00
       0.0 0.0 0.0 0.0
000370 00 00 00 00 00 00 00 00 00 00 00 00 00 00 00 00
       0.0 0.0 0.0 0.0
000380 00 00 00 00 00 00 00 00 00 00 00 00 00 00 00 00
       0.0 0.0 0.0 0.0
000390 00 00 00 00 00 00 00 00 00 00 00 00 00 00 00 00
       0.0 0.0 0.0 0.0
0003a0 00 00 00 00 00 00 00 00 00 00 00 00 00 00 00 00
       0.0 0.0 0.0 0.0
0003b0 00 00 00 00 00 00 00 00 00 00 00 00 00 00 00 00
       0.0 0.0 0.0 0.0
0003c0 00 00 00 00 00 00 00 00 00 00 00 00 00 00 00 00
       0.0 0.0 0.0 0.0
0003d0 00 00 00 00 00 00 00 00 00 00 00 00 00 00 00 00
       0.0 0.0 0.0 0.0
0003e0 00 00 00 00 00 00 00 00 00 00 00 00 00 00 00 00
       0.0 0.0 0.0 0.0
0003f0 00 00 00 00 00 00 00 00 00 00 00 00 00 00 00 00
       0.0 0.0 0.0 0.0

network_body._body_endoder.seq_layers.2.weight f4 [256, 256]
000000 ce cc 3b bd e7 36 1e 3d 10 48 28 3d ea 3f c8 bb
       -0.045849614 0.038626578 0.04108435 -0.006111135
000010 fd 0a 52 3d f6 1b a0 bd ec 5a 57 3c e9 9d a3 bc
       0.05128001 -0.07817833 0.013144236 -0.019972758
000020 6d f5 a8 bc 46 82 72 3d 37 e6 0c 3e e2 f0 4f bd
       -0.02062484 0.05920627 0.13759695 -0.050766833
000030 7d 38 50 bd 1d 38 6f 39 9c 36 81 bc 6b 44 2a 3e
       -0.05083512 0.0002281372 -0.01577311 0.16627662
000040 f9 4a 11 3e 75 0f 8a bd ee 1d 97 3c 7f a3 06 bd
       0.14188756 -0.067412294 0.018446889 -0.032870766
000050 ef fd b4 3c f9 d8 8c bc 32 63 38 3d 1d 9b e4 3c
       0.022093741 -0.017193304 0.045016475 0.027905995
000060 ed a0 f0 3c 5e 93 3d be ad 7c 30 bd 2e a1 ad 3c
       0.02937361 -0.18513247 -0.04308765 0.02119502
000070 33 ed 52 3d c5 d5 ae 3d af ea cc bd 15 83 96 3c
       0.051495742 0.08536867 -0.100057 0.018373052
000080 b3 52 8b 3d cc 5c 81 bc a5 b5 9a bc ea b1 c8 bc
       0.06802883 -0.01579132 -0.018885443 -0.024498899
000090 f9 a1 9b 3b 0a c4 f5 bb 35 25 0d bb 95 64 80 3d
       0.0047495333 -0.0075001763 -0.002153707 0.062691845
0000a0 55 2a 04 bc a5 99 7c bc 98 5e 5c bd 23 34 d9 3b
       -0.008066733 -0.015417491 -0.05380115 0.0066285296
0000b0 cc 79 cf 3d 88 16 40 bd c2 e7 4a 3c 5f 79 0d 3d
       0.10130653 -0.046896487 0.012384357 0.034539577
0000c0 c8 9c 28 3d 39 0f 9f 3d b2 63 26 3c 3e 87 60 3d
       0.041165143 0.07766575 0.010155605 0.054816477
0000d0 bf 11 e3 bc ac fb a6 bd df a8 d7 3b 7a da 42 bd
       -0.027718423 -0.08153471 0.0065814103 -0.047571637
0000e0 6c 08 0a bd 57 55 a7 3d fd d9 34 3d d3 58 59 bd
       -0.033699438 0.08170574 0.044153202 -0.053063225
0000f0 fc bf cb bd 59 00 0d bd 50 9e e3 3c 68 1d 29 bd
       -0.099487275 -0.03442416 0.02778545 -0.04128781
000100 a3 f2 b6 bd 8d 5c 74 3d 9a 15 72 bc ac 54 7b 3d
       -0.08932998 0.059658576 -0.014775658 0.061360046
000110 3d 61 4e bc 00 05 77 3d 97 50 a4 bd a9 59 4d bc
       -0.012596426 0.060307503 -0.08023184 -0.012533584
000120 76 73 1f 3d cb ce b1 3c 8a 47 5d 3d a4 7a 31 bd
       0.03892847 0.021705052 0.054023303 -0.04332985
000130 e7 05 96 3d 7a b1 84 3b 60 1b a7 3d 10 f6 92 3d
       0.073253445 0.004049477 0.08159518 0.07175839
000140 35 ff 3d bd 09 9f 08 bb 6b 72 61 bc a2 01 b8 bd
       -0.046385963 -0.0020846745 -0.0137601895 -0.089846864
000150 2e bd 83 3d d6 f0 cb 3d 3e d3 91 bd 07 fa 48 3c
       0.064325675 0.09958045 -0.071203694 0.012266642
000160 4b 35 7f 3c 4f f4 8f 3d 69 cc 46 3d 7d 62 cc bd
       0.015576671 0.0702902 0.048534784 -0.09979723
000170 3c 99 2e 3c 68 17 20 3d f5 ea 0c 3b 74 99 98 3d
       0.010656651 0.039084822 0.002150235 0.07451144
000180 16 72 98 bd 6b c9 99 bc 72 25 a6 bd 8a b1 15 3d
       -0.07443635 -0.018772801 -0.08112611 0.036546268
000190 c6 4d 47 bd b3 9a 69 3c 3b 62 e2 3d f0 5a 01 3e
       -0.048658155 0.014258075 0.11053892 0.12632346
0001a0 77 c7 c9 bc 27 4d c7 3d 77 d7 51 bd 0a 7e 91 3d
       -0.024631245 0.097315125 -0.051230874 0.07104118
0001b0 62 89 67 bd 82 5a eb 3c 0c 1f 48 3d a7 a0 80 3d
       -0.056527503 0.02872968 0.048857734 0.06280642
0001c0 b4 73 6a 3d a9 1f fc 3c c7 c9 a3 bc 55 58 a6 3d
       0.05723925 0.030776815 -0.019993676 0.08122317
0001d0 bf 6f 57 bb 4c 81 53 bc 4e 33 05 3d a5 fa 76 ba
       -0.0032873002 -0.012909245 0.03251963 -0.0009421504
0001e0 17 03 ab bd c1 60 d2 3d 8d ed c9 3d 13 9f 59 bc
       -0.08350199 0.102723606 0.09859762 -0.013282555
0001f0 95 39 f6 bd e8 88 fe 3d 9a b4 96 bb 84 98 43 3d
       -0.12022702 0.124284565 -0.004599166 0.047752872
000200 35 7a 32 3d c4 64 2c bd d1 71 8e 3d 2a 97 99 3d
       0.043573577 -0.042088285 0.069553025 0.074995354
000210 3f df 6c bd 00 fa e6 3b 6a a4 e2 3c ad f4 b2 bd
       -0.05783009 0.0070488453 0.02766629 -0.087380745
000220 67 50 a7 bd 1e fd 87 3d fd f3 f1 3b 53 1f c6 bc
       -0.081696324 0.06640075 0.007383822 -0.024184858
000230 c4 50 67 3d 7e 30 98 3d 99 f6 83 3d d0 e6 b0 3d
       0.05647351 0.07431124 0.06443519 0.08637774
000240 65 d7 81 bd 71 e1 0e bc a9 3f a9 bd f3 f1 48 bc
       -0.06339911 -0.008720742 -0.08264095 -0.012264716
000250 d2 3d 95 3c 5f b9 45 bd 0b 4f 04 3d 56 3f 58 3d
       0.018217955 -0.048272487 0.032301944 0.052794777
000260 31 bd 77 3d b1 99 d4 3d 16 b6 bd 3d 60 90 61 bd
       0.06048316 0.10380877 0.09263246 -0.055069327
000270 dd d4 5d bd e2 2b 13 3d 31 09 ef 3d 02 72 2f 3d
       -0.05415808 0.03593052 0.11671675 0.042833336
000280 bd af bf bc b5 ec 06 bb 79 fa a2 bb f6 4c 44 bd
       -0.023399228 -0.0020587866 -0.0049737063 -0.04792496
000290 23 79 df bc 3f 85 8d bd bc ce 7b bc 3e a0 12 bc
       -0.027279442 -0.0691018 -0.015369114 -0.0089493375
0002a0 5e d2 e2 3d 36 41 fa 3c ba 26 17 3d f7 06 ed 3b
       0.110752806 0.030548673 0.036902167 0.0072334963
0002b0 f3 10 ea bc 91 97 8e 3d 29 5a 71 3d 67 cf ea bc
       -0.028572535 0.06962503 0.058923874 -0.02866335
0002c0 e0 96 a3 bc 6b 71 c5 bc 98 b0 c7 3c 72 93 0a 3d
       -0.019969404 -0.024101933 0.024376199 0.03383202
0002d0 5e 72 53 3d 1f 53 8a 3d dc f0 17 3d f5 92 63 bd
       0.05162274 0.06754135 0.037094936 -0.05556007
0002e0 ed 8e 96 bd 0e ce 91 bc 0f 5a 92 3d 74 86 22 3c
       -0.0735148 -0.01779845 0.071460836 0.009919751
0002f0 08 50 d7 bd 56 e6 b7 3d 91 0d ca 3d 95 cc fa bd
       -0.105133116 0.0897948 0.09865869 -0.12246052
000300 8b cd 38 bb d9 c7 aa bc 4f 57 28 3d 9a e9 82 3d
       -0.0028198685 -0.020847248 0.04109889 0.06392212
000310 b6 42 aa 3c 68 46 d3 bc b5 13 f4 bc e8 70 81 3d
       0.020783763 -0.025790408 -0.029794553 0.06320363
000320 46 af 8d bd fc 87 cf bd ad 05 83 3c 86 0a 35 3b
       -0.069181964 -0.10133359 0.015993917 0.002762468
000330 ad be 83 bd 3f 66 bf 3d 16 1b 17 3c 26 a4 44 3d
       -0.06432853 0.09345674 0.009222766 0.048008107
000340 a1 d1 6e 3c 97 3a 86 3d 94 dd 73 bd 44 33 6a 3d
       0.014576347 0.06554144 -0.059537485 0.057177797
000350 cc b2 b8 bc 0d d6 3c 3d 4d 0c e5 bc 4b 97 13 bd
       -0.022546194 0.046102572 -0.027959967 -0.036032956
000360 8e 34 67 3d 51 5c 6d 3d 2e 3f ba bd 8a d3 10 be
       0.056446604 0.057949368 -0.09094082 -0.14143196
000370 69 8f 0d 3d 7d 0b 35 3d c8 9b be 3c b1 52 a4 bd
       0.034560595 0.04420041 0.023267642 -0.08023585
000380 5f 30 42 3d 41 fe c0 3d 70 bf 38 3d d0 67 03 3c
       0.04740941 0.09423495 0.045104444 0.008020356
000390 3f 48 46 3d b7 d5 9b 3d b6 fe 27 bd 46 21 eb 3c
       0.048408743 0.07609122 -0.041014396 0.02870239
0003a0 a5 6d 99 bc 37 6e 73 bc 7a 9f e6 bc ce 5e 92 bd
       -0.01872904 -0.01485782 -0.028152216 -0.07146989
0003b0 f3 0f 80 3c cd 3c 7a bb b5 96 d0 bb 67 ef b5 3b
       0.015632605 -0.0038183213 -0.006365622 0.0055522206
0003c0 c9 b3 3f bd a3 c2 aa 3c 68 e7 e3 bc 68 0c ab bd
       -0.046802316 0.020844763 -0.027820304 -0.08351976
0003d0 ce 6d 05 be aa 95 9b bc fd 5d e1 3c a0 61 9f bd
       -0.13030168 -0.018992264 0.027510637 -0.07782292
0003e0 a3 6f 7f 3c a5 0b 44 3d 82 21 6b bc 59 56 29 3d
       0.015590581 0.047862668 -0.014351251 0.041342113
0003f0 2a 10 bf 3d 4b fe da 3c a0 5e 49 3d 81 59 87 bd
       0.09329255 0.026732584 0.049162507 -0.066088684

network_body._body_endoder.seq_layers.2.bias f4 [256]
000000 00 00 00 00 00 00 00 00 00 00 00 00 00 00 00 00
       0.0 0.0 0.0 0.0
000010 00 00 00 00 00 00 00 00 00 00 00 00 00 00 00 00
       0.0 0.0 0.0 0.0
000020 00 00 00 00 00 00 00 00 00 00 00 00 00 00 00 00
       0.0 0.0 0.0 0.0
000030 00 00 00 00 00 00 00 00 00 00 00 00 00 00 00 00
       0.0 0.0 0.0 0.0
000040 00 00 00 00 00 00 00 00 00 00 00 00 00 00 00 00
       0.0 0.0 0.0 0.0
000050 00 00 00 00 00 00 00 00 00 00 00 00 00 00 00 00
       0.0 0.0 0.0 0.0
000060 00 00 00 00 00 00 00 00 00 00 00 00 00 00 00 00
       0.0 0.0 0.0 0.0
000070 00 00 00 00 00 00 00 00 00 00 00 00 00 00 00 00
       0.0 0.0 0.0 0.0
000080 00 00 00 00 00 00 00 00 00 00 00 00 00 00 00 00
       0.0 0.0 0.0 0.0
000090 00 00 00 00 00 00 00 00 00 00 00 00 00 00 00 00
       0.0 0.0 0.0 0.0
0000a0 00 00 00 00 00 00 00 00 00 00 00 00 00 00 00 00
       0.0 0.0 0.0 0.0
0000b0 00 00 00 00 00 00 00 00 00 00 00 00 00 00 00 00
       0.0 0.0 0.0 0.0
0000c0 00 00 00 00 00 00 00 00 00 00 00 00 00 00 00 00
       0.0 0.0 0.0 0.0
0000d0 00 00 00 00 00 00 00 00 00 00 00 00 00 00 00 00
       0.0 0.0 0.0 0.0
0000e0 00 00 00 00 00 00 00 00 00 00 00 00 00 00 00 00
       0.0 0.0 0.0 0.0
0000f0 00 00 00 00 00 00 00 00 00 00 00 00 00 00 00 00
       0.0 0.0 0.0 0.0
000100 00 00 00 00 00 00 00 00 00 00 00 00 00 00 00 00
       0.0 0.0 0.0 0.0
000110 00 00 00 00 00 00 00 00 00 00 00 00 00 00 00 00
       0.0 0.0 0.0 0.0
000120 00 00 00 00 00 00 00 00 00 00 00 00 00 00 00 00
       0.0 0.0 0.0 0.0
000130 00 00 00 00 00 00 00 00 00 00 00 00 00 00 00 00
       0.0 0.0 0.0 0.0
000140 00 00 00 00 00 00 00 00 00 00 00 00 00 00 00 00
       0.0 0.0 0.0 0.0
000150 00 00 00 00 00 00 00 00 00 00 00 00 00 00 00 00
       0.0 0.0 0.0 0.0
000160 00 00 00 00 00 00 00 00 00 00 00 00 00 00 00 00
       0.0 0.0 0.0 0.0
000170 00 00 00 00 00 00 00 00 00 00 00 00 00 00 00 00
       0.0 0.0 0.0 0.0
000180 00 00 00 00 00 00 00 00 00 00 00 00 00 00 00 00
       0.0 0.0 0.0 0.0
000190 00 00 00 00 00 00 00 00 00 00 00 00 00 00 00 00
       0.0 0.0 0.0 0.0
0001a0 00 00 00 00 00 00 00 00 00 00 00 00 00 00 00 00
       0.0 0.0 0.0 0.0
0001b0 00 00 00 00 00 00 00 00 00 00 00 00 00 00 00 00
       0.0 0.0 0.0 0.0
0001c0 00 00 00 00 00 00 00 00 00 00 00 00 00 00 00 00
       0.0 0.0 0.0 0.0
0001d0 00 00 00 00 00 00 00 00 00 00 00 00 00 00 00 00
       0.0 0.0 0.0 0.0
0001e0 00 00 00 00 00 00 00 00 00 00 00 00 00 00 00 00
       0.0 0.0 0.0 0.0
0001f0 00 00 00 00 00 00 00 00 00 00 00 00 00 00 00 00
       0.0 0.0 0.0 0.0
000200 00 00 00 00 00 00 00 00 00 00 00 00 00 00 00 00
       0.0 0.0 0.0 0.0
000210 00 00 00 00 00 00 00 00 00 00 00 00 00 00 00 00
       0.0 0.0 0.0 0.0
000220 00 00 00 00 00 00 00 00 00 00 00 00 00 00 00 00
       0.0 0.0 0.0 0.0
000230 00 00 00 00 00 00 00 00 00 00 00 00 00 00 00 00
       0.0 0.0 0.0 0.0
000240 00 00 00 00 00 00 00 00 00 00 00 00 00 00 00 00
       0.0 0.0 0.0 0.0
000250 00 00 00 00 00 00 00 00 00 00 00 00 00 00 00 00
       0.0 0.0 0.0 0.0
000260 00 00 00 00 00 00 00 00 00 00 00 00 00 00 00 00
       0.0 0.0 0.0 0.0
000270 00 00 00 00 00 00 00 00 00 00 00 00 00 00 00 00
       0.0 0.0 0.0 0.0
000280 00 00 00 00 00 00 00 00 00 00 00 00 00 00 00 00
       0.0 0.0 0.0 0.0
000290 00 00 00 00 00 00 00 00 00 00 00 00 00 00 00 00
       0.0 0.0 0.0 0.0
0002a0 00 00 00 00 00 00 00 00 00 00 00 00 00 00 00 00
       0.0 0.0 0.0 0.0
0002b0 00 00 00 00 00 00 00 00 00 00 00 00 00 00 00 00
       0.0 0.0 0.0 0.0
0002c0 00 00 00 00 00 00 00 00 00 00 00 00 00 00 00 00
       0.0 0.0 0.0 0.0
0002d0 00 00 00 00 00 00 00 00 00 00 00 00 00 00 00 00
       0.0 0.0 0.0 0.0
0002e0 00 00 00 00 00 00 00 00 00 00 00 00 00 00 00 00
       0.0 0.0 0.0 0.0
0002f0 00 00 00 00 00 00 00 00 00 00 00 00 00 00 00 00
       0.0 0.0 0.0 0.0
000300 00 00 00 00 00 00 00 00 00 00 00 00 00 00 00 00
       0.0 0.0 0.0 0.0
000310 00 00 00 00 00 00 00 00 00 00 00 00 00 00 00 00
       0.0 0.0 0.0 0.0
000320 00 00 00 00 00 00 00 00 00 00 00 00 00 00 00 00
       0.0 0.0 0.0 0.0
000330 00 00 00 00 00 00 00 00 00 00 00 00 00 00 00 00
       0.0 0.0 0.0 0.0
000340 00 00 00 00 00 00 00 00 00 00 00 00 00 00 00 00
       0.0 0.0 0.0 0.0
000350 00 00 00 00 00 00 00 00 00 00 00 00 00 00 00 00
       0.0 0.0 0.0 0.0
000360 00 00 00 00 00 00 00 00 00 00 00 00 00 00 00 00
       0.0 0.0 0.0 0.0
000370 00 00 00 00 00 00 00 00 00 00 00 00 00 00 00 00
       0.0 0.0 0.0 0.0
000380 00 00 00 00 00 00 00 00 00 00 00 00 00 00 00 00
       0.0 0.0 0.0 0.0
000390 00 00 00 00 00 00 00 00 00 00 00 00 00 00 00 00
       0.0 0.0 0.0 0.0
0003a0 00 00 00 00 00 00 00 00 00 00 00 00 00 00 00 00
       0.0 0.0 0.0 0.0
0003b0 00 00 00 00 00 00 00 00 00 00 00 00 00 00 00 00
       0.0 0.0 0.0 0.0
0003c0 00 00 00 00 00 00 00 00 00 00 00 00 00 00 00 00
       0.0 0.0 0.0 0.0
0003d0 00 00 00 00 00 00 00 00 00 00 00 00 00 00 00 00
       0.0 0.0 0.0 0.0
0003e0 00 00 00 00 00 00 00 00 00 00 00 00 00 00 00 00
       0.0 0.0 0.0 0.0
0003f0 00 00 00 00 00 00 00 00 00 00 00 00 00 00 00 00
       0.0 0.0 0.0 0.0

action_model._continuous_distribution.log_sigma f4 [1, 2]
000000 00 00 00 00 00 00 00 00
       0.0 0.0

action_model._continuous_distribution.mu.weight f4 [2, 256]
000000 ae 8b c9 bc d6 bf 8a bb 1d 05 90 bc 18 50 6b bc
       -0.024602737 -0.0042342944 -0.017580563 -0.014362358
000010 52 9f d4 3a cf 56 82 bb 0b 54 b3 bb 13 11 a7 bc
       0.0016221798 -0.0039776335 -0.005472665 -0.020393884
000020 91 72 8d bc 36 33 06 3c 93 94 7c bb cb f1 00 3d
       -0.017266544 0.008190921 -0.0038540706 0.03148059
000030 29 cc b0 bb 02 c7 1c bc 13 a9 6d 3a 57 5b 66 bc
       -0.0053954315 -0.009568932 0.00090660265 -0.014059863
000040 c0 99 5d bc 41 6c 14 bc 28 71 e1 bb f7 2f 8c bb
       -0.013525426 -0.009059013 -0.0068799444 -0.004278179
000050 55 4e f6 39 58 e4 0c bc 64 14 36 3c 35 8d 35 3b
       0.00046979138 -0.008599363 0.01111326 0.0027702574
000060 0b 33 80 bc 47 6e 81 3b 50 5c d0 3a be c9 c5 bb
       -0.01564934 0.0039499137 0.0015896652 -0.0060360124
000070 45 f4 ed 3a 4d 64 04 3c e6 9b b3 bc ff a5 81 3c
       0.0018154463 0.008080554 -0.021924924 0.015826223
000080 5b 1c 09 bb d2 19 dd 3b 6b d1 8a 3b cd 09 7c 3b
       -0.0020921442 0.006747463 0.0042363903 0.003845799
000090 47 c4 c7 bc 82 84 c3 bc fb ba 04 3c 6f 3e e6 bb
       -0.024385585 -0.023866896 0.00810122 -0.0070264856
0000a0 19 1f 40 bb 03 1a 06 bb 02 27 1d bc 10 ee a2 3c
       -0.002931541 -0.0020462282 -0.00959182 0.019888908
0000b0 f7 54 ee bb c5 21 b7 bc b7 0a 8c 3c 88 cc b2 bc
       -0.007273312 -0.02235497 0.017094953 -0.021826044
0000c0 a1 0d b0 3b 81 45 b8 3c a9 cd 45 bc f6 37 9b bc
       0.0053727184 0.02249408 -0.012072959 -0.018947583
0000d0 e7 a5 54 3c 55 e2 95 39 ee 9b ba 3b 97 e9 cc 39
       0.012979007 0.00028588125 0.005694858 0.0003908395
0000e0 55 d2 13 bc 2d da f5 ba 8d d2 39 bb 24 39 81 bb
       -0.009022315 -0.0018757038 -0.0028354258 -0.0039435793
0000f0 54 38 44 bc 4b 46 29 bc cd 99 fd b9 a5 cd a0 3c
       -0.01197632 -0.010331701 -0.0004837051 0.019629309
000100 b7 39 b8 3b ce 08 9c 3c 95 a1 b6 3b e3 3e 84 bc
       0.0056221145 0.019047167 0.0055734613 -0.016143268
000110 4a 86 5e bc e7 0c 5f 3c 1b 00 ce bc d2 30 f6 3c
       -0.013581822 0.013613916 -0.025146535 0.030052576
000120 7f 7c 20 bc ef 97 02 3a c5 d6 8b 3b 2f fd 12 3c
       -0.009795307 0.00049817463 0.004267546 0.0089714965
000130 d3 3c 2b bb a3 d5 a9 ba 37 f4 13 3c f2 f9 a9 3c
       -0.0026128783 -0.0012957345 0.009030393 0.020749066
000140 f0 4d 59 3c 0c ee a6 3b 3a 07 8f 3a e3 d2 5c bc
       0.013263211 0.0050942954 0.0010912188 -0.013478014
000150 32 64 e7 3b 0b 63 cb 3b 00 a6 54 3c ec 99 83 3c
       0.0070615048 0.006206875 0.012979031 0.016064607
000160 4d 12 81 3c 76 9a 25 3c 03 2b 22 3c dd 1b da bb
       0.015755797 0.010107627 0.00989795 -0.0066561536
000170 dd 52 ea bc 42 32 0a bc 23 57 71 bc c0 43 f3 3b
       -0.028603965 -0.008434834 -0.014730248 0.007423848
000180 6b c2 10 bb db 5f 85 3b d0 df 24 bc 7b f5 a9 bc
       -0.0022088538 0.0040702648 -0.010063127 -0.020746937
000190 63 5e bb bc 0d d5 f7 3b 13 fe 89 3c 45 5f cd 3c
       -0.022872156 0.0075632394 0.016844785 0.025069842
0001a0 57 0c 83 bc f9 ff 03 3c 65 da 90 3b 7f 34 e6 bb
       -0.015997095 0.008056634 0.004420566 -0.007025301
0001b0 98 5b 03 3c 3d 4e f1 bb fe 3e 80 3c e9 ef 9d bc
       0.008017443 -0.007364063 0.015655037 -0.019279437
0001c0 db 55 89 bb 73 a7 33 3c ad a8 58 bb 37 e1 39 3c
       -0.004191143 0.010965216 -0.0033059523 0.011345199
0001d0 0d 15 f1 bb f2 5c a3 3b f4 70 8b 3c 43 cf 99 3c
       -0.007357246 0.004985445 0.017021634 0.018775588
0001e0 48 2e f0 3b f0 c0 7b 3c 13 c3 a5 bc ca 50 00 bb
       0.007329736 0.015365824 -0.02023462 -0.0019579404
0001f0 02 4d de 3b 78 4b 95 3c 42 66 70 b9 e8 1a a7 bc
       0.0067840824 0.018224463 -0.00022926278 -0.020398572
000200 43 71 8c bb 88 b6 bf bb da de ad 3b cf ae 6d bc
       -0.004285963 -0.005850617 0.005306107 -0.01450701
000210 58 64 89 bc c5 a8 27 3c e4 03 0d 3b d2 9d 83 bb
       -0.01677148 0.010233109 0.0021517212 -0.0040166164
000220 10 b5 a1 3b 4c 1b 3d 3c 38 16 65 3b bd 6b 79 3b
       0.0049349144 0.011542153 0.003495587 0.0038058602
000230 5b 00 f5 3a 17 84 18 3c 3b 1b fd 3b b7 b7 dc 3c
       0.0018692123 0.009308836 0.0077241934 0.02694307
000240 8b 0a 14 bc 07 db f2 b9 3b 00 1e bc 02 15 f4 3b
       -0.009035717 -0.00046321025 -0.00964361 0.0074487934
000250 06 66 19 3c 17 73 0f 3c 43 f4 a2 3c 3b 2a 1c 3c
       0.009362703 0.008755467 0.019891864 0.009531553
000260 5b 0a 07 bc db 75 04 3c 07 e9 92 bc c2 30 7e bc
       -0.008242215 0.00808474 -0.017933382 -0.015514554
000270 a8 e5 56 ba 05 84 98 bb e7 26 3e b8 43 03 86 3a
       -0.00081976736 -0.00465441 -4.533576e-05 0.0010224361
000280 16 35 81 bc 0f 13 92 3c c7 d6 fc 3b 13 16 9a ba
       -0.015772384 0.017831353 0.007716033 -0.0011755846
000290 ef 10 3d 3c b3 d4 8b ba db 4e 35 bb b6 59 b1 3c
       0.011539682 -0.0010668248 -0.002766541 0.021649223
0002a0 89 6b 33 3c 0f 56 71 3b 0b e4 1e bc 82 42 0f 3c
       0.010950931 0.0036824977 -0.009697924 0.008743884
0002b0 09 ae 3c bc 10 f5 c8 3c 28 93 a3 bc 1e 58 29 bc
       -0.011516103 0.024530917 -0.01996763 -0.01033595
0002c0 07 8f bd 3b ef fc 00 3a f5 0e 55 3c a7 9b 2c 3c
       0.0057848725 0.00049205025 0.013004054 0.010535157
0002d0 1f 4b 61 bc e3 9a 1c 3b d7 a1 51 3a f3 b0 05 bc
       -0.01375082 0.002389603 0.00079968333 -0.008159864
0002e0 4a 7d 05 3c 85 a9 7e ba ef 1e 1b 3b 13 12 c8 bc
       0.008147547 -0.00097145914 0.002366956 -0.024422681
0002f0 78 a5 38 3c cf f3 8e 3c 30 2e 3f bc 6b c2 2f 3b
       0.01126992 0.017450241 -0.011668727 0.0026818763
000300 80 25 09 3c 80 bf f3 3b 69 90 c3 bb c1 8b 33 bc
       0.008370757 0.0074386 -0.0059681428 -0.010958613
000310 6a 05 f6 bb d0 f9 63 bc 09 72 b0 3a cb 75 d9 bb
       -0.0075079696 -0.01391454 0.001346172 -0.0066363565
000320 e5 4e 7f 3b 77 41 93 ba 0f d5 ca bb 00 18 2d bc
       0.0038956937 -0.001123472 -0.0061899493 -0.010564804
000330 87 19 99 3c 43 88 3f ba bb 14 ee bb 84 1c 0a 3b
       0.01868893 -0.00073063764 -0.007265655 0.0021074126
000340 75 61 d7 3b cc cf 2c 3c 3b c0 8d 3c b5 a4 de bb
       0.006572897 0.0105475895 0.017303577 -0.006794537
000350 e0 08 51 3b 62 30 f0 3b cb 5a 0e bb a3 ff 11 bc
       0.003189616 0.0073299864 -0.0021721597 -0.008911046
000360 1d 9f e2 bc 24 f6 80 ba 7f 26 1b bc d0 2a cc bb
       -0.027663762 -0.0009838981 -0.009469627 -0.0062306896
000370 8f 7b 06 3c 2a ea 00 3c 52 25 fe 3a 28 a3 69 bc
       0.00820817 0.007868329 0.0019389784 -0.014260091
000380 90 16 ca 3c 13 60 b5 bc 29 26 b5 3b 93 87 33 bc
       0.024668962 -0.022140538 0.0055282307 -0.010957616
000390 dd e8 6a bc 8f 67 a0 bb 12 bb 30 bc 6a 40 23 3b
       -0.0143377455 -0.0048951576 -0.010786789 0.002491022
0003a0 27 c8 60 3a 40 d7 7f bc d3 24 40 bb 64 7c 33 bc
       0.0008574747 -0.015615284 -0.0029318824 -0.01095495
0003b0 8b 95 5a 3b 0a d0 a8 3c b0 4b 93 bc 28 e6 7c 3b
       0.0033353295 0.020607013 -0.017980427 0.0038589332
0003c0 d5 2e 06 bc 90 a8 f3 3b d9 4c a9 3b 27 f7 0a bc
       -0.008189877 0.0074358657 0.0051666317 -0.008481777
0003d0 f3 1b cf 3b af 91 83 bb 13 8e df 3b 9a 71 83 3b
       0.0063204705 -0.0040151696 0.0068223565 0.004011345
0003e0 ef 4a 91 bc 03 57 9d ba 3e a8 0f bb f5 d8 5c bb
       -0.017735926 -0.0012004081 -0.0021920349 -0.0033698652
0003f0 05 de f8 3b 3f 65 24 3c e8 b7 b1 ba 92 d7 2d bb
       0.007594826 0.010033905 -0.0013558837 -0.0026526195

action_model._continuous_distribution.mu.bias f4 [2]
000000 00 00 00 00 00 00 00 00
       0.0 0.0

66 f4 [20]
000000 00 00 80 3f 00 00 80 3f 00 00 80 3f 00 00 80 3f
       1.0 1.0 1.0 1.0
000010 00 00 80 3f 00 00 80 3f 00 00 80 3f 00 00 80 3f
       1.0 1.0 1.0 1.0
000020 00 00 80 3f 00 00 80 3f 00 00 80 3f 00 00 80 3f
       1.0 1.0 1.0 1.0
000030 00 00 80 3f 00 00 80 3f 00 00 80 3f 00 00 80 3f
       1.0 1.0 1.0 1.0
000040 00 00 80 3f 00 00 80 3f 00 00 80 3f 00 00 80 3f
       1.0 1.0 1.0 1.0

69 f4 [12]
000000 00 00 80 3f 00 00 80 3f 00 00 80 3f 00 00 80 3f
       1.0 1.0 1.0 1.0
000010 00 00 80 3f 00 00 80 3f 00 00 80 3f 00 00 80 3f
       1.0 1.0 1.0 1.0
000020 00 00 80 3f 00 00 80 3f 00 00 80 3f 00 00 80 3f
       1.0 1.0 1.0 1.0

72 f4 [3]
000000 00 00 80 3f 00 00 80 3f 00 00 80 3f
       1.0 1.0 1.0
