results/firstry/KartAgent/checkpoint.pt (torch, 622315 bytes, 36 tensors)

network_body.observation_encoder.processors.0.normalizer.running_mean f4 [20]
00000000: 0000 0000 cbeb 7f3f 0000 0000 aa45 b93d
00000010: 0000 0000 cbeb 7f3f 0000 0000 a945 393e
00000020: cbeb 7f3f 0000 0000 0000 0000 39ec f63d
00000030: cbeb 7f3f 0000 0000 0000 0000 b661 853e
00000040: cbeb 7f3f 0000 0000 0000 0000 35ec f63d
0.0 0.99969167 0.0 0.090464905 0.0 0.99969167 0.0 0.1809298
0.99969167 0.0 0.0 0.12056775 0.99969167 0.0 0.0 0.2605111
0.99969167 0.0 0.0 0.12056772

network_body.observation_encoder.processors.0.normalizer.running_variance f4 [20]
00000000: 0000 803f aaf6 ff3f 0000 803f fe0b 813f
00000010: 0000 803f aaf6 ff3f 0000 803f a630 843f
00000020: aaf6 ff3f 0000 803f 0000 803f 1cdd 813f
00000030: aaf6 ff3f 0000 803f 0000 803f 40b1 883f
00000040: aaf6 ff3f 0000 803f 0000 803f 28dd 813f
1.0 1.9997151 1.0 1.0081785 1.0 1.9997151 1.0 1.0327346
1.9997151 1.0 1.0 1.0145602 1.9997151 1.0 1.0 1.0679092
1.9997151 1.0 1.0 1.0145617

network_body.observation_encoder.processors.1.normalizer.running_mean f4 [12]
00000000: 0000 0000 cbeb 7f3f 0000 0000 b337 943c
00000010: 0000 0000 cbeb 7f3f 0000 0000 f472 943c
00000020: 0000 0000 cbeb 7f3f 0000 0000 f572 943c
0.0 0.99969167 0.0 0.018092966 0.0 0.99969167 0.0 0.01812122
0.0 0.99969167 0.0 0.018121222

network_body.observation_encoder.processors.1.normalizer.running_variance f4 [12]
00000000: 0000 803f aaf6 ff3f 0000 803f b30a 803f
00000010: 0000 803f aaf6 ff3f 0000 803f bb0a 803f
00000020: 0000 803f aaf6 ff3f 0000 803f bb0a 803f
1.0 1.9997151 1.0 1.0003265 1.0 1.9997151 1.0 1.0003275
1.0 1.9997151 1.0 1.0003275

network_body.observation_encoder.processors.2.normalizer.running_mean f4 [3]
00000000: 0000 0000 0000 0000 0000 0000
0.0 0.0 0.0

network_body.observation_encoder.processors.2.normalizer.running_variance f4 [3]
00000000: 0000 803f 0000 803f 0000 803f
1.0 1.0 1.0

network_body.processors.0.normalizer.running_mean f4 [20]
00000000: 0000 0000 cbeb 7f3f 0000 0000 aa45 b93d
00000010: 0000 0000 cbeb 7f3f 0000 0000 a945 393e
00000020: cbeb 7f3f 0000 0000 0000 0000 39ec f63d
00000030: cbeb 7f3f 0000 0000 0000 0000 b661 853e
00000040: cbeb 7f3f 0000 0000 0000 0000 35ec f63d
0.0 0.99969167 0.0 0.090464905 0.0 0.99969167 0.0 0.1809298
0.99969167 0.0 0.0 0.12056775 0.99969167 0.0 0.0 0.2605111
0.99969167 0.0 0.0 0.12056772

network_body.processors.0.normalizer.running_variance f4 [20]
00000000: 0000 803f aaf6 ff3f 0000 803f fe0b 813f
00000010: 0000 803f aaf6 ff3f 0000 803f a630 843f
00000020: aaf6 ff3f 0000 803f 0000 803f 1cdd 813f
00000030: aaf6 ff3f 0000 803f 0000 803f 40b1 883f
00000040: aaf6 ff3f 0000 803f 0000 803f 28dd 813f
1.0 1.9997151 1.0 1.0081785 1.0 1.9997151 1.0 1.0327346
1.9997151 1.0 1.0 1.0145602 1.9997151 1.0 1.0 1.0679092
1.9997151 1.0 1.0 1.0145617

network_body.processors.1.normalizer.running_mean f4 [12]
00000000: 0000 0000 cbeb 7f3f 0000 0000 b337 943c
00000010: 0000 0000 cbeb 7f3f 0000 0000 f472 943c
00000020: 0000 0000 cbeb 7f3f 0000 0000 f572 943c
0.0 0.99969167 0.0 0.018092966 0.0 0.99969167 0.0 0.01812122
0.0 0.99969167 0.0 0.018121222

network_body.processors.1.normalizer.running_variance f4 [12]
00000000: 0000 803f aaf6 ff3f 0000 803f b30a 803f
00000010: 0000 803f aaf6 ff3f 0000 803f bb0a 803f
00000020: 0000 803f aaf6 ff3f 0000 803f bb0a 803f
1.0 1.9997151 1.0 1.0003265 1.0 1.9997151 1.0 1.0003275
1.0 1.9997151 1.0 1.0003275

network_body.processors.2.normalizer.running_mean f4 [3]
00000000: 0000 0000 0000 0000 0000 0000
0.0 0.0 0.0

network_body.processors.2.normalizer.running_variance f4 [3]
00000000: 0000 803f 0000 803f 0000 803f
1.0 1.0 1.0

network_body._body_endoder.seq_layers.0.weight f4 [256, 35]
00000000: da71 013e 578b c3bd edbd bdbd 9409 e13c
00000010: 0e5a 7b3c 7238 85bd aa8b 903d d02a f4bd
00000020: 641e 00be 3059 993e 5922 3c3e e30e a0bc
00000030: d37c 09bd 6c78 e83e 0850 053e e3be 9b3d
00000040: 796e 6bbe 9f19 7cbd b105 e43d 078f c53e
00000050: 5f93 9bbc 5e88 50bd c279 d43a 3b70 853e
00000060: 41cb 493e 9be9 9abd 83e5 22be f65e 43bc
00000070: ed08 fb39 e9ab c5bd fd23 493e e725 cabd
00000080: 3ee9 0ebe b191 913d 970f 48be fdfb 033e
00000090: b897 193e ccb2 d53c b1d6 aabc 494f d73d
000000a0: 07da 02bd e9a0 033e 5dbe 8b3e 53b1 963d
000000b0: 5e12 2ebd 52a9 c9be e224 443e be17 823c
000000c0: 14de 193c 66a5 133d afd7 a5be c77d 00be
000000d0: 1c87 85be a422 4d3e b035 51bc 421a e33d
000000e0: 062d 79bd ddc6 123e 40b1 0fbe 16c0 6cbe
000000f0: 00ce eebd 9fcf a3be 9748 5ebd 0ece 4e3d
00000100: 5f77 e03c f58e 793d f8e9 94bc 9d71 b1be
00000110: 9e59 fbbc b355 3dbc 5344 5ebe 76f6 ba3e
00000120: 25d8 df3d 0d87 86be e768 89bd e2d9 c6bd
00000130: ea8f 553e 22a4 a4be 8d17 4f3d 9121 d5be
00000140: 8561 3c3e 0c0c 52be 6208 133e 6508 ca3d
00000150: 3b52 8abd 66ce 493e 14a9 32bd e626 89be
00000160: bfd3 42be 617f 53bd a1dc a83e 4470 073d
00000170: 2aa5 8a3e 06a6 50be f066 20bd 3a6d 8cbd
00000180: aa3d 86bd 4fb5 1b3e 56c4 453e d24a a3bb
00000190: fcdd d43e 83a6 4e3c 31f3 25bd 6fd7 35be
000001a0: fc43 8cbe aa72 c2ba db51 21be bde5 b23c
000001b0: ded8 783e e3e4 d2bc 62f9 a6be f598 6a3d
000001c0: 553f e3bd a3b6 513e b642 47bd b57b 673d
000001d0: eb71 903d 61a2 3bbe c573 cb3a c2ba e9bd
000001e0: 4b0c 103e 9209 babd 5b9f 82be 12fb 2bbc
000001f0: ec55 b33c 3648 ac3c 0355 c23e 3f52 6cbd
00000200: f666 543e 9336 d5bd cd3f fe3c 263a b53e
00000210: e282 b1bd ab83 b9bd 017a b0bc a78a b2be
00000220: 78c3 e5bc 4127 943d bbf8 e3bd 80c2 2d3d
00000230: d485 05be b8e7 ad3d 0e99 e43d 021c 0f3e
00000240: c717 0c3e b9cb 4b3e 86d0 d13c 17fd aaba
00000250: 33df 49be 845c 403d 8647 903d f826 58bc
00000260: 0f40 4fbe 33fe 1a3b d52d 38be fd04 003c
00000270: 8602 6cbe d12c 7a3e 1857 34bd e9c6 9d3e
00000280: 42c0 e53c 26ce 5e3d 447d 73be 9eea 2b3e
00000290: 8eda 00be 0c5a 383e 0175 99bb 96eb 683d
000002a0: 6829 23be dead d3bd e061 18be 6472 cb3d
000002b0: 3c7f 69be 6d2d 0f3e f7a5 2abd ebe5 25be
000002c0: 2ce4 69be 3c24 2c3e 7830 813d 97a1 28be
000002d0: 1274 03bd d3a8 263e d6cc 6ebe 0511 823e
000002e0: d142 aa3d b7d6 4c3e be32 673e 0e0e 623e
000002f0: a677 34bd 5cdd 113d 535d 3f3d 8bae 89bd
00000300: 1df0 f9bd 0ead 6ebe 1da5 15be 4f02 863d
00000310: 1f1d 4f3d ae93 853d 1888 52be 04e2 883e
00000320: d230 3bbe e36b b5bd 8923 0d3e dc91 d4bd
00000330: 7bbe ccbd b384 b1bc f9bd 2a3e a652 643e
00000340: 727b f4bd 81af 69bc fad3 9e3c 79ac 9cbe
00000350: fe7e 18bd c832 2dbd 558b 063e 062a 10bd
00000360: 3dd9 6bbe 9670 88be 9bd9 51bd cc85 da3e
00000370: 8ba1 2dbe 5960 c43d 7e66 28bd 6dc5 ea3d
00000380: 38a1 163e cbd6 43bd c3eb a83d 3af0 39be
00000390: efd1 65be 6a4d 5d3e c0fd 3bbc a3b1 a8bc
000003a0: b4ae 30be 8262 c23e 28dc 0cbe 8d1e d93e
000003b0: 72d3 bd3d b723 c83d 61dd 59be bb4d 3dbe
000003c0: bc4c ac3e 864b 2f3e e627 eb3d cc80 083e
000003d0: a997 623e 470f ab3e be3d 86be 223e 14be
000003e0: fddd 823d 6965 55bd 6373 eb3d 7090 e1bd
000003f0: 50bc 073d 59e4 7f3e d017 1e3e 19ed a93e
0.12641087 -0.09548061 -0.09264741 0.027470388 0.015341295 -0.06504907 0.07057889 -0.11922228
-0.12511593 0.29950857 0.18372478 -0.019538349 -0.033566307 0.45404375 0.13018811 0.07604768
-0.2299136 -0.06154787 0.11133898 0.38585684 -0.01899117 -0.0509113 0.0016210603 0.26062188
0.19706441 -0.07564088 -0.15907864 -0.011924496 0.000478811 -0.0965193 0.19642635 -0.098705105
-0.13956162 0.071078666 -0.19537197 0.12889095 0.14999282 0.026086234 -0.020854326 0.10513169
-0.03194621 0.12854351 0.27293673 0.07358041 -0.042497985 -0.39386994 0.19154695 0.015880462
0.009391326 0.036046408 -0.32391116 -0.1254798 -0.26079643 0.20032746 -0.012769148 0.11088993
-0.060833953 0.14333673 -0.1403246 -0.2312015 -0.11660385 -0.3199434 -0.054268446 0.050489478
0.02740067 0.06092735 -0.018177971 -0.34656993 -0.030682381 -0.011556077 -0.21705751 0.3651616
0.10929898 -0.2627491 -0.06709462 -0.097095266 0.2085568 -0.32156473 0.05055957 -0.41627172
0.18396576 -0.20512408 0.14358667 0.098648824 -0.067539655 0.19707641 -0.043618277 -0.2678749
-0.19026087 -0.05163515 0.32980826 0.03306605 0.27079135 -0.20375833 -0.03916067 -0.06856771
-0.0655473 0.15205882 0.19313177 -0.0049832845 0.4157561 0.012612942 -0.04051513 -0.17757963
-0.27395618 -0.0014835198 -0.15753882 0.021838063 0.24301478 -0.025743907 -0.3261214 0.057274777
-0.11096064 0.20479827 -0.048647605 0.05651446 0.07052978 -0.18323661 0.0015522173 -0.11412574
0.1406719 -0.09083857 -0.25512204 -0.010496872 0.021891557 0.021030527 0.37955484 -0.057695623
0.20742401 -0.104108 0.031036282 0.35395926 -0.08667542 -0.09058317 -0.021542551 -0.34871408
-0.028047308 0.072340496 -0.11131426 0.042421818 -0.13039333 0.084914625 0.11162005 0.13975528
0.13680945 0.19901933 0.025612127 -0.0013045397 -0.1971405 0.04696323 0.07044892 -0.013192885
-0.2023928 0.002365005 -0.17986234 0.007813689 -0.23047838 0.24431159 -0.04402837 0.3081582
0.028045777 0.054395817 -0.23778254 0.16788718 -0.12583372 0.180031 -0.0046831374 0.056865297
-0.15933764 -0.10335897 -0.14881086 0.09933928 -0.22802442 0.13982172 -0.041662183 -0.16200988
-0.22840947 0.16810697 0.06308073 -0.16467892 -0.032093115 0.16275339 -0.23320326 0.2540361
0.083135255 0.20003782 0.2257795 0.22075674 -0.04405942 0.035611495 0.04671986 -0.067227446
-0.12204001 -0.23308203 -0.14613767 0.06543409 0.05056488 0.06522308 -0.20559728 0.26734936
-0.18280342 -0.088584684 0.13783087 -0.10379383 -0.09997269 -0.021669721 0.16674031 0.22297153
-0.11937608 -0.014263035 0.019388188 -0.30600336 -0.037230484 -0.042284757 0.13139088 -0.035196327
-0.23032089 -0.26648396 -0.051232915 0.42680204 -0.16956155 0.09588689 -0.04111337 0.11463437
0.14709938 -0.047812264 0.08248093 -0.18158045 -0.22443365 0.21611562 -0.011474073 -0.020592516
-0.17254144 0.3796578 -0.13755858 0.4240612 0.092688456 0.09772437 -0.21275856 -0.18486683
0.33652294 0.17118654 0.114822194 0.13330382 0.22128166 0.33410093 -0.2621898 -0.14476827
0.06389997 -0.052098665 0.11496618 -0.110138774 0.033138573 0.24989451 0.15438771 0.33188704

network_body._body_endoder.seq_layers.0.bias f4 [256]
00000000: 0000 0000 0000 0000 0000 0000 0000 0000
00000010: 0000 0000 0000 0000 0000 0000 0000 0000
00000020: 0000 0000 0000 0000 0000 0000 0000 0000
00000030: 0000 0000 0000 0000 0000 0000 0000 0000
00000040: 0000 0000 0000 0000 0000 0000 0000 0000
00000050: 0000 0000 0000 0000 0000 0000 0000 0000
00000060: 0000 0000 0000 0000 0000 0000 0000 0000
00000070: 0000 0000 0000 0000 0000 0000 0000 0000
00000080: 0000 0000 0000 0000 0000 0000 0000 0000
00000090: 0000 0000 0000 0000 0000 0000 0000 0000
000000a0: 0000 0000 0000 0000 0000 0000 0000 0000
000000b0: 0000 0000 0000 0000 0000 0000 0000 0000
000000c0: 0000 0000 0000 0000 0000 0000 0000 0000
000000d0: 0000 0000 0000 0000 0000 0000 0000 0000
000000e0: 0000 0000 0000 0000 0000 0000 0000 0000
000000f0: 0000 0000 0000 0000 0000 0000 0000 0000
00000100: 0000 0000 0000 0000 0000 0000 0000 0000
00000110: 0000 0000 0000 0000 0000 0000 0000 0000
00000120: 0000 0000 0000 0000 0000 0000 0000 0000
00000130: 0000 0000 0000 0000 0000 0000 0000 0000
00000140: 0000 0000 0000 0000 0000 0000 0000 0000
00000150: 0000 0000 0000 0000 0000 0000 0000 0000
00000160: 0000 0000 0000 0000 0000 0000 0000 0000
00000170: 0000 0000 0000 0000 0000 0000 0000 0000
00000180: 0000 0000 0000 0000 0000 0000 0000 0000
00000190: 0000 0000 0000 0000 0000 0000 0000 0000
000001a0: 0000 0000 0000 0000 0000 0000 0000 0000
000001b0: 0000 0000 0000 0000 0000 0000 0000 0000
000001c0: 0000 0000 0000 0000 0000 0000 0000 0000
000001d0: 0000 0000 0000 0000 0000 0000 0000 0000
000001e0: 0000 0000 0000 0000 0000 0000 0000 0000
000001f0: 0000 0000 0000 0000 0000 0000 0000 0000
00000200: 0000 0000 0000 0000 0000 0000 0000 0000
00000210: 0000 0000 0000 0000 0000 0000 0000 0000
00000220: 0000 0000 0000 0000 0000 0000 0000 0000
00000230: 0000 0000 0000 0000 0000 0000 0000 0000
00000240: 0000 0000 0000 0000 0000 0000 0000 0000
00000250: 0000 0000 0000 0000 0000 0000 0000 0000
00000260: 0000 0000 0000 0000 0000 0000 0000 0000
00000270: 0000 0000 0000 0000 0000 0000 0000 0000
00000280: 0000 0000 0000 0000 0000 0000 0000 0000
00000290: 0000 0000 0000 0000 0000 0000 0000 0000
000002a0: 0000 0000 0000 0000 0000 0000 0000 0000
000002b0: 0000 0000 0000 0000 0000 0000 0000 0000
000002c0: 0000 0000 0000 0000 0000 0000 0000 0000
000002d0: 0000 0000 0000 0000 0000 0000 0000 0000
000002e0: 0000 0000 0000 0000 0000 0000 0000 0000
000002f0: 0000 0000 0000 0000 0000 0000 0000 0000
00000300: 0000 0000 0000 0000 0000 0000 0000 0000
00000310: 0000 0000 0000 0000 0000 0000 0000 0000
00000320: 0000 0000 0000 0000 0000 0000 0000 0000
00000330: 0000 0000 0000 0000 0000 0000 0000 0000
00000340: 0000 0000 0000 0000 0000 0000 0000 0000
00000350: 0000 0000 0000 0000 0000 0000 0000 0000
00000360: 0000 0000 0000 0000 0000 0000 0000 0000
00000370: 0000 0000 0000 0000 0000 0000 0000 0000
00000380: 0000 0000 0000 0000 0000 0000 0000 0000
00000390: 0000 0000 0000 0000 0000 0000 0000 0000
000003a0: 0000 0000 0000 0000 0000 0000 0000 0000
000003b0: 0000 0000 0000 0000 0000 0000 0000 0000
000003c0: 0000 0000 0000 0000 0000 0000 0000 0000
000003d0: 0000 0000 0000 0000 0000 0000 0000 0000
000003e0: 0000 0000 0000 0000 0000 0000 0000 0000
000003f0: 0000 0000 0000 0000 0000 0000 0000 0000
0.0 0.0 0.0 0.0 0.0 0.0 0.0 0.0
0.0 0.0 0.0 0.0 0.0 0.0 0.0 0.0
0.0 0.0 0.0 0.0 0.0 0.0 0.0 0.0
0.0 0.0 0.0 0.0 0.0 0.0 0.0 0.0
0.0 0.0 0.0 0.0 0.0 0.0 0.0 0.0
0.0 0.0 0.0 0.0 0.0 0.0 0.0 0.0
0.0 0.0 0.0 0.0 0.0 0.0 0.0 0.0
0.0 0.0 0.0 0.0 0.0 0.0 0.0 0.0
0.0 0.0 0.0 0.0 0.0 0.0 0.0 0.0
0.0 0.0 0.0 0.0 0.0 0.0 0.0 0.0
0.0 0.0 0.0 0.0 0.0 0.0 0.0 0.0
0.0 0.0 0.0 0.0 0.0 0.0 0.0 0.0
0.0 0.0 0.0 0.0 0.0 0.0 0.0 0.0
0.0 0.0 0.0 0.0 0.0 0.0 0.0 0.0
0.0 0.0 0.0 0.0 0.0 0.0 0.0 0.0
0.0 0.0 0.0 0.0 0.0 0.0 0.0 0.0
0.0 0.0 0.0 0.0 0.0 0.0 0.0 0.0
0.0 0.0 0.0 0.0 0.0 0.0 0.0 0.0
0.0 0.0 0.0 0.0 0.0 0.0 0.0 0.0
0.0 0.0 0.0 0.0 0.0 0.0 0.0 0.0
0.0 0.0 0.0 0.0 0.0 0.0 0.0 0.0
0.0 0.0 0.0 0.0 0.0 0.0 0.0 0.0
0.0 0.0 0.0 0.0 0.0 0.0 0.0 0.0
0.0 0.0 0.0 0.0 0.0 0.0 0.0 0.0
0.0 0.0 0.0 0.0 0.0 0.0 0.0 0.0
0.0 0.0 0.0 0.0 0.0 0.0 0.0 0.0
0.0 0.0 0.0 0.0 0.0 0.0 0.0 0.0
0.0 0.0 0.0 0.0 0.0 0.0 0.0 0.0
0.0 0.0 0.0 0.0 0.0 0.0 0.0 0.0
0.0 0.0 0.0 0.0 0.0 0.0 0.0 0.0
0.0 0.0 0.0 0.0 0.0 0.0 0.0 0.0
0.0 0.0 0.0 0.0 0.0 0.0 0.0 0.0

network_body._body_endoder.seq_layers.2.weight f4 [256, 256]
00000000: 8ec8 9d3d 05d3 94bd b1a2 af3d 3de3 813d
00000010: 26a6 0d3d 70a4 d73d 66db 3dbd 7e04 283d
00000020: ec9a 023e 5dcf 393d 4570 8b3c fd2e ed3c
00000030: fa6f 75bd e999 dbbc 096d 363d 4a82 59bd
00000040: bf33 a3bc 255b 023d 1af5 95bc d210 6638
00000050: 3b8f 493d 197c d43d 311c 02bd d5f7 ffbb
00000060: 6f27 b13c 4b80 cabd d92c 0fbd a146 e93d
00000070: 8994 133d b742 c4bd c7a6 40bc 13fe 99bc
00000080: 23d9 403d 566b 813c 7b73 a73d c5f8 a03c
00000090: 1268 a23d dc9b f3bc a2dd b9bd 1668 893d
000000a0: 89a4 113d 5105 c73c 8d42 653d 4295 21bc
000000b0: 42d4 3fbd dc82 21bd d855 0bbd 06d9 d13d
000000c0: 4038 0dbd 7dcf 23bd e560 013d a2c6 19bd
000000d0: 5d40 0e3d 634c 943b 4c48 4b3d 5486 47bd
000000e0: 31ab 39bc efd2 703b d3d9 eb3c 29e6 9e3d
000000f0: 4e0b 4fbd c83b 23bd 2f40 08bd 84da 1cbc
00000100: f395 6c3b 085a adbb 4f27 113d ccff 30be
00000110: 2a8f 91bc 8839 49bc 3a8b 0cbc 97f0 e73c
00000120: 0c55 583d bac8 943d 6a5d b63d de6e 073d
00000130: 9cd3 223c 7f1d 1ebc 633f 2abc 5fe5 be3d
00000140: 5bcc 003d 022d 013d 0214 a93c 8523 2fbd
00000150: d1f2 3f3c 14b6 093e 340f 95bc 4dca 4abd
00000160: 44ce 9c3c 7cdc f1bd f143 4f3d 017a 8cbd
00000170: 3369 7aba 1aab 1b3d 2197 b43c c082 6e3c
00000180: 7fea d23c 765f ba3d 8d74 0dbd a9c9 1a3d
00000190: 9e25 05be d8ac 40bd 7fe3 a03d 9490 243d
000001a0: 3e19 c4bd cf9f 913d 606a 79bd 9024 abbd
000001b0: c402 1bbc 48eb 11be 5eaf 5ebd 13ba fe3c
000001c0: e4c2 4ebd f7be a4bd 8126 89bc 924d e8bd
000001d0: 744e 223b 4c7e 383c 4160 bdbd 5a31 76bc
000001e0: 0535 c0bd 6db5 0a3d aad9 bf3d de0e ca3c
000001f0: 4df7 9c3d ca55 d3bd f3dd bbbd 498b 97bd
00000200: f5a0 1abc d26d 94bd 0c98 92bd 4bbf c1bc
00000210: a175 493c 77bc 0aba 708f 113e ee2a 76bc
00000220: fb08 01be 202c 933c a432 88bd c6f1 73bd
00000230: 16ef b13b de63 81ba 1e24 5dbc 82c8 9f3d
00000240: 592f 0dbd 82a1 c03c 82de 063c 1443 253d
00000250: f90d fabc 94b2 8a3d b5b2 e13b 51b4 c6bd
00000260: b476 62bd 5450 d43d 6994 4bbd 53aa acbc
00000270: e496 173d fb99 25be 177d 6cbd 63c9 e5bd
00000280: 540c 7b3c fb39 1e3d 4698 9ebd 33cb a13d
00000290: d9d5 ab3d 636f 74bd ebe0 e8bc 7b65 a5bd
000002a0: 14a9 a8bc 092d 513c c4d8 11be bbad 8f3c
000002b0: fb48 17bd 860b c5bd 3e83 903c c72c a83d
000002c0: fd2b 4d3d 1a14 083e 1a92 1dbd 173d 14be
000002d0: 2b46 46bd 110e f1bd 82ac 1cbc a169 cebd
000002e0: ef92 86bd f84c fb3d 5421 d7bb a0bf 81bd
000002f0: c8e2 593d e4ad 5d3a 989d 543d 989d adbc
00000300: 5cd0 453c c43e a03d c152 91bd ee4e 58bd
00000310: 72e3 2ebc 8fc4 b23c fa9b a23d 093a 6d3d
00000320: f787 82bd 61e9 56bd a72a 3dbc 3c86 ffbc
00000330: 96bc b33c 38df 93bd 0006 d83c d153 86bd
00000340: 0fbf 0f3d fba8 053e bba1 ea3c 7f82 02bd
00000350: cc7e 25bd 466d 17be 190f c3bc 4f8c 0dbd
00000360: 2474 993a 7459 07bd 16a5 b2bb 866d 973d
00000370: 1d4f c6bd c3db d6bb 9e32 683d 1a98 853d
00000380: 51cd e6bd 3de9 9ebd 8c7b b5bd d65c 0abd
00000390: ace0 f83d c490 52bd e84d b33b 1fbb 23bd
000003a0: 00b9 4c3d a33b 91bd 4f52 f63c 5983 edbc
000003b0: 8e79 eb3d 86d2 21bd df98 c4bc ff08 18bc
000003c0: d02a 353e 1589 c4bd abdc f2bc 46bd 19bd
000003d0: 74be 99bc 5f95 9d3d 7622 a2bc 2806 8dbd
000003e0: ccbc 13bc 1c3c 82bd 712e c83c eae2 99bb
000003f0: 25c8 d83c c849 d93d d024 493c 2a40 6b3d
0.077042684 -0.07266811 0.08575953 0.063421704 0.03458228 0.10529411 -0.046351813 0.04101991
0.1275441 0.045363773 0.017021308 0.02895307 -0.059921242 -0.026806789 0.044537578 -0.05310277
-0.019922135 0.031825203 -0.01830535 5.485194e-05 0.04920886 0.10375232 -0.031765167 -0.0078115263
0.021625249 -0.09887751 -0.03495488 0.113904245 0.036030326 -0.09583037 -0.011758513 -0.01879791
0.047082078 0.015798252 0.08176323 0.019649873 0.07930006 -0.029737405 -0.09075476 0.06709306
0.035557304 0.024294527 0.05597167 -0.009862246 -0.046833284 -0.039431438 -0.034017414 0.10246472
-0.034477472 -0.039992798 0.031586546 -0.037542947 0.03472935 0.0045257076 0.049629495 -0.04871209
-0.011332319 0.003674682 0.02879039 0.07758743 -0.05054789 -0.039851934 -0.033264335 -0.009573583
0.003610012 -0.0052902736 0.03543788 -0.17285079 -0.017768461 -0.012281783 -0.008578116 0.028312964
0.052815482 0.07264848 0.08904536 0.033064716 0.009938147 -0.009650587 -0.010391089 0.09321093
0.03144489 0.031537063 0.020639423 -0.042758483 0.011715607 0.13448364 -0.018195726 -0.049509335
0.019141324 -0.11809632 0.050601903 -0.06859208 -0.0009552419 0.038004972 0.02204472 0.01455754
0.025746582 0.09100239 -0.03453498 0.037789974 -0.13002631 -0.047039837 0.078558914 0.040176943
-0.09575127 0.07110559 -0.060892463 -0.08356583 -0.009461109 -0.14249909 -0.054366462 0.031094586
-0.05047883 -0.08044236 -0.016741993 -0.1134292 0.0024766 0.01126058 -0.092468746 -0.015026415
-0.09385113 0.033864427 0.09367688 0.024665292 0.076643564 -0.10319097 -0.09173193 -0.073996134
-0.009437789 -0.07247509 -0.07157907 -0.023650786 0.012296111 -0.00052923657 0.14214873 -0.015024884
-0.12601082 0.017965376 -0.06650284 -0.059556745 0.0054301126 -0.0009871682 -0.013497381 0.07801916
-0.034468982 0.023514513 0.008231761 0.040347174 -0.03052424 0.06772342 0.0068877586 -0.097023614
-0.055288985 0.10366884 -0.04970208 -0.02107731 0.037009135 -0.1617202 -0.057736482 -0.11220052
0.0153227635 0.038629513 -0.077438876 0.07900085 0.083903976 -0.05967654 -0.028427562 -0.080759965
-0.020588435 0.012767085 -0.14242846 0.017538896 -0.036934834 -0.096213385 0.017640706 0.082116656
0.05009078 0.13288918 -0.03846941 -0.14476429 -0.04840676 -0.11770261 -0.009562613 -0.10078741
-0.06570994 0.1227054 -0.0065652523 -0.06335378 0.05319479 0.00084563927 0.051908106 -0.02119331
0.0120736025 0.078244716 -0.07095862 -0.05280965 -0.010674344 0.021822242 0.079399064 0.057916675
-0.063735895 -0.05246866 -0.011545814 -0.031191938 0.02194051 -0.0722031 0.026370049 -0.065589555
0.035094317 0.13052742 0.028641572 -0.031862732 -0.040404126 -0.14787778 -0.02381091 -0.034557637
0.0011707586 -0.033044294 -0.0054518087 0.07393937 -0.096830584 -0.0065569594 0.056688897 0.06523152
-0.1126963 -0.077593304 -0.08861455 -0.03377994 0.12152228 -0.05140759 0.0054719336 -0.039973374
0.049981117 -0.07091453 0.030068545 -0.028993296 0.11497794 -0.03950741 -0.023998676 -0.009279489
0.17692113 -0.09596459 -0.029646238 -0.03753402 -0.018767573 0.07694506 -0.019791823 -0.0688594
-0.009017181 -0.06359121 0.024436207 -0.0046962397 0.026462624 0.10609776 0.012276843 0.05743424

network_body._body_endoder.seq_layers.2.bias f4 [256]
00000000: 0000 0000 0000 0000 0000 0000 0000 0000
00000010: 0000 0000 0000 0000 0000 0000 0000 0000
00000020: 0000 0000 0000 0000 0000 0000 0000 0000
00000030: 0000 0000 0000 0000 0000 0000 0000 0000
00000040: 0000 0000 0000 0000 0000 0000 0000 0000
00000050: 0000 0000 0000 0000 0000 0000 0000 0000
00000060: 0000 0000 0000 0000 0000 0000 0000 0000
00000070: 0000 0000 0000 0000 0000 0000 0000 0000
00000080: 0000 0000 0000 0000 0000 0000 0000 0000
00000090: 0000 0000 0000 0000 0000 0000 0000 0000
000000a0: 0000 0000 0000 0000 0000 0000 0000 0000
000000b0: 0000 0000 0000 0000 0000 0000 0000 0000
000000c0: 0000 0000 0000 0000 0000 0000 0000 0000
000000d0: 0000 0000 0000 0000 0000 0000 0000 0000
000000e0: 0000 0000 0000 0000 0000 0000 0000 0000
000000f0: 0000 0000 0000 0000 0000 0000 0000 0000
00000100: 0000 0000 0000 0000 0000 0000 0000 0000
00000110: 0000 0000 0000 0000 0000 0000 0000 0000
00000120: 0000 0000 0000 0000 0000 0000 0000 0000
00000130: 0000 0000 0000 0000 0000 0000 0000 0000
00000140: 0000 0000 0000 0000 0000 0000 0000 0000
00000150: 0000 0000 0000 0000 0000 0000 0000 0000
00000160: 0000 0000 0000 0000 0000 0000 0000 0000
00000170: 0000 0000 0000 0000 0000 0000 0000 0000
00000180: 0000 0000 0000 0000 0000 0000 0000 0000
00000190: 0000 0000 0000 0000 0000 0000 0000 0000
000001a0: 0000 0000 0000 0000 0000 0000 0000 0000
000001b0: 0000 0000 0000 0000 0000 0000 0000 0000
000001c0: 0000 0000 0000 0000 0000 0000 0000 0000
000001d0: 0000 0000 0000 0000 0000 0000 0000 0000
000001e0: 0000 0000 0000 0000 0000 0000 0000 0000
000001f0: 0000 0000 0000 0000 0000 0000 0000 0000
00000200: 0000 0000 0000 0000 0000 0000 0000 0000
00000210: 0000 0000 0000 0000 0000 0000 0000 0000
00000220: 0000 0000 0000 0000 0000 0000 0000 0000
00000230: 0000 0000 0000 0000 0000 0000 0000 0000
00000240: 0000 0000 0000 0000 0000 0000 0000 0000
00000250: 0000 0000 0000 0000 0000 0000 0000 0000
00000260: 0000 0000 0000 0000 0000 0000 0000 0000
00000270: 0000 0000 0000 0000 0000 0000 0000 0000
00000280: 0000 0000 0000 0000 0000 0000 0000 0000
00000290: 0000 0000 0000 0000 0000 0000 0000 0000
000002a0: 0000 0000 0000 0000 0000 0000 0000 0000
000002b0: 0000 0000 0000 0000 0000 0000 0000 0000
000002c0: 0000 0000 0000 0000 0000 0000 0000 0000
000002d0: 0000 0000 0000 0000 0000 0000 0000 0000
000002e0: 0000 0000 0000 0000 0000 0000 0000 0000
000002f0: 0000 0000 0000 0000 0000 0000 0000 0000
00000300: 0000 0000 0000 0000 0000 0000 0000 0000
00000310: 0000 0000 0000 0000 0000 0000 0000 0000
00000320: 0000 0000 0000 0000 0000 0000 0000 0000
00000330: 0000 0000 0000 0000 0000 0000 0000 0000
00000340: 0000 0000 0000 0000 0000 0000 0000 0000
00000350: 0000 0000 0000 0000 0000 0000 0000 0000
00000360: 0000 0000 0000 0000 0000 0000 0000 0000
00000370: 0000 0000 0000 0000 0000 0000 0000 0000
00000380: 0000 0000 0000 0000 0000 0000 0000 0000
00000390: 0000 0000 0000 0000 0000 0000 0000 0000
000003a0: 0000 0000 0000 0000 0000 0000 0000 0000
000003b0: 0000 0000 0000 0000 0000 0000 0000 0000
000003c0: 0000 0000 0000 0000 0000 0000 0000 0000
000003d0: 0000 0000 0000 0000 0000 0000 0000 0000
000003e0: 0000 0000 0000 0000 0000 0000 0000 0000
000003f0: 0000 0000 0000 0000 0000 0000 0000 0000
0.0 0.0 0.0 0.0 0.0 0.0 0.0 0.0
0.0 0.0 0.0 0.0 0.0 0.0 0.0 0.0
0.0 0.0 0.0 0.0 0.0 0.0 0.0 0.0
0.0 0.0 0.0 0.0 0.0 0.0 0.0 0.0
0.0 0.0 0.0 0.0 0.0 0.0 0.0 0.0
0.0 0.0 0.0 0.0 0.0 0.0 0.0 0.0
0.0 0.0 0.0 0.0 0.0 0.0 0.0 0.0
0.0 0.0 0.0 0.0 0.0 0.0 0.0 0.0
0.0 0.0 0.0 0.0 0.0 0.0 0.0 0.0
0.0 0.0 0.0 0.0 0.0 0.0 0.0 0.0
0.0 0.0 0.0 0.0 0.0 0.0 0.0 0.0
0.0 0.0 0.0 0.0 0.0 0.0 0.0 0.0
0.0 0.0 0.0 0.0 0.0 0.0 0.0 0.0
0.0 0.0 0.0 0.0 0.0 0.0 0.0 0.0
0.0 0.0 0.0 0.0 0.0 0.0 0.0 0.0
0.0 0.0 0.0 0.0 0.0 0.0 0.0 0.0
0.0 0.0 0.0 0.0 0.0 0.0 0.0 0.0
0.0 0.0 0.0 0.0 0.0 0.0 0.0 0.0
0.0 0.0 0.0 0.0 0.0 0.0 0.0 0.0
0.0 0.0 0.0 0.0 0.0 0.0 0.0 0.0
0.0 0.0 0.0 0.0 0.0 0.0 0.0 0.0
0.0 0.0 0.0 0.0 0.0 0.0 0.0 0.0
0.0 0.0 0.0 0.0 0.0 0.0 0.0 0.0
0.0 0.0 0.0 0.0 0.0 0.0 0.0 0.0
0.0 0.0 0.0 0.0 0.0 0.0 0.0 0.0
0.0 0.0 0.0 0.0 0.0 0.0 0.0 0.0
0.0 0.0 0.0 0.0 0.0 0.0 0.0 0.0
0.0 0.0 0.0 0.0 0.0 0.0 0.0 0.0
0.0 0.0 0.0 0.0 0.0 0.0 0.0 0.0
0.0 0.0 0.0 0.0 0.0 0.0 0.0 0.0
0.0 0.0 0.0 0.0 0.0 0.0 0.0 0.0
0.0 0.0 0.0 0.0 0.0 0.0 0.0 0.0

action_model._continuous_distribution.log_sigma f4 [1, 2]
00000000: 0000 0000 0000 0000
0.0 0.0

action_model._continuous_distribution.mu.weight f4 [2, 256]
00000000: 0e50 a43b 6fb0 cbbc f0e5 723c 23ba 9fbc
00000010: 0f7a 52bb efbc 24bc 473f 7bbc c55c 093c
00000020: f400 81bc f3c9 fab8 3dce 0abc f99b b5bb
00000030: f583 e2b9 a6cf 0fbc 40da 1fbc 5dd9 6b3c
00000040: 3f45 dcbb 251c 273b d756 fb3b ab3c e1bc
00000050: 12dc f4bb 3971 a33c 555a cfba 8f23 4d3b
00000060: 0a0f edb9 f57b 53ba c5cd cbbb b9f3 003c
00000070: 1b72 823a a8f1 da3a 874e 203b 122f e73c
00000080: 0f05 a03a e176 b73b dab9 7c3b 5342 d63a
00000090: 4dd4 203c 20a9 d7bb d3e8 50bc 4746 a53a
000000a0: add8 c23b 3042 d03b 29f6 3fbc 5b25 f5ba
000000b0: 91c4 abbc 1d2b 283b ea64 4dbb 833d 08bb
000000c0: 8bfc 703c 1328 37bb cdf3 4d3c c48c 933b
000000d0: 2b6b b63c 4bdf 983c 5505 77bc d8b2 36bb
000000e0: 68ef 243c 2511 1fbc e2b4 dfbc b042 283c
000000f0: 6509 8ebb 0121 97bb 456a 9b3b 71d5 9d3c
00000100: 12c4 f13b e071 ba3b 8bd6 41bc 9086 b73c
00000110: 1005 8fbc bbd1 d03b 0f2e a93c 01db 9eb9
00000120: f119 2c3c d887 d0bb 4853 b93c 3ec6 953c
00000130: 3982 4b3c 898d 49bb 9105 89bb dff4 29bc
00000140: fc5e 85bb 0de0 be3c 34d6 b13a 97ea 79bc
00000150: 3ede 083c f87b f53b 7f65 d7bb 2850 f4ba
00000160: 8301 1e3c c789 0ebc 43d5 d33c 6799 253d
00000170: ad2e 53bc 4f7e cf3b 6b3b e9ba 5f6f b8ba
00000180: 13cc 203c f5ab 92bc f0bd e13b 1bb4 8ebc
00000190: 1f78 04bc fb47 0b3d 1808 5bbc 6a82 02bd
000001a0: 4b4c 27bc fecf 08bc 887c 673b ee13 013c
000001b0: b0bb 2c3b b399 35bc fdd1 f2bc 6b4e 843b
000001c0: 655f 5c3c 9331 6d3c 4739 c1bc 5384 043c
000001d0: 2fc3 8e3b c9de 833b 353e 783c 08f2 28bb
000001e0: 396a 233c 0053 023b 434b 153b b37a 72bc
000001f0: f929 c2ba aa43 113c 91da 463c 2a01 e0bb
00000200: 397e 113b fa58 c5bc 2d3f 1cbc c01a 50bb
00000210: c290 abbc f803 963a 5342 093a 691e 143c
00000220: 9be0 0c3b 05b7 613b 0e3e b7ba bf7e 693a
00000230: 644c a5bb 8b82 e6bb 59f4 4bbc 1873 a13c
00000240: 65b5 9dbc 227d 6f3b d558 78bc 4314 babc
00000250: 2d6a 2b3c 8f76 57bc 7858 84bc d32b edbb
00000260: 6e24 863b f9d4 b0bc 2725 8bbc 43d0 263c
00000270: 6765 5a3c 129c 4ebc 8b7f 0c3c 757a a7bb
00000280: 394f a9b9 6a9e cb3b 9e0f 38bb 54e2 0ebd
00000290: e194 84bc 5201 02bd 6a46 89bc e9db 82bc
000002a0: badb 353c c0ca 533b 026b b0bc 80f2 2f3b
000002b0: b8dc 893c e084 85bc af9e ff3c 13f7 8abb
000002c0: 85fd c03b bd83 79ba 184e 1fbc fd40 5a3c
000002d0: f7ee 0d3c 35cf 1fbc 470e 693c 4feb fd39
000002e0: 7ed2 8b3c 7f71 873b d304 453c baac 37bb
000002f0: d52c c53c 3b72 5db9 cb82 a43b e76f b43c
00000300: 8142 323c b85d 76bc 1c21 bc39 27a0 043c
00000310: 5c96 353c db20 193c 1be7 90bc 571a c3bc
00000320: 797f c53b 0b95 debb 13fc 05bb 8539 5c3b
00000330: c865 c0bc 3aee e13c 90f6 e53a 8b13 063c
00000340: 1892 c5bb 55ba 233c fa0a e93b 1f6f 0b3a
00000350: ed03 0d3c cef5 9b3c d999 b9bb cdf8 a3bb
00000360: d6d7 443c 7c52 bcba c3f0 7e3c 0fe1 7a3c
00000370: 29d8 3bbb abff 4f3c 038d 163c ae6e 223d
00000380: 7f3b ab3b 326b ec3c 7319 603c bb4b 913b
00000390: 6dbe cd3c f30c cdbb cd6a d83b f722 e1bc
000003a0: 8fce 853c 97c3 d53c 435f b43a 2415 ac3b
000003b0: 0bf0 bc3c 4255 cd3b 189e bbbb 3581 eb3b
000003c0: a799 ecba 349b 2fbc 52d7 863c e1e7 873c
000003d0: 0165 49bc 6f63 5fbb 2ec1 1cbb b29c b2bb
000003e0: d654 1bbc b5a4 1b3c b313 8bbb 71ce 3c3c
000003f0: e06e 9fbc 78aa 6d3c 037e 8a3b 6bd3 963a
0.005014426 -0.024864404 0.014825329 -0.019497937 -0.003211621 -0.010054811 -0.015334911 0.008383934
-0.015747525 -0.00011958545 -0.008472023 -0.005542275 -0.00043204395 -0.008777535 -0.009756625 0.014395085
-0.006722122 0.0025498953 0.007670264 -0.027494749 -0.0074725235 0.01995145 -0.0015819768 0.0031301712
-0.00045215368 -0.0008067482 -0.006219598 0.007870608 0.0009952219 0.0016704099 0.0024460868 0.028220687
0.0012208539 0.0055988883 0.0038562925 0.001634667 0.009816241 -0.0065814406 -0.012750822 0.0012609445
0.00594624 0.0063555464 -0.011716404 -0.0018703149 -0.020967754 0.0025660463 -0.0031340667 -0.0020788617
0.014708648 -0.002794747 0.012570334 0.0045028646 0.022267899 0.018661162 -0.015076955 -0.0027877595
0.0100668445 -0.009708677 -0.027307931 0.010269806 -0.004334616 -0.0046120887 0.004742893 0.019266816
0.0073781097 0.0056898445 -0.011830936 0.022403032 -0.017458469 0.006372658 0.020651845 -0.0003029928
0.010504232 -0.00636385 0.02262272 0.018283006 0.012421184 -0.0030754528 -0.004181572 -0.010373323
-0.004070161 0.023300195 0.0013567866 -0.0152536845 0.008353768 0.007491585 -0.0065733786 -0.0018639611
0.009643915 -0.008699841 0.025858527 0.0404295 -0.012889546 0.006332196 -0.0017794197 -0.0014071277
0.00981428 -0.017904261 0.0068890974 -0.017419865 -0.00808528 0.034004193 -0.013368629 -0.031862654
-0.010211061 -0.00835037 0.003532203 0.007878287 0.0026356988 -0.011084008 -0.029641146 0.0040376685
0.013450478 0.014477151 -0.023586882 0.008088189 0.004356764 0.004024361 0.01515155 -0.0025779027
0.009974056 0.0019885898 0.0022780455 -0.014799762 -0.0014813534 0.00886623 0.012137071 -0.0068360763
0.0022200479 -0.024090279 -0.009536547 -0.0031754225 -0.02094305 0.0011445275 0.00052360183 0.0090404535
0.002149618 0.0034441364 -0.0013980286 0.0008907131 -0.005044507 -0.007034605 -0.012448394 0.019708201
-0.019251535 0.003654309 -0.015157898 -0.02271474 0.010462326 -0.013150825 -0.016155466 -0.0072378903
0.004093698 -0.021585928 -0.016985489 0.010181489 0.01332984 -0.012610452 0.0085753305 -0.0051110336
-0.00032293217 0.006213953 -0.002808548 -0.034883812 -0.016184272 -0.03173954 -0.016757209 -0.015974002
0.01109975 0.0032316893 -0.0215354 0.0026847422 0.01682888 -0.016298711 0.031203596 -0.0042408793
0.005889597 -0.0009518227 -0.009723209 0.0133211585 0.008662931 -0.009753992 0.014224595 0.0004843124
0.017068144 0.004133403 0.012025076 -0.0028026537 0.02406923 -0.00021118757 0.0050204745 0.022026015
0.010880114 -0.015036993 0.00035882823 0.008094824 0.011083212 0.009346212 -0.017688325 -0.02381627
0.006027159 -0.0067926697 -0.0020444437 0.003360362 -0.023486033 0.027579416 0.0017544795 0.00818337
-0.0060293786 0.0099931555 0.007111904 0.00053189875 0.008606893 0.019038107 -0.005664092 -0.0050040246
0.01201435 -0.0014367844 0.015560332 0.015312447 -0.0028662777 0.012695233 0.009188893 0.039656334
0.0052255983 0.028859708 0.013677943 0.0044340766 0.025115216 -0.006257647 0.0066045285 -0.027482493
0.016333846 0.026094241 0.00137613 0.0052515436 0.02306368 0.006266267 -0.0057256334 0.0071870335
-0.0018051163 -0.010718156 0.016460095 0.01659006 -0.012292148 -0.0034086367 -0.0023918855 -0.0054508084
-0.009480676 0.009499718 -0.0042442917 0.011523829 -0.019462049 0.014505975 0.0042264475 0.0011507099

action_model._continuous_distribution.mu.bias f4 [2]
00000000: 0000 0000 0000 0000
0.0 0.0

network_body.observation_encoder.processors.0.normalizer.running_mean f4 [20]
00000000: 0000 0000 0000 0000 0000 0000 0000 0000
00000010: 0000 0000 0000 0000 0000 0000 0000 0000
00000020: 0000 0000 0000 0000 0000 0000 0000 0000
00000030: 0000 0000 0000 0000 0000 0000 0000 0000
00000040: 0000 0000 0000 0000 0000 0000 0000 0000
0.0 0.0 0.0 0.0 0.0 0.0 0.0 0.0
0.0 0.0 0.0 0.0 0.0 0.0 0.0 0.0
0.0 0.0 0.0 0.0

network_body.observation_encoder.processors.0.normalizer.running_variance f4 [20]
00000000: 0000 803f 0000 803f 0000 803f 0000 803f
00000010: 0000 803f 0000 803f 0000 803f 0000 803f
00000020: 0000 803f 0000 803f 0000 803f 0000 803f
00000030: 0000 803f 0000 803f 0000 803f 0000 803f
00000040: 0000 803f 0000 803f 0000 803f 0000 803f
1.0 1.0 1.0 1.0 1.0 1.0 1.0 1.0
1.0 1.0 1.0 1.0 1.0 1.0 1.0 1.0
1.0 1.0 1.0 1.0

network_body.observation_encoder.processors.1.normalizer.running_mean f4 [12]
00000000: 0000 0000 0000 0000 0000 0000 0000 0000
00000010: 0000 0000 0000 0000 0000 0000 0000 0000
00000020: 0000 0000 0000 0000 0000 0000 0000 0000
0.0 0.0 0.0 0.0 0.0 0.0 0.0 0.0
0.0 0.0 0.0 0.0

network_body.observation_encoder.processors.1.normalizer.running_variance f4 [12]
00000000: 0000 803f 0000 803f 0000 803f 0000 803f
00000010: 0000 803f 0000 803f 0000 803f 0000 803f
00000020: 0000 803f 0000 803f 0000 803f 0000 803f
1.0 1.0 1.0 1.0 1.0 1.0 1.0 1.0
1.0 1.0 1.0 1.0

network_body.observation_encoder.processors.2.normalizer.running_mean f4 [3]
00000000: 0000 0000 0000 0000 0000 0000
0.0 0.0 0.0

network_body.observation_encoder.processors.2.normalizer.running_variance f4 [3]
00000000: 0000 803f 0000 803f 0000 803f
1.0 1.0 1.0

network_body.processors.0.normalizer.running_mean f4 [20]
00000000: 0000 0000 0000 0000 0000 0000 0000 0000
00000010: 0000 0000 0000 0000 0000 0000 0000 0000
00000020: 0000 0000 0000 0000 0000 0000 0000 0000
00000030: 0000 0000 0000 0000 0000 0000 0000 0000
00000040: 0000 0000 0000 0000 0000 0000 0000 0000
0.0 0.0 0.0 0.0 0.0 0.0 0.0 0.0
0.0 0.0 0.0 0.0 0.0 0.0 0.0 0.0
0.0 0.0 0.0 0.0

network_body.processors.0.normalizer.running_variance f4 [20]
00000000: 0000 803f 0000 803f 0000 803f 0000 803f
00000010: 0000 803f 0000 803f 0000 803f 0000 803f
00000020: 0000 803f 0000 803f 0000 803f 0000 803f
00000030: 0000 803f 0000 803f 0000 803f 0000 803f
00000040: 0000 803f 0000 803f 0000 803f 0000 803f
1.0 1.0 1.0 1.0 1.0 1.0 1.0 1.0
1.0 1.0 1.0 1.0 1.0 1.0 1.0 1.0
1.0 1.0 1.0 1.0

network_body.processors.1.normalizer.running_mean f4 [12]
00000000: 0000 0000 0000 0000 0000 0000 0000 0000
00000010: 0000 0000 0000 0000 0000 0000 0000 0000
00000020: 0000 0000 0000 0000 0000 0000 0000 0000
0.0 0.0 0.0 0.0 0.0 0.0 0.0 0.0
0.0 0.0 0.0 0.0

network_body.processors.1.normalizer.running_variance f4 [12]
00000000: 0000 803f 0000 803f 0000 803f 0000 803f
00000010: 0000 803f 0000 803f 0000 803f 0000 803f
00000020: 0000 803f 0000 803f 0000 803f 0000 803f
1.0 1.0 1.0 1.0 1.0 1.0 1.0 1.0
1.0 1.0 1.0 1.0

network_body.processors.2.normalizer.running_mean f4 [3]
00000000: 0000 0000 0000 0000 0000 0000
0.0 0.0 0.0

network_body.processors.2.normalizer.running_variance f4 [3]
00000000: 0000 803f 0000 803f 0000 803f
1.0 1.0 1.0

network_body._body_endoder.seq_layers.0.weight f4 [256, 35]
00000000: ff4b 62be 3ffc adbd 8885 d33d 4528 ff3d
00000010: fe20 193e a73d 8e3e 4ac3 f3bd 2882 a8bd
00000020: 0f1a 72be fc83 97be fa38 873b 22ef 9dbe
00000030: 8394 d0bd 6f51 993d 76c6 5dbd 9434 36be
00000040: 66f1 883e 2fa1 533e df5e 1d3d 9039 1e3c
00000050: 623b e7bd 5864 2e3e 10d9 bf3d 612f 193d
00000060: b3f0 6bbc 0941 75bd d59f 23bd 22cb 243c
00000070: 1a8e 23be d852 02bd 7191 12be e200 0f3e
00000080: bcef 94bd 52e6 d33b 104d 933e 587f 19be
00000090: 706f da3e b420 61be f0bb 87bd ad3a bebe
000000a0: 3731 e73d 2a6e 333e 7487 c73e b3f1 c5be
000000b0: c008 003d c7b1 373e 2f83 c4bd 2367 82be
000000c0: c2f2 653e aa1a 08be 890d 93be cb55 8d3d
000000d0: 0554 913e e779 c4be aaf8 e4bc f341 1cbe
000000e0: 397e 92bd b1c4 133e 882d 153d 45d4 42bd
000000f0: 763a 88be 94b4 b63d e69c 923d b911 893e
00000100: 8622 b53e c3ac a2bb 6d25 473c 5d8a 3dbd
00000110: 06a9 07be 86c7 e03e 5cc6 ae3d 93a7 93bd
00000120: cb4f 1e3c 6244 43be a6e3 7cbd f6a6 3bbe
00000130: da6a b13d 9f2b 29be 065b 3b3d 34e9 38be
00000140: 65ad 69bd 15f6 aebb 499e e6bd 27b8 f33c
00000150: 309e 0c3e 5eed 843d d99e 39be d1fd 2abe
00000160: 02ba 423e 9286 7e3d 1d6f ccba c2d2 08bd
00000170: 1695 a93b 8d92 033e b294 81be 8d87 443e
00000180: 2054 243c 0cc3 03be e775 07be 99b3 c63d
00000190: 8c36 9abd ffa5 c23c f61c 25bd 3cc3 23bd
000001a0: d22a ee3d 7086 6b3e 1e0a c63c d3f7 b63e
000001b0: 6cc5 80bb 5f1d db3d 6c8a a63c 90fa a53e
000001c0: d522 b43d a5bf 943e f81a 16bd 6b90 803e
000001d0: 35be 60bd 2a8f 0cbe dce0 643e 2a3b 8cbd
000001e0: acd1 a13e f575 d0bc 2813 aabd e669 babd
000001f0: bab1 143e 14f3 153c 89ad e6bd 0e87 ddbd
00000200: 68d4 933e 14b1 823e da7f 29be b9a2 40be
00000210: 45b6 983e 852a 64bd 4c11 35be afb4 afbc
00000220: 6126 2dbe 7bac b4be 2f94 8e3e 5f9b aabc
00000230: 572a fbbd 94ba 763d 3ae4 353d 69ca bfbc
00000240: f1aa 29bd 3f1a f93c bb1e bcbd 4fdd 8d3e
00000250: 592a cbbd 8988 9f3d 0316 30bd 44d5 6fbd
00000260: feb8 013e 8f1f b0bd 4ae4 2a3c 1212 e93d
00000270: 3ac7 ecbe df05 093a eaa1 1bbc 21e9 113e
00000280: 97e8 5bbe ac36 de3d f3b6 473d a5b6 03be
00000290: 9147 a6bd 5512 683e f635 ee3c 07bd a7be
000002a0: 04ec b83d c527 d7bd b767 2bbe 9c1c 393d
000002b0: 3906 893b 9a4b abbd a7c7 0a3e 200e f4bd
000002c0: ee6b a53e d016 33bd 9ca3 2bbe dc4e ca3d
000002d0: a59c 2cbe a33c 8fbe 274d bf3d 583e 55be
000002e0: 936b c13e 2bdc 0dbe 9242 143e d097 543e
000002f0: 9d00 15bd 9051 b0bd dffa 2f3d f2e6 a9bd
00000300: 87ef 1cbe ccf3 a2bc 12d0 c43e fe6f 0fbe
00000310: 2218 4ebd 561a c0bd b37a ce3d c422 c0bd
00000320: 6fe8 183d 1777 ebbd 80b0 24be 2747 a5bd
00000330: 64c9 39be 7f93 723c a464 47bd 9fe8 96be
00000340: 7cb2 3d3e f1dd 963e 7c03 b3be ea1e 18be
00000350: afac 41be 768d 863d a93e 12be c45e 0f3c
00000360: 8373 1c3d 9cfa 3dbe f01e 42bd 0660 8abd
00000370: 1421 933d b48d 8bbd 74a8 cfbe 3f24 dabd
00000380: 016c 2f3d b7bb d2bd c1d5 8b3d 123f fa3e
00000390: fad2 1bbd a766 09be 9ca7 683d ae33 60be
000003a0: 8a91 06be 225e 373e 1648 3a3e 3051 1dbe
000003b0: 1bd7 96bc a73d a5be 5ca3 143e 5ba4 a13e
000003c0: 5586 94be c678 16bd ae46 143e e9cf 55be
000003d0: 1d1c e5bd 094e 0abe 614c 04bd e106 b03d
000003e0: cb17 283e b7b4 593e 361c 393e 16ab 183e
000003f0: f7ff 10be 2688 94bd 2ac6 3fbc d68d a03e
-0.22099303 -0.08495378 0.103282034 0.12458853 0.14953992 0.27781412 -0.11902483 -0.0822795
-0.23642753 -0.29592884 0.004126665 -0.30846506 -0.10184576 0.07486235 -0.054144345 -0.17793494
0.26746672 0.20666955 0.038420554 0.009657279 -0.11290623 0.17030466 0.09367573 0.0373987
-0.014400649 -0.059876475 -0.03994735 0.010058196 -0.15972176 -0.031817287 -0.14313294 0.1396518
-0.07272288 0.0064666653 0.28769732 -0.14989984 0.42663145 -0.21985132 -0.06627643 -0.3715414
0.11288684 0.17522493 0.3897053 -0.38660964 0.031258345 0.1793891 -0.09595334 -0.25469312
0.22455886 -0.13291422 -0.28721264 0.06901129 0.28384414 -0.38374254 -0.027950604 -0.15259533
-0.07152981 0.144305 0.036420375 -0.047565717 -0.26607102 0.08921161 0.07158832 0.26771334
0.35377902 -0.0049644425 0.012154919 -0.04627453 -0.13248071 0.43902224 0.08533928 -0.072096966
0.009662579 -0.19069055 -0.06174054 -0.1832541 0.086629584 -0.16520546 0.045741104 -0.1805771
-0.057050128 -0.005339394 -0.11260659 0.029750897 0.13732219 0.06490587 -0.18127002 -0.16698386
0.19016269 0.062140055 -0.0015597079 -0.03340412 0.005175243 0.12848873 -0.25308758 0.19192334
0.010029823 -0.12867373 -0.1322857 0.09702224 -0.07529935 0.023760794 -0.040310822 -0.039981112
0.11629261 0.23000503 0.024174746 0.3573595 -0.0039297845 0.106989615 0.020329677 0.32417727
0.08795706 0.29052463 -0.036646813 0.25110182 -0.054868896 -0.13726488 0.22351402 -0.06847222
0.3160528 -0.025446871 -0.08304435 -0.0910223 0.14520922 0.009152193 -0.11263568 -0.10816775
0.2887299 0.25525725 -0.16552678 -0.18812074 0.2982656 -0.055704612 -0.1768238 -0.021448461
-0.16909172 -0.35287842 0.2784743 -0.02082604 -0.12263935 0.06023653 0.044407107 -0.023411946
-0.041422788 0.030408023 -0.09185549 0.27707908 -0.099201865 0.07789714 -0.042989742 -0.058552995
0.12668225 -0.08599769 0.010430405 0.113804 -0.46245748 0.000522701 -0.009499053 0.14249088
-0.21475445 0.108502716 0.04875846 -0.12862642 -0.08119119 0.22663243 0.029078465 -0.32761404
0.090293914 -0.10505632 -0.16738783 0.0451933 0.00418165 -0.08364029 0.13552724 -0.11916757
0.32308906 -0.043722928 -0.16761631 0.098783225 -0.1685663 -0.2797595 0.093408875 -0.20824564
0.37777385 -0.13853519 0.1447852 0.20761037 -0.036377538 -0.08609307 0.04296386 -0.082960024
-0.15325747 -0.019891642 0.38439995 -0.14007565 -0.050315984 -0.09380023 0.10081997 -0.09381631
0.03733104 -0.11497324 -0.16082954 -0.08070212 -0.1814323 0.014805674 -0.048679963 -0.2947435
0.18525118 0.29466203 -0.34963596 -0.14855543 -0.1891353 0.0656995 -0.14281715 0.008750621
0.038196098 -0.18552631 -0.047392786 -0.06756596 0.071840435 -0.06814137 -0.40558207 -0.10651445
0.04282761 -0.1028971 0.0682788 0.48876244 -0.038043 -0.13418065 0.05680047 -0.21894714
-0.13141456 0.17907003 0.18191561 -0.15363002 -0.018413117 -0.322736 0.14515442 0.31570706
-0.29008737 -0.036736272 0.14480087 -0.20880093 -0.11187003 -0.1350633 -0.032299403 0.08595062
0.16415326 0.21260343 0.18077168 0.14909014 -0.14160143 -0.07252531 -0.011704961 0.31358212

network_body._body_endoder.seq_layers.0.bias f4 [256]
00000000: 0000 0000 0000 0000 0000 0000 0000 0000
00000010: 0000 0000 0000 0000 0000 0000 0000 0000
00000020: 0000 0000 0000 0000 0000 0000 0000 0000
00000030: 0000 0000 0000 0000 0000 0000 0000 0000
00000040: 0000 0000 0000 0000 0000 0000 0000 0000
00000050: 0000 0000 0000 0000 0000 0000 0000 0000
00000060: 0000 0000 0000 0000 0000 0000 0000 0000
00000070: 0000 0000 0000 0000 0000 0000 0000 0000
00000080: 0000 0000 0000 0000 0000 0000 0000 0000
00000090: 0000 0000 0000 0000 0000 0000 0000 0000
000000a0: 0000 0000 0000 0000 0000 0000 0000 0000
000000b0: 0000 0000 0000 0000 0000 0000 0000 0000
000000c0: 0000 0000 0000 0000 0000 0000 0000 0000
000000d0: 0000 0000 0000 0000 0000 0000 0000 0000
000000e0: 0000 0000 0000 0000 0000 0000 0000 0000
000000f0: 0000 0000 0000 0000 0000 0000 0000 0000
00000100: 0000 0000 0000 0000 0000 0000 0000 0000
00000110: 0000 0000 0000 0000 0000 0000 0000 0000
00000120: 0000 0000 0000 0000 0000 0000 0000 0000
00000130: 0000 0000 0000 0000 0000 0000 0000 0000
00000140: 0000 0000 0000 0000 0000 0000 0000 0000
00000150: 0000 0000 0000 0000 0000 0000 0000 0000
00000160: 0000 0000 0000 0000 0000 0000 0000 0000
00000170: 0000 0000 0000 0000 0000 0000 0000 0000
00000180: 0000 0000 0000 0000 0000 0000 0000 0000
00000190: 0000 0000 0000 0000 0000 0000 0000 0000
000001a0: 0000 0000 0000 0000 0000 0000 0000 0000
000001b0: 0000 0000 0000 0000 0000 0000 0000 0000
000001c0: 0000 0000 0000 0000 0000 0000 0000 0000
000001d0: 0000 0000 0000 0000 0000 0000 0000 0000
000001e0: 0000 0000 0000 0000 0000 0000 0000 0000
000001f0: 0000 0000 0000 0000 0000 0000 0000 0000
00000200: 0000 0000 0000 0000 0000 0000 0000 0000
00000210: 0000 0000 0000 0000 0000 0000 0000 0000
00000220: 0000 0000 0000 0000 0000 0000 0000 0000
00000230: 0000 0000 0000 0000 0000 0000 0000 0000
00000240: 0000 0000 0000 0000 0000 0000 0000 0000
00000250: 0000 0000 0000 0000 0000 0000 0000 0000
00000260: 0000 0000 0000 0000 0000 0000 0000 0000
00000270: 0000 0000 0000 0000 0000 0000 0000 0000
00000280: 0000 0000 0000 0000 0000 0000 0000 0000
00000290: 0000 0000 0000 0000 0000 0000 0000 0000
000002a0: 0000 0000 0000 0000 0000 0000 0000 0000
000002b0: 0000 0000 0000 0000 0000 0000 0000 0000
000002c0: 0000 0000 0000 0000 0000 0000 0000 0000
000002d0: 0000 0000 0000 0000 0000 0000 0000 0000
000002e0: 0000 0000 0000 0000 0000 0000 0000 0000
000002f0: 0000 0000 0000 0000 0000 0000 0000 0000
00000300: 0000 0000 0000 0000 0000 0000 0000 0000
00000310: 0000 0000 0000 0000 0000 0000 0000 0000
00000320: 0000 0000 0000 0000 0000 0000 0000 0000
00000330: 0000 0000 0000 0000 0000 0000 0000 0000
00000340: 0000 0000 0000 0000 0000 0000 0000 0000
00000350: 0000 0000 0000 0000 0000 0000 0000 0000
00000360: 0000 0000 0000 0000 0000 0000 0000 0000
00000370: 0000 0000 0000 0000 0000 0000 0000 0000
00000380: 0000 0000 0000 0000 0000 0000 0000 0000
00000390: 0000 0000 0000 0000 0000 0000 0000 0000
000003a0: 0000 0000 0000 0000 0000 0000 0000 0000
000003b0: 0000 0000 0000 0000 0000 0000 0000 0000
000003c0: 0000 0000 0000 0000 0000 0000 0000 0000
000003d0: 0000 0000 0000 0000 0000 0000 0000 0000
000003e0: 0000 0000 0000 0000 0000 0000 0000 0000
000003f0: 0000 0000 0000 0000 0000 0000 0000 0000
0.0 0.0 0.0 0.0 0.0 0.0 0.0 0.0
0.0 0.0 0.0 0.0 0.0 0.0 0.0 0.0
0.0 0.0 0.0 0.0 0.0 0.0 0.0 0.0
0.0 0.0 0.0 0.0 0.0 0.0 0.0 0.0
0.0 0.0 0.0 0.0 0.0 0.0 0.0 0.0
0.0 0.0 0.0 0.0 0.0 0.0 0.0 0.0
0.0 0.0 0.0 0.0 0.0 0.0 0.0 0.0
0.0 0.0 0.0 0.0 0.0 0.0 0.0 0.0
0.0 0.0 0.0 0.0 0.0 0.0 0.0 0.0
0.0 0.0 0.0 0.0 0.0 0.0 0.0 0.0
0.0 0.0 0.0 0.0 0.0 0.0 0.0 0.0
0.0 0.0 0.0 0.0 0.0 0.0 0.0 0.0
0.0 0.0 0.0 0.0 0.0 0.0 0.0 0.0
0.0 0.0 0.0 0.0 0.0 0.0 0.0 0.0
0.0 0.0 0.0 0.0 0.0 0.0 0.0 0.0
0.0 0.0 0.0 0.0 0.0 0.0 0.0 0.0
0.0 0.0 0.0 0.0 0.0 0.0 0.0 0.0
0.0 0.0 0.0 0.0 0.0 0.0 0.0 0.0
0.0 0.0 0.0 0.0 0.0 0.0 0.0 0.0
0.0 0.0 0.0 0.0 0.0 0.0 0.0 0.0
0.0 0.0 0.0 0.0 0.0 0.0 0.0 0.0
0.0 0.0 0.0 0.0 0.0 0.0 0.0 0.0
0.0 0.0 0.0 0.0 0.0 0.0 0.0 0.0
0.0 0.0 0.0 0.0 0.0 0.0 0.0 0.0
0.0 0.0 0.0 0.0 0.0 0.0 0.0 0.0
0.0 0.0 0.0 0.0 0.0 0.0 0.0 0.0
0.0 0.0 0.0 0.0 0.0 0.0 0.0 0.0
0.0 0.0 0.0 0.0 0.0 0.0 0.0 0.0
0.0 0.0 0.0 0.0 0.0 0.0 0.0 0.0
0.0 0.0 0.0 0.0 0.0 0.0 0.0 0.0
0.0 0.0 0.0 0.0 0.0 0.0 0.0 0.0
0.0 0.0 0.0 0.0 0.0 0.0 0.0 0.0

network_body._body_endoder.seq_layers.2.weight f4 [256, 256]
00000000: dce9 cebc 8659 4cbd 5ff3 aaba 58c9 e0bc
00000010: d4c2 9bbd cac6 923d da19 013d 0ec3 113e
00000020: 3483 8abd 8511 b5bc 5c56 49bd fe49 853d
00000030: 9b92 4ebd 8462 063d 96fa 3bbd b8e3 a0bd
00000040: 6af5 9ebc 8efa 213c 1947 bdbc 3fe3 043c
00000050: 4003 4fbd 39eb 853d 7ca1 ccbc 1ebf 20bc
00000060: c6d3 afbc bed1 c73d 7566 173d 62a0 233d
00000070: b8dc dfbc 334f 693d 4b8d eebc 3bb1 813d
00000080: 77c7 083c 7d95 e93c 6853 bc3c 7884 9fbc
00000090: b013 82bd 4f5e c3bd e1f4 5d3d 3ec8 273d
000000a0: 062b 7d3c 5290 563b 097b 16bd 11b1 6a3d
000000b0: 5754 15bd c2f1 613c c49d 06bd 944e 9a3d
000000c0: b3b1 a73d d38b 47bc 555d 8b3c cf29 64bd
000000d0: 6be2 b3bd dbd2 133d 254b 1c3e 2327 b13d
000000e0: 2da1 103d 5b9e 9dbc ea7a be3d 1520 aabd
000000f0: 8d7a 543e 3b0b aabc 2f1f c23d e7f7 b6bd
00000100: 5527 843c 7256 2fbd 0c70 af3c 9212 293d
00000110: e771 4e3d b2ed dbbd ca65 94bd 2124 c73c
00000120: 79fd a2bc 3e3f b53b 7a51 fd3d 81c6 ecbb
00000130: b8d8 21bd 1b11 96bd 5acd c43c 8193 b3bd
00000140: 43ba fd3b 5472 8e3c 449f e03c 2b1d afbc
00000150: 3a72 4ebd a574 46bd 5f37 93bd d0cb 8dbc
00000160: a91e 80bc 1067 efbc 6798 4a3c 109f d8bb
00000170: aad9 093d 8ae6 de3c 5d8e 3a3d ced6 693d
00000180: 91eb 3abd e512 9fbc d0ee a7bc 71c6 95bd
00000190: 5120 1ebd 4372 78bd 5f72 d73d 654c 06bd
000001a0: 7f23 04bd dbdc 6c3d a09b 1c3b 5114 21bd
000001b0: bc31 a33c 9b9b a73d 58fd 3fbd 2bb3 8dbd
000001c0: 3eb8 89bd 685d 5bbc c029 f5bd 9abe c2bc
000001d0: a034 623d 45cc 913c 6b5a 423d 7a8d 17bd
000001e0: 28b3 2a3c 5d20 623d 7379 c1bd 44aa 703d
000001f0: b560 c83b 356e f1bc e6ae b4bb 4e57 023c
00000200: 7e44 e33c ace5 993b 7cd9 b93d ab6e 453b
00000210: 87d2 f5bc ef21 843c 0493 803d 3408 ffbc
00000220: 591d a3bd 156f 52bd 1ba5 b1bd 696f 3c3d
00000230: 290f 313d 1cf2 31bd 0c25 753d f112 53bd
00000240: d1ec 15bd 9ddb 9abd 7785 06bd c1ac 8cbb
00000250: ab52 83bd a6b6 e83c 1256 0e3d 0b45 06bc
00000260: 396d aa3c 79ef b73d 452d 3cbd d3ae e7bc
00000270: 95bd f53b e850 81bb ff64 283d ba4a bebb
00000280: bc7a ae3c ada6 95bd 2c4d 8c3c bf16 eebd
00000290: 6d92 0b3d 34bb b7bc 697b 8abd 2728 98bd
000002a0: 171d 043e 03ba 97bd e326 5a3c c07c f9bd
000002b0: 9889 ab3b 7588 a8bd b5f0 b1bc 03c1 f8bd
000002c0: b76e 8b3d 7714 903c cecd 393d 294b 5bbc
000002d0: 723f 7c3d 3910 d5bc 31a7 113d 0dc5 da3d
000002e0: a509 dd3c 7fc3 3a3d c7fd f33b cb22 87bc
000002f0: 983d 3e3d 8ea0 153c c4e8 3c3e 115d 9f3d
00000300: 2ac9 a2bb fcdb 523d 1dce 2ebb 13dd 8e3c
00000310: 019e 34bc 4325 80bc 6c22 01ba 9c57 efbb
00000320: 8efd 3bbd edaf b73d a4f1 0b3e 772e 68bd
00000330: f8e7 8dbd 9717 0f3b 5f41 483e 401d 0c3d
00000340: 1f1b 183b 490a a73d 9120 6d3d abf6 d73c
00000350: fa3c 1bbd 3f36 283d ff11 1cbd b204 debd
00000360: b42e 943c 3423 8abd d819 a03c 60b1 653d
00000370: 906c 253d c281 31bd 85a6 bebd 5571 e3bd
00000380: e193 8bba 3592 ad3b 2f41 42bc 49f0 883d
00000390: d62e 433d a80a 233d e7ab d3bd 07e3 633d
000003a0: 8b5f 463c 5421 ce3c 0b4e 163c f8f7 ed3c
000003b0: dd10 88bd 160f 9b3c 50bd ef3c 491f 18bd
000003c0: 6c9f 84bd 26e4 533d efbc db3d f680 a6bd
000003d0: b6c6 e9bc 2a55 473d dc63 7c3d 2f2a f6bd
000003e0: b9e6 553d 7ef6 9dbd c726 69bd 3295 1dbd
000003f0: 55de ccbc 5182 b6bc 837e 953d 33d6 02bd
-0.025257997 -0.049890064 -0.0013042501 -0.027439758 -0.0760552 0.07166822 0.031518795 0.14234564
-0.06763306 -0.02210308 -0.049154624 0.065082535 -0.050432783 0.032808796 -0.045893274 -0.07855934
-0.019404132 0.009886397 -0.023105191 0.00811082 -0.05054021 0.06539006 -0.024979346 -0.009811191
-0.021463286 0.09756802 0.036962945 0.039947875 -0.027326927 0.056960296 -0.029120108 0.06332632
0.008348337 0.028513664 0.02298899 -0.019472346 -0.06351411 -0.09539472 0.054188613 0.04096245
0.015452152 0.003273983 -0.03673843 0.05729777 -0.036457386 0.01379055 -0.0328653 0.07534519
0.0818819 -0.012179333 0.017012278 -0.055703934 -0.0878342 0.03608976 0.1526304 0.08650043
0.03530996 -0.019240549 0.09300788 -0.083069004 0.20749874 -0.020757308 0.09478604 -0.08934002
0.016132036 -0.04280705 0.021415733 0.041277476 0.050401594 -0.10738696 -0.07245977 0.02430922
-0.019896256 0.0055312207 0.12369056 -0.007225812 -0.03951332 -0.07327481 0.0240237 -0.087683685
0.0077431514 0.0173885 0.027419694 -0.021376213 -0.050401904 -0.048451085 -0.071882956 -0.0173091
-0.01563962 -0.029223949 0.012365437 -0.0066107586 0.033654846 0.027209539 0.045545924 0.05708962
-0.04563481 -0.01941819 -0.020499617 -0.0731324 -0.038605038 -0.060655843 0.105198614 -0.0327877
-0.032260414 0.05782781 0.002389647 -0.039326016 0.019921176 0.08183976 -0.046872467 -0.06918939
-0.067245945 -0.013388969 -0.11970854 -0.023772527 0.05522597 0.017797599 0.04744951 -0.037000157
0.010418691 0.055206645 -0.09446993 0.058756128 0.006115044 -0.029471496 -0.0055140136 0.007955385
0.02774262 0.0046965685 0.09074685 0.0030125778 -0.030007614 0.016129462 0.06278041 -0.031131841
-0.07964582 -0.051375467 -0.086740695 0.046004687 0.04322735 -0.043443784 0.059849784 -0.051531736
-0.0366028 -0.07561419 -0.032842126 -0.004293055 -0.06412252 0.028407406 0.03475005 -0.008195172
0.020804035 0.08981223 -0.04594161 -0.028281605 0.0074994066 -0.0039464124 0.041111942 -0.005807248
0.021298759 -0.073071815 0.017126642 -0.11625432 0.03407519 -0.022428133 -0.0676182 -0.074295335
0.12901722 -0.07408526 0.013314935 -0.12181997 0.0052349083 -0.08229152 -0.021721223 -0.12146189
0.068082266 0.017587883 0.045362286 -0.013384619 0.061583944 -0.026008712 0.035559837 0.10682116
0.026982138 0.045596596 0.007446024 -0.016496083 0.04644546 0.0091325175 0.18448168 0.07781423
-0.0049678283 0.051479325 -0.0026673146 0.0174394 -0.011023999 -0.015642768 -0.0004926089 -0.007304145
-0.045896105 0.08969102 0.13666397 -0.056684937 -0.0692901 0.002183413 0.19556187 0.034207582
0.0023209525 0.081562586 0.057892386 0.026362738 -0.03789995 0.041067358 -0.0381031 -0.10840739
0.018088676 -0.06744996 0.019543573 0.05607736 0.040386736 -0.043336637 -0.09309105 -0.11105601
-0.001064893 0.0052969703 -0.011856361 0.06686456 0.047652088 0.039805084 -0.10335522 0.055636432
0.01210774 0.025162376 0.00917388 0.029048905 -0.066438414 0.018928092 0.029265076 -0.03713921
-0.0647572 0.05173125 0.107293956 -0.08130066 -0.028537136 0.048665203 0.06161867 -0.12019765
0.052221987 -0.0771303 -0.056921747 -0.038472362 -0.02500836 -0.022278937 0.07299521 -0.031942558
