results/firstry/KartAgent/KartAgent-61869.onnx (onnx, 305043 bytes, 13 tensors)

network_body.observation_encoder.processors.0.normalizer.running_mean f4 [20]
0.067561 0.4899628 0.38529176 0.46564573 0.15097788 0.43605956 0.38031355 0.47101796
0.18671411 0.51525795 0.25180215 0.37538323 0.32573143 0.5079843 0.14103767 0.29871872
0.4011961 0.48256016 0.09340553 0.27610585
00000000: 6c5d 8a3d 67dc fa3e f644 c53e 1e69 ee3e
00000010: f299 1a3e 3343 df3e 75b8 c23e 4429 f13e
00000020: fc31 3f3e f2e7 033f 36ec 803e 3b32 c03e
00000030: 45c6 a63e 420b 023f 2e6c 103e a9f1 983e
00000040: 9369 cd3e 2012 f73e 664b bf3d bf5d 8d3e

network_body.observation_encoder.processors.1.normalizer.running_mean f4 [12]
0.17258766 0.4899628 0.280265 0.35809553 0.18099238 0.4828996 0.27989322 0.36215028
0.1636011 0.49655738 0.28079858 0.35391176
00000000: d2ba 303e 67dc fa3e e57e 8f3e 4c58 b73e
00000010: 1156 393e 9e3e f73e 2a4e 8f3e c36b b93e
00000020: 0c87 273e c53c fe3e d5c4 8f3e ec33 b53e

network_body.observation_encoder.processors.2.normalizer.running_mean f4 [3]
-0.005875546 0.049486954 1.088006
00000000: a787 c0bb d5b2 4a3d c843 8b3f

network_body._body_endoder.seq_layers.0.weight f4 [256, 35]
0.0740054 -0.27656338 0.014783874 0.05220138 -0.10863039 0.05808933 0.3231982 0.03104807
0.17468528 -0.17835993 -0.1359577 0.39388874 0.15501395 -0.010342808 0.08767934 0.15361917
-0.062382292 -0.2580174 0.25624046 -0.0038634804 -0.07772475 0.037140857 -0.048497107 -0.041855857
0.17477222 0.0077773524 0.06041166 0.18019699 0.33672646 -0.23945403 -0.07279699 0.14210425
0.21494614 0.10555125 -0.22027758 -0.017115185 0.018441143 -0.34726012 -0.060985256 0.23351103
0.1526761 -0.20585899 -0.02879397 0.10887844 0.028219506 -0.28355688 0.23196545 -0.03440765
0.0979106 0.01208121 -0.037773173 -0.030887816 0.30559152 -0.01308467 0.09747439 -0.01149386
0.24264748 0.36415637 0.1852011 0.19294211 -0.05641867 0.3063031 -0.1499969 0.43600222
-0.10430577 0.27952522 0.18865232 0.22945458 -0.015212723 -0.2987686 -0.27905786 -0.24003278
-0.08418772 -0.44305477 -0.12677097 0.10281382 -0.09180906 0.043001052 0.21796726 -0.043844305
-0.06275756 0.08426327 -0.2189698 -0.0495692 0.053944174 -0.3118512 -0.15358141 -0.23023477
-0.10471609 0.031940527 0.17812423 -0.06844046 -0.10256541 -0.052931637 0.30736592 0.0047440184
0.20553099 -0.11340984 0.009212334 -0.23761371 0.019587703 0.18165572 -0.08944593 0.0358422
-0.014743785 0.0063999738 0.08487595 -0.035173986 -0.17923766 -0.19338915 -0.053453386 0.04481222
-0.05790062 -0.021440353 -0.10498648 -0.1553799 -0.08838118 -0.052776866 -0.13690372 0.037629012
-0.37389255 -0.10349757 0.13944206 -0.044671763 0.01451722 -0.09707568 -0.09904855 0.001228233
-0.13700643 -0.026086077 -0.10722523 -0.15149164 0.0664431 0.14168541 0.16731584 0.19701011
-0.08647443 -0.11986447 -0.06460716 0.10240073 0.05593555 -0.010327023 -0.07162055 -0.048160084
0.11216413 0.16826354 -0.07916058 0.051293354 -0.12659532 0.08166565 0.12828723 0.044491693
-0.03547205 0.06819022 0.10826019 0.054798245 0.3917453 0.01644306 0.059026048 -0.20162964
-0.09273756 0.17839931 -0.13587457 -0.0031348793 0.3136231 0.23282035 0.085402906 0.099192664
0.02204116 -0.111790486 -0.24264336 0.057971004 -0.053533267 -0.046317894 0.13637231 0.117324434
0.06453867 -0.034635704 0.14721277 0.053266525 0.2785512 0.020075373 0.13310406 0.2556073
0.046866797 0.17851624 0.0107663935 -0.118742496 0.06957878 -0.08130978 0.025720436 -0.054222673
0.2546328 -0.22472821 0.18229917 0.26435083 0.07550667 0.03626153 -0.13428898 -0.025063941
0.19995642 0.5077615 0.07666737 0.036080223 0.045178033 0.17586352 -0.11513469 0.15652677
-0.14831556 -0.15717089 0.13641939 0.26884246 -0.052690703 -0.019046847 -0.15051717 -0.15768875
-0.17905766 -0.1197733 0.2907058 0.22275865 -0.12205135 -0.3500898 0.17759645 0.10257769
-0.08322435 -0.19836445 -0.09034709 0.12727694 -0.18999106 -0.039564468 -0.081804246 -0.06738008
0.22391081 -0.25082654 -0.1491627 0.22174807 0.2575921 -0.31877723 0.27402171 -0.28191754
0.22805043 -0.18285571 0.13535981 0.10497762 0.22919619 -0.041005705 -0.08873381 0.10164242
-0.020739308 -0.11094666 -0.10506017 0.232403 -0.1843992 0.1525179 0.06327053 -0.10753503
00000000: 2590 973d b799 8dbe 1038 723c 1dd1 553d
00000010: 9c79 debd 14ef 6d3d 3c7a a53e 8658 fe3c
00000020: b3e0 323e fca3 36be 7f38 0bbe c9ab c93e
00000030: fabb 1e3e e274 29bc 3a91 b33d 584e 1d3e
00000040: 9384 7fbd db1a 84be f331 833e 7232 7dbb
00000050: 272e 9fbd 0321 183d e7a4 46bd 0c71 2bbd
00000060: 7df7 323e 29d9 fe3b 3772 773d 8f85 383e
00000070: 6967 ac3e 7033 75be 9716 95bd c783 113e
00000080: d71a 5c3e 412b d83d 7290 61be 2535 8cbc
00000090: e111 973c 14cc b1be adcb 79bd 841d 6f3e
000000a0: 2057 1c3e b3cc 52be 55e1 ebbc a9fb de3d
000000b0: 982c e73c 5e2e 91be 5a88 6d3e 09ef 0cbd
000000c0: 5a85 c83d 44f0 453c 0bb8 1abd 7208 fdbc
000000d0: 7e76 9c3e 1561 56bc a7a0 c73d be50 3cbc
000000e0: 9578 783e b472 ba3e 5ba5 3d3e 9e92 453e
000000f0: 4317 67bd c3d3 9c3e ca98 19be af3b df3e
00000100: 439e d5bd ee1d 8f3e 132e 413e 24f6 6a3e
00000110: c93e 79bc 33f8 98be ace0 8ebe 27cb 75be
00000120: 9d6a acbd 13d8 e2be 40d0 01be 0d90 d23d
00000130: 6306 bcbd df21 303d cf32 5f3e 1696 33bd
00000140: 0987 80bd 3992 ac3d 9f39 60be 1309 4bbd
00000150: 91f4 5c3d f6aa 9fbe 7244 1dbe aac2 6bbe
00000160: 6475 d6bd 12d4 023d 3366 363e 832a 8cbd
00000170: d00d d2bd d8ce 58bd 115f 9d3e b673 9b3b
00000180: b776 523e 6b43 e8bd 54ef 163c 0251 73be
00000190: 6476 a03c f503 3a3e 6e2f b7bd 45cf 123d
000001a0: eb8f 71bc dfb6 d13b 71d3 ad3d 9912 10bd
000001b0: 148a 37be ce07 46be f0f1 5abd 058d 373d
000001c0: 3329 6dbd aea3 afbc 2703 d7bd e91b 1fbe
000001d0: 3101 b5bd 8e2c 58bd 7d30 0cbe e120 1a3d
000001e0: d86e bfbe 89f6 d3bd e6c9 0e3e bdf9 36bd
000001f0: a2d9 6d3c 9dcf c6bd f7d9 cabd a9fc a03a
00000200: 6a4b 0cbe 78b2 d5bc e798 dbbd a020 1bbe
00000210: 5213 883d fb15 113e d854 2b3e 05bd 493e
00000220: 8219 b1bd 817b f5bd c250 84bd 79b7 d13d
00000230: ad1c 653d ad32 29bc cbad 92bd 8243 45bd
00000240: 4fb6 e53d 474d 2c3e f11e a2bd fb18 523d
00000250: 34a2 01be 5240 a73d ba5d 033e ec3c 363d
00000260: 244b 11bd 50a7 8b3d 85b7 dd3d 2074 603d
00000270: d792 c83e 99b3 863c 4cc5 713d 0078 4ebe
00000280: 31ed bdbd 4fae 363e b422 0bbe 8c72 4dbb
00000290: 3593 a03e 7568 6e3e b8e7 ae3d 8625 cb3d
000002a0: aa8f b43c 69f2 e4bd 8077 78be 0173 6d3d
000002b0: b345 5bbd d5b7 3dbd 2fa5 0b3e cb47 f03d
000002c0: da2c 843d 2bde 0dbd f2be 163e 002e 5a3d
000002d0: 439e 8e3e 1c75 a43c 6e4c 083e f6de 823e
000002e0: 66f7 3f3d f6cc 363e 8765 303c 442f f3bd
000002f0: 527f 8e3d be85 a6bd aab3 d23c 9818 5ebd
00000300: 3b5f 823e 271f 66be a2ac 3a3e fe58 873e
00000310: 3ea3 9a3d f886 143d 0d83 09be e552 cdbc
00000320: 60c1 4c3e a8fc 013f c803 9d3d dbc8 133d
00000330: 9a0c 393d 9115 343e bdcb ebbd 8e48 203e
00000340: 09e0 17be 68f1 20be 86b1 0b3e b8a5 893e
00000350: 35d2 57bd 2208 9cbc 2c21 1abe 2979 21be
00000360: e45a 37be b44b f5bd 64d7 943e d81a 643e
00000370: 0ff6 f9bd f83e b3be d8db 353e 4014 d23d
00000380: 8771 aabd 0d20 4bbe e507 b9bd e354 023e
00000390: 048d 42be 5a0e 22bd fc88 a7bd 91fe 89bd
000003a0: e048 653e 566c 80be 1bbe 18be ed11 633e
000003b0: 1de3 833e c536 a3be 934c 8c3e 7f57 90be
000003c0: 0d86 693e 873e 3bbe c39b 0a3e 82fe d63d
000003d0: 68b2 6a3e 99f5 27bd 12ba b5bd e729 d03d
000003e0: 7be5 a9bc 0138 e3bd c929 d7bd 0dfb 6d3e
000003f0: 25d3 3cbe a72d 1c3e fb93 813d 533b dcbd

network_body._body_endoder.seq_layers.0.bias f4 [256]
-0.0067140595 -0.023002164 -0.015875772 -0.009804852 -0.0039052821 -0.014950423 -0.037866745 0.005618882
-0.013918701 0.0019170739 -0.0016202967 -0.004172222 -0.0076283845 -0.0059815957 -0.0019246928 -0.011224578
-0.015070816 -0.015896894 -0.010217392 -0.011652805 -0.009922667 -0.015791789 -0.022938786 -0.028728627
0.005152812 -0.018833755 -0.017773848 0.00402654 0.003370925 -0.012661622 -0.00026974414 -0.00016949148
-0.01659681 -0.0149770565 0.0054135155 -0.009692503 -0.008483577 -0.01381479 -0.032596625 0.0037308424
-0.011227781 -0.017873282 0.015979778 -0.002688907 -0.00231809 -0.01498454 0.004789306 -0.017797804
-0.01549965 0.0017243423 -0.013351434 0.0005789484 -0.01361866 -0.0023286417 -0.0019309055 -0.005817805
-0.007877937 -0.009986315 -0.009991049 -0.0049943817 -0.017935682 -0.006518155 0.008313661 0.0027079573
-0.013777372 -0.0045969374 -0.010251918 -0.001128713 -0.009185218 -0.0008687332 -0.027438976 -0.004436162
-0.0066020433 -0.009097748 0.0073494758 -0.011637704 -0.013191794 0.0012362147 0.0045602084 -0.0026767277
-0.021739557 -0.005421781 -0.024175843 -0.0034135522 -0.022184493 -0.016685367 -0.007503044 -0.01462755
-0.0032583342 -0.012939296 0.00034779924 -0.02857481 0.004938653 -0.01774413 -0.02592755 -0.01589972
-0.013083534 -0.014115451 -0.01199611 -0.028017512 -0.0015574661 0.010478042 -0.005850805 -0.010304173
-0.0032170713 0.0037372038 0.0058462285 0.0003253256 -0.018176533 -0.026495257 -0.008335945 0.003433688
-0.014826449 -0.0028888795 -0.0047535426 -0.008680813 -0.0013771085 -0.0015694159 -0.017867664 -0.01046058
-0.008944903 -0.019071162 -0.0033678468 -0.01101102 -0.0054818764 -0.010828846 -0.0038269255 0.0018498135
-0.011983737 -0.003320436 -0.007869643 -0.01784409 -0.01567016 -0.0028941883 -0.020480458 -0.0137156
-0.0045597735 -0.011861043 -0.009803551 -0.00951722 -0.0056348317 -0.009812286 0.0022838216 -0.014409274
-0.0026945826 0.002770486 -0.019461226 -0.01768615 -0.010154113 0.012257252 -0.0073137325 0.00813166
-0.004273546 -0.00016334193 0.0007026779 -0.006080168 0.0086426595 0.014868588 -0.008415311 -0.01846377
0.0017789806 -0.0113363955 -0.02766053 8.557536e-05 -0.004075952 -0.0077364715 -0.0057992022 -0.022673689
-0.016157074 -0.016502813 -0.025240267 -0.008383968 -0.008603319 -0.01978023 -0.014834023 -0.024343522
0.0032095467 -0.0033231764 -0.013011706 -0.0046028346 -0.008870552 0.0049129003 -0.0043061236 0.0023762865
-0.003323274 -0.003579753 -0.0062274304 -0.009871288 -0.004987146 -0.026250387 -0.006690134 -0.014960253
-0.040742934 -0.031231219 -0.012027057 -0.00024433812 -0.006437925 -0.021190668 0.017633224 0.006962968
-0.008022247 -0.013845991 0.0009971422 -0.01207123 -0.008531225 -0.027564226 0.0012333948 -0.018122924
-0.018247833 -0.004068219 0.001371195 -0.001635165 0.0064697056 -0.008350251 -0.0006261245 -0.0012193547
-0.010860231 -0.020052066 -0.012755575 0.003364015 -0.012362674 0.00057381747 -0.00015383097 -0.0013914376
-0.039071962 -0.006252669 -0.012237215 -0.0060006017 0.007463893 -0.00604807 -0.015494471 -0.006351357
0.0070146522 -0.005759781 -0.0039567254 -0.016175365 0.0006650424 -0.015575745 -0.0030012378 0.0014802701
0.003594343 0.0028783435 0.00073773996 0.0050257766 -0.01873328 -0.007242684 0.010472359 -0.005494299
0.00066089415 -0.012406097 0.00319676 -0.016659958 -0.022307204 -0.01597885 0.00794895 -0.0054359324
00000000: 9d01 dcbb 096f bcbc e80d 82bc 88a4 20bc
00000010: c3ef 7fbb 9ef2 74bc 291a 1bbd 991e b83b
00000020: 430b 64bc 5346 fb3a 2360 d4ba 23b7 88bb
00000030: 87f7 f9bb 4301 c4bb f945 fcba 4be7 37bc
00000040: 95eb 76bc 343a 82bc d966 27bc 68eb 3ebc
00000050: af92 22bc c85d 81bc 1fea bbbc 4c58 ebbc
00000060: ecd8 a83b 3f49 9abc 769a 91bc 11f1 833b
00000070: bdea 5c3b b172 4fbc 726c 8db9 86b9 31b9
00000080: 09f6 87bc 5462 75bc dc63 b13b 4ecd 1ebc
00000090: b3fe 0abc 6e57 62bc 0a84 05bd 2681 743b
000000a0: baf4 37bc fd6a 92bc 06e8 823c 6038 30bb
000000b0: 19eb 17bb b781 75bc 9cef 9c3b b3cc 91bc
000000c0: 3ef2 7dbc 5403 e23a f9bf 5abc 92c4 173a
000000d0: cd20 5fbc 209c 18bb 7016 fdba 49a3 bebb
000000e0: 7612 01bc a49d 23bc 7fb1 23bc e9a7 a3bb
000000f0: daed 92bc 3f96 d5bb 0636 083c fc77 313b
00000100: 7dba 61bc e8a1 96bb a9f7 27bc 53f1 93ba
00000110: 997d 16bc b3bb 63ba b4c7 e0bc 395d 91bb
00000120: f455 d8bb b90e 15bc dfd3 f03b 12ac 3ebc
00000130: 6522 58bc 7b08 a23a cd6d 953b 0a6c 2fbb
00000140: 2817 b2bc 32a9 b1bb 6b0c c6bc e7b5 5fbb
00000150: 41bc b5bc c0af 88bc 18dc f5bb 64a8 6fbc
00000160: c789 55bb 57ff 53bc d358 b639 b815 eabc
00000170: 6dd4 a13b 235c 91bc 0366 d4bc 2140 82bc
00000180: 525c 56bc 7e44 67bc 558b 44bc fb84 e5bc
00000190: e423 ccba 18ac 2b3c 1cb8 bfbb d6d2 28bc
000001a0: 80d5 52bb e0eb 743b b891 bf3b 7790 aa39
000001b0: f4e6 94bc 950c d9bc 7d93 08bc ba07 613b
000001c0: a2ea 72bc 5b53 3dbb 9bc3 9bbb f839 0ebc
000001d0: 1880 b4ba dcb4 cdba 355f 92bc da62 2bbc
000001e0: a48d 12bc 203b 9cbc 18b7 5cbb 9167 34bc
000001f0: 50a1 b3bb 796b 31bc 28cd 7abb 7175 f23a
00000200: 7057 44bc ac9b 59bb adef 00bc c52d 92bc
00000210: b55e 80bc 6cac 3dbb a2c6 a7bc 65b7 60bc
00000220: 276a 95bb d254 42bc 139f 20bc 1dee 1bbc
00000230: 65a4 b8bb b6c3 20bc 2bac 153b e014 6cbc
00000240: 9897 30bb 0b91 353b 266d 9fbc 8be2 90bc
00000250: 705d 26bc a4d2 483c 09a8 efbb a73a 053c
00000260: 1a09 8cbb c446 2bb9 ea33 383a 253c c7bb
00000270: f199 0d3c 619b 733c 5fe0 09bc 5541 97bc
00000280: af2c e93a 4abc 39bc 5698 e2bc ec76 b338
00000290: 908f 85bb 3a82 fdbb 3c07 bebb 2cbe b9bc
000002a0: d75b 84bc e830 87bc adc4 cebc e95c 09bc
000002b0: eff4 0cbc 260a a2bc 670a 73bc 116c c7bc
000002c0: 4257 523b a6c9 59bb 0d2f 55bc 60d3 96bb
000002d0: cb55 11bc 65fc a03b 621a 8dbb 79bb 1b3b
000002e0: 49cb 59bb 4a9a 6abb 790f ccbb 2fbb 21bc
000002f0: 366b a3bb 0d0b d7bc e938 dbbb d91b 75bc
00000300: 10e2 26bd 9dd8 ffbc 220d 45bc 821a 80b9
00000310: 3bf5 d2bb 0d98 adbc 8d73 903c 9c29 e43b
00000320: be6f 03bc 4cda 62bc 8ab2 823a 69c6 45bc
00000330: 8dc6 0bbc 5fce e1bc dda9 a13a 8776 94bc
00000340: 7b7c 95bc b24e 85bb abb9 b33a 0853 d6ba
00000350: d3ff d33b 7ecf 08bc 8122 24ba c1d2 9fba
00000360: 1cef 31bc 3b44 a4bc c2fc 50bc ce76 5c3b
00000370: d08c 4abc 3d6c 163a b04d 21b9 e660 b6ba
00000380: ec09 20bd 30e3 ccbb 9a7e 48bc b2a0 c4bb
00000390: ac93 f43b e32e c6bb 86dc 7dbc 0b1f d0bb
000003a0: 2bdb e53b 8cbc bcbb 6ba7 81bb 3382 84bc
000003b0: 3d56 2e3a 6931 7fbc 6ab0 44bb 9f05 c23a
000003c0: 128f 6b3b 97a2 3c3b e464 413a 45af a43b
000003d0: 8976 99bc 0954 edbb 4294 2b3c 8509 b4bb
000003e0: db3f 2d3a f142 4bbc bc80 513b 777a 88bc
000003f0: 99bd b6bc 14e6 82bc 503c 023c e81f b2bb

network_body._body_endoder.seq_layers.2.weight f4 [256, 256]
-0.1348842 -0.020346753 -0.052245528 -0.005200362 -0.046307087 -0.019134616 -0.08798077 0.044048317
-0.07150262 0.023645122 0.00086686085 -0.07047089 0.087282255 0.08392861 0.064568855 0.10226206
-0.036320414 -0.11287567 -0.04103873 -0.11660328 -0.037195805 -0.019723156 0.0062660794 -0.014846873
0.042716514 -0.010522912 0.029930348 0.088190846 0.0154820345 -0.041579958 0.043186698 -0.08570781
-0.012338274 0.036200035 0.07015606 -0.022017729 -0.026589086 -0.043158367 -0.03987243 -0.0047774734
-0.073427506 0.0012000983 0.060340792 -0.1024165 0.14689156 0.008131451 -0.034801938 -0.017416606
0.10847639 -0.0051312232 -0.099421516 -0.05506597 0.020140482 -0.03957533 -0.01944607 -0.060499664
-0.043614846 -0.017434293 -0.03382812 -0.03806344 -0.048863083 -0.15046306 -0.016791837 -0.02856537
-0.05761242 -0.018580994 -0.015376789 0.024241596 -0.0551818 -0.07863414 0.027787127 0.1912907
0.17644635 -0.11561184 -0.039409 0.100677796 -0.010032662 -0.062827185 -0.00073964807 -0.047371484
0.07777779 0.112215534 0.048284244 -0.047958355 0.052952215 0.049909826 -0.063024044 -0.1422666
0.13274118 0.13915493 -0.017263407 -0.074499935 0.01741003 -0.037202224 0.0044039893 -0.048269626
-0.13306566 -0.057908047 0.0432075 0.058246635 0.008838508 -0.017133951 0.07150009 -0.026625475
0.04055447 0.095346324 0.010736014 0.020143379 0.017784348 -0.011061016 -0.00029874445 0.029732134
-0.1333517 0.034964655 -0.0056855055 -0.012285852 0.0064826184 -0.043812864 -0.03253623 0.010143469
-0.044542726 0.08168523 0.019762492 -0.078605324 -0.11806489 -0.06946416 -0.15047708 -0.059343357
0.04193309 -0.06886317 0.078773 0.087824345 0.03993442 -0.107668005 -0.08720866 0.116523825
0.0003440229 -0.0040483996 -0.08517688 0.0065922644 -0.029043328 -0.028844368 -0.12371824 -0.07530532
-0.060623 -0.15712747 -0.07703321 -0.13959722 -0.07010848 -0.094329245 0.08283789 0.04699878
0.096590884 0.033324223 0.036884658 -0.057081334 0.013830403 0.04137002 0.07954981 0.014536012
-0.0038720178 0.017830294 0.112242065 0.11793159 0.08473868 0.0913987 0.011204714 0.0022807997
-0.10084343 -0.06323341 0.0720516 -0.016734902 -0.098925054 0.04756153 0.09681126 0.012227715
0.03151264 -0.021280568 -0.120140485 0.08072008 -0.021868652 -0.046966646 0.005309687 -0.06611501
0.031311553 0.042768437 0.007017313 0.04275679 0.09400335 0.061806105 -0.007207708 -0.028231356
-0.02839967 -0.01127889 0.006548095 -0.018416505 -0.0336092 -0.14125983 -0.08379072 0.044784915
-0.05596554 0.10469311 0.09737624 0.03998042 -0.029394714 0.052886125 0.0480285 -0.023516247
-0.015781049 0.004546273 0.04297914 0.06154316 0.13549756 0.077240355 -0.0016390587 -0.0073051816
-0.00043217617 -0.0039205337 0.027552156 0.1174445 -0.022426587 -0.04916776 -0.01786013 0.09080652
0.065917745 -0.043479037 0.05152098 -0.006315449 -0.024215141 -0.016215954 -0.002827733 -0.0034638506
-0.07658863 0.022435915 -0.028766781 0.034205317 -0.051443905 -0.055607177 0.012289087 -0.001408798
-0.031103965 0.027859677 -0.13766356 -0.072087206 -0.07746486 0.06902612 0.011897466 -0.042887013
-0.11437438 0.028331233 -0.022525009 0.036318067 -0.07662863 -0.08965763 0.05093044 -0.09120039
00000000: 151f 0abe 3cae a6bc 68ff 55bd cc67 aabb
00000010: 80ac 3dbd 33c0 9cbc 432f b4bd 026c 343d
00000020: f76f 92bd 6ab3 c13c 0c3e 633a 0b53 90bd
00000030: 0ac1 b23d c3e2 ab3d ad3c 843d c56e d13d
00000040: b7c4 14bd 5c2b e7bd 3a18 28bd b3cd eebd
00000050: a15a 18bd 7592 a1bc af53 cd3b 4c40 73bc
00000060: 83f7 2e3d 4b68 2cbc 7d30 f53c 679d b43d
00000070: 5ca8 7d3c bf4f 2abd 89e4 303d 9487 afbd
00000080: 7926 4abc 7d46 143d fbad 8f3d 865e b4bc
00000090: 5bd1 d9bc d4c6 30bd 4651 23bd 5a8c 9cbb
000000a0: 2961 96bd 9e4c 9d3a e827 773d bebf d1bd
000000b0: be6a 163e c739 053c 7a8c 0ebd 45ad 8ebc
000000c0: df28 de3d d223 a8bb 829d cbbd db8c 61bd
000000d0: a7fd a43c be19 22bd 5d4d 9fbc 7fce 77bd
000000e0: 7ba5 32bd 5dd2 8ebc 5b8f 0abd 69e8 1bbd
000000f0: a824 48bd fd12 1abe 098f 89bc ec01 eabc
00000100: 00fb 6bbd 2b37 98bc edee 7bbc 5096 c63c
00000110: 5006 62bd f00a a1bd d4a1 e33c b6e1 433e
00000120: 5aae 343e e6c5 ecbd 556b 21bd 2930 ce3d
00000130: 0960 24bc 8aab 80bd f1e4 41ba 9a08 42bd
00000140: f649 9f3d 42d1 e53d b3c5 453d fb6f 44bd
00000150: 6ce4 583d 3f6e 4c3d c012 81bd 56ae 11be
00000160: 4eed 073e a17e 0e3e fd6b 8dbc 6c93 98bd
00000170: 7b9f 8e3c 5c61 18bd 574f 903b 5fb6 45bd
00000180: 5d42 08be fd30 6dbd 59fa 303d 0694 6e3d
00000190: 64cf 103c 805c 8cbc a46e 923d ab1d dabc
000001a0: 721c 263d ef44 c33d 1be6 2f3c ba03 a53c
000001b0: 7bb0 913c 4339 35bc cda0 9cb9 ce90 f33c
000001c0: 598d 08be 1937 0f3d 7a4d babb 994a 49bc
000001d0: 256c d43b 1e75 33bd b644 05bd cb30 263c
000001e0: 6f72 36bd 964a a73d f3e4 a13c d4fb a0bd
000001f0: 01cc f1bd 3a43 8ebd aa16 1abe 0512 73bd
00000200: 08c2 2b3d 2208 8dbd bd53 a13d 40dd b33d
00000210: 4692 233d 0b81 dcbd 749a b2bd 0ba4 ee3d
00000220: f95d b439 70a8 84bb 3771 aebd ec03 d83b
00000230: 46ec edbc 064b ecbc fd5f fdbd ad39 9abd
00000240: d34f 78bd 06e6 20be 96c3 9dbd 93f2 0ebe
00000250: 0995 8fbd b12f c1bd e9a6 a93d cb81 403d
00000260: 71d1 c53d fb7e 083d 5e14 173d 1ece 69bd
00000270: ea98 623c 9c73 293d 03eb a23d 7428 6e3c
00000280: aec1 7dbb d610 923c 2bdf e53d 1e86 f13d
00000290: 798b ad3d 3e2f bb3d fa93 373c 7879 153b
000002a0: 0087 cebd 8580 81bd ca8f 933d a217 89bc
000002b0: 3899 cabd e1cf 423d fb44 c63d c156 483c
000002c0: 6613 013d 9654 aebc 370c f6bd 9250 a53d
000002d0: e325 b3bc 1960 40bd e2fc ad3b 4e67 87bd
000002e0: 8b40 003d f52d 2f3d 7df1 e53b be21 2f3d
000002f0: d484 c03d 6628 7d3d a32e ecbb 7245 e7bc
00000300: 6da6 e8bc 18cb 38bc 6791 d63b 36de 96bc
00000310: cda9 09bd 6ba6 10be 789a abbd 6370 373d
00000320: 1f3c 65bd 5769 d63d 326d c73d 82c2 233d
00000330: 2fcd f0bc 1f9f 583d 88b9 443d 25a5 c0bc
00000340: 4247 81bc e7f8 943b e50a 303d ae14 7c3d
00000350: dfbf 0a3e 3130 9e3d afd5 d6ba 4e60 efbb
00000360: b495 e2b9 d277 80bb 0fb5 e13c be86 f03d
00000370: f6b7 b7bc 2264 49bd 684f 92bc c5f8 b93d
00000380: e2ff 863d 1317 32bd aa07 533d d3f1 cebb
00000390: d55e c6bc 52d7 84bc 7d51 39bb c501 63bb
000003a0: 80da 9cbd 86cb b73c 50a8 ebbc e01a 0c3d
000003b0: d8b6 52bd 5ac4 63bd 2b58 493c 6ba7 b8ba
000003c0: becd febc fa39 e43c adf7 0cbe 75a2 93bd
000003d0: e6a5 9ebd 915d 8d3d 97ed 423c 4baa 2fbd
000003e0: 1d3d eabd e716 e83c 5e86 b8bc 41c2 143d
000003f0: 79ef 9cbd 6b9e b7bd 709c 503d 45c7 babd

network_body._body_endoder.seq_layers.2.bias f4 [256]
-0.0100034755 -0.0059336443 -0.010248393 0.0037916913 0.007937106 -0.007919943 -0.0036424573 0.0013778494
-0.0021606716 -0.0076129325 0.006107614 -0.0080640465 -0.0068027424 -0.0059945793 -0.015998527 -0.01599265
-0.01660418 0.0005967108 0.0011649636 -0.01368848 -0.0133656645 0.002581506 -0.008611913 0.002448133
0.0063063977 0.0058145383 0.0006617783 -0.007075675 -0.02189775 -0.0141142355 -0.013151034 -0.015802449
-0.00172232 -0.0025503251 -0.0017261509 -0.0024348171 -0.0071495883 0.009893767 -0.014978806 -0.013631798
-0.007948108 -0.0115599 -0.0080691585 0.009189489 -0.013142732 -0.013115425 -0.013016507 -0.004315916
-0.008920398 0.0064654145 -0.006710885 -0.010864854 -0.0018162545 -0.013349243 -0.00735129 -0.018848369
-0.012705169 -0.014159357 -0.00031591384 -0.014424991 0.008673942 -0.017545054 0.001828097 -0.021943245
-0.011164369 -0.0024975147 -0.01035775 -0.010297534 -0.01384275 -0.008388295 -0.0038798198 -0.011490721
0.0005260209 0.0022940184 -0.0055778925 -0.0033503924 -0.004928847 -0.0034536552 -0.012422825 -0.0010448821
-0.0032130657 -0.0027228605 -0.008158577 -0.011990775 -0.013812167 -0.008057483 -0.003931812 -0.010764247
0.0040818043 -0.0033346242 -0.008991178 -0.010769009 0.005947399 0.013932018 -0.0029269168 -0.009810729
-0.0063891015 -0.00059746974 -0.010997275 -0.012029072 0.0019559625 0.0103167035 -0.0022147303 -0.010135356
0.007864467 -0.011175412 -0.0056820717 -0.005567085 -0.012743722 0.004181119 -0.003743728 -0.015883787
-0.021032318 -0.0067100776 0.00045781265 -0.013095859 0.0027156216 0.0047489316 -9.925829e-06 -0.0011432124
0.00039276696 -0.00589494 -0.00013098646 -0.006418253 -0.013253574 -0.0069555207 -0.001442628 -0.014252905
-0.01783364 0.00035685883 0.0003303008 -0.0192166 0.007009995 -0.002664422 -0.0054976493 -0.002873407
-0.0019846174 -0.012533306 -0.013064408 0.0062681795 0.013809481 -0.008839059 0.0009524901 0.000490746
0.004756137 -0.015579063 -0.007118382 0.006370897 0.0012769115 -0.020357903 -0.0026736131 -0.017030917
-0.015361647 -0.016166762 -0.020603146 -0.011702898 0.0023500463 -0.00054507575 -0.011461164 -0.00083111663
-0.0009929169 0.0025018132 -0.012362041 -0.0076249926 -0.0037401703 0.0015594322 -0.013578842 -0.007962309
-0.024122069 -0.0025310456 -0.0071046376 -0.012074432 -0.0051296945 0.004017436 -0.013661306 0.0029467668
-0.0063170353 -0.008123123 -0.015881171 -0.005280622 0.0020775464 -0.0081865685 0.003265969 -0.0042697387
-0.0014073239 -0.020509515 0.0013896719 -0.004982264 -0.0065885987 -0.00431608 -0.007954145 -0.0037026808
-0.008944358 0.0023741035 0.0005994603 -0.008849088 0.014145488 -0.01321537 -0.0022880184 -0.0043422156
-0.008332263 -0.0015662457 -0.0031640765 -0.009983794 -0.00697208 -0.010092889 0.004685026 -0.010067341
-0.01880453 0.008598431 -0.008929302 -0.00013467943 -0.017641624 -0.0037249841 0.003947444 -0.004592142
-0.01027044 -0.011515835 -0.0047753765 -0.009814283 -0.0017219045 -0.0025252646 -0.008904426 0.001667388
-0.013307887 -0.012221505 -0.01475788 -0.013349825 -0.002995315 -0.0068313265 0.0014943458 -0.011441401
0.0068941154 -0.01395257 -0.012040375 -0.0031222308 -0.0137452185 0.0015511472 -0.0111345025 -0.0131956255
-0.0123829385 -0.007568218 0.0064587104 -0.009835461 -0.0149058215 -0.01175026 -0.0035196699 -0.012950415
0.001568274 0.0017170181 -0.005791363 -0.009015503 -0.011489593 -0.013155948 0.0064008697 -0.00950622
00000000: 9ee5 23bc 046f c2bb e0e8 27bc 067e 783b
00000010: a30a 023c a6c2 01bc 4bb6 6ebb f498 b43a
00000020: 0e9a 0dbb e875 f9bb 6122 c83b 101f 04bc
00000030: 8ae9 debb 2d6e c4bb 580f 83bc 0503 83bc
00000040: 7d05 88bc 956c 1c3a b1b1 983a a545 60bc
00000050: a9fb 5abc 7c2e 293b fb18 0dbc db70 203b
00000060: e6a5 ce3b e287 be3b 317b 2d3a 10db e7bb
00000070: e962 b3bc 653f 67bc 6f77 57bc 2374 81bc
00000080: 78bf e1ba 5b23 27bb 0340 e2ba 7491 1fbb
00000090: 1847 eabb 7719 223c aa69 75bc e857 5fbc
000000a0: c838 02bc bc65 3dbc 8134 04bc 838f 163c
000000b0: 9d54 57bc 14e2 56bc 3043 55bc 876c 8dbb
000000c0: dc26 12bc d4db d33b fce6 dbbb 8002 32bc
000000d0: 630f eeba c9b6 5abc 17e3 f0bb e567 9abc
000000e0: 5729 50bc a6fc 67bc 3da1 a5b9 cc56 6cbc
000000f0: 261d 0e3c a5ba 8fbc c29c ef3a 52c2 b3bc
00000100: c2ea 36bc 58ad 23bb 8db3 29bc fdb6 28bc
00000110: b4cc 62bc 0f6f 09bc 9344 7ebb 9443 3cbc
00000120: aae4 093a 3e57 163b c1c6 b6bb 4292 5bbb
00000130: 2a82 a1bb b856 62bb 1b89 4bbc 6df4 88ba
00000140: 4c92 52bb 0572 32bb 8dab 05bc f574 44bc
00000150: 6d4c 62bc 8803 04bc 6ed6 80bb 865c 30bc
00000160: a8c0 853b b689 5abb bc4f 13bc 7f70 30bc
00000170: 66e2 c23b 1e43 643c 84d1 3fbb 2ebd 20bc
00000180: ab5b d1bb 849f 1cba ea2d 34bc 9615 45bc
00000190: 9b2f 003b 6407 293c 0225 11bb c40e 26bc
000001a0: f7d9 003c 1319 37bc ac30 babb 186c b6bb
000001b0: 0bcb 50bc c501 893b 5559 75bb b71e 82bc
000001c0: f84b acbc 36e0 dbbb 9306 f039 0490 56bc
000001d0: 92f8 313b ed9c 9b3b 1c87 26b7 d8d7 95ba
000001e0: 4aec cd39 572a c1bb 6959 09b9 3550 d2bb
000001f0: 8525 59bc 23eb e3bb 9016 bdba 0485 69bc
00000200: db17 92bc c818 bb39 392c ad39 226c 9dbc
00000210: 1ab4 e53b 959d 2ebb a025 b4bb c54f 3cbb
00000220: 5b10 02bb 7f58 4dbc 190c 56bc 4d65 cd3b
00000230: 2941 623c b3d1 10bc 87b0 793a 68a5 003a
00000240: 5ed9 9b3b 543f 7fbc 5141 e9bb f5c2 d03b
00000250: 0a5e a73a 9ec5 a6bc c937 2fbb 6c84 8bbc
00000260: 6baf 7bbc 2870 84bc eec7 a8bc 83bd 3fbc
00000270: 3c03 1a3b 6ae3 0eba 9bc7 3bbc 4bdf 59ba
00000280: c324 82ba 76f5 233b 288a 4abc 13db f9bb
00000290: a51d 75bb dd65 cc3a cb79 5ebc 5874 02bc
000002a0: a59b c5bc e6df 25bb 05ce e8bb d7d3 45bc
000002b0: ff16 a8bb b2a4 833b acd3 5fbc 8b1e 413b
000002c0: 22ff cebb d916 05bc 3b19 82bc 1109 adbb
000002d0: 7227 083b f520 06bc de09 563b 2ae9 8bbb
000002e0: f475 b8ba 9203 a8bc a725 b63a 4242 a3bb
000002f0: 2ce5 d7bb e76d 8dbb 1a52 02bc ada8 72bb
00000300: 5b8b 12bc d996 1b3b 1a25 1d3a c4fb 10bc
00000310: 7ac2 673c 4785 58bc 94f2 15bb 2549 8ebb
00000320: 0b84 08bc 7c4a cdba 655c 4fbb 1193 23bc
00000330: 0c76 e4bb a55c 25bc d984 993b 7df1 24bc
00000340: f50b 9abc 6fe0 0c3c 354c 12bc bc38 0db9
00000350: 2b85 90bc dd1e 74bb 8f59 813b ae79 96bb
00000360: 5945 28bc eaac 3cbc c37a 9cbb 16cc 20bc
00000370: 87b1 e1ba e97e 25bb dfe3 11bc 428c da3a
00000380: 5309 5abc b53c 48bc 09cb 71bc 39b9 5abc
00000390: 0c4d 44bb 52d9 dfbb eddd c33a b774 3bbc
000003a0: 08e8 e13b 5299 64bc fe44 45bc 579e 4cbb
000003b0: a033 61bc dd4f cb3a 7d6d 36bc 7732 58bc
000003c0: cfe1 4abc d0fe f7bb 97a3 d33b ea24 21bc
000003d0: 8c37 74bc 2a84 40bc 43aa 66bb fa2d 54bc
000003e0: 8b8e cd3a 910d e13a 79c5 bdbb c3b5 13bc
000003f0: d93e 3cbc 0c8c 57bc 63be d13b fabf 1bbc

action_model._continuous_distribution.log_sigma f4 [1, 2]
-0.028661083 0.1070056
00000000: a6ca eabc c125 db3d

action_model._continuous_distribution.mu.weight f4 [2, 256]
-0.00050562294 0.012455397 -0.0038467976 0.0069162278 -0.004997677 -0.012627874 0.023074605 -0.003662159
-0.011251817 4.1982275e-06 -0.002284154 -0.0010764522 -0.0020363065 0.003421176 0.0062101423 -0.0056520994
0.00031024503 -0.012554764 -0.0010785 -0.00163981 -0.0031063685 -0.012178512 0.014856846 0.017042896
0.0018183986 -0.011695035 0.0038209371 0.0038526997 0.005080895 -0.00087460433 -0.0062831733 -0.008066837
-0.02542898 -0.009393321 -0.00832151 0.010191348 0.007898348 -0.015370667 0.004128238 -0.0057559754
0.0053015775 0.0017668046 -0.008498702 0.007444088 -0.0024188606 0.0021516343 -0.008435824 0.0043963543
0.0029770592 -0.049780242 0.00039383938 0.0003905234 0.008672573 -0.003604842 0.0052548917 0.00111327
-0.01322737 -0.004507889 0.0058391658 0.0061618625 -0.0027643314 -0.00085615815 0.013586241 -0.0014668303
0.0026866042 -0.015353821 -0.00226948 -0.0028244867 0.00598824 0.0062622465 -0.00819691 0.009522925
0.005525628 -0.022841062 -0.00268091 0.033609305 -0.010066753 -0.0042986902 -0.0054233596 -0.0007067295
0.016941793 0.0017073663 0.004705639 -0.00672569 0.01761665 3.7022393e-05 -0.00959348 0.005536315
0.0087640155 -0.0017084199 0.018628815 0.018576434 -0.017999511 0.004032617 0.0009181711 0.0155482935
-0.007925171 -0.02665563 -0.023312196 -0.009750345 0.023451397 0.014066885 0.026250433 -0.0027731264
-0.013022335 0.012389762 -0.009404327 -0.010379567 0.003907542 -0.014183999 -0.031955753 -0.0018103686
-0.0029647392 0.009513247 -0.00047364368 0.0040953797 0.0016111525 -0.01696315 -0.0010220708 0.000929937
-0.0077839685 0.019312331 -0.017248088 0.0061689885 -0.0108321365 0.007904515 0.007167717 0.009151551
0.0043707388 -0.012441539 -0.019150957 0.0030154246 0.0063358876 -0.0009654788 0.016731177 0.0076515228
-0.0035907736 0.008749521 -0.0040634656 -0.0061103636 -0.01027306 -0.0048133796 -0.005291742 -0.01190676
-0.01997831 0.017764688 0.01351534 0.040820576 -0.0018712675 0.0017317492 0.010074744 -0.006603337
0.009499539 -0.00039981908 -0.0016690512 0.0050948607 0.02688539 0.0026295965 0.017729724 -0.021627376
-0.024014499 -0.00083148887 0.0016803143 -0.0017910439 0.0024789283 -0.017471576 -0.0011542194 -0.0007002633
0.0017513208 -0.014914228 0.010691001 -0.0026869443 0.0010703393 0.0047396994 -0.0079318425 -0.0015085582
0.00829466 -0.020434879 0.004436213 0.0017685154 0.008685967 0.01374547 -0.004415604 0.003856622
0.0033016882 -0.0037345947 0.013036663 -0.008313873 0.0016942382 0.013220047 -0.021296224 -0.026444372
0.009890617 0.023726843 -0.0065366416 0.011165493 -0.0019861842 0.003591923 0.003172033 -0.008050272
-0.00076473807 0.0057391953 -0.005103843 0.0005388841 0.0035816883 0.01658779 -0.00090244587 -0.0028463332
0.004486449 -0.0025730662 -0.015035326 0.017555395 0.0014285026 -0.016947435 0.0015965336 -0.008706504
0.00985316 0.008559517 -0.0041550146 0.018439066 -0.0020616613 0.016423231 -0.030115431 -0.022224078
-0.0004032362 -0.002674891 0.0038553344 -0.008717446 0.005253681 -0.0027227262 -0.010569321 -0.004093391
0.013983509 -0.008651025 -0.0018040899 -0.00022721937 0.001376798 0.021922264 -0.0041150777 1.1237798e-05
0.004750236 0.0051911534 -0.021664003 0.015787022 0.0026178227 -0.009422236 -0.010684447 -0.00052726216
-0.0070247706 -0.0047907257 -0.001486185 0.0017638343 -0.01419003 0.0107101975 -0.021952018 -0.011291018
00000000: c88b 04ba b911 4c3c 8e1a 7cbb 86a1 e23b
00000010: 8ec3 a3bb 24e5 4ebc f406 bd3c d500 70bb
00000020: 8b59 38bc 80de 8c36 bfb1 15bb be17 8dba
00000030: 8e73 05bb cf35 603b 737e cb3b 3f35 b9bb
00000040: 62a8 a239 7fb2 4dbc 745c 8dba e5ee d6ba
00000050: 3794 4bbb 6288 47bc 216a 733c 8b9d 8b3c
00000060: 5557 ee3a 889c 3fbc b068 7a3b 937d 7c3b
00000070: a37d a63b b445 65ba 14e3 cdbb c42a 04bc
00000080: 7050 d0bc 72e6 19bc f156 08bc 9df9 263c
00000090: 1368 013c 40d5 7bbc 2c46 873b 9f9c bcbb
000000a0: dbb8 ad3b 2094 e73a 243e 0bbc 89ed f33b
000000b0: bf85 1ebb 6f02 0d3b 6936 0abc 4b0f 903b
000000c0: c41a 433b 5ee6 4bbd 3a7c ce39 2abf cc39
000000d0: 6817 0e3c 363f 6cbb 3a31 ac3b 24eb 913a
000000e0: 9cb7 58bc eab6 93bb 7956 bf3b 73e9 c93b
000000f0: c929 35bb cd6f 60ba d398 5e3c a842 c0ba
00000100: bd11 303b 988e 7bbc 8ebb 14bb 061b 39bb
00000110: ff38 c43b 8833 cd3b 554c 06bc 0b06 1c3c
00000120: 5410 b53b 2e1d bbbc 35b2 2fbb e9a9 093d
00000130: 06ef 24bc 07dc 8cbb 70b6 b1bb d043 39ba
00000140: 84c9 8a3c b5c9 df3a c331 9a3b 2d63 dcbb
00000150: cb50 903c 7e48 1b38 f92d 1dbc fa69 b53b
00000160: f296 0f3c 0fed dfba 759b 983c 9b2d 983c
00000170: b673 93bc 0b24 843b 6bb1 703a 45be 7e3c
00000180: 94d8 01bc e85c dabc 38f9 bebc e9bf 1fbc
00000190: 251d c03c cb78 663c 260b d73c 57bd 35bb
000001a0: a25b 55bc 6efe 4a3c 9b14 1abc 0f0f 2abc
000001b0: d70a 803b 0164 68bc 09e4 02bd e449 edba
000001c0: 124c 42bb 73dd 1b3c 6153 f8b9 8932 863b
000001d0: 4f2d d33a 4ef6 8abc 01f7 85ba 04c7 733a
000001e0: a910 ffbb e534 9e3c dd4b 8dbc 3a25 ca3b
000001f0: 4679 31bc f081 013c 2bdf ea3b 63f0 153c
00000200: 6a38 8f3b 99d7 4bbc 78e2 9cbc 6e9e 453b
00000210: 479d cf3b 2f18 7dba d20f 893c a0b9 fa3b
00000220: 2f53 6bbb 275a 0f3c d226 85bb 7239 c8bb
00000230: 5650 28bc 8eb9 9dbb 5966 adbb 9214 43bc
00000240: 8ea9 a3bc 4087 913c 726f 5d3c 7a33 273d
00000250: 5145 f5ba dcfb e23a 8a10 253c ce60 d8bb
00000260: f4a3 1b3c cf9e d1b9 11c4 daba caf2 a63b
00000270: c03e dc3c 4f55 2c3b ed3d 913c e52b b1bc
00000280: 0eba c4bc 46f8 59ba fe3d dc3a 76c1 eaba
00000290: 8475 223b 8d20 8fbc 2d49 97ba e091 37ba
000002a0: 938c e53a ce5a 74bc 4f29 2f3c 7217 30bb
000002b0: a14a 8c3a 7b4f 9b3b 8ff4 01bc d0ba c5ba
000002c0: 53e6 073c 0c67 a7bc a75d 913b 88cd e73a
000002d0: 964f 0e3c ae34 613c c5b0 90bb 61bf 7c3b
000002e0: 2361 583b 1ac0 74bb ba97 553c e936 08bc
000002f0: 3311 de3a e598 583c 6b75 aebc dea1 d8bc
00000300: 410c 223c cc5e c23c 5331 d6bb 79ef 363c
00000310: a42a 02bb 7866 6b3b e2e1 4f3b 4ae5 03bc
00000320: b478 48ba dc0f bc3b 233e a7bb e643 0d3a
00000330: c2ba 6a3b 1ee3 873c 1e92 6cba 8c89 3abb
00000340: 1003 933b e3a0 28bb ba56 76bc 55d0 8f3c
00000350: 983c bb3a 59d5 8abc c742 d13a b9a5 0ebc
00000360: 266f 213c 373d 0c3c ca26 88bb 860d 973c
00000370: f01c 07bb 038a 863c a3b4 f6bc 450f b6bc
00000380: 7269 d3b9 394d 2fbb c7a9 7c3b 9ed3 0ebc
00000390: 1227 ac3b c46f 32bb f22a 2dbc da21 86bb
000003a0: 161b 653c 07bd 0dbc 3677 ecba bc41 6eb9
000003b0: ad75 b43a 5296 b33c c6d7 86bb fa89 3c37
000003c0: dea7 9b3b 8d1a aa3b b578 b1bc c953 813c
000003d0: c78f 2b3b b95f 1abc d20d 2fbc f737 0aba
000003e0: 0c30 e6bb 85fb 9cbb 18cc c2ba 7530 e73a
000003f0: 4d7d 68bc d379 2f3c b8d4 b3bc f6fd 38bc

action_model._continuous_distribution.mu.bias f4 [2]
-0.0014269907 0.0098063825
00000000: dd09 bbba f3aa 203c

66 f4 [20]
0.25102332 0.4999154 0.48668075 0.43318918 0.3580499 0.49591106 0.48548058 0.4258148
0.38970253 0.49978334 0.4340668 0.38047028 0.46866468 0.4999524 0.34808362 0.30798423
0.49015713 0.49971193 0.29102767 0.26180145
00000000: 2186 803e e9f4 ff3e 382e f93e f9ca dd3e
00000010: 5152 b73e 0ee8 fd3e e990 f83e 6604 da3e
00000020: 1787 c73e 9ae3 ff3e 013e de3e 00cd c23e
00000030: d1f4 ef3e c3f9 ff3e 0438 b23e 1cb0 9d3e
00000040: e0f5 fa3e 3eda ff3e 9401 953e d70a 863e

69 f4 [12]
0.37791187 0.4999154 0.44914666 0.4391706 0.3850328 0.49972364 0.4489646 0.4387778
0.36993498 0.50000435 0.44940728 0.43958312
00000000: aa7d c13e e9f4 ff3e 8df6 e53e f8da e03e
00000010: 0523 c53e c7db ff3e b0de e53e 7ca7 e03e
00000020: 1e68 bd3e 4900 003f b618 e63e 0a11 e13e

72 f4 [3]
0.2014608 0.004337994 1.200507
00000000: bd4b 4e3e bb25 8e3b 37aa 993f
