results/firstry/KartAgent/KartAgent-123889.onnx (onnx, 305043 bytes, 13 tensors)

network_body.observation_encoder.processors.0.normalizer.running_mean f4 [20]
0	0x00000000	0.0
1	0x3f611882	0.8792802
2	0x3b17d19c	0.0023165708
3	0x3e17ab35	0.14811404
4	0x3f257681	0.6463395
5	0x3e8f700f	0.2801518
6	0x3b1967e1	0.0023407864
7	0x3db5b010	0.08871472
8	0x3ee78d0b	0.45224795
9	0x3ee61ac0	0.44942284
10	0x3b1967e1	0.0023407864
11	0x3e245515	0.16048081
12	0x3f3d0df2	0.73849404
13	0x3e1e6801	0.15469362
14	0x3b1967e1	0.0023407864
15	0x3ddade7b	0.10686966
16	0x3f1febc6	0.62469137
17	0x3e93a2f8	0.28835273
18	0x3b1967e1	0.0023407864
19	0x3e417e06	0.1889573

network_body.observation_encoder.processors.1.normalizer.running_mean f4 [12]
0	0x00000000	0.0
1	0x3f611882	0.8792802
2	0x3b17d19c	0.0023165708
3	0x3d00ed0d	0.03147607
4	0x3e0882e6	0.13331184
5	0x3f416fe8	0.7556138
6	0x3b17d19c	0.0023165708
7	0x3ce55a1f	0.027997075
8	0x00000000	0.0
9	0x3f60c8a1	0.87806135
10	0x3b17d19c	0.0023165708
11	0x3d0111a6	0.03151097

network_body.observation_encoder.processors.2.normalizer.running_mean f4 [3]
0	0xbd199560	-0.03749597
1	0x3e88d126	0.26722068
2	0x3e08bc79	0.13353147

network_body._body_endoder.seq_layers.0.weight f4 [256, 35]
0	0x3e04e8ca	0.12979427
1	0x3dc61fc1	0.09674025
2	0xbc406462	-0.011742683
3	0xbe991b2b	-0.2990354
4	0x3e0bdcdb	0.13658468
5	0xbe00e264	-0.12586361
6	0xbdd68986	-0.10475449
7	0x3d24b83d	0.040214766
8	0xbcf03231	-0.029320808
9	0x3e10e928	0.14151442
10	0x3db6ef8e	0.0893241
11	0x3e12456f	0.142843
12	0x3cf04a9b	0.02933245
13	0xbcb75481	-0.022379162
14	0xbcae966c	-0.021311961
15	0x3e2c330d	0.1681635
16	0xbdd5c3de	-0.10437749
17	0x3dbc23b3	0.091864966
18	0xbd374dad	-0.04475181
19	0xbd7d469c	-0.061834916
20	0xbdbb534d	-0.09146748
21	0x3d06f99f	0.0329529
22	0x3e511b99	0.20420684
23	0x3db6cc9b	0.08925744
24	0xbd89a4e2	-0.06720902
25	0xbd4e845f	-0.050419208
26	0x3e81ece8	0.25376058
27	0x3cf04847	0.02933134
28	0xbe0603ac	-0.13087338
29	0x3b869558	0.0041071586
30	0x3db60b30	0.088888526
31	0x3cf14c52	0.029455338
32	0x3b9bb256	0.004751484
33	0x3da04d79	0.07827277
34	0x3dd766ac	0.1051763
35	0xbe108016	-0.14111361
36	0x3cf77d4c	0.030211113
37	0xbe30fa63	-0.17283015
38	0x3ea4f2c1	0.32216457
39	0x3d6b1c20	0.05739987
40	0xbe8db478	-0.2767675
41	0xbea28aeb	-0.3174661
42	0x3dfbbb07	0.12291532
43	0xbe26bbc9	-0.16282572
44	0xbe96569b	-0.2936295
45	0xbe77879b	-0.24172823
46	0xbe78480e	-0.24246237
47	0xbe5a984b	-0.21347158
48	0xbe0cbf0d	-0.13744755
49	0xbd9c8cc0	-0.076440334
50	0x3e1565df	0.14589642
51	0x3b980d1d	0.004640235
52	0x3e0107ed	0.1260068
53	0x3e151693	0.14559393
54	0xbe47664e	-0.1947262
55	0xbb60fe9d	-0.003433145
56	0xbe28e072	-0.16491869
57	0x3e5bbec8	0.21459496
58	0x3e0c1d3b	0.13683026
59	0xbe777639	-0.24166192
60	0x3d4f7939	0.050652716
61	0x3d14e96e	0.03635543
62	0xbea355e3	-0.31901464
63	0xbe056691	-0.13027407
64	0x3e5280a1	0.2055688
65	0x3e1e4ff9	0.15460195
66	0x3d129792	0.03578908
67	0xbe56a046	-0.20959577
68	0x3dfbd3db	0.122962676
69	0x3e62b9f9	0.22141255
70	0xbe99126b	-0.29896864
71	0x3e4bb3d5	0.19892819
72	0xbe1395d7	-0.14412628
73	0x3e022f1b	0.12713282
74	0x3d3ff2cc	0.04686241
75	0xbe533a8a	-0.206278
76	0x3d62b478	0.05534789
77	0xbe19d3f2	-0.15022257
78	0xbe072918	-0.1319927
79	0xbe530adb	-0.2060961
80	0xbe236799	-0.15957488
81	0x3cf1ff55	0.029540697
82	0xbd0875bc	-0.033315405
83	0xbd65bf58	-0.056090683
84	0x3d625725	0.05525889
85	0x3ebe12a6	0.37123603
86	0xbdfa7349	-0.1222902
87	0x3dad25b3	0.08454456
88	0xbe814480	-0.25247574
89	0xbd4d7e4e	-0.05016928
90	0x3d2a7e96	0.041624628
91	0xbbc88a6f	-0.006120018
92	0xbebb7918	-0.36615825
93	0x3dbea089	0.093079634
94	0x3cc4a8d4	0.024006285
95	0xbd79be28	-0.060972363
96	0x3d7d776a	0.06188146
97	0xbda67cbe	-0.081292614
98	0x3eba4721	0.36382392
99	0xbe101e66	-0.14074096
100	0x3e24140e	0.16023275
101	0x3e46cd3e	0.19414231
102	0x3ecb3679	0.39689997
103	0xbc5d30be	-0.013500391
104	0xbe40aba2	-0.18815473
105	0xbdfc2cb7	-0.12313216
106	0xbe49a0c5	-0.19690235
107	0xbdb85f78	-0.09002584
108	0x3e08e239	0.13367547
109	0xbc9a1de5	-0.018813083
110	0xbe337787	-0.17526065
111	0x3dc5a469	0.096504994
112	0xbc191aeb	-0.009344797
113	0xbe0dff06	-0.13866815
114	0x3e185513	0.14876203
115	0xbe0724ad	-0.13197584
116	0xbd8ced72	-0.068812266
117	0xbd952a26	-0.0728343
118	0xbdc4893a	-0.095964864
119	0x3ea095a3	0.31364164
120	0xbea47dae	-0.32127136
121	0xbdca2e68	-0.098721325
122	0xba095295	-0.0005238441
123	0xbd2cda2f	-0.042200264
124	0xbe4a9c36	-0.19786152
125	0x3e9e490c	0.30915105
126	0xbdb4b401	-0.088233955
127	0xbe4ecac1	-0.20194532
128	0xbc2210c4	-0.009891693
129	0xbea36bb0	-0.31918097
130	0x3cf17160	0.029473007
131	0x3dd636e5	0.10459689
132	0x3dca065f	0.098644964
133	0x3df6705d	0.1203315
134	0xbea7361a	-0.32658464
135	0xbdd81ce8	-0.105523884
136	0x3d79e0ee	0.061005525
137	0xbdf99d6d	-0.1218823
138	0x3e214710	0.15749764
139	0xbe11aeab	-0.14226787
140	0xbd2eb1af	-0.04264992
141	0x3dda6313	0.10663428
142	0xbdafbc44	-0.08580831
143	0x3e4473fc	0.1918487
144	0x3e30f85d	0.17282243
145	0x3d3ec95b	0.046578746
146	0x3c47fdee	0.012206538
147	0xbe2ef7cb	-0.17086713
148	0xbd1f0acc	-0.038828656
149	0x3dd433f0	0.10361469
150	0x3e05854c	0.1303913
151	0x3e8fe196	0.28101796
152	0xbdf527ef	-0.11970507
153	0xbe2af499	-0.16694869
154	0xbe1f9342	-0.15583518
155	0xbe74a297	-0.23890148
156	0xbe573de7	-0.21019708
157	0xbd713be4	-0.058895007
158	0xbde67693	-0.11253085
159	0x3e694851	0.22781493
160	0x3eb62708	0.35576653
161	0x3d2fc03e	0.042907946
162	0x3eafcbb7	0.3433511
163	0x3de0367a	0.109478906
164	0x3e72d1bf	0.23712824
165	0xbc763de1	-0.0150294015
166	0x3e61977b	0.22030441
167	0xbd28447f	-0.041080948
168	0x3e837661	0.25676253
169	0xbe9440c4	-0.28955662
170	0x3d99de76	0.07513134
171	0xbe164225	-0.1467367
172	0xbdcae98e	-0.09907828
173	0xbe45ae1c	-0.19304699
174	0x3b8690e3	0.0041066273
175	0x3ddfdf96	0.109313175
176	0x3de7d30d	0.113195516
177	0x3c26e5c4	0.010186616
178	0xbd86df07	-0.06585508
179	0x3e186719	0.14883079
180	0xbe67f30e	-0.22651312
181	0xbd6cfe5d	-0.057859767
182	0x3e7ee105	0.24890526
183	0x3d84a670	0.06477058
184	0x3cd4b07c	0.02596306
185	0xbe6961cf	-0.22791217
186	0xbcac10c0	-0.02100408
187	0xbdd4586e	-0.10368429
188	0x3d1f764a	0.03893117
189	0xbe3269f6	-0.17423233
190	0xbe320ee3	-0.17388491
191	0x3df30de2	0.11867882
192	0xbdb0978c	-0.08622655
193	0x3e11f992	0.1425536
194	0xbe7633f2	-0.24043253
195	0xbe5017ac	-0.2032153
196	0x3d88a170	0.06671417
197	0xbe96c450	-0.2944665
198	0x3d2fa46f	0.042881425
199	0xbe0e243f	-0.13881014
200	0xbe13e34d	-0.14442177
201	0x3bf1dc52	0.0073810006
202	0xbcde2274	-0.027116038
203	0x3cc6183a	0.024181474
204	0x3d3af46f	0.045643266
205	0x3e805687	0.25066015
206	0xbb3f7ec4	-0.0029219845
207	0xbdae418e	-0.08508597
208	0x3da67831	0.081283934
209	0xbd881ed5	-0.06646506
210	0x3e25956a	0.16170278
211	0x3c1b698a	0.009485612
212	0xbe3fdb0a	-0.187359
213	0x3e37dc58	0.17955148
214	0x3e51b6fd	0.2047996
215	0xbd2947d6	-0.041328274
216	0x3dde4fdf	0.10855078
217	0xbcceb54f	-0.025232939
218	0x3de78178	0.11303991
219	0xbd9f8867	-0.077896886
220	0xbe3de782	-0.18545344
221	0x3d9f1edc	0.07769558
222	0xbe61d113	-0.22052412
223	0x3b214956	0.0024610362
224	0xbe07ce4d	-0.13262291
225	0xbe5dc16d	-0.21655817
226	0xbd9490e2	-0.07254197
227	0xbd0ef816	-0.034904562
228	0xbe01928c	-0.1265356
229	0xbd1d634b	-0.03842477
230	0x3d0bbd54	0.034116104
231	0x3d4de19e	0.050263993
232	0x3db64f02	0.08901788
233	0x3e1a957a	0.15096083
234	0xbd63675c	-0.055518493
235	0xbd8633df	-0.065528624
236	0xbee9c484	-0.45657742
237	0x3e6298c6	0.22128591
238	0xbd79e354	-0.061007813
239	0xbe498a6f	-0.19681714
240	0xbe070e32	-0.13189009
241	0xbe407e70	-0.18798232
242	0xbdf50669	-0.11964113
243	0xbd5f2e96	-0.054487787
244	0xbd91b64a	-0.07114847
245	0x3e18ce7a	0.14922515
246	0x3e9105c0	0.283247
247	0x3c76e6f2	0.01506971
248	0xbe802d0b	-0.25034365
249	0xbe41588c	-0.18881434
250	0x3d5cb56e	0.053883962
251	0x3e35af83	0.17742734
252	0xbe59751e	-0.21236083
253	0x3c93054d	0.017946864
254	0xbdf132b3	-0.11777248
255	0x3e0f22e3	0.13978152

network_body._body_endoder.seq_layers.0.bias f4 [256]
0	0x3ca2b47d	0.019861454
1	0xbba76cc6	-0.0051094024
2	0xbbe2f19d	-0.006925775
3	0xbd0792b3	-0.033098888
4	0xbd266647	-0.040624883
5	0xbc759d3c	-0.014991101
6	0xbd4bbc13	-0.04973991
7	0xbc849989	-0.016186493
8	0x3c77f1fc	0.015133377
9	0xba26e03f	-0.0006365813
10	0xbcc3ed83	-0.023916965
11	0xbc8297bb	-0.015941491
12	0x3c5deee6	0.013545727
13	0xbca0f012	-0.019645724
14	0xbca45470	-0.020059794
15	0xbd04d2c4	-0.032427564
16	0xbcc502a6	-0.024049114
17	0x39e005a3	0.0004272881
18	0x3be461e0	0.0069696754
19	0x3b9d468c	0.0047996696
20	0x3c4501aa	0.0120243225
21	0xbcbcabd8	-0.02303116
22	0xbcf45a86	-0.029828321
23	0xbbb571d6	-0.005537252
24	0xbb1e6843	-0.0024171032
25	0x3b6c845d	0.0036089637
26	0xbaacb477	-0.0013176341
27	0xbccf324b	-0.025292536
28	0xbccd58cb	-0.025066754
29	0xbc1daf81	-0.009624363
30	0x3bbdab33	0.005788231
31	0xbab33753	-0.0013673104
32	0xbc99a94c	-0.018757485
33	0xbc954dbc	-0.018225543
34	0x3c82164d	0.015879774
35	0xbc868c57	-0.016424341
36	0xbccbcc9f	-0.024877844
37	0xbcb2c5ef	-0.021822898
38	0x3c6bdfb4	0.014396597
39	0xbce52efe	-0.02797651
40	0xbb84641e	-0.004040255
41	0x3bed2a24	0.0072376896
42	0xbb1f0b57	-0.0024268234
43	0xbab2d43c	-0.0013643573
44	0xbc6a0c1e	-0.0142851155
45	0x3c0ed2c6	0.0087172445
46	0x3a070372	0.00051503547
47	0xbbd25e28	-0.0064199157
48	0xbc7a1271	-0.015263186
49	0xbb37d5c0	-0.002805099
50	0xbb1f6bb7	-0.0024325678
51	0xbd3fc00d	-0.046814013
52	0xbc766a95	-0.01504006
53	0xbcf1e694	-0.029528894
54	0xbc49a704	-0.012307886
55	0xbcd0e562	-0.025500003
56	0xbc9e7138	-0.019341096
57	0xbbd6eb75	-0.0065588304
58	0xbc951bc9	-0.018201726
59	0xbc6372a3	-0.013882312
60	0xbc5f21f4	-0.013618935
61	0xbcb74075	-0.022369603
62	0xbc468ea8	-0.012118973
63	0xbb7facb0	-0.0039012842
64	0xbc520989	-0.012819656
65	0xbcadc5ff	-0.021212576
66	0xbb5becec	-0.0033557964
67	0xbc333b58	-0.010939442
68	0xbd07d19d	-0.033158887
69	0xbbd1318a	-0.0063840793
70	0xbae10053	-0.0017166234
71	0xbc24040b	-0.01001073
72	0x3bc56dbb	0.006025044
73	0xbc7c9bb0	-0.015417978
74	0xbc4330b1	-0.011913464
75	0xbd0c6691	-0.034277502
76	0xbaca55c8	-0.0015436942
77	0xbc0fc10c	-0.008774053
78	0xbb8c0f47	-0.004274282
79	0xbd1eaca9	-0.03873888
80	0xbc96319d	-0.018334204
81	0xbbe8dfdd	-0.0071067647
82	0x3c52cba6	0.012865936
83	0x3b8b9219	0.0042593596
84	0xbc9ac991	-0.018894942
85	0xbcdb444d	-0.026765967
86	0xbcd4f10b	-0.025993844
87	0xbb353081	-0.0027647319
88	0x3a0b3f14	0.00053118286
89	0xbc8ed46b	-0.017435273
90	0x3a5329fa	0.0008055266
91	0xbcb7a299	-0.0224164
92	0xbca2fc9f	-0.01989585
93	0x3b203abe	0.0024449076
94	0xbc293522	-0.010327609
95	0xb8ab8bd8	-8.179963e-05
96	0xbc5e9fff	-0.013587951
97	0xbd01f240	-0.03172517
98	0xbc25130d	-0.010075343
99	0xbc79ea77	-0.015253655
100	0xbcc59f17	-0.024123712
101	0xbd043fde	-0.03228747
102	0xbd198db5	-0.037488658
103	0x3c1d3b3a	0.00959664
104	0x3a128431	0.0005589156
105	0x39ea0c9a	0.00044641347
106	0xbcb2c04a	-0.021820206
107	0xbc11781a	-0.008878732
108	0xbc0bb3e1	-0.008526773
109	0x3a369dcd	0.0006966263
110	0xbd284a1a	-0.041086294
111	0x3c984339	0.018586742
112	0x3be7f59c	0.0070788395
113	0x3c54c0e4	0.012985442
114	0x39368453	0.00017406167
115	0x3be580a7	0.007003862
116	0xbcbd98b7	-0.02314411
117	0xbb7faaf4	-0.0039011808
118	0xbc5f1afc	-0.013617273
119	0xbbc2af1f	-0.005941286
120	0xbc8dcc90	-0.017309457
121	0xb80682e0	-3.2069976e-05
122	0xbca2ac0b	-0.019857427
123	0x3c996d12	0.018728767
124	0xbcf70291	-0.030152591
125	0xbbcc5937	-0.006236221
126	0xbca69167	-0.020333005
127	0xbd071eb4	-0.032988265
128	0xbc9968aa	-0.018726666
129	0xbb6f1aa1	-0.0036484378
130	0x3cc37542	0.023859624
131	0xbc7adb85	-0.015311127
132	0x3cbebf51	0.023284586
133	0xbb86980c	-0.004107481
134	0xbcbe44f5	-0.02322624
135	0x3c11705b	0.008876885
136	0xbabad79e	-0.0014254933
137	0xbc8affa7	-0.016967608
138	0x3d03f61d	0.032217134
139	0x3c93b9da	0.018032957
140	0xbb36c639	-0.0027889146
141	0x3bdcc388	0.0067371763
142	0xbcc4e0d9	-0.024032997
143	0xbce0a8e3	-0.027424281
144	0xbc7b1117	-0.015323899
145	0xbc222f53	-0.009898978
146	0x3b7b6700	0.0038360953
147	0xbc8ee749	-0.01744427
148	0x3cd235d4	0.025660433
149	0x3b5dd36f	0.0033847948
150	0xbd32d9a3	-0.043664586
151	0x3bccef48	0.0062541105
152	0xbc35c9e2	-0.011095496
153	0xbca2e326	-0.019883703
154	0x3ac3ebc8	0.0014947588
155	0xbc2e2dc8	-0.010631032
156	0xbc1a1991	-0.00940551
157	0xbc8cc8d5	-0.017185608
158	0xbc241660	-0.0100151
159	0xbc89f83f	-0.016842006
160	0x3c8bd42f	0.01706895
161	0xbc682186	-0.014168149
162	0xbc88ce73	-0.016700005
163	0xbc612c49	-0.013743469
164	0xbd0bcd86	-0.03413155
165	0xbbfc3fa7	-0.0076980176
166	0xbccc2e0b	-0.024924299
167	0xbd09f311	-0.03367907
168	0xbcb3c5ca	-0.0219449
169	0x3c617d33	0.01376276
170	0xbcf56260	-0.029954135
171	0xbd2b653a	-0.041844584
172	0xbc391867	-0.011297322
173	0xbd3b6118	-0.045746893
174	0xbcdc8d2c	-0.026922785
175	0xbb9ef921	-0.004851476
176	0xbcabdfa6	-0.020980667
177	0xbd100c90	-0.03516823
178	0x3c976db2	0.018484924
179	0xbcfc4d03	-0.03079844
180	0xbbc9be1c	-0.006156696
181	0xbbb7332e	-0.005590818
182	0x3c418446	0.011811322
183	0xbcf7ec17	-0.030263944
184	0x3b1a2048	0.0023517776
185	0xbc6927fb	-0.0142307235
186	0x3b036873	0.002005127
187	0x3b86619c	0.0041009914
188	0xbcf71752	-0.030162487
189	0xbbbd91bf	-0.0057851966
190	0x3c5e37ff	0.013563155
191	0xbc95acf9	-0.018270956
192	0xbcd8bc64	-0.02645702
193	0x3b9a0012	0.0046997154
194	0xbce63f08	-0.028106228
195	0xbc5cb758	-0.013471447
196	0xbd10b906	-0.035332702
197	0xbb8d2179	-0.004306969
198	0xb98eebdd	-0.00027260082
199	0xbb516bc8	-0.0031955112
200	0xbbf24a15	-0.007394085
201	0xbc62d817	-0.013845465
202	0x3bcd7e05	0.006271126
203	0x3c648094	0.013946671
204	0xba11b695	-0.0005558518
205	0x3b188a9b	0.0023275975
206	0x3c1adc99	0.009452009
207	0x3c935e3e	0.017989274
208	0xbb5244ce	-0.0032084468
209	0xbd01ac9d	-0.031658757
210	0xbc8b32f1	-0.016992064
211	0xbc451549	-0.012029001
212	0xbc750d0b	-0.014956723
213	0x3ab435f0	0.0013748985
214	0x3c30a474	0.010781396
215	0xbc992f85	-0.018699417
216	0xbbe83179	-0.0070859757
217	0x3c5c6b02	0.013453247
218	0xbcc02058	-0.023452923
219	0xbcf71292	-0.030160222
220	0xbcbe8fec	-0.023261987
221	0xbc3b56c1	-0.011434258
222	0x3b8c46a9	0.0042808843
223	0xbc803a7c	-0.015652888
224	0xbc5129a9	-0.01276628
225	0x3c49032d	0.012268824
226	0xbcd3e5a7	-0.025866343
227	0xbca0248a	-0.019548673
228	0xbc72b019	-0.014812493
229	0xbcad5cef	-0.021162478
230	0xbcbc7794	-0.023006238
231	0xb7b4d3ba	-2.1556265e-05
232	0xbca551a0	-0.020180523
233	0xbcdb02e4	-0.026734777
234	0xbc0233e9	-0.007946947
235	0xb9c14f41	-0.00036870877
236	0xbbc35b16	-0.005961786
237	0x3beae369	0.0071682227
238	0xbb622ca7	-0.0034511478
239	0xbce9fb01	-0.02856207
240	0x3c4be2b6	0.012444189
241	0xbcfc7670	-0.030818194
242	0x3c0a16fa	0.00842833
243	0xbcba9c93	-0.022779739
244	0xbc7c8ac3	-0.015413943
245	0xbc3ea0a8	-0.011634983
246	0xbc84e9b8	-0.016224727
247	0x3bafed79	0.005368885
248	0x3b38784e	0.002814788
249	0xbca98018	-0.020690963
250	0x3b03bd95	0.0020102013
251	0xbc812b2a	-0.015767653
252	0xbcb4331c	-0.021997027
253	0x3bb13fcd	0.005409217
254	0xbcc1e694	-0.023669519
255	0xbca2b8c1	-0.019863488

network_body._body_endoder.seq_layers.2.weight f4 [256, 256]
0	0x3d247c11	0.04015738
1	0xbd63e24c	-0.055635735
2	0xbd07ef52	-0.033187218
3	0xbc5acd6c	-0.01335464
4	0x3c89304a	0.016746659
5	0x3d4cfdb7	0.05004665
6	0xbd7b226a	-0.061312117
7	0x3e087c1a	0.13328591
8	0x3ccfa945	0.025349269
9	0xbc214dc0	-0.009845197
10	0x3d6f74c2	0.05846096
11	0xbd9a9e3c	-0.07549712
12	0x3d2444cb	0.04010467
13	0x3d38315d	0.04496895
14	0xbd096cbd	-0.033550967
15	0x3cef1634	0.029185392
16	0xbd8539fa	-0.06505199
17	0xbce40d58	-0.027838394
18	0xbc658a74	-0.014010061
19	0xbd1c5563	-0.03816737
20	0xbdf609e6	-0.12013607
21	0xbdece9fe	-0.11568068
22	0xbc80e56d	-0.015734399
23	0xbab15615	-0.0013529683
24	0xbccc75be	-0.024958488
25	0xbcd68937	-0.026188476
26	0xbd2f1e40	-0.042753458
27	0x3d8a1e4a	0.067440584
28	0x3b61ec44	0.00344731
29	0xbd9e25cc	-0.07722053
30	0xbc854326	-0.01626737
31	0xbd5e12f7	-0.054217305
32	0xbcd5152d	-0.026011074
33	0xbcad8033	-0.021179294
34	0xbcfeeee4	-0.031119771
35	0x3cdd5a80	0.027020693
36	0xbd971ba2	-0.073783174
37	0x3d6014a6	0.054707192
38	0x3e135a53	0.14389925
39	0xbd2f07c9	-0.042732034
40	0x3dc7d8f4	0.097581774
41	0xbd324cc6	-0.043530248
42	0xbb836998	-0.0040103905
43	0xbe03f5f6	-0.12886795
44	0x3d819a86	0.06328301
45	0x3bd7ff2b	0.0065916977
46	0xbe331d12	-0.17491558
47	0xbb17de10	-0.002317313
48	0xbdc6f6fa	-0.09715076
49	0xbc65ec45	-0.014033382
50	0x3d237f13	0.03991611
51	0xbd2b2499	-0.04178295
52	0xbd649222	-0.055803426
53	0x3db3808a	0.08764751
54	0x3d0bc863	0.03412665
55	0xbc2fb173	-0.01072346
56	0x3d125d90	0.03573376
57	0xbc7ba38a	-0.015358815
58	0xbca72015	-0.02040104
59	0x3d2c49fb	0.04206274
60	0xbdeab63d	-0.114605404
61	0xbdb6c531	-0.0892433
62	0xbd3d3f96	-0.04620322
63	0xbdb77cfd	-0.089593865
64	0x3d388bf6	0.045055352
65	0x3d834383	0.06409361
66	0xbdd10549	-0.10206086
67	0xbb6ce4ac	-0.0036147041
68	0x3ce7d45f	0.028299509
69	0xbc061096	-0.008182665
70	0x3d87b75b	0.06626769
71	0xbd28da92	-0.04122407
72	0x3d7d6fd7	0.061874237
73	0x3c78653a	0.015160853
74	0xbe0d4660	-0.13796377
75	0x3cb72e08	0.022360817
76	0xba999ed1	-0.0011720305
77	0x3d9b434b	0.075811945
78	0xbe1417b9	-0.14462174
79	0x3c851341	0.016244533
80	0x3caa15bb	0.020762315
81	0x3c57acae	0.013163729
82	0xbd92dee5	-0.0717142
83	0x3d87ed62	0.06637074
84	0x3dc03eae	0.09386955
85	0xbc80e565	-0.015734384
86	0x3c827153	0.015923178
87	0xba848d14	-0.0010112845
88	0xbdbcfb79	-0.09227652
89	0xbc8e0e13	-0.017340695
90	0x3d2fa9f3	0.042886686
91	0x3cb3ce43	0.02194894
92	0x3dfad2f8	0.1224727
93	0xbc8be93a	-0.017078985
94	0xbdbedea1	-0.09319807
95	0x3dfb8cc5	0.12282709
96	0x3aa48c3d	0.0012554001
97	0x3cee9400	0.029123306
98	0x3d076599	0.033055875
99	0xbdddf9d1	-0.10838664
100	0xbc4dfda8	-0.012572683
101	0x3d8749db	0.06605884
102	0x3db9c15f	0.09070086
103	0x3cbb39a4	0.022854634
104	0xbd60ac6a	-0.054851927
105	0x3d4b5697	0.049643125
106	0xbd0af9bc	-0.03392957
107	0xbdace1b1	-0.08441485
108	0x3c130ead	0.008975667
109	0x3ba36582	0.004986466
110	0x3cb18e59	0.021674322
111	0x3c873d7a	0.016508806
112	0xbd478c80	-0.048717976
113	0xbcdf0005	-0.027221689
114	0x3d45f19a	0.048326112
115	0x3d107c26	0.035274647
116	0xbbd7d77f	-0.0065869684
117	0xbb9b2d6d	-0.00473564
118	0x3e1b44c1	0.15162946
119	0xbda3da94	-0.08000675
120	0xbd46b4da	-0.048512317
121	0x3e11efce	0.14251634
122	0xbc28c4ed	-0.010300857
123	0x3ca3d91e	0.02000099
124	0xbd744853	-0.059639286
125	0xbcd0c69e	-0.025485333
126	0x3d1ad461	0.037800197
127	0x3d9cc071	0.07653893
128	0x3ceeb261	0.029137792
129	0x3dcaa2e0	0.09894347
130	0xbbdce1d2	-0.006740787
131	0x3b6bbad0	0.0035969503
132	0x3d4ce640	0.05002427
133	0x3c5170b8	0.012783222
134	0xbbd0addc	-0.006368382
135	0x3db4b542	0.08823635
136	0xbd9d7ce4	-0.076898366
137	0xbd8f912f	-0.070101134
138	0x3dc6c4dc	0.09705517
139	0x3d849d65	0.06475333
140	0xbc3aea98	-0.011408471
141	0x3dcff8f6	0.101549074
142	0x3c98a27e	0.01863217
143	0xbd8bf34f	-0.06833517
144	0xbd745498	-0.059650987
145	0x3dc89b06	0.097951934
146	0x3cf5a725	0.029986927
147	0xbde60aaa	-0.11232503
148	0x3cd3c638	0.025851354
149	0x3cbb6f6f	0.022880284
150	0x3b65692f	0.0035005321
151	0x3be8d689	0.0071056527
152	0x3d17c4c6	0.037052892
153	0xbd9fa7fb	-0.077957116
154	0xbe02c3be	-0.12769982
155	0xbcfc1b64	-0.03077478
156	0x3d258ea2	0.04041923
157	0xbdd7153c	-0.10502097
158	0xbc30da0b	-0.010794173
159	0x3d020066	0.03173866
160	0xbb3dad63	-0.0028942458
161	0x3d6b9032	0.057510562
162	0xbdf3b432	-0.11899604
163	0xbd50d236	-0.050981723
164	0x3dca71a2	0.09884955
165	0x3c79917b	0.015232439
166	0xbdb06e2d	-0.08614764
167	0x3b61093d	0.0034337782
168	0xbd2b5c8d	-0.04183631
169	0x3de02c85	0.109459914
170	0xbaab2b3b	-0.0013059148
171	0xbd24535c	-0.04011856
172	0x3c8b4625	0.017001221
173	0x3c903713	0.017604386
174	0x3c1f1a89	0.009710916
175	0x3cb0c125	0.021576473
176	0x3d880787	0.06642061
177	0xbcf44b0c	-0.029820941
178	0x3cb959ca	0.022625823
179	0x3c6a9b98	0.014319323
180	0x3e004cb2	0.12529257
181	0xbccfbd13	-0.025358712
182	0x3daabaae	0.083363876
183	0xbcd43de0	-0.02590841
184	0x3ce897a2	0.028392617
185	0x3d009089	0.03138784
186	0xbc4cb6b1	-0.012494729
187	0x3cb0b7b4	0.021571971
188	0x3d9ee294	0.0775806
189	0xbdede288	-0.11615473
190	0xbdcee8f8	-0.10103029
191	0xbd140770	-0.036139905
192	0x3bd64c8c	0.006539887
193	0xbcb07941	-0.021542193
194	0x3c79c566	0.015244817
195	0x3d12c027	0.035827782
196	0x3d95ac40	0.07308245
197	0x3d41864e	0.047247224
198	0xbc72206f	-0.014778241
199	0xbd1bb4c4	-0.03801419
200	0x3d43ddde	0.04781901
201	0xbcb25cea	-0.02177282
202	0x3da21e0f	0.079158895
203	0xbbfdefc2	-0.0077495286
204	0xbe095cc5	-0.13414295
205	0x3dc5fa88	0.09666926
206	0x3dd5ef77	0.10446065
207	0xbc2654a5	-0.010152017
208	0x3ce04221	0.027375283
209	0xbd84baf1	-0.06480969
210	0xbd5b61d5	-0.053560097
211	0x3cd6920b	0.026192686
212	0xbbb04d2a	-0.0053802924
213	0x3d12daf5	0.035853345
214	0xbd2907e5	-0.041267294
215	0xbe10b870	-0.14132857
216	0x3cf2d390	0.029641896
217	0xbcf04da8	-0.029333904
218	0xbdcfe759	-0.10151548
219	0xbd1e9e23	-0.03872503
220	0xbd9cc686	-0.07655053
221	0x3d7da93a	0.061928965
222	0x3ac77979	0.0015218697
223	0x3b880fc0	0.004152268
224	0x3c6255e2	0.013814421
225	0xbcb16380	-0.02165389
226	0xbdb7d55c	-0.08976242
227	0xbdadb992	-0.0848266
228	0x3d90051e	0.07032226
229	0xbd120397	-0.035647955
230	0x3c6511bc	0.013981279
231	0xbc683421	-0.014172585
232	0xbcb5ebb2	-0.022207115
233	0xbc96d2d0	-0.01841107
234	0x3bcb099b	0.0061962134
235	0xbc050a38	-0.008120112
236	0x3c65d2e2	0.014027329
237	0xbdbfcab1	-0.09364832
238	0x3de0e507	0.109811835
239	0xbc34e3af	-0.011040612
240	0x3cc8fcef	0.02453467
241	0x3db7afa2	0.08969046
242	0xbd40fba7	-0.047114994
243	0xbd197e2c	-0.037473843
244	0x3ce6575c	0.028117828
245	0xbcb05377	-0.021524174
246	0xbd5a6bf6	-0.053325616
247	0xbc770045	-0.015075748
248	0xbdfc9df1	-0.123348124
249	0xbc1f2a1e	-0.009714631
250	0x3d642301	0.055697445
251	0x3c565bea	0.013083437
252	0xbbb69b2d	-0.0055726976
253	0x3ccbe1c7	0.024887932
254	0x3c78a836	0.015176823
255	0x3c32d898	0.010915898

network_body._body_endoder.seq_layers.2.bias f4 [256]
0	0x3ae7a3ce	0.0017672719
1	0xbc959e68	-0.01826401
2	0xbc9d77d9	-0.019222187
3	0xbb8f84c6	-0.0043798415
4	0xbcbcb930	-0.023037523
5	0xbc84bf0b	-0.016204378
6	0x3b3b501f	0.0028581691
7	0xbc48b1a9	-0.012249389
8	0xbc5a9ce4	-0.01334307
9	0x3bde8c73	0.006791645
10	0x3bb5155a	0.005526227
11	0x3c1e79c2	0.009672584
12	0xbcdb692f	-0.026783554
13	0x3bdcf961	0.0067435955
14	0xbc465714	-0.012105722
15	0xbc90286d	-0.017597402
16	0x3c197e04	0.009368423
17	0xbcaa3611	-0.020777734
18	0x3c80f3f0	0.015741318
19	0xbcbd4cfd	-0.023108
20	0x3ca1fdfc	0.01977443
21	0xbc83c443	-0.016084796
22	0x3c1472b3	0.00906055
23	0xbb942585	-0.0045210742
24	0xbc9c2ee8	-0.019065335
25	0xbcd75cd1	-0.026289375
26	0xbba4f5fe	-0.0050342074
27	0xbc7e01d6	-0.015503367
28	0xbaee0e14	-0.0018162155
29	0xbcc994fe	-0.024607178
30	0xbc75ba4f	-0.014998033
31	0xbcc143ea	-0.023591954
32	0x3c9c6b83	0.019094234
33	0x3c36e1bc	0.011162218
34	0x3c193a58	0.009352289
35	0xbc71597b	-0.014730806
36	0xbc3e7854	-0.011625368
37	0xbcd5ee3e	-0.02611458
38	0xbc839bc7	-0.016065491
39	0xbc4b4564	-0.012406681
40	0xbb72923c	-0.0037013432
41	0xbb048521	-0.0020220953
42	0xbc80b36e	-0.015710559
43	0xbc14a9fd	-0.0090737315
44	0x3ad057bb	0.0015895286
45	0x3c4940c3	0.012283507
46	0xbc93b326	-0.01802976
47	0xbb1d5a73	-0.002401021
48	0xbc0ddf6a	-0.008659223
49	0x3b5bc58e	0.00335345
50	0x3c4340c4	0.011917297
51	0xbc81abea	-0.015829045
52	0x3b688ba8	0.0035483632
53	0xbd017c21	-0.03161252
54	0xbc74f443	-0.014950815
55	0xbc863566	-0.016382884
56	0xbcb286d7	-0.021792812
57	0xbc87973c	-0.016551606
58	0xbc80c0c3	-0.015716916
59	0xba9be7b8	-0.0011894619
60	0x3a1deb35	0.0006024123
61	0x3a5283e9	0.00080305204
62	0xbc13ed10	-0.009028688
63	0x3bb25a89	0.0054429215
64	0xbc9de2fb	-0.019273272
65	0x3b123d2f	0.00223143
66	0x3b15f705	0.002288283
67	0xbbf26e0f	-0.007398374
68	0x3b005531	0.0019582028
69	0xbc9a8d4b	-0.018866202
70	0xbb7a787c	-0.0038218787
71	0xba87f1cf	-0.0010371747
72	0xbb746bfc	-0.003729581
73	0x3a0cd648	0.00053725066
74	0x3c12238d	0.008919609
75	0xbc9e4239	-0.019318687
76	0xbce04da0	-0.027380764
77	0xbc8a1ed9	-0.016860412
78	0xbbf6eecd	-0.0075357915
79	0x3c60f25b	0.013729657
80	0xbbb09279	-0.0053885547
81	0xbcb39ead	-0.021926248
82	0x3b80690b	0.003918772
83	0x3b58a7ff	0.0033059118
84	0xbc0b5849	-0.008504936
85	0xbc5e5016	-0.013568899
86	0xbc88c4d6	-0.016695421
87	0x3bd9f46e	0.0066514527
88	0xbc75d65b	-0.01500472
89	0xbcc2cbb8	-0.023778781
90	0x3bc75901	0.006083608
91	0xbc43c386	-0.011948472
92	0xbcbad90e	-0.022808578
93	0xbca0bf99	-0.01962261
94	0xbcb2c515	-0.021822492
95	0xbb6735af	-0.00352798
96	0xbccfd7d8	-0.025371477
97	0x3c33fe99	0.010985994
98	0xbbbf0526	-0.005829471
99	0xbc87cccf	-0.016577153
100	0x3ba3cef0	0.004999034
101	0xbcb51947	-0.02210678
102	0xbc84231b	-0.01613002
103	0xba859145	-0.0010190388
104	0xbc4ac653	-0.012376386
105	0xbcb0554c	-0.021525048
106	0xbb6f90bb	-0.0036554772
107	0xb9cd9f64	-0.00039219402
108	0x3b208a3b	0.0024496454
109	0xbbe5ca83	-0.0070126667
110	0xbbaa3586	-0.005194369
111	0xbbacfebe	-0.005279391
112	0x3c40f6b3	0.011777568
113	0xbc7dade1	-0.0154833505
114	0xbcac9d58	-0.021071121
115	0xbb26c278	-0.0025445502
116	0xbcb2dbd2	-0.021833334
117	0xbca88ff8	-0.020576462
118	0xbb6b9e8f	-0.0035952663
119	0xbca934d1	-0.020655068
120	0xbc9a2f80	-0.018821478
121	0x3b41dcc3	0.0029581047
122	0xbc9f52ba	-0.019448627
123	0xbc5aee87	-0.013362533
124	0xbc700937	-0.0146506345
125	0xbc90ff47	-0.01769985
126	0xbc010992	-0.007875817
127	0xba82b31b	-0.000997159
128	0xbca06ec4	-0.019584067
129	0xbc298f83	-0.010349157
130	0x3bc67e3c	0.006057529
131	0xbca42aff	-0.020040033
132	0x3c3180a8	0.010833897
133	0x3b75efbc	0.0037526926
134	0xbcbe56a0	-0.023234665
135	0xbc88abea	-0.016683538
136	0xbcd5a994	-0.026081838
137	0xbaa0ec59	-0.0012277468
138	0x3b9bf8b1	0.004759871
139	0xbc37ca48	-0.011217661
140	0xbc93efe3	-0.018058723
141	0xbc66749b	-0.014065887
142	0x3b37141d	0.0027935572
143	0xbc0467af	-0.008081361
144	0xbc59b861	-0.013288588
145	0xbbad0ab1	-0.0052808155
146	0xbc84522d	-0.016152466
147	0xbcb365b0	-0.021899074
148	0xbc458f89	-0.012058147
149	0x3bf78c54	0.00755457
150	0x3956b61e	0.00020476474
151	0xbc9c8049	-0.01910414
152	0x3cabaea1	0.020957293
153	0x3bd16ce2	0.0063911537
154	0xbc843219	-0.01613717
155	0x3c3443e7	0.011002517
156	0xbb61f0a7	-0.0034475715
157	0xbc844923	-0.016148156
158	0xbc6b79bd	-0.014372286
159	0xbb959150	-0.0045644417
160	0xbc9f3d51	-0.019438418
161	0xbc2be3d9	-0.010491335
162	0xbcb61f36	-0.02223168
163	0xbc89fe04	-0.016844757
164	0xbb386edb	-0.0028142247
165	0xbcae0257	-0.02124135
166	0xbc969c78	-0.018385157
167	0xbb31a058	-0.002710363
168	0xbbac958b	-0.0052668503
169	0xbb68d48a	-0.0035527074
170	0xbc9493be	-0.018136855
171	0x3c741b29	0.014899054
172	0x3ba8b5b4	0.005148614
173	0xbcb43bea	-0.022001226
174	0xbc942250	-0.018082768
175	0x3b84dc2a	0.004054566
176	0xbc40dc38	-0.011771254
177	0xbba4e5b5	-0.005032266
178	0xbcc8f9ef	-0.02453324
179	0x3ba119c0	0.0049163997
180	0x3aaafbdc	0.0013045031
181	0x3bb55c33	0.0055346726
182	0xbcaf1b0a	-0.021375198
183	0xbb688bc6	-0.0035483702
184	0xbb9e1b33	-0.0048250197
185	0xbc930375	-0.017945984
186	0xbc359aaa	-0.011084238
187	0xbcf6b42d	-0.030115211
188	0x3b12c204	0.0022393474
189	0xbb987732	-0.004652881
190	0xb9c5cc98	-0.00037727202
191	0x3c0a7407	0.008450515
192	0xbcc8d558	-0.024515793
193	0xbcd5f963	-0.026119893
194	0xbb1c2672	-0.0023826626
195	0xbba9a18f	-0.00517673
196	0x3c0bb87a	0.008527869
197	0xbca8bc29	-0.020597534
198	0xbc42c384	-0.011887435
199	0x3b2e32f8	0.0026580673
200	0xba160905	-0.000572339
201	0x3ad3bc3d	0.0016154122
202	0x3c4aa543	0.012368503
203	0xbcbcb499	-0.023035334
204	0xbc3158fc	-0.010824438
205	0xbbcfe283	-0.006344141
206	0xbc8a473f	-0.016879676
207	0xbc4fea23	-0.0126901
208	0xbcd966c3	-0.026538258
209	0xbc257902	-0.010099651
210	0xbc9b73d0	-0.018976122
211	0x3af25d8a	0.0018491012
212	0xbc9473cf	-0.018121628
213	0xbb17f764	-0.0023188228
214	0xba5cda09	-0.0008424824
215	0xbbd2d938	-0.006434586
216	0xbae59966	-0.001751703
217	0xbc406198	-0.011742018
218	0xbbdb72e1	-0.0066970442
219	0x3bc2722a	0.0059340196
220	0xbc791b42	-0.015204253
221	0xbca2db78	-0.019880041
222	0xbcb3e075	-0.021957615
223	0x3c1c4ade	0.009539334
224	0xbc67b403	-0.014142039
225	0x3bb45bf0	0.005504124
226	0xbc705ea3	-0.014671001
227	0xbb825418	-0.00397731
228	0x3b5e746e	0.003394391
229	0xbcbfb3f6	-0.023401242
230	0xbca9995f	-0.020703016
231	0xbc8f1740	-0.017467141
232	0xbb843c4d	-0.0040355087
233	0xbc60aa35	-0.0137124555
234	0xbb3f5445	-0.0029194516
235	0xbc1e57f2	-0.0096645225
236	0x3c1f2e28	0.009715594
237	0xbca7c28f	-0.020478515
238	0xbcec00d9	-0.028808998
239	0x3b93e78b	0.004513686
240	0x3b76d6d8	0.0037664678
241	0xbceebbcb	-0.029142281
242	0xbc926de1	-0.01787466
243	0xbc2b449c	-0.0104533695
244	0xbcaef262	-0.021355812
245	0x3b762c64	0.003756308
246	0x3c6431c0	0.013927877
247	0xbbb1c221	-0.0054247533
248	0xbb8280eb	-0.0039826534
249	0xbc8fab68	-0.017537788
250	0x3b05836a	0.0020372518
251	0xbcec192f	-0.028820602
252	0xbcbe7a46	-0.023251664
253	0xbc31b5d3	-0.010846573
254	0x3ba5c3ba	0.005058733
255	0xbcc943e5	-0.024568507

action_model._continuous_distribution.log_sigma f4 [1, 2]
0	0xbbf4b25b	-0.0074675507
1	0xbcc35da4	-0.023848362

action_model._continuous_distribution.mu.weight f4 [2, 256]
0	0x39ca8c2e	0.00038632884
1	0x3b40a493	0.002939497
2	0x3b980840	0.0046396554
3	0xbacc2934	-0.0015576244
4	0x3c821d44	0.015883096
5	0x3b0f14eb	0.0021832536
6	0xbb23cdff	-0.002499461
7	0x3b7770db	0.0037756476
8	0x3c37e8db	0.011224951
9	0xbb41f78c	-0.0029597012
10	0xbc3863c3	-0.011254254
11	0x3b426df7	0.0029667595
12	0x3bf4721b	0.0074598915
13	0x3a274735	0.0006381155
14	0xbc3d3de6	-0.011550402
15	0x3b363a3c	0.0027805706
16	0xbbed678a	-0.007245009
17	0x3c5a202f	0.013313337
18	0xbc51d413	-0.01280691
19	0x3b8c215c	0.0042764377
20	0xbd0d1e2f	-0.034452613
21	0x3bb7d0d4	0.005609611
22	0xbc71455e	-0.014726011
23	0xbb87f90e	-0.0041495627
24	0x3bc8a0db	0.006122691
25	0xb9c21c90	-0.00037023844
26	0xba8ddfc5	-0.0010824135
27	0x383c2da6	4.4865206e-05
28	0x3b7d8c68	0.0038688425
29	0xbb6473d2	-0.0034859073
30	0xbc5c6b55	-0.013453324
31	0xba9d81b8	-0.0012016809
32	0xbb34c53f	-0.0027583388
33	0xbbbff450	-0.0058579817
34	0xbca58c1d	-0.020208413
35	0xba71406b	-0.00092030194
36	0x37ba05d4	2.2175642e-05
37	0x3bd8fa07	0.0066216025
38	0x3c6618f1	0.014044032
39	0x3be284b2	0.006912791
40	0xbcf16fe1	-0.029472293
41	0xbbaf86eb	-0.0053566596
42	0x3b078b3d	0.0020682358
43	0xbad865f4	-0.0016509877
44	0xbb9f76fc	-0.004866479
45	0xbb40e68c	-0.0029434292
46	0x3c29fcd7	0.010375223
47	0xbb0dd527	-0.0021641941
48	0x3d10c9ac	0.03534858
49	0xbc1752bb	-0.009236033
50	0xbbdaf305	-0.006681802
51	0x3ca9cfab	0.020728907
52	0xbc27fa35	-0.010252525
53	0x394f69b4	0.00019780436
54	0x3c4a690c	0.012354147
55	0x39d64e88	0.0004087577
56	0x3a913226	0.0011077567
57	0x3b8c5dfc	0.0042836647
58	0xbafe6c54	-0.0019410946
59	0x398a2f5f	0.00026356705
60	0x3c84b822	0.016201083
61	0x3b5fa222	0.0034123738
62	0x3a3b0f71	0.0007135785
63	0xbca29be9	-0.019849734
64	0x3c269cf3	0.010169256
65	0xbc779921	-0.015112192
66	0x3ab34aa9	0.0013678867
67	0x3b90a71c	0.0044144522
68	0x3bbe2cec	0.005803695
69	0x3c0270ce	0.007961465
70	0x3bf90c33	0.007600331
71	0x3bb1d1c1	0.005426616
72	0xbcaa9531	-0.020823093
73	0x3cf66e61	0.03008193
74	0xbb9e7a2d	-0.004836342
75	0x39da04e8	0.00041583856
76	0x3b4cc04e	0.0031242552
77	0x3c688a65	0.014193152
78	0x3b144b1f	0.0022627783
79	0xbc289028	-0.010288276
80	0xbc0d9674	-0.008641828
81	0x3bb581c3	0.0055391504
82	0xbc328588	-0.010896094
83	0x3bae40ea	0.005317797
84	0x3b676e8a	0.003531369
85	0xbb3f643d	-0.0029204034
86	0x3cd39957	0.025829954
87	0xbba5b8e6	-0.005057442
88	0xb9a961a1	-0.0003230693
89	0x3a8045bb	0.0009786406
90	0x3ab8df67	0.0014104665
91	0xbbe1ee02	-0.006894828
92	0xbad172b2	-0.0015979616
93	0xbb9a1c4b	-0.00470308
94	0x3c33c595	0.0109724
95	0xbbf8fb1c	-0.007598294
96	0x3cb6223b	0.02223312
97	0xbbcbdaa1	-0.006221131
98	0x3a8c46ca	0.0010702249
99	0x3bf011ff	0.007326364
100	0xbbfa7295	-0.007643054
101	0x3b67de8c	0.003538045
102	0x3b6e4932	0.0036359546
103	0xbb8ef0c7	-0.004362199
104	0x3c6e8f76	0.014560571
105	0x3ba30798	0.0049752705
106	0xbb9d30b1	-0.0047970642
107	0xbba9d0b7	-0.0051823515
108	0xbb79b4e7	-0.003810221
109	0xbb40f462	-0.0029442539
110	0xbb3012ae	-0.0026866603
111	0x3ba953ed	0.0051674754
112	0xbbdb5f31	-0.0066946973
113	0x3b9a7366	0.0047134636
114	0x3adb575c	0.0016734409
115	0x3c36c423	0.011155161
116	0x3cf68864	0.030094333
117	0x3bd5babe	0.0065225055
118	0x3b7a532e	0.0038196552
119	0x3c47476b	0.012163023
120	0x3b2886bb	0.0025715071
121	0xbbb34bcf	-0.0054716836
122	0x3cafffb6	0.021484237
123	0x3bfad527	0.0076548043
124	0x3ca573e0	0.020196855
125	0x3bb1242b	0.005405923
126	0xbbb4c640	-0.0055167973
127	0xbb487f24	-0.003059336
128	0x3cd72189	0.026261108
129	0x3bc525ce	0.0060164696
130	0xbc1ce880	-0.009576917
131	0xbc152210	-0.009102359
132	0xbc42057a	-0.011842126
133	0xbc9e2799	-0.019305991
134	0xba7487e8	-0.0009328113
135	0xba141a36	-0.00056496577
136	0x3ab25d9e	0.0013608222
137	0x39edd338	0.00045361533
138	0xbb6097dc	-0.0034270203
139	0xbb5f15e6	-0.0034040152
140	0xbbd99e44	-0.006641181
141	0x3a99c46c	0.0011731512
142	0x3a3fa039	0.0007309947
143	0x3a90a5b3	0.001103571
144	0x3aad2661	0.001321029
145	0x3aa900d0	0.0012893919
146	0x3bbc7381	0.005751074
147	0x3a2fe042	0.0006709137
148	0xba1eef6c	-0.00060628983
149	0x3b6fc9e2	0.0036588837
150	0x3bdb9c8d	0.006702012
151	0x3bc835d4	0.0061099324
152	0xbc4e47f1	-0.012590394
153	0xbbc8fe6f	-0.0061338465
154	0x3b399f19	0.002832359
155	0xbc369b0f	-0.011145367
156	0xba271459	-0.00063735765
157	0xbc509f96	-0.012733361
158	0x3d00d314	0.0314513
159	0x3bc6e5e4	0.0060698856
160	0x3c06796c	0.00820766
161	0x3b11fae0	0.0022274777
162	0x3c7c8653	0.015412885
163	0x3bb2ce05	0.0054566883
164	0x3ad1ebb3	0.0016015678
165	0x3bd0aa4b	0.0063679568
166	0x3d04a961	0.032388095
167	0xbbcaf189	-0.006193344
168	0xbb33646f	-0.0027373096
169	0xbc35bd33	-0.011092472
170	0xbb776bb5	-0.0037753407
171	0xbccffed5	-0.025390068
172	0xbc2957a3	-0.010335836
173	0x3ad76513	0.0016433321
174	0xbbf34e53	-0.0074251085
175	0xbb7e7417	-0.003882652
176	0x38fda904	0.00012095462
177	0x3a8fcb48	0.0010970617
178	0x3b50fcd9	0.003188899
179	0xbce410a4	-0.027839966
180	0x3b3144b9	0.0027049019
181	0xbbd85d44	-0.006602915
182	0x3b8d5f54	0.0043143425
183	0x3b388050	0.0028152652
184	0x3c410a6f	0.011782273
185	0x3bddf6c9	0.006773804
186	0xbbcbbf85	-0.0062178993
187	0x3c30cad4	0.0107905455
188	0x3bc5b1fd	0.0060331807
189	0xbbdb6fa5	-0.0066966587
190	0xba615428	-0.0008595609
191	0xbbaaf886	-0.0052176146
192	0x3c2f65ce	0.0107054245
193	0x3c8fc748	0.01755108
194	0xbb74136f	-0.0037243029
195	0x39c7f21a	0.00038136618
196	0xbc6dd496	-0.0145160165
197	0x3c8f36e6	0.017482232
198	0xbc079a61	-0.008276553
199	0x3c2dc52d	0.010606092
200	0x3b0be995	0.0021348943
201	0xbb9bb5c7	-0.004751894
202	0xbc3b1637	-0.011418871
203	0x3c430e7a	0.011905307
204	0xbaffd8f1	-0.001951961
205	0x3bd9ba61	0.0066445326
206	0x3b6520fc	0.0034962287
207	0x3baf852f	0.005356453
208	0x3ba824f8	0.00513136
209	0x3c32e06b	0.010917763
210	0x3bd7735c	0.006575031
211	0xbc181f1e	-0.009284763
212	0x3c185c8d	0.00929941
213	0xbbde3441	-0.0067811315
214	0xbb08fe86	-0.002090366
215	0xba8d15f0	-0.0010763984
216	0xbbf83d44	-0.007575663
217	0xbb41f70b	-0.0029596712
218	0x3b94b2ab	0.0045379004
219	0x3b49106d	0.0030679957
220	0x3c746950	0.014917687
221	0x3c8cd396	0.017190736
222	0x3b7dd00d	0.0038728744
223	0xbc9e5afb	-0.019330492
224	0x3b638bc9	0.003472077
225	0xbba16458	-0.004925292
226	0xba62b3de	-0.0008648018
227	0xbc326e0b	-0.010890494
228	0xbbaefe64	-0.0053403843
229	0x3cd10c97	0.025518699
230	0x3ce7b9af	0.028286783
231	0xbb5ed6ff	-0.003400266
232	0xbb72a464	-0.0037024254
233	0xbaacbef9	-0.0013179473
234	0xbc039573	-0.008031237
235	0x3b5db370	0.0033828877
236	0x3b136b48	0.0022494365
237	0x3b1898d1	0.0023284445
238	0x3bde158f	0.0067774723
239	0x3bac4a69	0.005257894
240	0xbccffebb	-0.02539002
241	0x3b62a921	0.0034585672
242	0x3c517048	0.012783118
243	0xba5ed795	-0.0008500752
244	0x3c42f9bb	0.011900361
245	0x3bd05479	0.006357726
246	0xbccb7eb4	-0.02484069
247	0x3ab519c6	0.0013816885
248	0x3bb40f8f	0.005495019
249	0xbad85cff	-0.0016507207
250	0xbc935904	-0.017986782
251	0x3b5ebb40	0.0033986121
252	0x39414303	0.00018430878
253	0x3a799a29	0.0009521568
254	0xbc9707d1	-0.018436344
255	0x3b846c8d	0.0040412606

action_model._continuous_distribution.mu.bias f4 [2]
0	0xbc265801	-0.010152818
1	0x3c56b893	0.013105529

66 f4 [20]
0	0x3b3a313d	0.0028410696
1	0x3ea6d119	0.32581404
2	0x3d45423c	0.04815887
3	0x3e0d9af6	0.13828644
4	0x3ef4cb58	0.4781139
5	0x3ee5ee18	0.44908214
6	0x3d4647f3	0.04840846
7	0x3dc91a03	0.098194145
8	0x3efed581	0.49772266
9	0x3efeb0e7	0.4974434
10	0x3d4647f3	0.04840846
11	0x3df07883	0.11741736
12	0x3ee10173	0.43946418
13	0x3eb926b9	0.36162356
14	0x3d4647f3	0.04840846
15	0x3dd8355a	0.10557051
16	0x3ef7ea7b	0.48421082
17	0x3ee7f042	0.4530049
18	0x3d4647f3	0.04840846
19	0x3df0a74b	0.117506586

69 f4 [12]
0	0x3b3a313d	0.0028410696
1	0x3ea6d119	0.32581404
2	0x3d45423c	0.04815887
3	0x3d5bf13a	0.05369685
4	0x3eae0a6d	0.3399233
5	0x3edc05d9	0.4297321
6	0x3d45423c	0.04815887
7	0x3d5625b6	0.052282058
8	0x3b3a313d	0.0028410696
9	0x3ea78a5a	0.3272274
10	0x3d45423c	0.04815887
11	0x3d5c046a	0.053715147

72 f4 [3]
0	0x3dbdb04a	0.0926214
1	0x40b6443d	5.69583
2	0x3eae7c69	0.34079292
