results/firstry/KartAgent/KartAgent-499751.onnx (onnx, 305043 bytes, 13 tensors)

network_body.observation_encoder.processors.0.normalizer.running_mean f4 [20]
000000 37 3c 05 3a 27 2b 5b 3f 00 00 00 00 43 4b 0a 3e
       0.000508252 0.8561272 0.0 0.13505273
000010 86 04 2a 3f 8d 20 7d 3e 54 16 0a 3b 62 21 e4 3d
       0.6641315 0.24719448 0.0021070438 0.1113918
000020 0d b1 07 3f f2 b8 bd 3e 00 00 00 00 b2 51 2c 3e
       0.53004533 0.37055165 0.0 0.1682804
000030 66 17 42 3f 75 72 13 3e 49 9c 1a 3b 82 da f3 3d
       0.75816953 0.1439913 0.0023591688 0.119069114
000040 13 c0 1d 3f 7c 7d 95 3e d8 48 06 37 f2 77 38 3e
       0.61621207 0.291973 8.003983e-06 0.18014506

network_body.observation_encoder.processors.1.normalizer.running_mean f4 [12]
000000 37 3c 05 3a 27 2b 5b 3f 00 00 00 00 19 45 dd 3c
       0.000508252 0.8561272 0.0 0.027010487
000010 bd 7d 08 3e 09 a6 3a 3f 00 00 00 00 f1 4f c9 3c
       0.13329215 0.729096 0.0 0.024574252
000020 87 10 d7 39 9e 23 5b 3f 00 00 00 00 78 95 dd 3c
       0.0004102031 0.8560122 0.0 0.027048811

network_body.observation_encoder.processors.2.normalizer.running_mean f4 [3]
000000 ab 88 e4 bc 33 24 4b 3d 9d b5 46 3e
       -0.0278972 0.04959507 0.19405217

network_body._body_endoder.seq_layers.0.weight f4 [256, 35]
000000 f2 e0 31 bd 1d 71 2d be 8d 7c 13 be 16 28 20 be
       -0.043427415 -0.1693768 -0.14402981 -0.15640292
000010 a3 f9 0c 3e 80 64 3f be fe 62 82 bd af 55 03 3e
       0.13767104 -0.18690681 -0.063665375 0.12825654
000020 09 46 08 3d e2 fd 8a be be c3 77 3e 53 af 9b bc
       0.033269916 -0.27146822 0.24195763 -0.0190045
000030 1c e9 2e be 6a f2 80 be 88 e1 0c 3e 2b 2e b7 be
       -0.17081112 -0.25184947 0.13757908 -0.3577741
000040 b5 34 ba bd 69 7b ba 3d 6b 40 2b 3d 21 7a 0b bd
       -0.09092084 0.0910557 0.04180948 -0.034052018
000050 30 32 4e 3e 82 eb a5 be a1 2b 57 bd 41 78 8a 3e
       0.20136333 -0.3240624 -0.052531842 0.2704487
000060 fd 27 4e 3e a8 27 ab 3e 6f 61 28 3e 5b 43 01 3e
       0.20132442 0.33428693 0.16443418 0.1262335
000070 51 d2 9a 3e ab ae bd bc a1 fa 14 bd 59 b2 1b 3e
       0.30238584 -0.023154577 -0.03637183 0.15204753
000080 5d 58 06 3e ce 80 76 3e 4c 64 83 3e d8 bd 48 3d
       0.13119645 0.24072573 0.25662458 0.049009174
000090 ce 2f 25 3e a4 52 12 3e 52 5c 83 bd 51 67 b4 3c
       0.16131517 0.14289337 -0.06414093 0.022021921
0000a0 ce 82 ff bb e9 01 b5 be 0c 45 aa 3d 57 76 27 bd
       -0.0077975756 -0.3535302 0.08313951 -0.040884342
0000b0 38 2e 7b be f4 9b 4f be ce e5 48 3e 4f 14 85 be
       -0.2452935 -0.20274335 0.19618914 -0.25992057
0000c0 0c 78 6a 3c 73 ae 85 bb 97 6f 15 be 8e de 00 be
       0.014310848 -0.004079634 -0.1459335 -0.12584898
0000d0 a5 fb 54 be fb 65 ba 3e 2a 00 90 bd 1e 11 4a 3e
       -0.2079912 0.3640593 -0.07031281 0.19733092
0000e0 f4 b1 bf 3d b3 ac 79 bd d5 12 fe 3d 0b 9c 54 be
       0.09360114 -0.060955714 0.12405936 -0.2076265
0000f0 31 0b dd 3d 93 be c3 bc 1d cc ad 3d 8a d2 d3 bd
       0.1079315 -0.023894584 0.08486197 -0.103428915
000100 46 0d be 3d cf 5f 47 be c9 aa b4 3c 1e f6 aa be
       0.092798755 -0.19470142 0.022054093 -0.33390898
000110 a5 51 2c 3e fd db 74 bd b2 1e 3a 3e cd 7a 3a be
       0.1682802 -0.05978011 0.18175772 -0.18210907
000120 0f 24 3f be 46 10 1f 3d 31 fa d7 3d 27 0d d7 3e
       -0.18666099 0.03883388 0.10545767 0.42002222
000130 22 82 a8 bd 9f 43 8b 3d fd a6 ae 3e 77 71 6e 3e
       -0.08227946 0.06800007 0.34111777 0.23285471
000140 23 5d 50 bd b1 ca 58 3e 64 41 c3 bd 2f 3d 4e bd
       -0.050870072 0.2117107 -0.09533957 -0.050351318
000150 e0 9f 1a 3e bb ec bb 3d 40 ab 21 3e a1 09 92 3e
       0.1510005 0.09176012 0.15787983 0.2852297
000160 eb a2 f4 3c 21 7a b5 3d 82 e3 af bd c7 cd 9d be
       0.029862842 0.08861185 -0.085883155 -0.30821058
000170 f0 a6 17 bd 2f 29 2d be cf 97 0e 3e 86 da f0 bd
       -0.03702444 -0.16910242 0.13925098 -0.1176043
000180 8a e7 c9 3c df 16 42 3d 4d 83 21 be ec 23 ef 3d
       0.02464654 0.047385093 -0.15772744 0.116767734
000190 51 15 54 be 52 29 97 3d ee d1 a3 bb 7b cb 7c be
       -0.20711257 0.07380928 -0.004999391 -0.24686997
0001a0 e7 37 07 be eb a0 1b bd 57 0b 83 3c 68 48 8d ba
       -0.13204919 -0.03799526 0.015996618 -0.0010779025
0001b0 ae 05 a6 bd 28 f8 b8 3d 05 52 64 be 99 92 f5 3d
       -0.08106552 0.09031707 -0.22296913 0.11990852
0001c0 ec 3b 9d bd c4 62 5e 3e c6 ab 83 3e d4 dd a0 3c
       -0.07677445 0.21717364 0.2571699 0.019637026
0001d0 b5 53 0c bd cb ce f5 bb 66 30 92 3e 4b b3 04 be
       -0.034259517 -0.0075014583 0.2855255 -0.1295902
0001e0 fe f2 5d be 2b 31 71 be 3f 6b 65 be 43 68 e9 bd
       -0.21674725 -0.23553912 -0.22404192 -0.113968395
0001f0 a7 1f c0 3d f1 1e c6 3d 82 f5 b1 bd 39 fe 2e 3e
       0.09381037 0.0967387 -0.08689405 0.17089166
000200 83 52 06 be 94 fd c7 3c 46 69 34 3e 34 f2 55 bd
       -0.13117413 0.024412908 0.17618284 -0.052232936
000210 47 16 44 be 86 2c 72 bd b8 d7 8d be 47 39 67 bd
       -0.19149123 -0.059124492 -0.27703643 -0.05645111
000220 9f bd b9 3e 0f 68 13 bd 56 d6 a3 be e0 c6 21 be
       0.36277482 -0.03598791 -0.31999463 -0.15798521
000230 0e 69 9d 3d e7 8b 21 be 1f e6 82 bd 6c b7 30 be
       0.07686053 -0.15776025 -0.06391548 -0.1725747
000240 d0 0e cd bd 92 66 f0 3c e2 ac 36 bc 42 14 35 be
       -0.10012591 0.029345784 -0.011149617 -0.17683509
000250 7d 30 e0 3d 6d 96 aa bd 5f 4c 4f bd 36 3a de bd
       0.109467484 -0.08329473 -0.050609943 -0.108509466
000260 0a 8f 28 bd 00 78 a5 3d 0b d4 87 3b 2a c8 62 bd
       -0.041152038 0.08079529 0.0041451505 -0.055366673
000270 a0 78 8c 3e 72 ff f0 bd c6 e8 61 be f8 2a 83 bd
       0.2743578 -0.11767472 -0.22061452 -0.0640468
000280 2c 3b 99 bd 71 69 05 3e 78 24 a9 bd 19 67 7e bd
       -0.07481989 0.13028504 -0.08258909 -0.06211004
000290 75 42 04 bd cb f2 ab 3e 75 69 48 bd 4c 53 00 3e
       -0.03228994 0.33583674 -0.048928697 0.12531775
0002a0 98 39 06 be b6 ff f5 3e 02 e2 aa 3d 11 7b fd 3d
       -0.13107908 0.48046654 0.08343889 0.12376989
0002b0 6d ac f7 3d ff 1b c1 bc bc 91 76 be 90 5a 11 3d
       0.120934345 -0.02357292 -0.24079031 0.035486758
0002c0 a2 95 8b 3d 52 48 97 3c 6c 0b ce bc 7f a2 27 bd
       0.068156496 0.018467102 -0.02515193 -0.040926453
0002d0 20 9e 82 3e ea d0 75 be b1 c7 da bd da d8 85 3d
       0.25511265 -0.24005476 -0.10682619 0.06535502
0002e0 14 7f 0d 3e de cc fa bd 94 03 1d 3d ab a4 43 3e
       0.13818008 -0.122461066 0.03833349 0.19105785
0002f0 d8 b4 58 be 0d 41 86 be 8a 49 71 3e 16 81 4e be
       -0.21162736 -0.26221505 0.23563209 -0.2016643
000300 0e 24 51 be 7d 46 bf be aa 04 22 3e d1 f3 8a bd
       -0.2042391 -0.37358466 0.15822092 -0.067847855
000310 1a 32 ae 3d 1b 40 eb 3c 31 72 0f bd eb 95 31 3e
       0.0850565 0.028717091 -0.03502101 0.17342345
000320 6a 5b e6 bd 5d 55 f7 3b cc 35 93 bd 95 97 11 3e
       -0.112479046 0.007548018 -0.07187995 0.1421798
000330 ab 2c 2d bd f2 9b 2d 3e c1 1f 12 3e b7 c0 9b bb
       -0.042278927 0.1695402 0.14269926 -0.004753198
000340 b8 5e 79 bd 66 7e ae bd 13 43 54 bc 15 f4 12 3e
       -0.060881346 -0.08520202 -0.012955445 0.14350922
000350 86 31 7d be 27 13 d0 3c e4 78 3a bc ca 59 fc be
       -0.24725923 0.025399758 -0.011381362 -0.49287254
000360 98 9b 2d bd 80 09 37 3e 76 f7 62 3e e7 5e 90 be
       -0.042384714 0.17874718 0.22164711 -0.28197405
000370 80 5f af 3d b4 b6 ae bd e4 80 86 3d 95 c9 3b be
       0.08563137 -0.085309416 0.06567553 -0.18338616
000380 60 b6 4e 3e 4f dc 8a 3c fd 90 06 be 12 b8 7b 3d
       0.20186758 0.016950754 -0.13141246 0.06145484
000390 58 1a 07 be 98 7d f6 3c d9 21 74 3e d2 29 35 3d
       -0.13193643 0.030089185 0.23841037 0.044229336
0003a0 0c f1 d3 3d a9 8c 81 3e fb 1b 99 3e 90 1f 51 3e
       0.103487104 0.25302628 0.2990416 0.20422196
0003b0 61 b0 a6 3d 09 36 9c 3d 76 aa 04 bb 75 e0 1e bf
       0.0813911 0.07627494 -0.0020243204 -0.62061244
0003c0 3f 64 09 3d 14 d0 8a 3c cd 08 05 3d a3 62 86 3d
       0.033542868 0.016944923 0.032479096 0.06561782
0003d0 b0 b7 3c 3d 59 9f eb 3d 81 e6 93 bd 90 48 4a 3d
       0.046073616 0.115050025 -0.072216995 0.049385607
0003e0 6b 39 ac 3e 93 e4 28 3e 8e 73 ed bd bd 23 8e 3d
       0.33637556 0.16493444 -0.11594306 0.0694041
0003f0 0e fc a1 3d 53 ac 0b bf 00 6e cc bd 20 d2 2a be
       0.07909404 -0.5455982 -0.09981918 -0.16681719

network_body._body_endoder.seq_layers.0.bias f4 [256]
000000 88 15 5f bb ae da 19 3c 2a 9e 48 bd 4a 6a a0 3c
       -0.0034039933 0.009390516 -0.048978962 0.019581933
000010 d3 fd df bc 47 d9 5f bd f0 a0 05 3d de 3b ef bb
       -0.027342713 -0.05465057 0.032624185 -0.007300838
000020 8b 1a bd bb d3 92 bd 3c 5d a4 a8 bc 82 67 6e bd
       -0.0057709864 0.0231413 -0.020586187 -0.05820418
000030 08 d0 1e bc 66 0d 32 bd c2 3f 3a bc c6 19 50 bd
       -0.009693153 -0.04346981 -0.01136774 -0.05080583
000040 56 33 ac 3c 4d 2c e1 3c 5b 6b 0c bd 41 43 36 3b
       0.021020573 0.027486945 -0.03428207 0.0027811083
000050 9e f8 44 3c b0 59 87 3a e6 0f 15 3b 7e ec 11 bd
       0.012022166 0.0010326412 0.0022745072 -0.035625927
000060 ad 8b 3c bd 4a 14 dc ba b4 83 35 bd d3 c2 5e bd
       -0.046031643 -0.0016790715 -0.044315055 -0.054385018
000070 66 53 67 bc 38 a7 ac 3b e8 d3 51 bd e0 ea 89 bc
       -0.014119005 0.0052689575 -0.05122748 -0.01683563
000080 37 36 0a 3c f4 7e 13 bd 3e 09 52 38 ac b4 70 bd
       0.008435777 -0.036009744 5.007651e-05 -0.058766052
000090 72 fc ea bc 80 b8 7f bc bd b5 5d bd 9d 09 32 3c
       -0.028684828 -0.015607953 -0.054128397 0.01086655
0000a0 d8 47 26 bd cb 64 6b bc c6 23 cd 3a 69 1f 30 bd
       -0.04059586 -0.014367293 0.001565092 -0.042998705
0000b0 11 4d f1 bc 79 ec 68 3c 9e 9f 39 3c 83 e9 1d bd
       -0.029455693 0.014216536 0.01132956 -0.038552772
0000c0 c2 ea 66 bb 17 86 e2 3b 3d a2 c5 bb 70 14 3f bd
       -0.0035235141 0.0069129574 -0.006031303 -0.04665035
0000d0 3e c0 38 bd 4f 9b 71 bc a2 9b aa bc e0 81 84 3b
       -0.04510521 -0.014746501 -0.020826165 0.0040438026
0000e0 2a a3 61 bd e5 fb 00 bc 9a e3 43 3c 31 6d 1e 3d
       -0.055087246 -0.007872556 0.01195612 0.03867835
0000f0 cc aa d3 bc fc 23 e6 bc e9 c5 57 bd 11 d9 43 3c
       -0.025838278 -0.02809333 -0.052678976 0.011953608
000100 42 e2 42 3b a4 ab 23 bd 9e 80 75 bc 4a 45 2b 3c
       0.002973691 -0.03995861 -0.014984278 0.0104535315
000110 88 a9 dc bc a5 44 3e bd e5 99 01 bc 86 86 c1 3c
       -0.026936308 -0.046452183 -0.0079102265 0.023623716
000120 9e 7f 0f bd 15 d2 ef 3c 1a c1 13 bd 1e 4c 1e bd
       -0.035033815 0.02927498 -0.036072828 -0.03864681
000130 6e 7e 8c bc 1f 99 d3 bc 55 f8 33 bd 91 44 a6 bc
       -0.01715013 -0.02582985 -0.043938 -0.020296367
000140 76 5b d6 bc 0e 0c 07 bd e1 bd 82 bd 65 78 c8 bc
       -0.026166659 -0.03297048 -0.06383873 -0.024471471
000150 a5 07 5e bb be 9e 1d bd 95 ed 87 bd 1d ee 4c bc
       -0.0033879068 -0.038481466 -0.06637112 -0.0125079425
000160 ea ad d7 3c 2a 4f 7a bd 77 ea 99 bc c1 c4 9f 3c
       0.026328046 -0.061110653 -0.01878856 0.019503
000170 02 6c 71 3b 45 69 b8 3c c1 c1 74 bc 70 86 6c bd
       0.003683806 0.022511134 -0.014938773 -0.057745397
000180 d6 4c 2f bd bf 0e ca bc c6 0a dc ba fa 15 cb 3b
       -0.042797886 -0.024665235 -0.0016787879 0.006197688
000190 b4 73 e2 bc ad 68 0f bd 50 5c 04 bd e7 b6 2a bd
       -0.027643062 -0.035011936 -0.0323146 -0.041678336
0001a0 6a 5d 8b bd 71 73 e0 3c 57 32 a0 3a 2c 2d 6a bd
       -0.06804927 0.027398797 0.0012222034 -0.057171986
0001b0 c7 16 93 bb e2 a6 ee bc bd 47 06 bc 49 31 5d bc
       -0.0044887993 -0.02913231 -0.008195815 -0.01350052
0001c0 7e e5 bc 3c 76 05 41 bd 14 8e a8 ba 79 3e 35 bd
       0.02305865 -0.04712435 -0.0012859725 -0.04424903
0001d0 b0 5f 96 bc 8e 92 1e bd c8 31 0c bd e0 05 46 bd
       -0.018356174 -0.038713984 -0.034227163 -0.048345447
0001e0 c6 9d ac 3c ed fb 29 bd 2d 79 6c 3c 49 29 a7 bc
       0.021071326 -0.04150002 0.014433187 -0.020405428
0001f0 ee c0 ac 3c 18 80 bf 3c 67 a0 00 bd e0 cc 1c bc
       0.02108809 0.02337651 -0.03140297 -0.00957033
000200 2d e3 54 bb 3a b3 3b 3c 85 b8 9a bc 73 24 44 bd
       -0.003248404 0.011456305 -0.018886814 -0.047886323
000210 1d 19 8c bc b9 d1 6c bd d2 73 9d bc b8 0c 88 ba
       -0.017101819 -0.057817195 -0.019220266 -0.0010379767
000220 cb 65 a2 bd fd 3f f5 bc f5 0b 2b bd 30 2d cf bd
       -0.07929572 -0.029937739 -0.04175945 -0.10116041
000230 1c f4 41 bd 33 a3 40 3b f6 8e 46 bc c1 af bd bd
       -0.04735194 0.002939415 -0.0121190455 -0.09262038
000240 75 b6 f0 bc ea b1 f6 bc d9 0b d5 3b d6 73 8f bc
       -0.029383877 -0.030114133 0.0065016565 -0.01751129
000250 e1 d2 48 bb 83 e0 85 ba 6e c8 a2 bd 71 49 2a bd
       -0.0030643272 -0.0010214004 -0.07948385 -0.041573945
000260 fe 45 dc bb ba 86 1a bd 3c 63 b4 3c 05 18 d4 3b
       -0.006722211 -0.03772614 0.022019975 0.00647259
000270 47 d3 68 bc fa 90 47 bd d3 b3 48 3a 3f 29 f1 bc
       -0.014210529 -0.048722245 0.00076561904 -0.029438613
000280 96 af 29 bd 03 f3 f2 bc 23 f6 eb bc 89 9d 03 bc
       -0.041427217 -0.029656893 -0.02880389 -0.008033165
000290 d3 c5 c1 bc ed 86 03 bd 88 ca 0c 3b 25 8c 56 bd
       -0.0236539 -0.032111097 0.0021483023 -0.052379746
0002a0 f7 6e 07 bd 88 d7 86 3b f4 ad a2 bd c2 c2 2e 3d
       -0.03306481 0.004115049 -0.07943335 0.042666204
0002b0 35 9f 3f bc 9b a2 d8 bb d0 dc 28 b9 d9 f0 0a bc
       -0.011695673 -0.006611181 -0.00016103988 -0.008480274
0002c0 30 1e 18 bd dd 29 05 bd 7f 6d d2 bc bb 7b 06 bc
       -0.037138164 -0.032510627 -0.025686977 -0.008208211
0002d0 79 44 34 bc d0 dd 18 bc 5a 7b 1d bd 72 06 ae bc
       -0.011002653 -0.009330228 -0.038447715 -0.021243308
0002e0 7a 4b 2b bd f4 40 fe 3b 12 d6 77 bc 59 db c8 bc
       -0.041820027 0.007759208 -0.015126722 -0.024518656
0002f0 86 66 a5 3c 74 df bf 3a e5 b5 63 bd 22 74 01 3c
       0.020190489 0.0014638738 -0.05559339 0.007901223
000300 80 64 30 bc 32 a3 eb bb 8d 8a 05 bd 92 75 fa ba
       -0.010766149 -0.0071910853 -0.032602835 -0.0019108525
000310 b8 5e 19 bd c5 62 32 bd 5b 8e 9d 3c 2c 73 28 3d
       -0.037443846 -0.043551225 0.01923292 0.04112546
000320 fd 41 36 bd ee 9a 9f bc f8 39 48 bb 6f 5f 18 bd
       -0.044496525 -0.019483056 -0.003055213 -0.037200388
000330 69 0c 2e bd 28 4a 80 bd 0d b9 12 bd 89 f3 84 bb
       -0.042492304 -0.06264144 -0.03582101 -0.004057352
000340 57 d8 d4 3c 7e ec 0c 3c d5 13 ae bc c2 49 ca 3c
       0.025982065 0.008601306 -0.021249691 0.024693374
000350 21 b6 c6 bd 94 d0 0d bd 6a 4d 58 bc 4f 1b 5f bd
       -0.09702707 -0.034622744 -0.013202051 -0.054469403
000360 4a 39 13 bc 47 fe 09 bd c2 a4 7e bc 3c 15 96 bc
       -0.008985827 -0.033689763 -0.015542211 -0.018320672
000370 df ef e1 bc fa c6 27 bd 01 9d 90 3b b9 0c 39 3c
       -0.0275802 -0.040961243 0.0044132476 0.011294537
000380 b2 cf de bc 73 ce 9e bc 76 60 80 3c f8 6c d9 bc
       -0.027198646 -0.019385552 0.015670996 -0.026541218
000390 b4 4a e8 bc 74 d8 df bc e3 46 c6 bb a1 e7 ad bc
       -0.028355934 -0.027324893 -0.006050931 -0.021228613
0003a0 14 9a 93 bc 3a 1a 3c 3c 2d 7e 7d bd 80 cc 3f bc
       -0.018017806 0.011480862 -0.06188791 -0.011706471
0003b0 30 b1 45 bd 4f 21 1f bd 6c 66 da 3c da d2 25 bd
       -0.048264682 -0.038850125 0.026660167 -0.040484287
0003c0 4c 27 63 bc b6 3d 28 bd 18 a0 b6 bc cf 8d f6 bc
       -0.01386435 -0.041074477 -0.022293136 -0.030096916
0003d0 77 46 c1 bb 22 a4 b6 bc 16 b7 61 bb c1 c9 16 3c
       -0.0058982926 -0.022295061 -0.0034441403 0.009203375
0003e0 db 48 c9 bd f9 ef 06 bd 0b d8 a0 3a 3e bb be bb
       -0.09828349 -0.0329437 0.0012271417 -0.005820661
0003f0 8a df 0a bd fe d7 8a bd 1b d7 6f bc 9f 12 b3 3c
       -0.03390459 -0.067794785 -0.0146386875 0.021859465

network_body._body_endoder.seq_layers.2.weight f4 [256, 256]
000000 e3 56 9a 3c 7b 13 85 3c c4 1a 18 be 00 1b 3a bd
       0.018840259 0.01624464 -0.1485396 -0.045435905
000010 99 b9 4d bd 0c 3c 4e bd fb 7b ba bd 46 c8 8f bd
       -0.050225828 -0.050350234 -0.09105679 -0.07020621
000020 aa ca c3 ba 7e 2c 33 be c1 6c d2 bc 94 d4 a9 3d
       -0.0014937718 -0.17497441 -0.025686624 0.08292499
000030 ab 6c 26 3e a3 9d 95 3d f9 0f 4c bd a6 1a db bd
       0.16252391 0.073054574 -0.04981992 -0.10698442
000040 48 d6 11 3d aa df b0 bc f1 f6 f9 3c bc d0 f0 3c
       0.035604745 -0.021591026 0.030513259 0.029396407
000050 1c 09 86 bd fc 04 82 bd 56 62 03 bd f3 5d 2e ba
       -0.06544706 -0.06348607 -0.032076202 -0.0006651573
000060 4f 97 94 3c 5b b5 0d 3e a7 fa 64 3d e1 fb 9f 3c
       0.018138556 0.13838713 0.055903103 0.019529285
000070 25 9f 0a bd 57 03 ea bd 16 c3 7b 3d c8 d8 22 bd
       -0.03384318 -0.11426418 0.061465345 -0.03975752
000080 16 62 ce bb 90 3e ea bc f0 1d 0c bc 72 00 23 bd
       -0.006298314 -0.028594285 -0.0085520595 -0.039795347
000090 fb a4 0b 3b 36 94 f8 bb 5f 1a 99 bc 08 7f 8b 3c
       0.0021308053 -0.0075860275 -0.018689333 0.017028347
0000a0 52 3b 0b bd 5e 41 28 be af a5 71 3d 0f 74 1e be
       -0.03399212 -0.16431186 0.0589959 -0.1547396
0000b0 b6 eb 5b bd 71 05 3b bd a7 cc 81 3b c9 c5 db ba
       -0.05369159 -0.045659486 0.003961164 -0.0016767319
0000c0 dd cc 50 3d fd d5 83 bd b6 5c 60 bc 3b 72 ea bb
       0.050976623 -0.064372994 -0.013693979 -0.0071547306
0000d0 dc e3 85 3d 80 9a 74 bd 3f e6 a3 3d 61 90 4c bd
       0.06537601 -0.059717655 0.080029 -0.049942378
0000e0 b5 ff f9 bd 67 e7 fb bd b2 a6 6a bd 9b 80 83 bc
       -0.12206975 -0.12299996 -0.05728788 -0.016052535
0000f0 24 af f4 bd 69 ac 3c be 2e f8 09 bd b6 0b 96 bd
       -0.11947468 -0.18425144 -0.03368395 -0.073264524
000100 0b af 81 bc b6 19 2a bc ec 10 fc bc bf b4 82 3b
       -0.015830537 -0.0103821065 -0.030769788 0.003988832
000110 69 3b 0a 3b 97 d3 b1 3b 0b 7b 82 3d 96 4c 53 bb
       0.002109254 0.005426835 0.06371125 -0.0032241694
000120 f8 bd 15 3d 60 5a 06 be 2b 86 fb 3d ac fb 0d bd
       0.03655812 -0.13120413 0.1228145 -0.03466384
000130 09 42 5e bd 1c cb 0d 3d 7c 49 f1 bc 07 ab 29 3d
       -0.054262195 0.03461753 -0.029453985 0.04142287
000140 ce 10 94 bd 0c e1 ba bd 61 75 ad bd 14 5e a8 bd
       -0.07229768 -0.091249555 -0.08469654 -0.08221069
000150 e3 2b 52 3d b5 ef f9 bc 85 e4 50 be a1 d8 69 bd
       0.051311385 -0.030509809 -0.20399673 -0.05709136
000160 c5 71 ec bc 35 44 2d bd 7a e5 18 bd cb 89 c9 bd
       -0.028862843 -0.042301375 -0.03732822 -0.09840735
000170 c9 23 51 bd 07 94 1a 3d 36 c1 8a 3b 99 b8 3d 3d
       -0.051059518 0.037738826 0.0042344583 0.046318624
000180 0a a2 c1 bd b5 7e 20 bd 91 59 b9 bd 59 52 5b bd
       -0.094547346 -0.039183337 -0.090502866 -0.05354533
000190 b9 8b 8a bd bd e3 e2 39 4e f4 8b bb c3 dd 89 bd
       -0.06764931 0.00043275757 -0.0042710667 -0.06731751
0001a0 1c 2a 8d bd 30 b2 c0 3d 5f 69 55 3c 62 11 93 bd
       -0.06892797 0.094089866 0.013025611 -0.0718105
0001b0 2c d9 6e bd 4a d8 7c bd b7 f3 f7 bc 0d ce 03 bc
       -0.05831258 -0.061729707 -0.03026758 -0.008044732
0001c0 c3 a3 9f bc 2d c2 3b bd af 83 fb 3c 5e 41 75 bb
       -0.019487267 -0.045839477 0.03070244 -0.0037422995
0001d0 80 8d ad bd b7 a1 42 3c a8 f9 d1 3c 45 66 25 bc
       -0.084742546 0.011879376 0.02563174 -0.010095184
0001e0 d6 d0 92 3d cd c3 2a bd ed 56 1d 3d 3e 30 2a 3d
       0.071687385 -0.041690636 0.038412977 0.041549914
0001f0 e9 74 0a bd ff 9b 44 bc 2e d0 7c bd de 8b 87 bd
       -0.0338029 -0.012000083 -0.061721973 -0.066184744
000200 b6 c4 1d bb 13 60 a4 3c 97 9d 12 3d 4c a2 45 3d
       -0.0024073548 0.020065343 0.03579482 0.04825048
000210 db e6 9f 3c 34 be b5 bc b0 3a 2d 3c 47 81 ed 3c
       0.01951926 -0.022185422 0.010573074 0.028992308
000220 d7 46 ba 3d 2b 49 03 bd f8 23 17 bc 81 c2 4e bb
       0.09095543 -0.0320522 -0.009224884 -0.0031549039
000230 cc b5 51 3c 3f c2 b4 3d 18 e9 0c 3e 34 50 22 bd
       0.012799691 0.08826112 0.13760793 -0.03962727
000240 87 81 a2 bd 96 19 11 3d 96 0b 96 3d 5c 43 71 3c
       -0.07934862 0.03542479 0.073264286 0.014725532
000250 11 2b a5 3d 61 2c 0a 3d 86 6e ae bd 56 f7 d7 bc
       0.08064855 0.03373373 -0.085171744 -0.026363056
000260 d4 5c 05 3d 88 0c c1 bd 27 eb 2a 3a 47 c4 08 bd
       0.03255923 -0.09426218 0.0006520026 -0.03339031
000270 fd 61 4b bd a7 91 9a bd a5 48 ee bc ae 3b b2 3d
       -0.049653996 -0.07547312 -0.029087374 0.08702789
000280 5a 4f 07 be 2f bf 8d 3a fe 43 c3 bd db 7f 71 ba
       -0.13213864 0.0010814423 -0.09534453 -0.00092124724
000290 25 50 19 bd 16 6d 01 bd 62 26 6c 3d ea d1 fd bc
       -0.037429947 -0.031598173 0.057653792 -0.030983884
0002a0 83 f9 cb bd ae 98 57 bd f7 e8 3f bd 3e 2c bf bb
       -0.099597 -0.05263584 -0.046853032 -0.0058341315
0002b0 86 63 87 3c ae 03 d4 bd d2 db 92 3c 8d 99 25 bd
       0.016526949 -0.10352264 0.017927084 -0.04042964
0002c0 3a c5 98 3d 13 d0 b0 3c 6d 7f 53 bc b8 f5 39 bc
       0.07459493 0.021583593 -0.012908799 -0.011350088
0002d0 38 ab 3c 3e 2a 53 9d 3d db 60 97 3c 5f 61 44 bd
       0.1842469 0.07681878 0.018478801 -0.047944423
0002e0 7f e2 f2 bd 97 09 cd 3b 2b f0 10 be 2c d1 32 3d
       -0.11859607 0.0062572467 -0.14154117 0.043656513
0002f0 dd ee 44 bd f7 81 64 bd ba 2b c3 3c 29 c6 0b bd
       -0.04807936 -0.055788007 0.023824561 -0.034124527
000300 6b 23 36 bc b3 a5 38 3e e4 97 09 3d e0 8c 24 bb
       -0.011116843 0.18031959 0.03359212 -0.0025108382
000310 b3 58 71 bb 47 f2 c8 bd f8 28 69 bc a7 29 e9 bd
       -0.003682655 -0.09811836 -0.014230959 -0.11384898
000320 dd 70 01 3d 8b 71 cc bd 42 65 2f bc 1c e3 c7 3b
       0.031601775 -0.09982594 -0.010705294 0.0061000716
000330 a9 cd ae bc cf 6a de 3d 3d 0e fd bd 83 0e b7 bd
       -0.0213383 0.10860216 -0.12356231 -0.08938315
000340 94 ef f2 bd 35 e1 fb bd b4 85 9c bc e3 96 dd bc
       -0.11862102 -0.12298814 -0.019106723 -0.027049487
000350 d1 45 80 bd 10 fa ae 3d dc f4 56 bc 40 48 57 3c
       -0.062633164 0.085437894 -0.013119902 0.013139784
000360 3b 8a 50 3d c2 e4 21 bd a5 e9 cc 3c 79 76 ef bc
       0.050913077 -0.0395248 0.025013754 -0.029231297
000370 12 b6 80 3d a8 78 7e 3d ae 81 a8 bd f6 94 16 bd
       0.06284727 0.062126786 -0.082278594 -0.036763154
000380 b8 52 8b bd a6 ed 96 ba bf 90 47 bd bd 11 44 bd
       -0.06802887 -0.0011514917 -0.048722025 -0.04786848
000390 dd 12 da bd 5b 7f 81 bd 98 ac 3e bd c9 7d 9f bd
       -0.10648129 -0.06323119 -0.046551317 -0.077876635
0003a0 1b ab c2 3c a3 7c 16 be 1c 9e e6 3c 34 ca 25 be
       0.02376323 -0.14695983 0.028151564 -0.16190416
0003b0 c6 b9 68 bc ec 63 c2 bc 25 9f e8 3d 19 94 95 bb
       -0.014204448 -0.023729287 0.113584794 -0.0045647738
0003c0 fc c7 8f 3a 29 88 55 bd 02 95 05 be 26 d6 8e 3d
       0.0010969634 -0.052131806 -0.13045123 0.06974439
0003d0 c1 65 8c 3d 0f fd e6 3d 1c 34 72 3c 06 52 9d bd
       0.068553455 0.11278736 0.014782932 -0.0768166
0003e0 5b 01 00 3e 4a e7 5e 3d cf 5b f0 bd fd 6c 5b 3d
       0.12500517 0.054419793 -0.11736261 0.053570736
0003f0 30 b2 ab bd d4 09 5d bc a5 1c 35 3a 9f e0 a8 bd
       -0.08383596 -0.013491113 0.00069088704 -0.08245968

network_body._body_endoder.seq_layers.2.bias f4 [256]
000000 a8 7a d8 bc d1 b0 97 bc d0 d7 d9 bc 62 8a 2e bc
       -0.026425675 -0.01851693 -0.026592165 -0.01065311
000010 a5 e2 84 bc ef cb 18 bc b9 c4 46 3c 29 f0 90 bc
       -0.016221354 -0.009325965 0.012131863 -0.017692642
000020 e2 dd 27 bc b2 6e a5 bc 05 e0 87 bc 58 6a 05 39
       -0.010245772 -0.020194385 -0.016586313 0.00012723485
000030 bf 1b cd bc 04 97 66 bc 87 b5 3d bd eb 87 83 bc
       -0.025037644 -0.014074091 -0.046315696 -0.016056022
000040 75 9c f3 3a 49 a7 59 bd ca 55 a8 bc 52 0b 99 bc
       0.0018586057 -0.05313805 -0.02054872 -0.018682156
000050 e5 f2 cf bc f8 f7 73 bc 4d a6 d8 bc 64 7b 0d bd
       -0.025384376 -0.014890663 -0.026446486 -0.034541503
000060 1f 2d 7b bc 62 bd ab bc 91 ba 2e bd 0e 9c 78 bc
       -0.015330582 -0.020964328 -0.042658392 -0.015173925
000070 40 6c b2 bc af ba 17 bb a6 ad 29 bd c2 a7 fa bc
       -0.021780133 -0.0023152044 -0.04142537 -0.030597571
000080 df 16 77 bb 4b 2e a1 bc 1c 03 91 bc 75 8f 35 bd
       -0.0037702841 -0.019675395 -0.017701678 -0.044326264
000090 dc 07 d7 bc d6 d2 20 bd 85 7d e9 bc d4 52 8f bc
       -0.026248865 -0.03926357 -0.028502235 -0.01749555
0000a0 08 29 d9 bc e6 55 fc bc 66 59 17 bd 16 95 55 3b
       -0.026508823 -0.030802678 -0.03695049 0.0032590083
0000b0 ae a5 e9 bb d7 0b 6c bc ca 2e 64 bd d2 12 7c 3c
       -0.0071303463 -0.01440712 -0.055708684 0.0153853465
0000c0 91 8c 42 bd 4b b1 3f bc 63 05 37 bd f9 6f 98 3a
       -0.047497336 -0.011699985 -0.04468287 0.001163005
0000d0 f2 ae f3 bc df 4c 21 bc 8e 82 09 bd 4e de 27 bd
       -0.029746506 -0.009844988 -0.033571772 -0.04098349
0000e0 6e db 10 bd 71 10 9e bc 1e 8a 28 bc b1 cc 06 bd
       -0.035365514 -0.01929495 -0.010286836 -0.032910053
0000f0 b7 10 68 bc 09 ea 0c bd ee 6f 27 bc 80 06 cd bc
       -0.014164141 -0.03440288 -0.010219557 -0.025027514
000100 d1 e7 a0 bb 07 89 9b bc d0 30 42 bd 08 b0 2d bd
       -0.004910447 -0.018986238 -0.047409832 -0.042404205
000110 db c8 29 3b 8a c7 ac bc 04 20 d9 bc d6 1e 14 bd
       0.0025907073 -0.021091241 -0.026504524 -0.03616222
000120 0f 02 8a bc b7 0f 45 bc f2 61 84 bc a1 d2 a5 bc
       -0.016846685 -0.0120276725 -0.016159985 -0.020242037
000130 f5 0a 03 bd 07 41 16 bd c5 12 fe bb c3 81 a8 bc
       -0.03199287 -0.03668311 -0.0077537023 -0.020569688
000140 ce 3b 13 bd de 2c c2 bc ba dc 32 bc ef d9 4c 3b
       -0.035945706 -0.023703035 -0.010916883 0.0031257828
000150 62 b1 5c bc 6c c7 35 bc f6 67 27 bd 03 b0 16 bd
       -0.013470026 -0.011094909 -0.04087063 -0.03678895
000160 a9 63 f5 bc 3d d9 de bc 73 cc 24 bc d0 6c 93 ba
       -0.029954748 -0.027203197 -0.01005851 -0.0011247639
000170 9a e4 a5 bc 20 1c b2 bc 28 d3 d1 bc d8 4c aa bc
       -0.020250607 -0.021741927 -0.025613382 -0.020788595
000180 db ea 42 bc 84 37 12 bd 59 4d 0b bd 52 92 a3 bc
       -0.011896814 -0.035697475 -0.03400931 -0.019967232
000190 6e 7e 15 bd f8 e9 cb bb 52 4d d2 bc 4b 01 b4 bc
       -0.036497526 -0.0062229596 -0.025671635 -0.021973273
0001a0 10 fa cb bc d5 ad 46 bd 29 69 5a bc 64 97 cf bc
       -0.024899513 -0.048505623 -0.013330736 -0.025340743
0001b0 03 d1 89 bb 38 1f 1a bd f6 b3 55 bc 2a a9 a5 bc
       -0.0042058243 -0.03762743 -0.013043394 -0.020222265
0001c0 1c 19 bd bc d2 95 c8 39 8e 58 09 bd 25 c9 37 bd
       -0.023083262 0.00038258597 -0.033531718 -0.04486956
0001d0 f7 2d db bc cc c7 fb bc 31 e6 6a bd 43 fa b7 bc
       -0.026755316 -0.030734919 -0.057348434 -0.022458201
0001e0 14 ac 00 bd f4 22 09 bd 74 33 66 bc 32 39 af bc
       -0.031414106 -0.0334806 -0.014050353 -0.021389578
0001f0 84 a3 03 bd 74 55 e3 bc 04 9a 5e bc 32 74 63 bc
       -0.032138363 -0.027750708 -0.013586525 -0.013882684
000200 03 ba 22 bd 13 1c ad bc ee 9a eb bc d8 77 a6 bc
       -0.039728176 -0.02113155 -0.0287604 -0.020320818
000210 37 aa 91 bb fe 59 e4 bc ac 27 d2 bc c1 06 ff bb
       -0.00444534 -0.027874943 -0.025653683 -0.0077827876
000220 78 14 16 bc ff da 38 bc d7 9a cb bb 2a 05 b1 bc
       -0.009160154 -0.0112826815 -0.0062135267 -0.021608908
000230 a5 80 98 bc 32 eb 09 3c 7a d5 0a bd 07 e1 2a bd
       -0.01861603 0.008417891 -0.033894993 -0.04171851
000240 23 e8 02 bd 36 f1 c3 bb 7e 0c af bc 69 06 39 bc
       -0.031959664 -0.0059796823 -0.021368261 -0.011293032
000250 55 ff d1 bc 4a a4 30 3c 75 30 25 bc 86 4a de bc
       -0.025634447 0.010781357 -0.010082354 -0.027135145
000260 16 21 07 bd d1 2d 0b bd 2d 17 de bb bb b0 39 bb
       -0.032990538 -0.03397924 -0.006777665 -0.00283341
000270 3e cd 1b 3c ee a7 9a bc 2d 99 fe bc db 4e 14 bc
       0.009509383 -0.018878903 -0.0310789 -0.009052004
000280 56 d0 34 bc 0d 6d e1 bc bb ec dc bc 85 4f 0f 3c
       -0.011035999 -0.02751782 -0.02696835 0.008746986
000290 d7 84 0a bd 0f 97 22 bc 9b 1a ab bc 1d 83 f1 bb
       -0.033818092 -0.0099237105 -0.02088671 -0.0073703662
0002a0 cc bb 25 ba 6f 18 64 bc cc 65 d9 bc a6 35 b5 bc
       -0.00063222344 -0.013921841 -0.026537798 -0.022120308
0002b0 01 e1 34 bc a7 fb 32 bd ae f7 88 bc 67 3b ea bc
       -0.011039973 -0.043697026 -0.016719665 -0.028592778
0002c0 74 29 ad bc 91 06 4b bd cb 09 07 bd 1e 49 82 bc
       -0.02113793 -0.04956681 -0.032968324 -0.015904006
0002d0 3f 20 6d ba 34 ca 09 bd fb e2 3b 3c 3d ea b9 bc
       -0.00090456376 -0.0336401 0.011467691 -0.022694701
0002e0 aa 20 a6 bc 24 0c 78 bd 71 50 8f bc c4 bf f8 bc
       -0.020279247 -0.060558453 -0.017494412 -0.030364878
0002f0 08 ae 4c bd 42 7a 1e bd 3b 39 3e bd 53 56 09 bd
       -0.049970657 -0.038690813 -0.046441298 -0.03352959
000300 d2 dd 0e bd 23 85 b8 bc 7f 07 a1 bc 5b e1 93 bc
       -0.034879513 -0.022524422 -0.019656895 -0.018051794
000310 6e 16 d3 bc ae 7d 0b bd 32 54 db bb 1c 26 1c bd
       -0.025767531 -0.034055404 -0.0066933865 -0.03812228
000320 cf c0 33 bd c6 53 e1 bc 13 2b 90 bc 93 c6 d8 bc
       -0.04388505 -0.027505767 -0.017598664 -0.026461875
000330 d4 01 ca bc 92 b2 bc ba f6 00 95 bc 55 b7 1a bd
       -0.024659075 -0.001439648 -0.018188935 -0.037772495
000340 58 7e be bb a7 51 33 bd 91 8d 78 bb b6 4c 87 bc
       -0.005813401 -0.04377904 -0.0037926177 -0.01651607
000350 b1 8c ca bb 95 53 e6 bb 87 a8 b7 37 d0 d9 fb bc
       -0.0061813225 -0.0070290067 2.1893777e-05 -0.03074351
000360 ca ee c5 bc d8 05 17 bd 4a 6c e5 bc c8 e6 0b bd
       -0.024161715 -0.036870807 -0.028005738 -0.034155637
000370 2e 1d c5 3b ee 79 5c bc 7d e7 a0 bc d3 53 5c bc
       0.0060154414 -0.013456805 -0.019641632 -0.01344772
000380 a6 67 bf bc 72 53 af bc 3d 13 8e bc 3f 56 39 bb
       -0.023364853 -0.021402095 -0.017343158 -0.0028280166
000390 33 ea cc bc ea ed 2e bc 78 b1 36 bd e5 84 01 bc
       -0.025014019 -0.01067684 -0.04460284 -0.00790522
0003a0 f0 d1 14 bd fb 96 e8 bb df 15 a7 bb e7 89 1f bd
       -0.036333025 -0.0070980764 -0.005099043 -0.038949873
0003b0 4a 46 5b bc 1a 92 01 3b f9 34 d9 bb 95 21 c7 bc
       -0.013383457 0.0019770921 -0.0066286293 -0.024308005
0003c0 04 f5 27 bd 65 8f b8 3b 1c 13 0c bd 74 69 af bb
       -0.04100515 0.0056323283 -0.03419791 -0.005353147
0003d0 c6 9c 89 bc 3a 6b 1c bd 53 b6 c0 3a 14 22 43 bc
       -0.016798388 -0.038188197 0.0014702774 -0.01190998
0003e0 a2 12 4c bd db 5a 8b bc 2e ef cc bc de f9 b3 bc
       -0.049822457 -0.017011097 -0.025016394 -0.021969732
0003f0 93 c6 17 bc d5 58 00 bd 82 75 df bc 0e 8e 4d bc
       -0.009263652 -0.031334717 -0.027277712 -0.0125460755

action_model._continuous_distribution.log_sigma f4 [1, 2]
000000 3b 45 9b bd 42 a1 c6 bc
       -0.07581564 -0.024246816

action_model._continuous_distribution.mu.weight f4 [2, 256]
000000 b1 30 01 3c 23 ba cf bb ce 14 2e 3a 94 07 67 ba
       0.007885144 -0.006339328 0.00066406734 -0.000881308
000010 78 a0 7b bb 19 26 94 3b 01 d5 62 3c c9 9f 3b bd
       -0.0038395207 0.004521143 0.013844729 -0.04580668
000020 07 4c d3 3a e4 f0 c7 ba 42 6e 4d b9 a3 0e 08 3b
       0.001612068 -0.0015254286 -0.00019591398 0.0020760677
000030 1e c0 c9 bb 43 05 13 ba 1e 3a aa 3a b7 95 43 bc
       -0.0061569354 -0.0005608389 0.0012987291 -0.01193755
000040 1d 5d b4 bb 71 e9 3a bc f8 b5 04 bc 6b 98 0c bc
       -0.005504264 -0.011408196 -0.008100025 -0.008581261
000050 0a 67 d8 bc e4 cb 05 bb 18 d8 68 ba 32 67 98 ba
       -0.02641632 -0.0020415718 -0.0008882298 -0.0011627434
000060 18 cc e5 3a 5f 5a 89 bb f9 15 cf bc e8 54 1d 3a
       0.0017532138 -0.0041916813 -0.025279032 0.0006001727
000070 38 0b 41 3c 20 92 80 3c b8 26 20 3b 95 79 94 bb
       0.01178246 0.015694678 0.002443714 -0.0045310953
000080 77 e4 ed bb 37 02 d5 bb 4b 1c 6f 3b 98 a9 25 bb
       -0.007259901 -0.006500508 0.003648537 -0.0025278088
000090 bc 7d 8c 3c 3d 0d 89 ba 52 46 ba bc 01 c0 4e bb
       0.017149799 -0.0010456216 -0.02273861 -0.0031547549
0000a0 24 17 fe 39 eb b7 d0 bb dd 81 1e bb a1 cb 21 3b
       0.00048463896 -0.006369581 -0.0024186291 0.0024688023
0000b0 38 b8 74 bb b3 b7 25 3c e5 ba 88 3b 5b 95 f4 ba
       -0.0037341248 0.010114598 0.00417267 -0.0018660234
0000c0 25 d5 2e bb 7c d7 4b 3a f7 61 26 3a b0 29 96 ba
       -0.0026677337 0.0007775945 0.00063469954 -0.0011456516
0000d0 94 6f 7e bb 5a 77 26 bb fa e8 e1 ba 6b 28 c5 bc
       -0.003882383 -0.002540073 -0.001723557 -0.024067124
0000e0 37 47 82 3b 01 0e 95 bc 10 d1 87 3b 4e 11 3a bc
       0.0039757746 -0.018195154 0.0041447952 -0.011356665
0000f0 a2 00 dd bb a5 6b bc bc a9 6d 5c 3c 12 7a ce ba
       -0.00674446 -0.023000548 0.013453879 -0.0015752933
000100 ab d6 09 3c 8f f8 09 bc f0 75 8c 3b 5f b0 8d ba
       0.008412997 -0.008421077 0.00428652 -0.0010810009
000110 b6 ed a7 39 44 81 ea ba b9 32 82 ba 3b 40 53 bc
       0.0003202983 -0.0017891307 -0.000993333 -0.012893732
000120 c9 b8 9f 3c 45 0a ca 3a f0 b7 02 bb 19 e0 f0 bc
       0.019497292 0.0015414438 -0.001994606 -0.029403733
000130 19 cc e1 bb b2 6b 8b bb 7d f3 47 bc 1e 3a 96 bc
       -0.0068907854 -0.0042547816 -0.012204048 -0.01833826
000140 05 ce 7b 3b a4 b5 a6 bb 8b 53 3a ba 43 f6 0e bb
       0.0038422358 -0.005087571 -0.0007107786 -0.0021814264
000150 b5 25 de bb 9d ea 0d bb fe a3 53 bb 89 61 84 3b
       -0.0067793974 -0.0021654733 -0.0032293792 0.0040399474
000160 a9 4c 16 bd 63 b9 24 bb 5d a9 44 bc 14 d3 c6 39
       -0.036694203 -0.0025134913 -0.01200327 0.00037922768
000170 4a ce fd ba f2 e5 f8 3b 22 8b 80 b9 a0 72 1d bb
       -0.0019363847 0.007595771 -0.00024517725 -0.002402462
000180 1e 72 cf bc 63 99 f9 bb e6 76 d5 bc 38 21 47 bb
       -0.02532297 -0.007617162 -0.026057672 -0.003038479
000190 b3 25 ba bb c2 c6 5c ba e1 cc 5a bc 4a a3 29 3b
       -0.0056807636 -0.0008421951 -0.013354511 0.0025884681
0001a0 e5 98 d1 ba c9 f6 0c 3b 5e c1 b0 bb 69 56 bf bb
       -0.0015991001 0.00215094 -0.005394145 -0.0058391583
0001b0 33 b0 59 bb d3 ad ee 3a fd ba 28 bc ea dd e9 ba
       -0.0033216595 0.0018209763 -0.010298488 -0.0017842625
0001c0 ed 2e 3a bc 87 24 10 3b d1 09 19 ba 97 29 19 3a
       -0.011363727 0.0021994428 -0.00058379496 0.0005842684
0001d0 cb 58 69 3b 83 0c 53 bc 90 1e d6 ba 68 3f b8 ba
       0.0035605903 -0.012881401 -0.0016336013 -0.0014056982
0001e0 e6 86 d5 3b f8 f1 7f bc 65 3b af 3c cf 26 35 3c
       0.0065163253 -0.015621655 0.021390626 0.011056616
0001f0 45 f1 be 3b ad 40 13 bb d0 e5 25 ba 31 88 3e b9
       0.0058271014 -0.002246897 -0.0006328495 -0.00018170547
000200 3e c2 e8 bc 3c 44 46 3c cc 81 cf ba f3 89 bb bb
       -0.028412934 0.012101229 -0.0015831529 -0.005723232
000210 93 bd ec ba de 8a 48 bb bf c1 32 ba 25 91 0e 3b
       -0.0018061869 -0.003060035 -0.00068190316 0.0021753993
000220 3a 4e c3 3a c5 b0 31 3b 7c 00 c3 bb 87 d0 70 bb
       0.0014900633 0.002711342 -0.0059509855 -0.0036745386
000230 47 91 84 bb 20 de 8f ba 86 05 f4 bc 10 a1 8a bb
       -0.0040456387 -0.0010976233 -0.02978779 -0.004230626
000240 c3 bb 9b 3a 95 ad b5 bb 83 48 a3 bc ee 15 8e 3b
       0.0011881519 -0.005544374 -0.019932037 0.0043361103
000250 63 bc 89 3b 0f 4c 14 3b 2c 49 58 3c 36 bd 16 bc
       0.0042033657 0.0022628342 0.013201039 -0.009200385
000260 62 9c cf bb ae cd b9 b9 25 c6 5f bb 73 90 12 3b
       -0.006335781 -0.00035439193 -0.0034145203 0.002236393
000270 9d 45 81 ba 03 4d 2c 3c ef 21 ce bb 7e ca b6 38
       -0.0009862665 0.010516408 -0.0062906663 8.7161534e-05
000280 94 63 1a bb 41 8a 5d bb d1 75 b1 3a 44 ab ba b7
       -0.0023557888 -0.003380433 0.001353914 -2.225268e-05
000290 2e 13 3e bc bb 70 81 3b 4c d8 30 bb 0a 4d 44 ba
       -0.0116012525 0.003950206 -0.0026984392 -0.00074882864
0002a0 37 e0 0d bc d4 4f 9a bc 32 6c e4 37 e7 2d 39 bc
       -0.008659414 -0.018836893 2.72301e-05 -0.011302448
0002b0 2d a4 01 bc 3d 10 5a bc 6a 31 2a 3a 88 fa 8a 3a
       -0.007912678 -0.013309536 0.00064923486 0.0010603229
0002c0 55 35 59 bd 12 3f 30 bc ef fa c0 3b f6 c9 63 3b
       -0.053029377 -0.010757225 0.0058892886 0.003475783
0002d0 d0 0d 80 3a 53 f9 86 bb d7 1a 1b 3b a3 35 a5 3c
       0.0009769741 -0.004119077 0.002366712 0.020167178
0002e0 b2 51 6c bb 33 45 86 bc e2 b1 22 bd cd 0a 39 bc
       -0.0036059436 -0.016390419 -0.039720424 -0.011294079
0002f0 ed e3 01 3b c7 ed 3d bc c3 69 0a bc 81 a4 4a bc
       0.0019819692 -0.011592335 -0.008448067 -0.012368322
000300 a9 e8 11 bc 38 23 7a bb e8 2c 91 3b e7 00 b5 3b
       -0.008905568 -0.0038167965 0.004430402 0.005523789
000310 00 f8 cd bc 15 16 7c bb 16 7d 50 ba d2 74 28 3c
       -0.02514267 -0.003846531 -0.00079532096 0.010281758
000320 30 71 2a 3b 60 b8 dc bb 64 fc 0d bc b4 b9 78 ba
       0.0026007406 -0.0067358464 -0.008666132 -0.0009488121
000330 61 2a 12 bb 1a 5a a5 ba 14 5c 28 bc a8 4e ee 3a
       -0.0022303092 -0.0012615353 -0.010275859 0.00181814
000340 a7 d0 87 bc fa 77 6c bc 39 91 30 3c 0a ee 85 bb
       -0.016578985 -0.0144329015 0.010776811 -0.0040872144
000350 d9 69 3a bb 1f b6 d9 3b bd 51 31 bc c3 c2 3d 3c
       -0.0028444438 0.006644025 -0.010822711 0.011582079
000360 23 63 ed bb 1d 91 3f bc 9f d3 45 bc 20 99 10 bc
       -0.007244484 -0.011692313 -0.01207438 -0.00882557
000370 a3 78 80 bb 54 2b 2a bc 39 19 50 bb 0b 2c 91 3b
       -0.003920631 -0.010386307 -0.0031753315 0.004430299
000380 3a 30 a5 ba 3b c3 8f 3c 43 53 1d 3c d8 ea 89 3b
       -0.0012602874 0.017549148 0.009602371 0.0042089038
000390 bb ca 0c 3c aa 49 8f 3c 24 ee a2 bc 7d 72 12 bb
       0.008593257 0.01749118 -0.019888945 -0.0022346072
0003a0 ea e0 1d bb d5 b8 b2 3a e3 ce 7c bb 4e 8e 6c 3b
       -0.0024090358 0.0013635407 -0.0038575463 0.0036095562
0003b0 7d 16 11 bc 12 4d c6 b9 80 da 43 3c be 88 ad bc
       -0.008855459 -0.00037822925 0.01195395 -0.021183368
0003c0 77 30 b4 bb 6e fb 2a 3a 58 1a f2 bb db 43 17 3d
       -0.0054989415 0.00065224513 -0.0073883943 0.036929946
0003d0 39 02 0e bc 06 6d bd bc 97 f3 1e 3d cc b2 07 bc
       -0.008667522 -0.023123275 0.038806524 -0.008282375
0003e0 35 14 c9 b8 39 18 a9 bb 86 f0 45 bb 33 0b 4c 3c
       -9.588191e-05 -0.0051603583 -0.0030203178 0.012453842
0003f0 1d 9e b8 ba 2f 43 ab bc bd ee 96 ba 6f ed 11 3c
       -0.0014085207 -0.02090606 -0.0011515241 0.008906706

action_model._continuous_distribution.mu.bias f4 [2]
000000 c8 db 76 3c a3 ee d4 3a
       0.015067048 0.0016245436

66 f4 [20]
000000 1b 00 b9 3c 8e b1 b3 3e e8 68 b9 3a 99 26 cf 3d
       0.022583058 0.350964 0.0014145644 0.10114784
000010 b5 d0 f1 3e 3f de dc 3e 74 e8 3b 3d 0a 68 ca 3d
       0.47229543 0.4313831 0.04587598 0.09883125
000020 d9 89 ff 3e d3 45 f7 3e e8 68 b9 3a 43 da ce 3d
       0.49909857 0.4829546 0.0014145644 0.10100224
000030 41 3c db 3e 4a c1 b3 3e 2f cc 46 3d 54 dd d3 3d
       0.42819408 0.35108405 0.04853457 0.10344949
000040 90 fd f8 3e cc ca e8 3e ee 4a 4f 3b 77 38 cc 3d
       0.48630953 0.45467222 0.0031630355 0.09971707

69 f4 [12]
000000 1b 00 b9 3c 8e b1 b3 3e e8 68 b9 3a f0 1b a6 3c
       0.022583058 0.350964 0.0014145644 0.020276994
000010 79 06 ae 3e 3a 8c e3 3e e8 68 b9 3a ed a2 8f 3c
       0.33989313 0.44442922 0.0014145644 0.017533744
000020 6a 49 a6 3c be c0 b3 3e e8 68 b9 3a c4 52 a6 3c
       0.020298678 0.35107988 0.0014145644 0.020303138

72 f4 [3]
000000 21 e7 b4 3d 93 28 00 3b 06 1e b5 3e
       0.08833147 0.0019555434 0.3537447
