results/firstry/KartAgent/KartAgent-76656.onnx (onnx, 305043 bytes, 13 tensors)

network_body.observation_encoder.processors.0.normalizer.running_mean f4 [20]
0.078792535 0.457949 0.41360864 0.49155304 0.16118555 0.36063242 0.45684013 0.53970414
0.1808576 0.5833909 0.20716959 0.33868146 0.3150789 0.531445 0.14297456 0.29585308
0.39936334 0.52017426 0.07219171 0.27931684
00000000: fb5d a13d 4b78 ea3e 83c4 d33e d7ac fb3e
00000010: d30d 253e d0a4 b83e f3e6 e93e 0d2a 0a3f
00000020: bc32 393e 1b59 153f 4424 543e a867 ad3e
00000030: 0652 a13e c80c 083f ec67 123e 0e7a 973e
00000040: 5a79 cc3e 242a 053f 3fd9 933d 9e02 8f3e

network_body.observation_encoder.processors.1.normalizer.running_mean f4 [12]
0.14054817 0.45841864 0.35138345 0.4068794 0.13838266 0.44639105 0.36598092 0.41968197
0.14620978 0.46646744 0.33742523 0.39500657
00000000: dceb 0f3e d9b5 ea3e 88e8 b33e 7f52 d03e
00000010: 2fb4 0d3e 5e8d e43e da61 bb3e 8ee0 d63e
00000020: 04b8 153e d2d4 ee3e 00c3 ac3e 4d3e ca3e

network_body.observation_encoder.processors.2.normalizer.running_mean f4 [3]
-0.036160316 0.049375784 0.31064525
00000000: d71c 14bd 433e 4a3d e50c 9f3e

network_body._body_endoder.seq_layers.0.weight f4 [256, 35]
-0.15342268 0.13922893 -0.27665672 0.21576867 0.0047022374 -0.046557352 0.1337333 -0.32368207
-0.2497359 -0.15566602 -0.1885497 0.37233964 0.117202036 0.038391348 0.07668498 0.16252097
0.013287115 0.18903176 0.3497563 0.021804556 -0.24226815 0.07396496 -0.28340656 0.16902763
0.16501552 -0.25427875 -0.106151775 -0.0985532 -0.04736144 -0.12984465 0.08545135 -0.032888908
-0.2571982 0.306096 0.113961145 -0.04254515 0.06344028 -0.009685675 0.12933987 -0.16196647
0.016549816 0.106631756 0.2639117 -0.1364865 -0.11706082 -0.09747441 0.15831941 -0.11701326
-0.06603182 0.17604055 -0.140228 0.3350398 0.013971009 -0.051760983 -0.010931449 -0.059650593
-0.11002759 0.095564604 0.10158435 0.01179921 0.1836332 -0.07460917 -0.13586928 -0.04224696
0.14460258 0.07406395 0.31591502 -0.0059980443 -0.0136566525 -0.079571776 -0.06370418 0.056232765
0.15259987 0.31847543 0.037634023 0.20049419 -0.084353745 -0.15029614 -0.163622 -0.3396812
0.042407192 0.019505184 0.030493706 -0.2891579 -0.27028462 0.1720803 0.28902128 0.31100687
0.36760536 0.12368375 -0.08048277 -0.15767393 -0.124958724 -0.051022746 0.2102746 0.1543781
0.09665101 -0.0956939 0.0078024846 -0.19449803 -0.046285257 0.104939885 -0.1264698 0.04647772
-0.19377281 -0.394281 0.31806323 -0.21675837 -0.045961738 0.17754455 0.0842739 -0.042220347
-0.0921669 -0.090526894 -0.36110884 -0.0064427783 0.45627576 -0.047261573 -0.08142168 -0.3502688
-0.14734924 0.10962342 0.053849258 -0.0994423 -0.18244024 -0.10921348 0.31998342 -0.21248594
-0.056792438 -0.23483992 0.23067416 0.25205854 0.23986477 0.14023782 -0.17599973 -0.12077788
-0.077319 -0.22607861 -0.014109728 0.018759172 0.039243028 -0.18646316 0.25311548 0.007564051
0.11651062 -0.27359527 -0.35205334 -0.0318987 -0.05400219 -0.0959326 -0.11835163 -0.24724863
0.13169125 0.29154792 0.076991946 0.15619554 -0.17988232 0.13067216 -0.0079239 -0.02964437
-0.12151562 0.3550975 -0.2651352 0.06715864 -0.30574203 0.07795744 -0.093606636 -0.11986867
-0.09838912 -0.016202277 0.06512081 0.10579451 -0.25119236 -0.109631844 -0.06678018 -0.2819888
-0.32620817 -0.07928152 0.07500571 0.048216816 0.085193574 0.09339287 -0.07841427 -0.01927889
0.34027973 -0.1418149 -0.28621167 0.036542293 -0.13100477 -0.04564333 -0.17422828 -0.031949576
0.030615501 0.08770143 -0.14812818 -0.34025243 -0.15533528 -0.005793098 0.13829929 0.16143826
0.23005557 0.29663286 -0.11659043 -0.0530566 0.08432077 0.10416143 0.005740569 -0.114139296
0.20909198 0.029101273 0.042813335 -0.2545011 0.3073329 -0.23728023 -0.25007194 -0.16029224
0.15302129 0.33375755 0.015692066 -0.025824852 0.18747532 -0.1280356 0.119032905 -0.1325834
0.24157071 0.17823657 -0.014504167 0.32187858 -0.0502611 -0.13132946 -0.2733267 -0.19234087
-0.15146683 0.1625454 0.077306375 0.052221257 0.23922871 0.1012626 0.31986833 -0.14106224
-0.19430119 0.3534638 0.0022104383 -0.10408378 0.31540096 0.27871856 0.20925304 0.10845549
0.24787651 -0.10898971 0.10673105 -0.112844884 -0.10092942 0.03240514 -0.11064882 0.23035975
00000000: d61a 1dbe 0792 0e3e f3a5 8dbe 76f2 5c3e
00000010: 3a15 9a3b ecb2 3ebd 62f1 083e a8b9 a5be
00000020: c5ba 7fbe ea66 1fbe 2c13 41be 4da3 be3e
00000030: 9f07 f03d 3f40 1d3d 040d 9d3d e66b 263e
00000040: 33b2 593c 8b91 413e 4213 b33e 789f b23c
00000050: 2415 78be f17a 973d aa1a 91be 9415 2d3e
00000060: d4f9 283e d330 82be 1a66 d9bd 43d6 c9bd
00000070: 12fe 41bd fff5 04be 1e01 af3d 85b6 06bd
00000080: 7caf 83be 9db8 9c3e 7664 e93d d343 2ebd
00000090: faec 813d aab0 1ebc ac71 043e 8ada 25be
000000a0: 7b93 873c c061 da3d 6f1f 873e 1ec3 0bbe
000000b0: 95bd efbd aaa0 c7bd 7c1e 223e a6a4 efbd
000000c0: b13b 87bd f943 343e ee97 0fbe 568a ab3e
000000d0: a9e6 643c 5303 54bd d219 33bc 2e54 74bd
000000e0: 2556 e1bd 60b7 c33d 750b d03d 7951 413c
000000f0: 570a 3c3e b1cc 98bd 5121 0bbe 260b 2dbd
00000100: b312 143e d7ae 973d 9dbf a13e 3e8b c4bb
00000110: 27c0 5fbc 87f6 a2bd 5677 82bd 5454 663d
00000120: 2443 1c3e 360f a33e 2226 1a3d 594e 4d3e
00000130: a8c1 acbd 3be7 19be 878c 27be b2ea adbe
00000140: 2ab3 2d3d 56c9 9f3c f0cd f93c 810c 94be
00000150: bf62 8abe d135 303e 99fa 933e 4b3c 9f3e
00000160: c536 bc3e e84d fd3d 27d4 a4bd 4675 21be
00000170: 5cea ffbd 3afd 50bd 3a52 573e 4b15 1e3e
00000180: f7f0 c53d 2afb c3bd fcab ff3b 7e2a 47be
00000190: 9c95 3dbd b9ea d63d 4d81 01be 6c5f 3e3d
000001a0: 616c 46be 33df c9be 2fd9 a23e e8f5 5dbe
000001b0: 6042 3cbd 3dce 353e cb97 ac3d 3eef 2cbd
000001c0: 00c2 bcbd 2a66 b9bd 42e3 b8be f11d d3bb
000001d0: fa9c e93e 5a95 41bd 69c0 a6bd 6f56 b3be
000001e0: b8e2 16be 3e82 e03d 0a91 5c3d 68a8 cbbd
000001f0: 9dd1 3abe 51ab dfbd ded4 a33e ea95 59be
00000200: 309f 68bd e079 70be d935 6c3e d10d 813e
00000210: 1c9f 753e 819a 0f3e 4639 34be 655a f7bd
00000220: 6d59 9ebd 2781 67be 7d2c 67bc d6ac 993c
00000230: 4cbd 203d 33f0 3ebe 5a98 813e dcdb f73b
00000240: 1f9d ee3d ae14 8cbe 5640 b4be 36a8 02bd
00000250: 6631 5dbd 5078 c4bd 5762 f2bd bf2e 7dbe
00000260: 12da 063e c545 953e f4ad 9d3d b9f1 1f3e
00000270: 1233 38be ecce 053e 3fd3 01bc c0d8 f2bc
00000280: 2edd f8bd 57cf b53e cdbf 87be 788a 893d
00000290: 388a 9cbe 26a8 9f3d d6b4 bfbd b57d f5bd
000002a0: 3c80 c9bd a3ba 84bc 0f5e 853d cbaa d83d
000002b0: 499c 80be a986 e0bd 0cc4 88bd d660 90be
000002c0: c204 a7be 595e a2bd 989c 993d ff7e 453d
000002d0: f879 ae3d c344 bf3d a997 a0bd c3ee 9dbc
000002e0: 2539 ae3e ed37 11be 568a 92be 5fad 153d
000002f0: 1d26 06be 80f4 3abd e668 32be 8fdd 02bd
00000300: 5ccd fa3c cf9c b33d eaae 17be 9135 aebe
00000310: 3610 1fbe 07d4 bdbb 549e 0d3e 1250 253e
00000320: b093 6b3e 43e0 973e f7c6 eebd e151 59bd
00000330: 5eb0 ac3d 9652 d53d 621b bc3b ddc1 e9bd
00000340: 351c 563e cb65 ee3c 095d 2f3d f84d 82be
00000350: bd5a 9d3e 97f9 72be 6e09 80be a623 24be
00000360: 9db1 1c3e 45e2 aa3e a68c 803c a48e d3bc
00000370: 88f9 3f3e c41b 03be 86c7 f33d f1c3 07be
00000380: 505e 773e a683 363e e3a2 6dbc 45cd a43e
00000390: 95de 4dbd 3b7b 06be 7af1 8bbe 01f5 44be
000003a0: 1f1a 1bbe 4d72 263e ce52 9e3d f5e5 553d
000003b0: 5ff8 743e c462 cf3d c8c5 a33e 9f72 10be
000003c0: e4f6 46be 35f9 b43e 00dd 103b e029 d5bd
000003d0: 3c7c a13e 33b4 8e3e 6e46 563e e91d de3d
000003e0: 57d3 7d3e ff35 dfbd cf95 da3d 381b e7bd
000003f0: 15b4 cebd 41bb 043d d99b e2bd 6de3 6b3e

network_body._body_endoder.seq_layers.0.bias f4 [256]
0.004269467 0.0016813369 -0.009969633 0.007197783 -0.017028565 0.009204676 -0.0035578732 -0.025409676
0.005322639 -0.0012075965 0.016194854 -0.013511474 0.012467646 -0.008000332 0.01868917 0.007500605
-0.013051493 0.0056179897 -0.011205922 -0.009055131 0.0056874035 -0.0047701853 -0.00598076 -0.0005416412
-0.029664943 -0.0122795375 0.02658784 -0.015420443 -0.0064462638 0.0036301012 -0.010822979 -0.019846538
-0.015060263 -0.016511569 -0.005977467 -0.02690685 -0.010191956 -0.03543991 9.440714e-05 -0.022310076
-0.010688745 0.004935383 0.009046772 -0.023945551 0.016037967 0.01697118 -0.024706654 0.015107194
0.010833666 -0.02644703 -0.008883855 -0.0026144502 -0.011083691 -0.0035488682 -0.0016257375 -0.020170478
-0.016716346 0.006547187 -0.011104582 0.0023705664 -0.015901921 -0.008873623 -0.016430138 -0.0059016286
0.022880752 0.0046370947 -0.010188418 -0.009330906 0.011006389 -0.024882074 0.0015957023 0.009523424
-0.0032237894 -0.028157074 0.015765922 0.0047995998 -0.016954992 0.02202754 -0.00067470473 -0.014764936
0.010369448 0.009735974 -0.012160184 -0.014045245 -0.011205108 -0.024213104 -0.0047017876 0.022010395
0.01888744 0.02518217 0.0012316493 0.005460413 -0.005605618 0.0015794476 -0.016577197 0.007604064
0.006223148 -0.0017767682 -0.008366438 0.008675847 -0.0073792646 -0.018152058 -0.00802206 -0.018335883
-0.007077829 0.002269773 -0.0053518116 -0.012398997 0.013034952 0.00716633 -0.032153364 0.00014335707
-0.023132917 0.0037941178 -0.003238869 -0.003361446 -0.012130271 0.0014131233 0.022618413 -0.0048815664
-0.024215154 0.0017385399 0.016330568 -0.003343921 -0.022463184 -0.0022934536 0.018540943 0.00502532
-0.016823296 -0.032186393 -0.0053673913 -0.011462656 -0.009950555 -0.000693871 -0.0064307014 -0.014870899
-0.013317872 0.012901188 -0.002326015 -0.009503585 0.0030022787 -0.020682162 -0.0009491918 -0.019208211
0.011735576 0.008168397 -0.0090967845 0.0036888963 0.0020039387 -0.017136412 -0.007094551 -0.008536628
-0.0038616618 -0.023510786 -0.011079911 -0.018346427 -0.016330214 -0.015420662 9.3947376e-05 -0.013149323
-0.012782277 -0.011958019 0.0050629433 0.007985802 -0.025656607 -0.012823198 -0.028304152 0.007212713
0.0021901743 0.002200265 0.021354085 0.021342583 -0.009059392 -0.0018081833 0.01110739 0.00050961156
-0.00997255 -0.0030715507 -0.014194135 2.5378853e-05 -0.009735289 0.0009028633 -0.009505879 -0.0032478913
0.008982688 0.0024872958 0.00853581 -0.0011601828 -0.003039295 -0.001885298 0.024008224 -0.010287912
-0.0049029524 -0.025884062 -0.011554316 -0.0013863068 0.015298698 -0.017893512 -0.0069215903 -0.012857031
-0.014394547 -0.038172897 -0.002744283 0.001357486 0.005965937 -0.0036823791 -0.012941917 -0.0179128
-0.0020342222 -0.024770996 -0.01690226 -0.012192796 -0.0005180721 0.005214435 -0.014894893 0.005212901
-0.0050605526 -0.020840637 0.0007129968 -0.0014159881 0.013365075 -0.01607161 0.010707833 -0.0020680036
-0.016920662 -0.009282868 0.01065692 -0.021713305 0.002906983 -0.021091389 -0.0070297457 -0.01563394
-0.01974347 -0.023173785 -0.011532454 -0.0030446954 -0.016844159 0.015288071 -0.009059428 0.0016534834
-0.0071866205 -0.0038659116 -0.016641352 -0.018643787 -0.016280508 -0.03665021 -0.00639696 0.0070373826
0.027335988 -0.0057639503 0.011494933 0.01226476 0.0067792377 0.015304217 -0.005069218 -0.017422462
00000000: e3e6 8b3b 4e60 dc3a ac57 23bc 61db eb3b
00000010: 7d7f 8bbc 36cf 163c 352b 69bb f427 d0bc
00000020: 8869 ae3b 3748 9eba 12ab 843c 3b5f 5dbc
00000030: 1945 4c3c d313 03bc 081a 993c a3c7 f53b
00000040: eed5 55bc 1d17 b83b 0b99 37bc f95b 14bc
00000050: 665d ba3b 374f 9cbb 40fa c3bb edfc 0dba
00000060: e503 f3bc 1d30 49bc bece d93c 07a6 7cbc
00000070: 2e3b d3bb fee6 6d3b dd52 31bc 3595 a2bc
00000080: 52bf 76bc 4543 87bc a1de c3bb c16b dcbc
00000090: 29fc 26bc 7029 11bd 73fc c538 9fc3 b6bc
000000a0: d91f 2fbc feb8 a13b e938 143c 7629 c4bc
000000b0: 0e62 833c 2507 8b3c 9c65 cabc 2a84 773c
000000c0: b07f 313c 71a7 d8bc 978d 11bc 3257 2bbb
000000d0: 5f98 35bc 2194 68bb b316 d5ba 8f3c a5bc
000000e0: b8f0 88bc c989 d63b feef 35bc 815b 1b3b
000000f0: bf44 82bc ac62 11bc 7f98 86bc 7362 c1bb
00000100: 6a70 bb3c c5f2 973b 53ed 26bc a8e0 18bc
00000110: 2454 343c 7ed5 cbbc e226 d13a 2308 1c3c
00000120: 3646 53bb aaa9 e6bc 8927 813c f645 9d3b
00000130: 32e5 8abc 1973 b43c abde 30ba a1e8 71bc
00000140: 9ee4 293c a283 1f3c 823b 47bc 071e 66bc
00000150: a195 37bc 8f5a c6bc 7411 9abb 254f b43c
00000160: d5b9 9a3c d74a ce3c 4b6f a13a 44ed b23b
00000170: 55af b7bb 7805 cf3a e7cc 87bc 832b f93b
00000180: 8deb cb3b 73e2 e8ba 6213 09bc 2425 0e3c
00000190: c2cd f1bb a0b3 94bc f56e 03bc 2235 96bc
000001a0: 22ed e7bb 79c0 143b 405e afbb 2a25 4bbc
000001b0: 8d90 553c 88d3 ea3b 3fb3 03bd 1f52 1639
000001c0: 3e81 bdbc bca6 783b 3443 54bb b54b 5cbb
000001d0: 0bbe 46bc 8d38 b93a 404a b93c 8cf5 9fbb
000001e0: dc5e c6bc b8df e33a afc7 853c af25 5bbb
000001f0: b604 b8bc c44d 16bb 2de3 973c 71ab a43b
00000200: 02d1 89bc e1d5 03bd f1e0 afbb ddcd 3bbc
00000210: a707 23bc e5e4 35ba a2b8 d2bb 12a5 73bc
00000220: 3433 5abc 815f 533c 0e70 18bb edb4 1bbc
00000230: e1c1 443b a36d a9bc 2fd3 78ba 8a5a 9dbc
00000240: 9346 403c bdd4 053c ae0a 15bc 69c1 713b
00000250: 8354 033b a961 8cbc 6879 e8bb 37dd 0bbc
00000260: ef13 7dbb b199 c0bc 8488 35bc 3f4b 96bc
00000270: f1c6 85bc f2a6 7cbc 9d05 c538 4270 57bc
00000280: c16c 51bc 91eb 43bc 0ce7 a53b e2d6 023c
00000290: ce2d d2bc 6418 52bc 1cde e7bc 9f58 ec3b
000002a0: 0789 0f3b 5232 103b c3ee ae3c a4d6 ae3c
000002b0: d86d 14bc 9000 edba c5fb 353c 7497 053a
000002c0: e863 23bc 124c 49bb 848e 68bc ace4 d437
000002d0: c380 1fbc 21ae 6c3a 8cbe 1bbc 93da 54bb
000002e0: 202c 133c e601 233b c8d9 0b3c 4611 98ba
000002f0: e92e 47bb 1b1c f7ba e5ac c43c a18e 28bc
00000300: f2a8 a0bb d00a d4bc 504e 3dbc bdb4 b5ba
00000310: 64a7 7a3c 6a95 92bc 82ce e2bb 4ca6 52bc
00000320: 1bd7 6bbc 2f5b 1cbd 6ed9 33bb aced b13a
00000330: e87d c33b 1254 71bb 560a 54bc ddbd 92bc
00000340: 9650 05bb 8bec cabc 9c76 8abc 4bc4 47bc
00000350: 3bcf 07ba dadd aa3b b609 74bc fcd0 aa3b
00000360: fed2 a5bb fcb9 aabc 68e8 3a3a ad98 b9ba
00000370: 30f9 5a3c 9ca8 83bc e86f 2f3c 5887 07bb
00000380: 339d 8abc 2c17 18bc 5d9a 2e3c 1ae0 b1bc
00000390: 1583 3e3b d9c7 acbc c859 e6bb c012 80bc
000003a0: 0fbd a1bc f3d6 bdbc 9ef2 3cbc 8389 47bb
000003b0: c3fc 89bc d17a 7a3c ff6d 14bc b2b9 d83a
000003c0: be7d ebbb 3c5b 7dbb 7253 88bc dbba 98bc
000003d0: b35e 85bc 881e 16bd 979d d1bb d899 e63b
000003e0: b9ef df3c 85df bcbb 3e55 3c3c 22f2 483c
000003f0: 5e24 de3b 8abe 7a3c af1b a6bb 8db9 8ebc

network_body._body_endoder.seq_layers.2.weight f4 [256, 256]
-0.032996234 -0.04577318 -0.09520119 -0.061136127 0.105833665 0.17644183 -0.0070001637 0.01391507
0.082451664 -0.08439984 0.005215263 -0.13170408 -0.105589524 0.020367574 0.22639096 -0.058610108
-0.0062708077 -0.07898729 0.07612193 0.017220663 -0.040704727 -0.1009675 0.013974329 0.0979144
-0.0006923461 -0.15407512 -0.03395908 -0.14389096 -0.059929274 0.16037758 0.057499133 0.023955084
-0.075894214 -0.015746351 0.039777532 -0.0658821 0.08144187 0.011591495 -0.061383415 0.061086483
-0.018483292 0.08874397 0.03970362 -0.11315961 -0.03468457 -0.07630966 -0.12496269 -0.073856615
0.00987815 -0.030978132 0.061398953 0.025608359 -0.013155651 0.04171027 0.032989413 -0.0141102085
0.024166808 0.051154666 0.12703313 -0.030036574 0.0604696 -0.08097758 -0.065380774 0.020958547
-0.06469349 0.0011718897 0.038473118 -0.027908035 -0.004115193 -0.03379444 0.0017109569 -0.048318792
-0.035270263 0.02416033 -0.017508667 -0.03162233 -0.06772301 0.04422211 -0.039978106 0.007907784
-0.09928088 0.08706595 0.02338443 0.06952523 0.09032701 -0.1097377 0.032530513 -0.022707384
0.08377954 0.03865522 0.040560294 -0.094074056 0.16267718 0.07798934 -0.05979635 -0.07933997
0.039466612 0.06588181 0.004647413 -0.09745637 -0.11199874 0.021007327 -0.021857005 0.11062886
0.08472368 0.0058364584 -0.13084131 0.095005006 -0.04324038 0.04370313 0.098423615 -0.031850934
0.09036715 0.0029555727 0.009236886 -0.15853885 -0.06587822 -0.036070913 0.18188715 0.102168195
0.023375753 0.02451936 0.105027854 0.019490613 -0.0772499 -0.08765291 0.059072286 -0.058314614
0.036921326 0.001104656 0.09689664 -0.07657018 0.030627891 -0.04558311 -0.008508832 -0.04527404
0.08941274 0.011915717 -0.09384689 0.047161847 0.041070253 0.08026327 0.042358596 0.0036905645
0.08721818 0.05348156 0.032175984 -0.05161479 -0.0030999146 -0.027669206 0.03799231 -0.050453216
-0.0070161507 -0.061966844 0.033914983 0.099958405 -0.05404953 0.03203905 0.051334072 -0.021311475
0.06598424 -0.10068534 -0.08932959 0.051299687 0.0981189 -0.15174295 -0.07248511 0.07388639
-0.017150309 0.006521991 -0.045160443 0.14731692 0.0027055389 0.021795413 -0.0015874471 0.034659613
0.10113441 -0.026129682 -0.09919758 -0.077227645 -0.07595421 0.09212192 -0.013002035 0.10119112
-0.06184347 0.044558752 0.09484035 0.13166499 0.04344221 0.05158145 0.060012016 -0.095628716
-0.019341696 0.042291902 -0.051702604 -0.0173729 0.060689144 -0.017870992 0.026000185 0.15086493
0.04156787 -0.025977595 -0.12522295 0.12380041 0.090704285 0.0075289514 0.002295984 -0.12407163
0.06113488 0.08177077 0.023128621 0.0759035 0.056243304 0.07560974 -0.0762387 0.052408114
-0.13767123 -0.083950795 0.009011852 0.04458924 -0.05507377 -0.04731031 -0.0045979084 0.016323483
-0.07615564 -0.012709221 -0.05520001 0.044094272 0.064581655 -0.0696597 0.03310198 -0.09381873
-0.0006451674 0.027542576 0.050098013 0.046081133 0.015096804 -0.08917335 -0.032407794 0.021223836
0.00074301346 -0.11580086 0.017650811 -0.01892993 0.094455056 0.03836566 -0.0017938392 -0.0018628888
0.0952495 -0.044266116 0.12261951 0.08012321 -0.07104451 0.013611398 0.08112818 -0.009452463
00000000: 0f27 07bd a87c 3bbd d7f8 c2bd e069 7abd
00000010: 52bf d83d 2bad 343e a161 e5bb 09fc 633c
00000020: 6bdc a83d d3d9 acbd cce4 aa3b 6fdd 06be
00000030: 523f d8bd e6d9 a63c 08d3 673e 2711 70bd
00000040: 597b cdbb 17c4 a1bd d0e5 9b3d 5912 8d3c
00000050: 00ba 26bd 0cc8 cebd 96f4 643c 5887 c83d
00000060: 8f7e 35ba dec5 1dbe ad18 0bbd 2758 13be
00000070: 6678 75bd 053a 243e 3684 6b3d 743d c43c
00000080: 6d6e 9bbd 7efe 80bc c4ed 223d 32ed 86bd
00000090: ffca a63d 41ea 3d3c 2d6d 7bbd d235 7a3d
000000a0: 466a 97bc 66bf b53d 43a0 223d 3ac0 e7bd
000000b0: 6811 0ebd 3d48 9cbd 70ec ffbd 2342 97bd
000000c0: f7d7 213c dac5 fdbc 787d 7b3d 9fc8 d13c
000000d0: cd8a 57bc 63d8 2a3d e81f 073d 812e 67bc
000000e0: 78f9 c53c 8e87 513d f914 023e 430f f6bc
000000f0: f9ae 773d 93d7 a5bd 5be6 85bd 42b1 ab3c
00000100: 057e 84bd 189a 993a fd95 1d3d 649f e4bc
00000110: bed8 86bb 0a6c 0abd 3042 e03a ede9 45bd
00000120: 8d77 10bd e2eb c53c 566e 8fbc 6b86 01bd
00000130: 5db2 8abd 3e22 353d 15c0 23bd a68f 013c
00000140: c653 cbbd a24f b23d b490 bf3c 3e63 8e3d
00000150: 5efd b83d 29be e0bd b73e 053d d604 babc
00000160: 9c94 ab3d f054 1e3d 8d22 263d e6a9 c0bd
00000170: d994 263e e0b8 9f3d 04ed 74bd ff7c a2bd
00000180: bea7 213d 0bed 863d 5349 983b 3597 c7bd
00000190: 985f e5bd 8f17 ac3c 760d b3bc 6291 e23d
000001a0: 9c83 ad3d c33f bf3b 44fb 05be fc91 c23d
000001b0: d31c 31bd 0e02 333d 5292 c93d 2076 02bd
000001c0: 6a12 b93d 48b2 413b 4f56 173c 0258 22be
000001d0: 29eb 86bd 18bf 13bd a040 3a3e 8f3d d13d
000001e0: 827e bf3c d3dc c83c d818 d73d c7aa 9f3c
000001f0: 3235 9ebd 5e83 b3bd c8f5 713d 4edb 6ebd
00000200: d13a 173d 1bca 903a bf71 c63d d4d0 9cbd
00000210: 58e7 fa3c 5bb5 3abd a168 0bbc 4671 39bd
00000220: 071e b73d 243a 433c cc32 c0bd c82c 413d
00000230: 4839 283d 1261 a43d 3580 2d3d 66dd 713b
00000240: 729f b23d 7b0f 5b3d f7ca 033d 086a 53bd
00000250: f027 4bbb 88aa e2bc d39d 1b3d 08a8 4ebd
00000260: bde7 e5bb f2d0 7dbd 70ea 0a3d feb6 cc3d
00000270: 0a63 5dbd 613b 033d ad43 523d 6795 aebc
00000280: bf22 873d 1e34 cebd 6ff2 b6bd 9f1f 523d
00000290: 90f2 c83d 8162 1bbe 1373 94bd bf51 973d
000002a0: ce7e 8cbc 6db6 d53b 28fa 38bd 3fda 163e
000002b0: 694f 313b 4b8c b23c e311 d0ba 3df7 0d3d
000002c0: 8f1f cf3d ea0d d6bc 1a28 cbbd 8729 9ebd
000002d0: e18d 9bbd 6baa bc3d 7d06 55bc 4a3d cf3d
000002e0: 944f 7dbd 3d83 363d a83b c23d 30d3 063e
000002f0: 75f0 313d 1247 533d 29cf 753d fdd8 c3bd
00000300: 7a72 9ebc 463a 2d3d 1cc6 53bd 9d51 8ebc
00000310: 2e95 783d 3066 92bc 57fe d43c 567c 1a3e
00000320: 1243 2a3d f7ce d4bc 723a 00be 128b fd3d
00000330: 2bc3 b93d 6cb5 f63b 3878 163b 4419 febd
00000340: 9168 7a3d 6f77 a73d 3c78 bd3c 4b73 9b3d
00000350: 615f 663d 48d9 9a3d 0923 9cbd e4a9 563d
00000360: b0f9 0cbe 65ee abbd 72a6 133c 35a3 363d
00000370: 0995 61bd 75c8 41bd 0daa 96bb d3b8 853c
00000380: 7df7 9bbd 563a 50bc 6819 62bd 329c 343d
00000390: 6343 843d bfa9 8ebd f195 073d 0924 c0bd
000003a0: 7420 29ba f8a0 e13c 9333 4d3d 92bf 3c3d
000003b0: 9658 773c 84a0 b6bd 09be 04bd 9cdd ad3c
000003c0: cac6 423a 0029 edbd 6f98 903c f112 9bbc
000003d0: a771 c13d 4f25 1d3d 411f ebba 2d2c f4ba
000003e0: 2b12 c33d 6350 35bd f01f fb3d a317 a43d
000003f0: c97f 91bd 5702 5f3c 8826 a63d 81de 1abc

network_body._body_endoder.seq_layers.2.bias f4 [256]
0.021089967 0.0032796995 -0.013310708 -0.00064372283 -0.00893479 -0.022431633 0.006114631 -0.0027281102
-0.022563731 0.0028171076 -0.0133197745 0.007577324 -0.015952157 0.0140653 0.01286881 0.004323469
-0.014142406 -0.007886505 -0.024184495 0.0016680646 -0.024204828 0.0024092873 0.0012443503 -0.018389642
0.011118773 0.0076186946 0.0042144177 -0.023696514 -0.009449787 0.0026478409 0.007450815 -0.0221689
-0.015340186 0.008439566 0.009594325 -0.017211797 -0.0109819705 -0.0049113706 -0.014642673 0.010868128
0.00855148 -0.014479748 0.006193782 -0.0006841723 -0.025541017 -0.014932473 0.011460403 -0.006037353
-0.01995354 -0.022760982 0.0010840076 -0.005628798 -0.0072750733 -0.008054725 -0.02243081 -0.019853024
-0.011952373 0.0013013138 0.01434161 0.015756011 0.013043972 -0.025057836 -0.02679565 -0.02064795
-0.019888096 -0.0062673185 -0.012009956 -0.015610188 -0.0012929973 -0.0028380058 -0.015249644 -0.0030898873
-0.02319414 0.00042458848 0.0003172853 0.009877626 -0.015977278 -0.019605743 0.009759535 0.0022280382
-0.009131306 0.02295692 0.0040732855 -0.0127514005 0.0030656795 -0.020520154 0.004983955 -0.022693228
0.014889629 -0.026919995 0.006268206 0.0131547935 -0.007125043 -0.0145824095 -0.024812771 0.013904397
-0.02442421 -0.010092673 0.008755524 -0.00048640152 -0.007868823 -0.026143046 -0.016579237 0.0123743275
0.00064842205 -0.003847182 0.0006227565 0.000488293 -0.02442725 -0.023598937 -0.024753474 -0.019734684
-0.018034838 -0.019692697 -0.01906433 -0.024675043 -0.003605439 0.014532084 -0.0018087131 -0.00503187
-0.022711545 -0.0021828688 -0.005395399 -0.007993037 -0.01919311 0.0058801738 0.008710171 -0.02660979
-0.014025994 0.010244797 -0.0019114834 -0.024802519 -0.0017037339 -0.00608627 -0.013407511 -0.013983
-0.009670501 -0.00946202 0.008790201 -0.019811535 0.0019099696 -0.014755487 -0.00097398047 0.007931363
0.002273494 0.012386749 -0.019660464 -0.0105199 0.009944078 0.0023542999 -0.007147845 -0.020824801
-0.013861802 -0.005176884 -0.005893347 0.0004429641 -0.009369113 -0.0019949817 -0.011129579 -0.019200588
0.004737559 -0.004089414 0.0141049195 -0.020894948 -0.0049416316 -0.021565681 -0.017215628 -0.0012269166
-0.019437829 -0.0019277484 -0.004274924 0.013818853 -0.023718867 -0.0029564495 -0.025054947 0.020838495
-0.01961101 -0.011914658 -0.005871839 0.012343727 -0.02108842 -0.009980588 -0.018005803 -0.01838203
0.002973121 -0.0120283 -0.017425912 0.008505798 -0.007900962 -0.02339711 -0.009281511 -0.021538045
0.0064243916 -0.016152272 -0.013687833 0.0053073335 0.0036705197 0.00920712 -0.0277016 -0.018452086
-0.01950979 0.0049547963 -0.02875559 -0.0042945743 -0.017645964 0.0067898654 0.0047994303 0.007914905
-0.024704302 -0.0043597175 -0.009061627 -0.009029558 -0.013691307 -0.015662879 -0.022192536 -0.018723384
0.010315336 0.012744454 -0.029671244 0.0032150035 0.0026634608 -0.020239247 0.020519054 0.0024464906
-0.022401705 -0.0055831554 -0.0113627855 -0.023053171 0.0011369722 -0.010200384 -0.0052574556 0.0016137261
-0.023277411 -0.019028366 -0.0041599055 0.012085148 0.0057897144 -0.006895213 -0.01952962 0.006024508
-0.010289152 0.005819859 -0.018432515 0.0059095817 0.0067520104 -0.015766056 -0.009790292 -0.024060283
0.0073405416 -0.015385048 -0.008958224 -0.021756016 0.0052552703 -0.01767223 0.0039899247 -0.010472125
00000000: dec4 ac3c 3af0 563b 2815 5abc 82bf 28ba
00000010: 3a63 12bc 8bc2 b7bc 3e5d c83b 18ca 32bb
00000020: 93d7 b8bc 399f 383b 2f3b 5abc 334b f83b
00000030: 19ae 82bc 2572 663c b4d7 523c e3ab 8d3b
00000040: 8db5 67bc 6636 01bc 901e c6bc f6a2 da3a
00000050: 3449 c6bc 22e5 1d3b 7819 a33a e0a5 96bc
00000060: 842b 363c 3ea6 f93b 1919 8a3b 311f c2bc
00000070: 48d3 1abc 6687 2d3b f725 f43b 8e9b b5bc
00000080: 6755 7bbc 1b46 0a3c 8431 1d3c c1ff 8cbc
00000090: b9ed 33bc 90ef a0bb d2e7 6fbc 3c10 323c
000000a0: 821b 0c3c 773c 6dbc 36f5 ca3b 075a 33ba
000000b0: 653b d1bc 55a7 74bc 6ac4 3b3c fdd4 c5bb
000000c0: 9b75 a3bc 3d75 babc 4215 8e3a c871 b8bb
000000d0: bd63 eebb f7f7 03bc d1c0 b7bc cfa2 a2bc
000000e0: e3d3 43bc d890 aa3a 12f9 6a3c c012 813c
000000f0: 62b6 553c 1746 cdbc 8d82 dbbc e425 a9bc
00000100: 5cec a2bc 145e cdbb 68c5 44bc e0c1 7fbc
00000110: ca79 a9ba d6fd 39bb a5d9 79bc b57f 4abb
00000120: a301 bebc 4d9b de39 5059 a639 c4d5 213c
00000130: c8e2 82bc 399c a0bc 75e6 1f3c 4704 123b
00000140: 799b 15bc 2710 bc3c 3279 853b 40eb 50bc
00000150: 91e9 483b e219 a8bc 7250 a33b 26e7 b9bc
00000160: a1f3 733c 5287 dcbc 8665 cd3b 3487 573c
00000170: 3179 e9bb 0feb 6ebc 2744 cbbc 45cf 633c
00000180: 4815 c8bc bd5b 25bc 5473 0f3c b503 ffb9
00000190: 3cec 00bc f129 d6bc 2ed1 87bc b1bd 4a3c
000001a0: defa 293a 0121 7cbb 7b40 233a ca00 003a
000001b0: a81b c8bc 8f52 c1bc ccc7 cabc a2aa a1bc
000001c0: ccbd 93bc 9452 a1bc cc2c 9cbc 5123 cabc
000001d0: 3b49 6cbb fa17 6e3c 5712 edba 63e2 a4bb
000001e0: 900d babc 760e 0fbb e3cb b0bb 3af5 02bc
000001f0: de3a 9dbc 79ae c03b 1bb5 0e3c c6fc d9bc
00000200: 48cd 65bc cbd9 273c bd8a faba a72e cbbc
00000210: d34f dfba 556f c7bb 2dab 5bbc f418 65bc
00000220: 0571 1ebc 9706 1bbc c604 103c cd4b a2bc
00000230: f257 fa3a 00c1 71bc b952 7fba 8cf2 013c
00000240: e6fe 143b caf1 4a3c fb0e a1bc a95b 2cbc
00000250: 7cec 223c 994a 1a3b 7838 eabb c698 aabc
00000260: 9d1c 63bc daa2 a9bb fa1c c1bb a33d e839
00000270: e880 19bc 3dbe 02bb d658 36bc 8d4a 9dbc
00000280: 863d 9b3b 7e00 86bb 5218 673c e22b abbc
00000290: 69ed a1bb 83aa b0bc ca07 8dbc 7dd0 a0ba
000002a0: 153c 9fbc 81ac fcba a914 8cbb 7868 623c
000002b0: 124e c2bc fec0 41bb 0840 cdbc 7eb5 aa3c
000002c0: 45a7 a0bc b335 43bc 8e68 c0bb 583d 4a3c
000002d0: 9fc1 acbc 9f85 23bc e880 93bc e995 96bc
000002e0: b1d8 423b 5912 45bc c9c0 8ebc e75b 0b3c
000002f0: 0973 01bc 4cab bfbc 7b11 18bc 8e70 b0bc
00000300: b483 d23b c551 84bc ef42 60bc 24e9 ad3b
00000310: 1a8d 703b 76d9 163c 77ee e2bc d428 97bc
00000320: ffd2 9fbc d85b a23b d890 ebbc 80b9 8cbb
00000330: 458e 90bc 857d de3b 8a44 9d3b 85ad 013c
00000340: ad60 cabc f6db 8ebb 3877 14bc b6f0 13bc
00000350: 8151 60bc 704f 80bc 1fcd b5bc c861 99bc
00000360: a801 293c 1dce 503c 1c11 f3bc cfb2 523b
00000370: 758d 2e3b c7cc a5bc 9317 a83c 4d55 203b
00000380: c883 b7bc e7f2 b6bb fa2a 3abc 01da bcbc
00000390: 7506 953a 831f 27bc bc46 acbb aa83 d33a
000003a0: 45b0 bebc 60e1 9bbc d14f 88bb c900 463c
000003b0: a5b7 bd3b 3df1 e1bb 95fc 9fbc 3c69 c53b
000003c0: d593 28bc 84b4 be3b c9ff 96bc 2aa5 c13b
000003d0: f83f dd3b d127 81bc 7667 20bc 121a c5bc
000003e0: ed88 f03b 9211 7cbc 84c5 12bc ac39 b2bc
000003f0: 6734 ac3b 5ac5 90bc eabd 823b 4793 2bbc

action_model._continuous_distribution.log_sigma f4 [1, 2]
-0.029042061 0.10739091
00000000: 9ee9 edbc c4ef db3d

action_model._continuous_distribution.mu.weight f4 [2, 256]
-0.023619117 0.0065656565 -0.005724364 -0.021260375 -0.0109188305 0.019866949 -0.009722213 0.0021590658
0.007634539 0.0077615585 0.030594861 0.008838766 0.014225831 -0.015279915 -0.0011529244 -0.015941894
-0.015884899 -0.017965259 0.0077626803 0.0007050725 -0.003325743 -0.0058766273 -0.008733222 0.022171304
-0.022821223 2.107292e-05 -0.012621997 0.008922781 0.0047408193 -0.014351228 -0.0017358719 0.0115921125
0.011081402 -0.042505763 -0.013093692 -0.00331448 0.035644125 -0.0023017894 0.009083636 -0.0088269655
-0.024893625 0.014278112 -0.019668126 0.0014130867 0.005160543 0.00399396 -0.012516069 -0.00023793362
0.0031111382 -0.00017455875 -0.020153206 0.0020885114 0.00037044944 -0.0069133975 0.009533843 0.0037123116
0.016701581 -0.0029380848 -0.014505802 -0.024805369 -0.021133143 0.0007421045 0.005069397 -0.0041253334
-0.0033061116 0.024026357 -0.0003602928 -0.005585099 -0.03454343 -0.0045494903 -0.014762276 -0.022463154
0.0077775107 -0.0032854339 0.0006224987 -0.014770884 -0.0028994547 0.011885462 0.0012351024 -0.017925752
0.0023099654 -0.0071075666 -0.00870705 0.009223526 0.0025806045 0.018494021 2.8180522e-05 0.0033095735
-0.036323447 0.0022985942 -0.007348582 -0.019467123 -0.0038915423 0.0015298254 0.0018808768 -0.006269849
-0.0028675012 0.006286585 0.008206759 -0.0006026759 -0.00019668962 -0.0025314705 -0.002490575 -0.016778752
-0.008912891 -0.016559692 -0.028546056 -0.01123111 0.004035344 0.0024342048 0.006223755 0.022941783
-0.00053940044 -0.009715352 0.019800518 0.00068744115 -0.00072180334 -0.01100771 -0.004645587 0.0020159895
0.0076269764 0.010075464 0.00093606167 0.021451205 0.008885009 -0.0035808298 -0.007940563 0.0069015776
-0.010050924 -0.005705935 -0.005637131 0.0010504877 -0.0036494483 -0.004797209 0.00066860754 0.008019574
0.0018849996 -0.013177072 -0.016489018 0.008938422 -0.011819527 0.011712665 0.010545455 -0.0028227107
-0.004649766 -0.007039402 0.0021736664 0.010817714 -0.011510212 0.0060050418 -0.001630139 0.000117172494
0.013675835 0.008777205 -0.0048258877 0.0055157254 -0.016077038 0.0024957096 -0.0012250837 -0.00025935814
-0.0038697768 0.0066825463 -0.0021568113 0.0020249872 -0.011479307 0.0024332746 -0.002954816 -0.014633497
0.009311364 -0.0054867878 -0.0020917102 -0.0061195903 0.014280643 0.0034690385 0.031536918 -0.018819692
0.0073682535 0.0013085452 0.02307222 0.012635704 0.0045737764 -0.019083258 -0.002999252 -0.00045967905
-0.0016317251 -0.004656567 0.021362498 -0.004527155 0.0059764427 7.524416e-05 0.026996652 0.004856057
-0.0011211263 -0.0004947509 -0.002013861 -0.003564652 0.004301885 0.0002485972 0.011051423 -0.00011964809
0.011764899 0.0011427191 0.004466435 0.002645604 0.0023196691 0.0024899098 -0.0024987077 0.0010129955
0.013191547 0.0061787255 -0.016062805 -0.0016703866 0.016738093 -0.0040098447 0.002432175 0.010440659
-0.015461555 -0.010071499 -2.6467242e-06 -0.0065709804 -0.0053436817 -0.0026308529 -0.022369249 -0.0015913802
0.020701455 0.01614723 0.0018650171 4.8892944e-05 -0.007828043 -0.0021998296 -0.002112376 0.00044787943
0.002616872 0.006851901 -0.0076158876 -0.014160484 -0.027551565 -0.001358519 -0.0025106417 -0.025428114
-0.0075725797 -0.006985642 0.0012369072 -0.013336194 0.0035261458 0.00013299097 -0.008480617 0.008611424
-0.009565864 -0.0024569333 -0.006657333 -0.005351882 -0.009491543 -0.003998071 0.0030927518 -0.0009196501
00000000: e17c c1bc b824 d73b 7293 bbbb 3d2a aebc
00000010: e5e4 32bc 03c0 a23c eb49 1fbc 1d7f 0d3b
00000020: 282b fa3b ac54 fe3b 13a2 fa3c 79d0 103c
00000030: 7613 693c 9c58 7abc b91d 97ba 9398 82bc
00000040: 0c21 82bc e12b 93bc 155e fe3b 9dd4 383a
00000050: b5f4 59bb b990 c0bb ca15 0fbc 98a0 b53c
00000060: 93f3 babc c0c5 b037 7ecc 4ebc db30 123c
00000070: e058 9b3b 6a21 6bbc 3286 e3ba d8ec 3d3c
00000080: c58e 353c 861a 2ebd ed86 56bc bf37 59bb
00000090: 93ff 113d 9ed9 16bb 88d3 143c fa9e 10bc
000000a0: b7ed cbbc beee 693c 0d1f a1bc 5237 b93a
000000b0: c619 a93b c4df 823b 3310 4dbc d27d 79b9
000000c0: 3de4 4b3b c209 37b9 5618 a5bc 68df 083b
000000d0: e238 c239 c889 e2bb d633 1c3c 414a 733b
000000e0: c1d1 883c e28c 40bb bea9 6dbc a134 cbbc
000000f0: 6a1f adbc ca89 423a 2f1d a63b ce2d 87bb
00000100: 59ab 58bb ecd2 c43c aee5 bcb9 3503 b7bb
00000110: 697d 0dbd e413 95bb 79dd 71bc a604 b8bc
00000120: 7dda fe3b 6f50 57bb 2e2f 233a 9401 72bc
00000130: c704 3ebb 3ebb 423c 29e3 a13a 07d9 92bc
00000140: ca62 173b 97e6 e8bb 04a8 0ebc 461e 173c
00000150: 5c1f 293b c680 973c 3665 ec37 6ee5 583b
00000160: e5c7 14bd 03a4 163b 60cc f0bb 8479 9fbc
00000170: 3f09 7fbb 6c84 c83a c187 f63a 4e73 cdbb
00000180: b0ec 3bbb b2ff cd3b a475 063c e5fc 1dba
00000190: 783e 4eb9 07e7 25bb ea38 23bb 9873 89bc
000001a0: 6007 12bc 31a8 87bc 6bd9 e9bc b102 38bc
000001b0: eb3a 843b 2e87 1f3b a4f0 cb3b 68f0 bb3c
000001c0: 8d66 0dba 242d 1fbc b234 a23c 6535 343a
000001d0: 6737 3dba af59 34bc 023a 98bb b11e 043b
000001e0: b7eb f93b 8f13 253c 0962 753a 70ba af3c
000001f0: 6e92 113c 5bac 6abb 2319 02bc a126 e23b
00000200: a1ac 24bc daf8 babb afb7 b8bb 85b0 893a
00000210: 952b 6fbb e831 9dbb 7e45 2f3a 8864 033c
00000220: 1712 f73a a5e4 57bc fa13 87bc 7672 123c
00000230: b0a6 41bc 7ae6 3f3c d8c6 2c3c 3afd 38bb
00000240: 105d 98bb c9aa e6bb 1274 0e3b c83c 313c
00000250: 5495 3cbc f1c5 c43b 63aa d5ba 81ba f538
00000260: 9c10 603c 44ce 0f3c 7b22 9ebb 42bd b43b
00000270: feb3 83bc 0f8f 233b fd92 a0ba 76fa 87b9
00000280: 159c 7dbb 43f9 da3b 4a59 0dbb a6b5 043b
00000290: b413 3cbc 9377 1f3b 96a5 41bb 56c1 6fbc
000002a0: b18e 183c 83ca b3bb 1315 09bb d886 c8bb
000002b0: 5cf9 693c cf58 633b db2c 013d c12b 9abc
000002c0: 6471 f13b 7e83 ab3a f401 bd3c fc05 4f3c
000002d0: 9edf 953b 7e54 9cbc 198f 44bb 1401 f1b9
000002e0: 9cdf d5ba 1d96 98bb 6800 af3c 8758 94bb
000002f0: 09d6 c33b 67cc 9d38 1528 dd3c 8f1f 9f3b
00000300: c2f2 92ba 2cb2 01ba fbfa 03bb f09c 69bb
00000310: d4f6 8c3b 2756 8239 0711 353c 94eb fab8
00000320: 90c1 403c 4ac7 953a 2c5b 923b df61 2d3b
00000330: 9705 183b c12d 233b 5cc1 23bb 7dc6 843a
00000340: 5c21 583c e876 ca3b 2596 83bc e0f0 daba
00000350: 531e 893c 0465 83bb 2065 1f3b 4c0f 2b3c
00000360: 7652 7dbc ee02 25bc 609e 31b6 6151 d7bb
00000370: 0d1a afbb 636a 2cbb b73f b7bc dc95 d0ba
00000380: 1996 a93c 3247 843c 9773 f43a 6612 4d38
00000390: 3141 00bc 042b 10bb ca6f 0abb 5cd1 ea39
000003a0: d47f 2b3b e985 e03b b28e f9bb 6001 68bc
000003b0: d2b3 e1bc 5510 b2ba 9489 24bb 9f4e d0bc
000003c0: 6723 f8bb d0e7 e4bb b81f a23a 0d80 5abc
000003d0: e916 673b 7e73 0b39 49f2 0abc ee16 0d3c
000003e0: 24ba 1cbc 8004 21bb c225 dabb d75e afbb
000003f0: 6b82 1bbc 4002 83bb c4af 4a3b ac14 71ba

action_model._continuous_distribution.mu.bias f4 [2]
-0.01219788 0.020289164
00000000: 9ed9 47bc 7635 a63c

66 f4 [20]
0.2694389 0.49824166 0.49249324 0.43772107 0.36771974 0.48019755 0.49814683 0.43285072
0.38491708 0.4930102 0.4052943 0.3586656 0.46456134 0.49902323 0.3500655 0.31101325
0.4897809 0.49960586 0.2588303 0.2360093
00000000: e5f3 893e 8819 ff3e 1328 fc3e fa1c e03e
00000010: c345 bc3e 74dc f53e 1a0d ff3e 9c9e dd3e
00000020: da13 c53e d56b fc3e bc82 cf3e 04a3 b73e
00000030: fcda ed3e f97f ff3e c93b b33e 213d 9f3e
00000040: 90c4 fa3e 57cc ff3e 6885 843e 6cac 713e

69 f4 [12]
0.3475736 0.49828106 0.47741616 0.46291295 0.34532002 0.49713096 0.48171768 0.4661145
0.35333478 0.49888733 0.47284505 0.45953375
00000000: 2bf5 b13e b21e ff3e e46f f43e ed02 ed3e
00000010: c9cd b03e f387 fe3e b3a3 f63e 8fa6 ee3e
00000020: 4ce8 b43e 296e ff3e bf18 f23e 0248 eb3e

72 f4 [3]
0.19456188 0.0039453926 0.76453584
00000000: 3b3b 473e 5a48 813b 9fb8 433f
