results/firstry/KartAgent/KartAgent-18051.onnx (onnx, 305043 bytes, 13 tensors)

network_body.observation_encoder.processors.0.normalizer.running_mean f4 [20]
0.042654548 0.33974075 0.5746178 0.629076 0.10946157 0.489641 0.3797917 0.47573432
0.08159762 0.596776 0.26445824 0.37456122 0.23559718 0.6686238 0.07965876 0.263222
0.3340904 0.5690782 0.06165522 0.25075027
00000000: 89b6 2e3d 80f2 ad3e 271a 133f 200b 213f
00000010: 632d e03d 3ab2 fa3e 0f74 c23e 7393 f33e
00000020: a71c a73d 50c6 183f 1267 873e 7dc6 bf3e
00000030: 6340 713e ee2a 2b3f 2224 a33d 09c5 863e
00000040: e60d ab3e 1caf 113f 2f8a 7c3d 5762 803e

network_body.observation_encoder.processors.1.normalizer.running_mean f4 [12]
0.16064705 0.33974075 0.45662534 0.5427477 0.17172612 0.3275537 0.45834255 0.5492201
0.15494129 0.34400615 0.45706844 0.53969127
00000000: a980 243e 80f2 ad3e ccca e93e 83f1 0a3f
00000010: f9d8 2f3e 1eb5 a73e e0ab ea3e b099 0c3f
00000020: eea8 1e3e 9321 b03e e004 ea3e 3529 0a3f

network_body.observation_encoder.processors.2.normalizer.running_mean f4 [3]
0.15060961 0.04937013 1.4229581
00000000: 6839 1a3e 5538 4a3d 7e23 b63f

network_body._body_endoder.seq_layers.0.weight f4 [256, 35]
-0.07300433 -0.3829881 0.15377368 0.021548316 -0.15511158 -0.17569953 0.008789505 0.08730355
0.034734227 -0.21968113 0.102891654 -0.0453248 -0.38364246 -0.064098015 0.31746867 -0.20033668
0.13812122 -0.061911434 0.09840964 -0.18348809 0.22202344 -0.0898139 0.15401317 -0.26516894
-0.011666274 -0.10008288 -0.081255 0.06393853 0.08399147 -0.17889896 0.12584062 0.018039567
-0.2426854 0.21331924 0.1673122 0.07122099 0.04346836 -0.036204547 0.13770898 0.0007910803
-0.14118436 0.22981207 -0.10822251 0.066341795 -0.01910865 -0.36457995 0.124642074 -0.09385401
0.08501015 -0.037822958 0.10325669 -0.17093477 -0.047496654 0.21394882 -0.2896984 0.1009309
-0.16732542 -0.031774268 0.13496317 0.10610748 0.16740568 0.1805506 0.1514672 -0.007738018
-0.14047952 -0.09375001 -0.0869053 0.10865771 -0.028252443 -0.26285547 0.05399559 -0.099031635
0.1538272 -0.060091153 -0.14780806 -0.057609063 -0.42493224 0.6299788 0.21951124 0.04937966
-0.05110725 0.02012347 0.11046178 -0.14962687 -0.088213556 -0.18625784 0.13782524 -0.19697665
-0.06865771 0.17972781 -0.4261114 0.16441065 0.0624308 0.11666672 -0.07871822 -0.013573667
0.1205947 -0.056692943 0.26244074 -0.1485092 -0.022291454 -0.12101148 -0.10795255 0.17256252
0.06472721 -0.22306046 -0.07938296 0.024998529 0.010742415 0.02675236 -0.37609896 0.275801
0.008157952 -0.10624901 -0.07559865 -0.1973854 0.06146161 0.06493687 0.1346737 0.2947267
0.18602099 -0.17891727 -0.03313201 -0.16218823 0.04319827 -0.023526544 -0.17496699 0.027099052
0.35625064 -0.12131137 -0.32182264 -0.21773724 -0.3267777 -0.1538599 0.09258148 -0.21132335
0.09340621 0.03321171 -0.15436389 0.11153634 0.012071998 -0.37620223 -0.09948807 -0.16031666
0.13557146 0.012488974 -0.20729086 -0.27842507 0.018798627 0.09241397 -0.014562943 0.14318027
-0.099486336 -0.04058776 0.13584661 0.12683871 0.21958555 0.3060116 0.028985037 0.107313454
-0.09635335 0.036931556 -0.22983177 -0.103542045 0.09850291 0.02837884 0.09229144 -0.0893477
0.26724407 -0.06562243 -0.39034995 0.2573704 -0.030916674 -0.11637747 0.14199767 -0.018313179
-0.22591358 -0.3570715 0.21659411 -0.25634304 -0.09181661 -0.35818532 0.23356415 0.03579949
-0.14022027 0.043606836 0.0102670435 0.06878021 0.12144576 0.063108355 -0.38068408 0.069200136
-0.13485765 0.1123309 -0.38071236 0.031470243 0.04748259 -0.046398427 0.015299165 -0.10767574
0.04666377 -0.33926672 0.007185198 -0.12016791 0.021999301 0.29238063 -0.15831809 0.100233674
0.031565282 -0.026587725 -0.024979012 0.15649733 -0.18078382 -0.18937312 -0.14413768 0.03959524
-0.09526124 0.08626203 -0.011216011 -0.035919357 -0.100240424 0.016875137 -0.08291311 0.11004868
-0.12081228 -0.04697248 0.067856096 0.18475726 -0.049100228 0.13870913 0.1489077 0.14819619
0.13206477 -0.09161648 0.27326334 0.0066428296 0.15083364 -0.1339165 -0.18254118 0.078403264
-0.031564604 0.21044083 -0.040292703 -0.07291747 0.094426334 -0.1935394 0.065854184 0.12048849
-0.025821649 0.12145026 0.024256412 0.28452933 -0.0064573963 -0.10127693 -0.04736047 -0.27086392
00000000: 4b83 95bd 0417 c4be d976 1d3e 1886 b03c
00000010: 92d5 1ebe 94ea 33be db01 103c 34cc b23d
00000020: 7a45 0e3d 17f4 60be dcb8 d23d 7fa6 39bd
00000030: c96c c4be d245 83bd 418b a23e 0f25 4dbe
00000040: a66f 0d3e d896 7dbd fe8a c93d 4de4 3bbe
00000050: 1d5a 633e 5af0 b7bd a1b5 1d3e 39c4 87be
00000060: e623 3fbc 41f8 ccbd 0569 a6bd 34f2 823d
00000070: b803 ac3d 4a31 37be 5ddc 003e b7c7 933c
00000080: 8682 78be 5c70 5a3e e453 2b3e 4fdc 913d
00000090: e10b 323d 384b 14bd 9503 0d3e 8060 4f3a
000000a0: a292 10be db53 6b3e c3a3 ddbd 35de 873d
000000b0: be89 9cbc 39aa babe 5844 ff3d 8836 c0bd
000000c0: cd19 ae3d 3fec 1abd 3e78 d33d 8609 2fbe
000000d0: da8b 42bd 6615 5b3e 5953 94be dcb4 ce3d
000000e0: 5b57 2bbe bc25 02bd c933 0a3e e14e d93d
000000f0: 656c 2b3e 42e2 383e 381a 1b3e 338f fdbb
00000100: ddd9 0fbe 0100 c0bd 68fb b1bd ef87 de3d
00000110: ab71 e7bc fe94 86be 7b2a 5d3d 19d1 cabd
00000120: e184 1d3e 2422 76bd ff5a 17be 7bf7 6bbd
00000130: b890 d9be 4a46 213f 8ec7 603e 5442 4a3d
00000140: d655 51bd fad9 a43c c939 e23d c937 19be
00000150: 4fa9 b4bd 60ba 3ebe 0f22 0d3e 3fb4 49be
00000160: 6a9c 8cbd 910a 383e 462b dabe 445b 283e
00000170: 70b7 7f3d f6ee ee3d 0537 a1bd 1664 5ebc
00000180: 5bfa f63d dc36 68bd a25e 863e cc12 18be
00000190: 919c b6bc ded4 f7bd 3a16 ddbd 3bb4 303e
000001a0: b38f 843d f669 64be 8993 a2bd b7c9 cc3c
000001b0: f400 303c c427 db3c 0b90 c0be ca35 8d3e
000001c0: eea8 053c 1599 d9bd 77d3 9abd 661f 4abe
000001d0: 2bbf 7b3d 9ffd 843d e7e7 093e 6be6 963e
000001e0: 497c 3e3e 1736 37be 6eb5 07bd ac14 26be
000001f0: abf0 303d bdba c0bc 8c2a 33be d5fe dd3c
00000200: 7c66 b63e 1872 f8bd f0c5 a4be 83f6 5ebe
00000210: 684f a7be 738d 1dbe 5c9b bd3d 2665 58be
00000220: c14b bf3d 0109 083d 9111 1ebe 2a6d e43d
00000230: a1c9 453c 949d c0be 67c0 cbbd 0d2a 24be
00000240: 3fd3 0a3e 8e9e 4c3c 0e44 54be bb8d 8ebe
00000250: 94ff 993c 8943 bd3d 6999 6ebc d99d 123e
00000260: 7ebf cbbd 5a3f 26bd 601b 0b3e 02e2 013e
00000270: 09db 603e 8dad 9c3e 0772 ed3c 28c7 db3d
00000280: e854 c5bd 8b45 173d 0559 6bbe da0d d4bd
00000290: e5bb c93d be7a e83c 4b03 bd3d edfb b6bd
000002a0: 37d4 883e 0d65 86bd f3db c7be 0ec6 833e
000002b0: f744 fdbc 5057 eebd d667 113e 8505 96bc
000002c0: e455 67be 13d2 b6be d9ca 5d3e 653f 83be
000002d0: 590a bcbd 1164 b7be 712b 6f3e 7ca2 123d
000002e0: e795 0fbe 159d 323d 1a37 283c a4dc 8c3d
000002f0: 8eb8 f83d f43e 813d 06e9 c2be cdb8 8d3d
00000300: 2018 0abe be0d e63d bbec c2be f1e6 003d
00000310: 1b7d 423d 470c 3ebd 59a9 7a3c 1985 dcbd
00000320: 8222 3f3d 5eb4 adbe cf71 eb3b 981a f6bd
00000330: e137 b43c eab2 953e 231e 22be 5047 cd3d
00000340: 994a 013d 80ce d9bc c9a0 ccbc d640 203e
00000350: 651f 39be 07eb 41be d498 13be 9e2e 223d
00000360: 5318 c3bd 26aa b03d 5cc3 37bc 2d20 13bd
00000370: da4a cdbd ba3d 8a3c 59ce a9bd 3461 e13d
00000380: 6e6c f7bd 3766 40bd 23f8 8a3d 0231 3d3e
00000390: 521d 49bd c409 0e3e 437b 183e bec0 173e
000003a0: fd3b 073e 6ca1 bbbd 2ce9 8b3e 18ac d93b
000003b0: 2274 1a3e 6821 09be 13ec 3abe e491 a03d
000003c0: e349 01bd cd7d 573e f609 25bd c155 95bd
000003d0: 9862 c13d 312f 46be 8fde 863d abc2 f63d
000003e0: ec87 d3bc eaba f83d 62b5 c63c d4ad 913e
000003f0: 9198 d3bb 476a cfbd 0dfd 41bd adae 8abe

network_body._body_endoder.seq_layers.0.bias f4 [256]
0.0019693659 -0.0039363503 0.0051591233 0.003218017 -0.0015767416 -0.004204935 -0.00524455 -0.0008574155
0.000659066 -0.003792053 0.0057944786 -0.0076112337 -0.00050103676 0.003125715 -0.0004114319 -0.0037432716
-0.0027584422 -0.0029574148 -0.0034313763 -0.00064763165 -0.0023989491 0.0014551735 -0.0048639067 -0.0017409071
-0.0035907098 -0.0021653704 0.002023648 -0.0072924043 0.0016082722 -0.0008402995 -0.008534043 -0.0026565895
-0.0047122226 0.00075957034 -0.0054281424 -0.0041508432 -0.008239177 -0.0008272657 -0.008592006 -0.0025355972
-0.005167298 -0.0014472597 -0.0031470098 -0.0005191423 -0.0010321892 0.0006014744 0.0044788304 -0.0037180507
-0.0006860463 -0.008536844 -0.0036641213 0.0011606641 -0.003864275 0.00027928856 -0.004081005 0.004863962
-0.0026808528 -0.0059534465 -0.003530627 -0.002767735 -0.0019154467 -0.0011944579 -0.005837633 0.00074990466
0.00046658068 -0.011195277 -0.0041398304 -0.0028639105 -0.001579087 -0.001155118 -0.0020130288 0.00095510297
-0.0035214636 -0.0045251576 -0.004266743 -0.0024889496 -0.004260513 0.004652187 0.003154907 -0.0016379699
-0.0005800661 -0.008749836 -0.0036428932 -0.004340141 -0.0023079666 0.0010708539 -0.0011102483 -0.004675884
-0.00189151 -0.003305464 -0.00045480477 -0.00222519 -0.0012776556 -0.0060553993 -0.0032506927 -0.0043710773
-0.00475715 -0.009883655 0.00039638454 -0.002193919 -0.0034829134 -0.0039542825 -0.005211976 -0.001479821
-0.008233251 -0.0055477093 -0.0020839488 -0.0062804553 -0.0049349517 0.0002094883 0.00018140697 -0.0012666747
-0.0029893713 -0.0004888522 -0.009346739 -0.0006355132 -0.00023827134 -0.0034903877 -0.0018230927 -0.007055056
-0.0043198518 -0.0042167576 -0.0022998848 0.0003056063 -0.0022492833 -0.0013437385 -0.001333193 0.00047643203
-0.004302849 -0.00777307 -0.0025768117 -0.002832028 -0.007338476 -0.0052732434 -0.006823161 -0.0043287724
-0.005133534 -0.0002703592 -0.0025993208 -0.00073046854 -0.00017347936 -0.0005304063 -0.01018383 -0.00034234446
-0.0027156747 -0.0035248883 0.0039648474 0.0016118415 -0.005578498 -0.0028229156 -0.003053121 -0.0026867946
-0.0016021166 -0.00497688 -0.0043282127 -0.0023231637 -0.0005653866 -7.8630335e-05 -0.005040282 0.0012420733
-0.0014720701 0.0007738704 -0.0043758573 0.0020015594 0.0006306033 -0.0034363964 -0.0017091813 -0.005190819
-0.0070855697 -0.004055303 -0.0010848287 -0.0020934811 -0.002093485 0.0031044483 -0.005395989 -0.0035448652
0.0043213675 -0.008386825 -0.0033919548 -0.0020576692 -0.0030873925 0.0007171266 -0.00038891012 0.000539653
-0.00021431039 -0.0047875466 -0.0009496576 -0.0065910383 -0.0073813004 -0.0065707774 -0.0022492157 -0.0021554686
0.00036952517 -0.0017313247 0.00128926 -0.010253841 -0.00097535044 -0.005141481 -0.0065021026 -0.0015705051
-0.001609303 -0.0037364133 -0.0005777948 -0.006576999 0.00062576885 -0.00036529536 -0.002616136 -0.0005374667
-0.0008016759 -0.003552449 -0.0021127732 0.000342486 -0.0055057975 0.0016274187 -0.004086131 -0.00702347
-0.0024203376 -0.0021823803 -0.0040738024 -0.0072623473 0.0025661676 -0.002538972 -0.008256924 -0.0035725671
-0.0077193803 -0.0025479267 -0.00792441 0.00037062258 -0.009152266 0.0021033823 -0.0003997112 0.0006002158
-0.005656887 -0.005437858 -0.0009303593 -0.004319534 -0.0079226205 0.0006537478 -0.0028951475 -0.0020733033
-0.0066123763 -0.008978964 -0.0005278483 -0.01103149 -0.0039442223 -0.0014920147 -0.0016614764 -0.002359274
-0.00245398 -0.0028635068 -0.0010308003 -0.00088769407 -0.0023636508 -0.008048188 -0.0015036749 -0.0031022702
00000000: 7a10 013b 80fc 80bb dd0d a93b 5ee5 523b
00000010: abaa ceba 8dc9 89bb 79da abbb 2ec4 60ba
00000020: 2cc5 2c3a 1884 78bb 9cdf bd3b a867 f9bb
00000030: 0258 03ba ccd8 4c3b 74b5 d7b9 ad51 75bb
00000040: fbc6 34bb 30d1 41bb f1e0 60bb d3c5 29ba
00000050: b037 1dbb 85bb be3a 6861 9fbb 262f e4ba
00000060: 1d52 6bbb e3e8 0dbb 2e9f 043b 1ff5 eebb
00000070: a9cc d23a 8b47 5cba 5fd2 0bbc 2d1a 2ebb
00000080: fd68 9abb e71d 473a 8fde b1bb cc03 88bb
00000090: 9dfd 06bc dddc 58ba 7cc5 0cbc 432c 26bb
000000a0: 7052 a9bb fab1 bdba 103e 4ebb 0d17 08ba
000000b0: 864a 87ba 44ac 1d3a 27c3 923b 8aaa 73bb
000000c0: cad7 33ba 1ede 0bbc c121 70bb 6d21 983a
000000d0: c73f 7dbb 7a6d 9239 f4b9 85bb df61 9f3b
000000e0: 3fb1 2fbb 2115 c3bb 1762 67bb e362 35bb
000000f0: ba0f fbba 5b8f 9cba 9d49 bfbb 4095 443a
00000100: 669f f439 656c 37bc 6aa7 87bb 72b0 3bbb
00000110: 5ef9 ceba 5467 97ba 05ed 03bb e05f 7a3a
00000120: 5bc8 66bb c647 94bb 09d0 8bbb a51d 23bb
00000130: c69b 8bbb 6071 983b 8ec2 4e3b 26b1 d6ba
00000140: 940f 18ba 795b 0fbc 9bbd 6ebb be37 8ebb
00000150: 4141 17bb e55b 8c3a c085 91ba 2838 99bb
00000160: 8bec f7ba 7ca0 58bb dd72 eeb9 7ed4 11bb
00000170: 0277 a7ba 5f6c c6bb 9309 55bb 413b 8fbb
00000180: dee1 9bbb 0eef 21bc d5d1 cf39 dac7 0fbb
00000190: 9741 64bb ed92 81bb 39c9 aabb 8ef6 c1ba
000001a0: c2e4 06bc 8fc9 b5bb dc92 08bb 47cc cdbb
000001b0: 60b5 a1bb 16aa 5b39 1038 3e39 8d06 a6ba
000001c0: 54e9 43bb 5126 00ba 1123 19bc 9298 26ba
000001d0: 7ad8 79b9 fdbe 64bb d7f4 eeba 192e e7bb
000001e0: 8b8d 8dbb ba2c 8abb aab9 16bb c939 a039
000001f0: b668 13bb 6220 b0ba 89be aeba a0c9 f939
00000200: eafe 8cbb 3db5 febb badf 28bb 8c99 39bb
00000210: 9977 f0bb 2ccb acbb d394 dfbb 60d8 8dbb
00000220: 3437 a8bb ffbe 8db9 5e59 2abb ea7c 3fba
00000230: 03e8 35b9 f70a 0bba 14da 26bc b27c b3b9
00000240: 76f9 31bb d001 67bb 8deb 813b 6d44 d33a
00000250: d5cb b6bb aa00 39bb df16 48bb ef14 30bb
00000260: 1dfe d1ba 1815 a3bb aed3 8dbb 3840 18bb
00000270: 7436 14ba 57e6 a4b8 f328 a5bb 10cd a23a
00000280: 7af2 c0ba 90dd 4a3a 5a63 8fbb 982c 033b
00000290: 124f 253a 2a35 61bb 9c06 e0ba bf17 aabb
000002a0: 112e e8bb 59e2 84bb d030 8eba c932 09bb
000002b0: da32 09bb 0074 4b3b d6d0 b0bb f850 68bb
000002c0: 429a 8d3b e568 09bc 8f4b 5ebb f6d9 06bb
000002d0: da55 4abb 8dfd 3b3a a2e6 cbb9 8077 0d3a
000002e0: 82b8 60b9 dae0 9cbb 71f2 78ba a3f9 d7bb
000002f0: d6de f1bb ad4f d7bb 9467 13bb c342 0dbb
00000300: d4bc c139 9eed e2ba 63fc a83a baff 27bc
00000310: a9ae 7fba de79 a8bb 970f d5bb 68d9 cdba
00000320: 40ef d2ba 9dde 74bb 2777 17ba de83 d7bb
00000330: a30a 243a 1d85 bfb9 7b73 2bbb c8e4 0cba
00000340: 8f27 52ba 34d0 68bb 7476 0abb b18f b339
00000350: fa69 b4bb 1c4f d53a f4e4 85bb 2325 e6bb
00000360: 879e 1ebb 4406 0fbb 887d 85bb fcf8 edbb
00000370: 262d 283b e264 26bb 0d48 07bc bb21 6abb
00000380: dbf2 fcbb 1efb 26bb 62d5 01bc 1f50 c239
00000390: 63f3 15bc e6d8 093b 5490 d1b9 cd57 1d3a
000003a0: 685d b9bb 0f30 b2bb 5be3 73ba e18a 8dbb
000003b0: e1cd 01bc 4660 2b3a 84bc 3dbb 42e0 07bb
000003c0: a2ac d8bb 811c 13bc 4d5f 0aba 6cbd 34bc
000003d0: 893e 81bb b58f c3ba e6c5 d9ba 0d9e 1abb
000003e0: f4d2 20bb aca9 3bbb eb1b 87ba 24b4 68ba
000003f0: 7be7 1abb 8cdc 03bc f516 c5ba 754f 4bbb

network_body._body_endoder.seq_layers.2.weight f4 [256, 256]
0.04891028 -0.0030176395 -0.02493012 -0.025335837 0.029693378 0.012760539 0.015695654 0.0022404934
-0.10573544 -0.05266796 -0.053557374 0.012331596 -0.06259738 -0.03985739 0.00865109 0.05294499
0.032407206 0.015587401 -0.1195352 -0.0699789 0.02853478 0.15725867 0.10205545 0.014905641
0.06252038 -0.04150181 -0.040467117 -0.031075876 0.00060996914 -0.08248911 -0.0023635118 -0.038599327
-0.03901834 0.0014571315 -0.04500245 -0.017755542 0.024263117 -0.012701263 0.008027168 0.182652
0.06106692 0.007615946 0.036447093 -0.13040482 0.00700115 -0.12661226 0.054956034 0.063762374
-0.020931942 -0.047689486 -0.012827079 -0.058102585 -0.09178369 0.033426188 -0.0678666 -0.020809153
0.042449888 0.029031454 -0.066865444 -0.07108119 -0.057339385 -0.03407756 -0.019310886 0.08607791
0.056735042 0.034138683 0.15382929 -0.021715628 -0.033750907 -0.088442974 0.009542943 0.057041124
0.020035494 -0.009117907 0.07644827 0.04070381 -0.0015062756 0.02772676 -0.00607227 0.04557786
0.003921557 -0.09558269 -0.02573971 0.03139237 0.051563505 -0.0099321045 -0.018660307 0.15358034
0.067567155 0.09396817 0.14031133 0.12856738 -0.039162662 -0.11982879 -0.011555911 0.07832334
0.07602119 0.016242903 -0.012493037 -0.06383152 0.011955967 0.06427174 -0.06329323 0.10712731
0.0054048323 -0.008549388 0.004695184 -0.003227522 0.047584377 -0.029181702 0.10950618 -0.09197151
-0.021717561 0.08248535 -0.004306499 -0.0007774668 -0.06656312 0.010208103 0.019188166 0.08787011
0.05586495 -0.026420923 0.0851185 0.015266144 -0.025190258 -0.0713591 0.113285355 -0.09056947
0.05763647 -0.03194352 0.07488456 -0.0038979396 -0.0337101 -0.027141128 0.09858942 -0.085133895
-0.05387096 -0.013341715 0.022482902 0.051950302 0.06823814 0.058862954 -0.059832357 0.00571746
0.10648415 -0.018093416 -0.093787715 0.07610611 -0.088903636 -0.0009742614 0.01560046 -0.13615094
0.014898997 -0.09448783 -0.043185696 -0.015190364 -0.10148406 0.01963031 -0.03377082 0.008254348
0.010569672 0.11193873 -0.06997024 0.04091476 0.0008979405 0.003682549 0.044179145 0.010999574
-0.015268819 -0.11651814 0.029294316 -0.07141892 -0.0548395 -0.04206925 -0.093254544 0.06453069
-0.044163365 0.025026618 -0.014479914 0.0028691348 0.014565428 0.050776824 -0.052024502 -0.13177326
-0.13000967 -0.010701395 -0.039245762 -0.003548244 0.0018217657 -0.025433782 0.0020210533 -0.028317692
0.0049757087 0.0007277493 -0.0014338333 -0.06000036 -0.10029038 -0.0141773075 -0.10018387 0.061985776
-0.12231853 -0.013270632 -0.03819806 -0.018279953 0.027459288 -0.012542256 -0.0192166 0.022962138
-0.09944849 0.09836318 0.10139385 0.08652943 -0.05318864 0.113336906 0.021117544 0.01114589
-0.02237936 0.06086352 0.06905967 -0.035620317 -0.05784609 -0.080135435 0.055909954 0.019938385
-0.067041785 -0.005073173 -0.06536025 -0.04781569 0.02567426 -0.0147190625 -0.00030855119 0.010831219
-0.02973911 0.005269155 -0.060359996 0.023798231 0.029701399 0.0118818395 -0.048113793 -0.048237618
-0.0013051486 0.05071848 -0.036356866 0.08246653 -0.0019210706 0.0432403 0.06500479 -0.14445718
-0.07342943 -0.10935687 -0.004593324 0.05234987 -0.051256463 0.026618777 -0.028223032 0.03208161
00000000: 2556 483d 97c3 45bb 403a ccbc 1a8d cfbc
00000010: 873f f33c 9411 513c 2c94 803c 3ed5 123b
00000020: d38b d8bd 5cba 57bd fa5e 5bbd 760a 4a3c
00000030: 0e33 80bd 8141 23bd 4dbd 0d3c d9dc 583d
00000040: 6bbd 043d 4c62 7f3c dfce f4bd 1951 8fbd
00000050: c5c1 e93c 6b08 213e 7302 d13d ca36 743c
00000060: af0a 803d cdfd 29bd d9c0 25bd d692 febc
00000070: 56e6 1f3a 0df0 a8bd 26e5 1abb 541a 1ebd
00000080: b2d1 1fbd 38fd be3a 7d54 38bd 1274 91bc
00000090: 72c3 c63c f518 50bc 6284 033c 2009 3b3e
000000a0: 4f21 7a3d 2f8f f93b 8c49 153d d788 05be
000000b0: e769 e53b a5a6 01be 9419 613d d995 823d
000000c0: 7779 abbc 0d56 43bd ab28 52bc fafc 6dbd
000000d0: 16f9 bbbd e6e9 083d a5fd 8abd f577 aabc
000000e0: efdf 2d3d 5fd3 ed3c c0f0 88bd 0493 91bd
000000f0: b4dc 6abd e994 0bbd dd31 9ebc 9e49 b03d
00000100: 0163 683d 01d5 0b3d 6d85 1d3e f9e4 b1bc
00000110: 643e 0abd 9721 b5bd 015a 1c3c f4a3 693d
00000120: 7a21 a43c 4663 15bc e990 9c3d 0ab9 263d
00000130: 396e c5ba 3b23 e33c e5f9 c6bb daaf 3a3d
00000140: 6880 803b dbc0 c3bd 16dc d2bc 4995 003d
00000150: 4134 533d 44ba 22bc 80dd 98bc 2a44 1d3e
00000160: a660 8a3d 6272 c03d c6ad 0f3e 2ba7 033e
00000170: 0769 20bd cc68 f5bd 0155 3dbc fd67 a03d
00000180: ffb0 9b3d d60f 853c 98af 4cbc 1aba 82bd
00000190: f6e2 433c e7a0 833d e29f 81bd 9065 db3d
000001a0: 051b b13b bb12 0cbc 0fda 993b d584 53bb
000001b0: d6e7 423d 770e efbc c744 e03d 8f5b bcbd
000001c0: 07e9 b1bc 14ee a83d 881d 8dbb eace 4bba
000001d0: 3f52 88bd e33f 273c 8030 9d3c 3ff5 b33d
000001e0: a5d2 643d b170 d8bc 9c52 ae3d d91e 7a3c
000001f0: cd5b cebc b824 92bd 2702 e83d 7c7c b9bd
00000200: 3814 6c3d 35d7 02bd 145d 993d 9374 7fbb
00000210: 9a13 0abd 1257 debc 40e9 c93d ae5a aebd
00000220: cca7 5cbd 3597 5abc 102e b83c d7c9 543d
00000230: 70c0 8b3d 481a 713d c612 75bd 8859 bb3b
00000240: 5d14 da3d a538 94bc c613 c0bd 85dd 9b3d
00000250: 1c13 b6bd 9365 7fba 1299 7f3c 276b 0bbe
00000260: ec1a 743c d682 c1bd 7ce3 30bd 01e1 78bc
00000270: e0d6 cfbd becf a03c 4553 0abd 3f3d 073c
00000280: 6b2c 2d3c 2240 e53d 8f4c 8fbd 3c96 273d
00000290: c463 6b3a ec56 713b 31f5 343d 8f37 343c
000002a0: 122a 7abc 10a1 eebd a2fa ef3c 1544 92bd
000002b0: 629f 60bd ce50 2cbd 3dfc bebd ab28 843d
000002c0: a5e4 34bd 9f04 cd3c 293d 6dbc 1808 3c3b
000002d0: d5a3 6e3c 5cfb 4f3d a517 55bd 92ef 06be
000002e0: 4121 05be e754 2fbc 2ac0 20bd a889 68bb
000002f0: 50c8 ee3a 825a d0bc a673 043b 81fa e7bc
00000300: 450b a33b 6ec6 3e3a 76ef bbba f0c2 75bd
00000310: 0b65 cdbd f047 68bc 332d cdbd cce4 7d3d
00000320: 2382 fabd 116d 59bc 9275 1cbd d7bf 95bc
00000330: 4df2 e03c 097e 4dbc 226c 9dbc 181b bc3c
00000340: a6ab cbbd a372 c93d 94a7 cf3d 5736 b13d
00000350: 55dc 59bd 2e1d e83d b3fe ac3c 409d 363c
00000360: eb54 b7bc 074c 793d 286f 8d3d 9ce6 11bd
00000370: 06f0 6cbd 0c1e a4bd d601 653d d355 a33c
00000380: 344d 89bd dc3c a6bb 98db 85bd 63da 43bd
00000390: d352 d23c 3928 71bc 0ac5 a1b9 6d75 313c
000003a0: 6f9f f3bc e0a8 ac3b 0b3c 77bd 82f4 c23c
000003b0: 5950 f33c 0cac 423c f812 45bd cf94 45bd
000003c0: 8511 abba 2ebe 4f3d f0ea 14bd 36e4 a83d
000003d0: 6fcc fbba be1c 313d 3b21 853d 95ec 13be
000003e0: 2b62 96bd 7ff6 dfbd 9883 96bb d16c 563d
000003f0: 4cf2 51bd 9f0f da3c fd33 e7bc 0268 033d

network_body._body_endoder.seq_layers.2.bias f4 [256]
-0.0010303931 -0.0030588238 -0.0026909085 -0.00082026114 -0.001437215 -0.0076302774 -0.0006406683 -0.004236711
-0.0013298895 0.0001873739 -0.0023907167 -0.0017595817 -0.0025273988 -0.0038730935 0.001711045 -0.0033516893
0.0018275279 -0.0049998756 -0.0010445167 -0.0008924704 -0.0020702053 -0.0014648706 0.0013803942 -0.0013219909
-0.0021039993 -0.0030487343 0.0007206685 -0.003724366 -0.0022675695 -0.0012945009 -0.0020959424 -0.0033324517
-0.0024575072 -0.0017541425 -0.0015829869 -0.0036245375 0.00038539045 0.0004827425 -0.00020118432 -0.0032668882
-0.0050208094 -0.002974001 -0.0032976323 -0.002286043 9.933499e-05 -0.0017498283 2.0070638e-06 0.0007051886
-0.00029832532 -0.0012115629 -0.0022873892 0.0018066986 -0.0022355122 -0.0033142741 -0.0004925432 -0.0036100573
-0.0024363887 -0.005405621 -0.0044394713 0.0013721386 -0.0028905577 -0.0026603495 0.00026561297 -0.0022424965
-0.0016522631 -0.006750625 -0.0013632881 -0.0026624424 -0.0008424217 0.0007766152 0.0027847271 0.0010600941
-0.0031708027 -0.0019754802 -0.0019184332 -0.004718611 -0.003990522 -0.0031240312 -0.0037897322 -0.0035874813
-0.0050925817 0.00061739585 -0.002044131 -0.0037771198 -5.5621338e-05 -0.0012808042 -0.002342771 -0.00083609176
-0.0013977187 0.0016937475 -0.002108985 -0.0029420652 -0.0013208982 -0.0022675758 0.0011592526 -0.0026527834
-0.0013961417 -0.005971337 -0.0027231688 -0.0031329768 -0.0035809907 -0.0037312799 0.0022038114 -0.004324151
-0.0040614814 -0.0032442624 -0.0039981976 -0.0024250313 0.005268758 -0.0019408433 -0.002838619 -0.002893788
-0.00074250624 0.0009672021 -4.7854868e-05 -0.004418992 -0.00025749864 -0.003786407 0.00019841766 -0.0014172007
0.0005966206 0.0010322996 0.0022943425 -0.0009928738 0.0015928395 -0.0031641952 -0.004130348 -0.00063906354
-0.0029494974 0.00056987617 -0.0025511987 -0.0031324166 -0.00064914697 -0.0024590853 -0.005504941 0.00035690938
0.00054586824 -0.0022603436 0.0018803336 -0.0010561255 -0.0033745582 -0.001691233 -0.0025708058 -0.006221258
-0.0013555313 -0.0009528717 -0.004133598 -0.0024471814 -0.0029767149 -0.00166108 -0.0018224377 -0.008970347
-0.004891334 -0.0006160484 0.0015385695 -0.0036108948 0.0013202552 -0.0028059536 -0.0030961866 -0.0017893399
-0.004281872 -0.0022862994 -0.00031848176 -0.0020250347 -0.0072664954 -0.0057020714 -0.0006601214 -0.0028085655
-0.003064808 -0.0011879242 -0.0023837255 0.0012875303 -0.0027296415 -0.00043770522 -0.002204329 -0.0022014668
-0.00130516 -0.0045986506 0.0010884221 -0.0050152987 0.001945266 -0.0027868762 -0.003923527 -0.0005586951
-0.0070060967 -0.0013309234 0.00041850534 0.00011367237 0.0013113321 0.0012749868 0.00043137526 -0.004019409
0.0015031085 -0.0050615463 -0.0006828343 0.0003277476 0.00046291258 -0.0035744836 0.00067129236 0.0017274473
-0.0031664842 -0.0012739034 -0.005011146 -0.0028739602 0.00022295432 -0.0009714965 -0.0035642975 -0.0013276723
-0.0042922874 -0.0024136133 -0.009175788 -0.0006411102 0.00048693162 -0.0044745244 -0.004648802 -0.003402808
-0.0035661266 -1.341883e-06 -0.0036883224 0.0003118262 -0.0031254934 -1.5925498e-05 -0.0050170473 -0.0029272034
0.0016583361 -0.0013454864 -0.0022652238 0.00067592826 -0.0025762678 -0.0023840924 -0.0059490963 -0.0006604298
-0.002301265 -0.003302346 -0.0010909347 -0.00020592108 -0.0018988755 -0.0008137982 -0.005323005 0.00012746088
-0.0026038531 -0.0013660989 -0.00060713553 -0.0013255618 -0.0007485621 -0.00044106366 -0.0021030738 -0.0029993183
-0.00034234053 -0.0022276817 -0.001011315 -0.0038546259 -0.0026090126 -0.0055057565 -0.0014997076 -0.0036990035
00000000: 410e 87ba 8c76 48bb f459 30bb cb06 57ba
00000010: ef60 bcba 6807 fabb 86f2 27ba 1cd4 8abb
00000020: b04f aeba cc79 4439 92ad 1cbb c4a1 e6ba
00000030: b7a2 25bb bad3 7dbb 2545 e03a 04a8 5bbb
00000040: a989 ef3a ffd5 a3bb 2ae8 88ba adf4 69ba
00000050: 48ac 07bb e700 c0ba 58ee b43a a746 adba
00000060: 40e3 09bb 46cd 47bb 3feb 3c3a 7e14 74bb
00000070: 819b 14bb 3eac a9ba 145c 09bb 4365 5abb
00000080: 210e 21bb 41eb e5ba 3a7c cfba a689 6dbb
00000090: 3b0e ca39 9a18 fd39 01f5 52b9 4a19 56bb
000000a0: 9a85 a4bb 75e7 42bb 171d 58bb 70d1 15bb
000000b0: 1152 d038 7f5a e5ba 18b1 0636 68dc 383a
000000c0: 8c68 9cb9 4ecd 9eba 06e8 15bb bfce ec3a
000000d0: ac81 12bb 4b34 59bb 041e 01ba b696 6cbb
000000e0: d2ab 1fbb a321 b1bb fc78 91bb 55d9 b33a
000000f0: 836f 3dbb 4259 2ebb f841 8b39 d9f6 12bb
00000100: c090 d8ba 5934 ddbb 5cb0 b2ba 5f7c 2ebb
00000110: f7d5 5cba c495 4b3a f87f 363b dbf2 8a3a
00000120: 3ecd 4fbb 0f77 01bb f073 fbba 949e 9abb
00000130: edc2 82bb 8cbc 4cbb 285d 78bb f31b 6bbb
00000140: acdf a6bb bcd8 213a d4f6 05bb 8e89 77bb
00000150: f54a 69b8 a8e0 a7ba 2d89 19bb 2b2d 5bba
00000160: a833 b7ba bc00 de3a e636 0abb aacf 40bb
00000170: fd21 adba 9c9b 14bb 10f2 973a 52da 2dbb
00000180: befe b6ba 35ab c3bb 3177 32bb a152 4dbb
00000190: 0eaf 6abb 7d88 74bb d26d 103b 9cb1 8dbb
000001a0: 2d16 85bb b19d 54bb 5003 83bb 46ed 1ebb
000001b0: 8ca5 ac3b e563 feba 2008 3abb b5a5 3dbb
000001c0: c0a4 42ba d68b 7d3a c6b7 48b8 31cd 90bb
000001d0: e200 87b9 5e25 78bb 560e 5039 5dc1 b9ba
000001e0: 8866 1c3a 3a4e 873a ae5c 163b 5123 82ba
000001f0: d3c6 d03a 635e 4fbb df57 87bb d486 27ba
00000200: 5b4c 41bb be63 153a 0332 27bb 3b49 4dbb
00000210: 842b 2aba 9b28 21bb cb62 b4bb 911f bb39
00000220: 9918 0f3a 4622 14bb 8775 f63a b16d 8aba
00000230: b127 5dbb 5dac ddba f77a 28bb b2db cbbb
00000240: 15ac b1ba 23ca 79ba 2273 87bb e460 20bb
00000250: fd14 43bb 99b8 d9ba ddde eeba 5df8 12bc
00000260: 7c47 a0bb 4f7e 21ba d3a9 c93a c3a4 6cbb
00000270: 6a0c ad3a 17e4 37bb 64e9 4abb 4988 eaba
00000280: f24e 8cbb bdd5 15bb e6f9 a6b9 72b6 04bb
00000290: c81b eebb 71d8 babb ff0b 2dba e90f 38bb
000002a0: f2da 48bb 1fb4 9bba 4738 1cbb 59c2 a83a
000002b0: c9e3 32bb cd7b e5b9 8176 10bb 7c46 10bb
000002c0: e711 abba 47b0 96bb 63a9 8e3a 6057 a4bb
000002d0: 4cf8 fe3a 06a4 36bb ee90 80bb 6575 12ba
000002e0: 6693 e5bb 6172 aeba d66a db39 6463 ee38
000002f0: 01e1 ab3a 751d a73a 352a e239 3fb5 83bb
00000300: f403 c53a 54db a5bb 3c00 33ba 8ad5 ab39
00000310: 13b3 f239 e241 6abb abf9 2f3a 836b e23a
00000320: ca84 4fbb 1bf9 a6ba 8a34 a4bb 0d59 3cbb
00000330: d8c8 6939 07ac 7eba fd96 69bb 4a05 aeba
00000340: 51a6 8cbb b62d 1ebb 0b56 16bc 2d10 28ba
00000350: db4a ff39 089f 92bb fa54 98bb a501 5fbb
00000360: adb5 69bb c01a b4b5 c8b7 71bb 9b7c a339
00000370: 14d5 4cbb bf97 85b7 0b66 a4bb 53d6 3fbb
00000380: 875c d93a 085b b0ba 2674 14bb c730 313a
00000390: 9ad6 28bb 6f3e 1cbb a3f0 c2bb b220 2dba
000003a0: d2d0 16bb 2c6c 58bb b2fd 8eba 85ec 57b9
000003b0: b0e3 f8ba 1355 55ba 9a6c aebb 05a7 0539
000003c0: 68a5 2abb ac0e b3ba 2d28 1fba 79be adba
000003d0: 273b 44ba 903e e7b9 b9d3 09bb 3690 44bb
000003e0: 2b7c b3b9 4cfe 11bb 1a8e 84ba e49d 7cbb
000003f0: f8fb 2abb a269 b4bb d691 c4ba fb6a 72bb

action_model._continuous_distribution.log_sigma f4 [1, 2]
-0.015580413 0.0005225902
00000000: fd44 7fbc 6ffe 083a

action_model._continuous_distribution.mu.weight f4 [2, 256]
0.018149203 0.0055524036 0.0040988293 -0.005682646 -0.015757345 -0.0006369581 0.007262361 -0.0057249535
-0.01826402 0.011739146 0.010320662 0.01960278 -0.0050089182 -0.006114089 -0.021836944 -0.0061141145
0.0012480447 -0.016909858 -0.024143454 0.010366557 -0.001683205 0.019743761 -0.0066168876 0.01964621
0.010198367 0.008338769 0.0034894776 -0.011680472 0.008344099 -0.0038725818 -0.009109059 -0.01845028
0.005845527 -0.026919061 0.018797135 -0.00017534272 0.025865704 -0.025655596 0.0058038337 -0.0014583688
-0.00113517 0.0074620727 -0.015941707 -0.006092387 -0.001643514 0.018427286 -0.027365657 0.009147723
0.0071837064 -0.009587932 -0.0034602531 -0.0012615141 -0.018152475 -0.011173159 0.01929885 0.0009073308
0.003214318 -0.0064651156 -0.0073927147 0.0064710416 -0.009546284 -0.013013593 0.012280948 0.0035554068
0.005950884 -0.0020919708 -0.005085278 -0.008283085 -0.004786933 -0.0025761956 -0.00041507868 0.00883534
0.0081074 -0.011366579 0.01447705 0.001431219 -0.005180541 0.019735603 -0.006087699 -0.021557938
-0.0030979887 0.018902542 0.010073716 -2.480307e-05 -0.0045475094 0.009097433 0.005019022 -0.022826323
-0.010152475 0.010188775 -0.007537899 -0.00227203 -0.026827583 -0.012534595 0.021717986 -0.0021227011
0.011120885 0.00089463743 0.0071105002 -0.00041615393 0.020471137 -0.009869329 0.0013757625 -0.011267538
0.0083750915 0.0010116976 -0.014962797 0.0030541322 0.022459313 -0.026797768 0.0019623067 -0.0074678697
0.0067199217 -0.0013469855 0.012242446 0.007870445 0.0022489715 0.0023196463 0.0052512996 -0.017402072
-0.008113291 -0.0067973332 0.005613398 -0.0011709215 0.0036660186 0.0071063093 0.0007315824 0.0067582154
0.007719513 -0.0055278107 -0.0053878673 -0.009341905 0.020481773 0.013750809 0.004850551 0.027424071
0.011931035 0.00615805 0.00597972 0.022077695 0.0006761494 -0.00087174226 -0.011128476 0.00022359134
0.015348688 0.009841111 0.0029302316 0.0042590103 -0.0035468375 0.010224512 0.007859231 0.0024386854
-0.002166902 -0.004406644 -0.0094909165 -0.008375641 -0.006121318 0.00750352 -0.0012899194 -0.002106721
0.009808984 0.017462652 0.006049724 0.023642017 -0.0028719842 0.0020644397 0.0044208695 -0.0005442403
-0.0050679995 0.0035402956 0.009344687 -0.0041775573 0.004709382 -0.0024574883 -0.0051106536 0.0101034865
0.0023586426 -0.0035913792 0.011084675 0.0007673706 0.0009958463 -0.005925242 -0.0067026983 0.0011079778
-0.003087496 0.018633695 -0.009368484 -0.0012712845 -0.004449706 -0.006015379 -0.0035205893 -0.021227164
-0.006094106 -0.005075688 0.0012163873 -0.0075117103 -0.0024201514 -0.0048843506 0.044746965 0.018363988
-0.005491751 -0.0004699385 -0.00413025 -0.0074818484 0.016266394 0.012246848 -0.00058250636 -0.015795842
0.00021295351 0.00073542283 -0.00056502415 0.022693057 0.025570117 -0.0045751496 -0.0053238287 0.0009790704
0.004667373 0.00078437367 -0.00056836236 0.0056527047 -0.01913614 0.013898989 -0.00089685665 0.0017935506
0.0075023263 -0.009366888 0.015621179 0.0004178642 0.0022972198 -0.008418259 -0.001702584 0.0041045896
-0.009912906 -0.007055234 -0.002219892 -0.026933966 -0.0013228159 0.008868265 0.0036284516 -0.011566755
0.015197748 0.019334478 0.0008753533 0.0014190172 0.003950178 0.011633904 -0.0008130162 -0.012442403
0.007502449 0.008175389 0.005083625 0.009111562 0.0077752173 0.0014190956 -0.0071570557 -0.0065848976
00000000: a3ad 943c f0f0 b53b 794f 863b 7d35 babb
00000010: 8c15 81bc 89f9 26ba 19f9 ed3b 6498 bbbb
00000020: 6d9e 95bc 8c55 403c fe17 293c 0296 a03c
00000030: da21 a4bb b258 c8bb 64e3 b2bc e958 c8bb
00000040: 6e95 a33a 8b86 8abc 7ec8 c5bc 7ed8 293c
00000050: fd9e dcba abbd a13c 7ad2 d8bb 17f1 a03c
00000060: 0d17 273c 559f 083c b8af 643b 735f 3fbc
00000070: b0b5 083c 24cb 7dbb 2a3e 15bc 0b25 97bc
00000080: d68b bf3b 5d85 dcbc 73fc 993c 34dc 37b9
00000090: 50e4 d33c af2b d2bc 162e be3b bd26 bfba
000000a0: fcc9 94ba 6784 f43b 2f98 82bc a5a2 c7bb
000000b0: 2e6b d7ba d2f4 963c f12d e0bc 55e0 153c
000000c0: 4c65 eb3b b416 1dbc 6ac5 62bb 6459 a5ba
000000d0: 80b4 94bc a00f 37bc 9f18 9e3c f0d9 6d3a
000000e0: 4fa7 523b 52d9 d3bb 963e f2bb 080b d43b
000000f0: 0468 1cbc f736 55bc 0836 493c d401 693b
00000100: a2ff c23b 7219 09bb 67a2 a6bb c7b5 07bc
00000110: b4db 9cbb 64d5 28bb eb9e d9b9 1ac2 103c
00000120: e6d4 043c e33a 3abc 2631 6d3c be97 bb3a
00000130: 87c1 a9bb 8fac a13c 527b c7bb 469a b0bc
00000140: a007 4bbb 81d9 9a3c 3a0c 253c 3010 d0b7
00000150: 4603 95bb 660d 153c 9c76 a43b 45fe babc
00000160: 9156 26bc d2ee 263c 7b00 f7bb 57e6 14bb
00000170: 85c5 dbbc e75d 4dbc ebe9 b13c 041d 0bbb
00000180: 5f34 363c 1a86 6a3a 33ff e83b 3c2f dab9
00000190: 16b3 a73c f7b2 21bc ee52 b43a 7b9b 38bc
000001a0: ae37 093c f09a 843a 8526 75bc d627 483b
000001b0: 98fc b73c fe86 dbbc 0b9a 003b 08b5 f4bb
000001c0: ca32 dc3b 558d b0ba 8a94 483c 0af3 003c
000001d0: 7b63 133b 3505 183b 1813 ac3b ca8e 8ebc
000001e0: 9ced 04bc 2abc debb 98f0 b73b 9b79 99ba
000001f0: 9641 703b 0bdc e83b aac7 3f3a 0574 dd3b
00000200: f8f3 fc3b a322 b5bb b58c b0bb ca0e 19bc
00000210: 64c9 a73c 134b 613c 5ff1 9e3b 72a8 e03c
00000220: 637a 433c 78c9 c93b 87f1 c33b 48dc b43c
00000230: 9e3f 313a a285 64ba 3654 36bc d873 6a39
00000240: 1079 7b3c 9c3c 213c 2109 403b 2b8f 8b3b
00000250: 0f72 68bb b684 273c 01c4 003c 5ad2 1f3b
00000260: 9502 0ebb 9c65 90bb ca7f 1bbc fc39 09bc
00000270: 5695 c8bb 17e0 f53b 8312 a9ba ea10 0abb
00000280: dcb5 203c d60d 8f3c c33c c63b e7ac c13c
00000290: e637 3cbb 8d4b 073b f1dc 903b 59ab 0eba
000002a0: 7611 a6bb 4e04 683b 751a 193c e4e3 88bb
000002b0: 2951 9a3b d00d 21bb 4577 a7bb 1889 253c
000002c0: 7593 1a3b 585d 6bbb 7f9c 353c 5f29 493a
000002d0: 0f87 823a 8828 c2bb 4fa2 dbbb 9139 913a
000002e0: 9657 4abb b1a5 983c 457e 19bc 3ba1 a6ba
000002f0: d7ce 91bb a81c c5bb b0b9 66bb 97e4 adbc
00000300: 11b1 c7bb f551 a6bb 2f6f 9f3a cb24 f6bb
00000310: 679b 1ebb e70c a0bb 9848 373d 1370 963c
00000320: 25f4 b3bb 1462 f6b9 0c57 87bb 4b2a f5bb
00000330: 1a41 853c 01a7 483c 57b3 18ba 4866 81bc
00000340: 464c 5f39 64c9 403a 211e 14ba cae6 b93c
00000350: 6c78 d13c 23eb 95bb 8373 aebb 2754 803a
00000360: c3f0 983b 6d9e 4d3a 27fe 14ba 533a b93b
00000370: 65c3 9cbc 96b8 633c 081b 6bba 9215 eb3a
00000380: 13d6 f53b 9377 19bc f9ef 7f3c c914 db39
00000390: f48c 163b bdec 09bc 3d29 dfba cb7f 863b
000003a0: be69 22bc 982f e7bb 9c7b 11bb 9fa4 dcbc
000003b0: 5662 adba 334c 113c 51cb 6d3b 7d82 3dbc
000003c0: faff 783c 5763 9e3c f777 653a 51fe b93a
000003d0: 7f70 813b 219c 3e3c 9820 55ba 38db 4bbc
000003e0: 1bd7 f53b 11f2 053c 8a94 a63b a948 153c
000003f0: 40c7 fe3b f200 ba3a bc85 eabb 20c6 d7bb

action_model._continuous_distribution.mu.bias f4 [2]
0.00064531155 0.0022869783
00000000: 202a 293a 21e1 153b

66 f4 [20]
0.20221409 0.4736796 0.49445686 0.4369595 0.3123061 0.49994808 0.485392 0.42142347
0.27385187 0.49060148 0.4411071 0.38858327 0.42443672 0.47076678 0.27086645 0.24967137
0.47173026 0.4952611 0.24064343 0.23008116
00000000: 3611 4f3e 2286 f23e 7329 fd3e 28b9 df3e
00000010: 96e6 9f3e 32f9 ff3e 4d85 f83e d1c4 d73e
00000020: 5036 8c3e 1e30 fb3e cad8 e13e 63f4 c63e
00000030: c54f d93e 5808 f13e 02af 8a3e daa9 7f3e
00000040: a186 f13e dd92 fd3e 3b6b 763e 659a 6b3e

69 f4 [12]
0.36728048 0.4736796 0.49817067 0.4624691 0.37721565 0.46938008 0.4983172 0.46042305
0.36192524 0.4751014 0.4982091 0.4637131
00000000: 300c bc3e 2286 f23e 3a10 ff3e c0c8 ec3e
00000010: 6922 c13e 9652 f03e 6f23 ff3e 92bc eb3e
00000020: 444e b93e 7e40 f33e 4315 ff3e ce6b ed3e

72 f4 [3]
1.0156952 0.0077116773 1.9625483
00000000: 4d02 823f 3db2 fc3b c834 fb3f
