results/firstry/KartAgent/KartAgent-965216.onnx (onnx, 305043 bytes, 13 tensors)

network_body.observation_encoder.processors.0.normalizer.running_mean f4 [20]
00000000: 3b07 273a 9591 5a3f 0000 0000 f4c4 0e3e
00000010: b5ef 253f 899f 8b3e 4bd4 c03a 0ad4 e53d
00000020: 65d2 093f b9da ba3e 0000 0000 0be8 283e
00000030: 0c46 3a3f 173a 343e c765 bb3a 3005 f43d
00000040: ee4e 1c3f b256 9c3e fe0d 8b36 6163 333e
0.0006371622 0.8537839 0.0 0.13942319 0.6481889 0.27270153 0.0014711706 0.11222084
0.5383666 0.36494997 0.0 0.16494767 0.72763133 0.17600285 0.00142973 0.11915052
0.6105794 0.30534893 4.1441517e-06 0.17518379

network_body.observation_encoder.processors.1.normalizer.running_mean f4 [12]
00000000: 3b07 273a 9591 5a3f 0000 0000 536e e43c
00000010: 7dd2 053e ad75 3a3f 0000 0000 dd92 d23c
00000020: 02c4 e539 5293 5a3f 0000 0000 fec8 e43c
0.0006371622 0.8537839 0.0 0.027884638 0.13068576 0.7283581 0.0 0.025704795
0.0004382432 0.8538104 0.0 0.027927872

network_body.observation_encoder.processors.2.normalizer.running_mean f4 [3]
00000000: 3b57 b1bc f021 4b3d 34a1 533e
-0.02164804 0.049592912 0.20666963

network_body._body_endoder.seq_layers.0.weight f4 [256, 35]
00000000: f45c 2fbd ca6f 4ebe 8d7c 13be 8e1c 25be
00000010: 8ac5 0a3e dd22 47be f406 88bd 4450 0a3e
00000020: 0e04 813d 240e 8bbe bec3 773e 8d25 96bc
00000030: e68f 59be e4c5 58be 0748 053e e35b bebe
00000040: 156b b7bd d87f 963d e803 163d 9584 cdbc
00000050: 4fd3 4e3e bf6a b6be a12b 57bd e0fd 873e
00000060: 1e33 503e 18f7 ae3e 6f61 283e ba2d 143e
00000070: 6c3b 973e 1d65 79bd a1fa 14bd 5d72 163e
00000080: 236b 193e 2b44 9d3e 2d97 783e 2f38 5b3d
00000090: 349e 283e a452 123e 6f09 8fbd f1c9 e13c
000000a0: 0fd0 b8bc 988c abbe 85de 9f3d 784b 20bd
000000b0: 3644 7dbe f49b 4fbe e0b6 4d3e df86 92be
000000c0: 19d1 513c 2249 60bb f12b 4dbe f206 21be
000000d0: 2f27 72be 5401 b33e c3da 80bd 8faf 4e3e
000000e0: e48e c63d b3ac 79bd 9465 f23d 9a2d 52be
000000f0: 861e dd3d 93be c3bc be3f c33d ed74 eabd
00000100: 8e76 b33d cf5f 47be 5950 823c 6247 b0be
00000110: cd68 633e c97c c8bd 0b4c 203e 6826 35be
00000120: 0f24 3fbe 2249 a7bb f1bb 7b3d 37c5 f63e
00000130: 1812 e4bd 7c3a 903d f068 993e 9bb6 8f3e
00000140: 235d 50bd 54aa 503e 20f4 0cbe e298 5dbd
00000150: 9133 eb3d e9ba 013e d910 343e c185 913e
00000160: 0f7f a83a 034d fa3d 3189 e3bd 8523 9bbe
00000170: f0a6 17bd 7829 5abe 267e df3d 7f48 d2bd
00000180: 8ae7 c93c e916 1f3c 4871 2ebe 9551 003e
00000190: 5115 54be 389d f53c 6e5b 9c3c 55ce 96be
000001a0: ada0 08be ea26 8cbd 3eed 4f3d 6848 8dba
000001b0: 2d81 9cbd 39fe 953d 00d6 6bbe 2809 e33d
000001c0: a0cd 93bd 9c31 5d3e bfe0 873e d4dd a03c
000001d0: b9bf 01bd 6ba7 d93b fa28 993e 6d85 35be
000001e0: d16b 65be a169 80be e92a 72be 79d4 19be
000001f0: 40e3 023e 58c8 873d a083 55bd 39fe 2e3e
00000200: 8a90 01be 7fff 553d 1d1a 333e 34f2 55bd
00000210: 19c9 41be 276a d0bd fcf4 7abe 4739 67bd
00000220: 7191 bb3e 7242 0dbd f2c1 9abe f5b9 0bbe
00000230: 29b1 173e 0f6a 4dbe 1fe6 82bd 7925 1cbe
00000240: e93c c6bd c0df 333d aa8e 0b3d aaff 59be
00000250: 923b 083e 5d68 dcbd 5f4c 4fbd a07e bbbd
00000260: afb4 68bd e57b a83d abd8 933d 0a6c a9bd
00000270: b6a9 793e 7d32 bbbd 928f 39be a180 a7bd
00000280: 8c3f 68bb ca16 b33d 7824 a9bd 531b 2cbd
00000290: a73f d53c ea00 943e 7569 48bd da56 103e
000002a0: 5113 b5bd 7da5 e33e 02e2 aa3d 6d72 133e
000002b0: 43d0 bb3d 8e98 50bd 67b8 6bbe 1f08 4e3d
000002c0: 3115 433d 5248 973c 0ee7 92bc a971 ecbc
000002d0: 594d 803e 624c 73be 50e7 d9bd a009 553d
000002e0: a5dd 163e decc fabd 258e 283d f9be 373e
000002f0: 01ef 31be 7793 88be fbee 653e f7bb 5dbe
00000300: 6f21 2bbe 6f0f c0be 39c0 393e 3b3a 59bd
00000310: 2327 843d 1b40 eb3c 4fc1 e3bc 6bc8 293e
00000320: 25c0 f4bd 5d55 f73b c74d 86bd b9af 243e
00000330: b9ea 7fbd f29b 2d3e ba6a 193e 85bb c0bc
00000340: 5535 a3bd a155 91bd 328b cfbc 1123 ec3d
00000350: 8631 7dbe ef9c 843c 3f66 71bc 5a26 06bf
00000360: 27cf 7dbd 0035 453e 0c97 863e 0282 93be
00000370: 805f af3d 7d2e 94bd 4d3c 3a3d 7560 fabd
00000380: 130e 3d3e a9b5 ac3c ae4a 07be 598e 683d
00000390: d206 1cbe 5958 643d b074 673e 1340 833c
000003a0: 0cf1 d33d 21aa 793e 5108 933e 4078 5b3e
000003b0: 61b0 a63d 8b9f 9b3d 830e b5bc 6f7d 24bf
000003c0: 3f64 093d cf15 0a3c 72ad 3c3d 632b d53d
000003d0: dcf8 a03d 575f d43d 9356 6abd 9048 4a3d
000003e0: f288 b83e e9e1 433e 720b 00be 0a49 b93d
000003f0: f0ab aa3d 533c 0dbf 3a67 eebd 20d2 2abe
-0.042813256 -0.20159832 -0.14402981 -0.16124174 0.13551918 -0.19446893 -0.06641951 0.13507181
0.062996015 -0.27159226 0.24195763 -0.018328452 -0.21246299 -0.2116924 0.13015758 -0.3717948
-0.08955971 0.07348603 0.03662482 -0.025087634 0.20197795 -0.35628316 -0.052531842 0.2656088
0.20332 0.34172893 0.16443418 0.14470568 0.29537523 -0.060887445 -0.03637183 0.14692064
0.14982276 0.3071607 0.24276419 0.053520378 0.164666 0.14289337 -0.06984221 0.027562113
-0.022560148 -0.33505702 0.07806114 -0.039134473 -0.24733052 -0.20274335 0.20089293 -0.28618523
0.0128062 -0.0034223278 -0.20036294 -0.15725306 -0.2364776 0.3496195 -0.062917255 0.20184158
0.09695223 -0.060955714 0.11835781 -0.20525208 0.107968375 -0.023894584 0.09533642 -0.11448083
0.08762847 -0.19470142 0.015907453 -0.3442946 0.22207947 -0.09789426 0.15654008 -0.17690432
-0.18666099 -0.0051051537 0.06145853 0.48197338 -0.111362636 0.07042405 0.29962873 0.28069004
-0.050870072 0.20377475 -0.13765001 -0.05410088 0.11484445 0.12668957 0.17584552 0.2842236
0.0012855249 0.1222172 -0.111101516 -0.30300537 -0.03702444 -0.21304882 0.10912733 -0.10267734
0.02464654 0.009710052 -0.17035401 0.12531121 -0.20711257 0.029982194 0.019086566 -0.29454294
-0.13342543 -0.0684336 0.05076336 -0.0010779025 -0.07641826 0.0732388 -0.23030853 0.11085731
-0.07216954 0.21600956 0.26538655 0.019637026 -0.03167698 0.006642272 0.29914075 -0.17726679
-0.2240441 -0.25080588 -0.23649181 -0.15022458 0.12782001 0.066300094 -0.05212748 0.17089166
-0.12652794 0.052245613 0.1749043 -0.052232936 -0.18924369 -0.10176497 -0.24507517 -0.05645111
0.366344 -0.034487195 -0.30226094 -0.13645156 0.14813675 -0.2005999 -0.06391548 -0.1524867
-0.096795864 0.043914557 0.034071602 -0.21288934 0.13303974 -0.10762093 -0.050609943 -0.09155011
-0.05681294 0.08226756 0.072190605 -0.0827256 0.24381146 -0.09140489 -0.18121174 -0.08178831
-0.0035438268 0.08744581 -0.08258909 -0.042018246 0.026031328 0.28906947 -0.048928697 0.14095631
-0.08841575 0.44462195 0.08343889 0.14399119 0.09170582 -0.050926737 -0.23019563 0.050300714
0.04762763 0.018467102 -0.017932441 -0.028862791 0.25059012 -0.23759606 -0.106398225 0.052011132
0.14732988 -0.122461066 0.041151185 0.17943944 -0.17376329 -0.26675007 0.22454445 -0.21653734
-0.16711973 -0.37511775 0.18139733 -0.05303405 0.06452777 0.028717091 -0.027802138 0.1658036
-0.11950711 0.007548018 -0.065578036 0.16082658 -0.06247971 0.1695402 0.14982119 -0.023526916
-0.07969157 -0.070964105 -0.025334928 0.11530126 -0.24725923 0.016188113 -0.01473385 -0.5240227
-0.061965134 0.19258499 0.26287115 -0.28810126 0.08563137 -0.072354294 0.045467664 -0.12225429
0.184624 0.021082716 -0.13212082 0.05677638 -0.15236977 0.055748317 0.22603106 0.016021764
0.103487104 0.24381305 0.28717282 0.2143259 0.0813911 0.0759879 -0.022101646 -0.64253896
0.033542868 0.008428051 0.046063848 0.10408666 0.07859966 0.10369747 -0.05721147 0.049385607
0.3604198 0.19129147 -0.12504366 0.09047134 0.08333576 -0.5517017 -0.11640783 -0.16681719

network_body._body_endoder.seq_layers.0.bias f4 [256]
00000000: 14d4 023b 51d4 c83c a499 9ebc 5026 6a3d
00000010: 80a8 8cbd d235 59bd 896a 5c3d efd6 2fbc
00000020: 9b26 9c3c 7da1 213c 5274 1bbd 07d9 1fbd
00000030: 8e0a a73b 36e1 5ebd c5e5 00bc be44 17bd
00000040: f60c 1e3d f050 033d 24c9 f8bc ed4a e93b
00000050: 3fb4 093d a6b5 8a3c d855 193c 9579 61bd
00000060: 9f41 85bd 0319 02bd 00af 5ebd 867a 25bd
00000070: 1952 53bc 078d 4039 25e2 b4bd 539f fabc
00000080: 6382 1cbb 3759 96bd a9f9 d1bb d769 80bd
00000090: dfc7 e1bb 3d72 9dbc 0dcc adbd 1ef1 233d
000000a0: 532c 9bbd e178 69bc 57bf c5bc 9b7e 58bd
000000b0: 737d 1dbd ffe9 0b3d 841f 423c c7c5 92bd
000000c0: 3048 fb3c 8bc3 e1bc b24b 32bc 77d4 2bbd
000000d0: b6f2 9abd 8ab2 013d 0d9e b2bc c702 4239
000000e0: ce46 80bd 8958 a5bc d3f2 883c a85b d63c
000000f0: 1341 efbc e9ae d0bc 92c7 50bd be2d 843d
00000100: 7b4f 1c3d d271 97bd 03d3 f2bc a99c e1bb
00000110: 2f7c 05bd c6b6 dabd 12ff 66bb a841 e83c
00000120: 6296 22bd 4623 243d 6d0a 1fbd e102 c3bc
00000130: 125f 26bd 8285 3abd ad48 86bd f76c cabc
00000140: 14b1 86bc 0ee6 c7bc 1d30 5ebd daf5 0cbd
00000150: 487b 433c c290 29bd a4ed 97bd ee0f dfbc
00000160: 872e 353d 9ee7 b7bd c5d2 74bc 33b4 7bba
00000170: 5276 973c abfc 003d 2c55 fcbc a39c a6bd
00000180: 9a13 7cbd 4dcb 35bd 2783 0cbd 402f 113c
00000190: 07c2 67bd 7bb7 5ebd 4f31 10bd 32c2 97bd
000001a0: 64ba a1bd 09cd 0b3d b4f8 1a3d b5bf 38bd
000001b0: ffea d9bc bb15 2abd 75e3 2d3c 4db6 4a3b
000001c0: 24e6 203d b39f 94bd b840 fa3c d870 51bd
000001d0: 1f0a 3dbd a530 4fbd 8ff8 13bd d5c9 2ebd
000001e0: 5ec8 853c b93c 8dbd d3c1 073d 6362 bebc
000001f0: a9a7 6b3d 8eae 0d3d c9e8 22bc fdc5 bfbc
00000200: 9ebb e6bc 2cb0 423d 3c20 ebbc d520 8dbd
00000210: ed0d c43c ac8b 94bd b4b8 07bc d981 dbbc
00000220: 1155 ebbd 0143 f4bb e151 7abd e59d cebd
00000230: f389 20bd eb5d d03b 33ef 08bc 3878 e8bd
00000240: ef80 05bd 3acc 443b a0c3 b73c 2b97 4d3b
00000250: 1461 863b b7d5 ad3c 9f86 e4bd 49e5 84bd
00000260: 1005 15bc df96 62bd 6aed 133c f331 0e3c
00000270: 8bc2 a3bc 7c54 1ebd a370 f73b d2e9 14bd
00000280: 0054 78bd 3254 fcbc 00c5 1fbc 2b7e 59bb
00000290: 8ae6 5c3b f46c cbbc 591f b5bc 3a94 90bd
000002a0: e52c 18bd 3370 3ebc 65a5 ddbd 6f70 8c3d
000002b0: 205f 9cbc 42a7 163a bcd5 1e3a 4466 5d3c
000002c0: b2e5 4fbd 21e3 8bbd 8b24 9fbc be83 c4bc
000002d0: a1fb 833a f81c 0dbb c8cd 83bc 9051 76bc
000002e0: 41d9 73bd 40d0 8f3c b082 c63b 9d6a 33bd
000002f0: 55fb 253d 1dc1 dabc 8a54 6dbd 8216 233d
00000300: f384 25bd 511e a33a 6681 a4bc 7887 d23b
00000310: 52ec 33bd a635 b3bd ab30 513d db6a 943d
00000320: f6b4 40bd bb22 30bc ca77 663c ff1b 03bd
00000330: c710 c0bd 0440 ddbd c8ae 07bc 96c1 7d3c
00000340: db02 ac3c bf48 b53c f8e7 25bd 38e0 c63c
00000350: 59e1 debd da73 adbd cb57 9cbc 1487 93bd
00000360: 76e6 133d 01c1 44bd ccfc e3bb da60 0ebd
00000370: 19d4 8ebd 4627 37bd f30a 483b 8ec4 c83c
00000380: 7086 46bd fb4a 88bb c77e 333d 575f 6dbd
00000390: 1974 c2bc 9590 14bd d74b 833b 6600 c5bc
000003a0: 12be f6bc 92fb eabb 0732 65bd 014a 28bd
000003b0: dfee 85bd 00c4 aebd 640c 223d d037 15bd
000003c0: adfd 5abd 8d4a 2fbd fe93 1ebd d6a7 c9bc
000003d0: 85c9 183c a0ba 0fbd c90d 3b3c b6c3 ba3c
000003e0: 6188 dbbd 3ca6 11bd 0f64 fabc 5797 963c
000003f0: 7a41 44bd 6fb5 87bd 04fb babc eb87 2c3d
0.0019962834 0.024515303 -0.019360371 0.057165444 -0.06868076 -0.053029843 0.053812537 -0.0107323965
0.019061377 0.009865162 -0.03795273 -0.039025333 0.0050976938 -0.054413997 -0.007867281 -0.036930792
0.03858658 0.03205961 -0.030369349 0.0071195276 0.03361916 0.01693232 0.009358846 -0.05504759
-0.06506657 -0.031762134 -0.05436611 -0.04040005 -0.012897992 0.00018363084 -0.08832196 -0.03059355
-0.0023881427 -0.07341235 -0.0064079356 -0.06270187 -0.0068902816 -0.019219512 -0.08486185 0.04002487
-0.075768135 -0.014250011 -0.02413909 -0.052855115 -0.038449716 0.034158703 0.011848334 -0.07166629
0.03067407 -0.027559062 -0.010882305 -0.04195067 -0.07565825 0.03166441 -0.02180388 0.00018502316
-0.06263505 -0.020183818 0.01671735 0.026166752 -0.029205834 -0.025474029 -0.050971575 0.06454037
0.038161736 -0.073947564 -0.029641634 -0.0068851304 -0.032589134 -0.106793925 -0.0035247249 0.02835162
-0.039694197 0.040072702 -0.038828302 -0.023805084 -0.04061801 -0.04553748 -0.065568306 -0.024710162
-0.01644186 -0.02440169 -0.054245103 -0.03441415 0.011931248 -0.041397817 -0.07418373 -0.027229276
0.044233825 -0.08979724 -0.0149428295 -0.0009601742 0.018489037 0.031490963 -0.030802332 -0.08135345
-0.06154213 -0.044383336 -0.034304764 0.008861363 -0.056581523 -0.0543742 -0.035203274 -0.07410087
-0.07896879 0.034131084 0.037834838 -0.0451047 -0.026601313 -0.04152463 0.010613312 0.0030931414
0.03928198 -0.07257023 0.030548438 -0.051133007 -0.04615223 -0.0505835 -0.036125716 -0.04267295
0.016330894 -0.068963476 0.03314383 -0.023240274 0.05753294 0.034590296 -0.009943196 -0.023409838
-0.028165635 0.04753129 -0.028701894 -0.06891028 0.023932422 -0.07253203 -0.008283783 -0.026795315
-0.114908345 -0.0074542766 -0.061113242 -0.1008871 -0.03919406 0.006358852 -0.008357811 -0.11351055
-0.032593664 0.0030028955 0.022432148 0.003137062 0.004100928 0.021220071 -0.111584894 -0.06489045
-0.009095445 -0.055319663 0.009028772 0.008678901 -0.019990226 -0.03865479 0.007551269 -0.0363558
-0.060626984 -0.030801866 -0.009751558 -0.0033186774 0.0033706748 -0.024832226 -0.022109674 -0.07059522
-0.03715219 -0.01162343 -0.10822562 0.068573825 -0.019088328 0.0005746969 0.00060590706 0.013513152
-0.050756164 -0.06830431 -0.019426605 -0.0239886 0.0010069498 -0.002153216 -0.016089335 -0.015034094
-0.05953336 0.017555356 0.0060580596 -0.043802846 0.040522892 -0.026703412 -0.05794195 0.039816387
-0.040409993 0.0012444948 -0.020081233 0.0064248405 -0.043926544 -0.08750467 0.051071804 0.072469436
-0.047047578 -0.010750468 0.014066646 -0.03200912 -0.093782 -0.10803226 -0.008281417 0.015488049
0.020997455 0.022129415 -0.040504426 0.024276838 -0.108828254 -0.084693626 -0.019084832 -0.072034985
0.036108457 -0.048035625 -0.006957626 -0.034760334 -0.06974048 -0.04471519 0.0030524104 0.024507787
-0.048468053 -0.004159329 0.043822076 -0.05795225 -0.023737 -0.036270697 0.0040068435 -0.024048042
-0.03011993 -0.007171103 -0.055955913 -0.0410862 -0.06539702 -0.08533478 0.039562598 -0.03643018
-0.05346458 -0.042795707 -0.038715355 -0.024616163 0.00932539 -0.03509009 0.011416861 0.0227984
-0.107193716 -0.035558924 -0.03056529 0.018382711 -0.047914006 -0.066264026 -0.022824772 0.04212181

network_body._body_endoder.seq_layers.2.weight f4 [256, 256]
00000000: f987 f7bb 603c 4f3c 8153 3cbe 5d3a 62bd
00000010: 3956 0cbd 4860 38bd 73af cdbd d18e 9ebd
00000020: 5a5d 8dbc ca6d 5cbe 6383 30bd 5c41 d43d
00000030: b84e 4c3e 6950 933d 04c6 24bd 33a1 fbbd
00000040: f6e1 c03c cd61 7bbc 9f17 0a3d 7fc0 fd3c
00000050: e4fe c7bd b17b bbbd d31c 5abd 735b 4f3c
00000060: bdd0 83bb 2f45 fd3d 6c9f 513d 5ec0 373c
00000070: 87f4 1bbd 4d80 f6bd 5e27 c53c 9fb9 11bd
00000080: 8276 b5bc 4d39 dcbb 6e5e 63ba c481 483c
00000090: ae0a 9c3c 96f3 dc39 5e5a 03bd 01a4 a63c
000000a0: 286d 52bd e622 32be 71b0 903d 0808 12be
000000b0: 4dd3 8abd 085f 9abd 3745 c73c 8c6c e038
000000c0: bcc7 6e3d 4f70 69bd 3c05 bdbc 1dae a6bc
000000d0: 75f8 863d 9840 fabc acb6 9d3d 5bc6 8fbd
000000e0: 63d5 0fbe 9ec4 0ebe d89d 89bd 01da 88bb
000000f0: c480 24be 41dc 44be fb1d e1bc d357 84bd
00000100: f8fe 54bd d0c5 eabb 8987 37bd 1810 323c
00000110: 7377 aabc cf45 c23c 3412 843d 7262 79bc
00000120: cc82 763d 8420 1fbe 7257 da3d e2d2 8fbc
00000130: 7b5d 2ebd ed93 513d b250 9abb d4bb a23c
00000140: 9f55 8fbd 17ec cabd cec8 65bd 3d19 86bd
00000150: 16f8 373d a7fc ddbc 3308 51be 553c 96bd
00000160: cf59 02bd 2b59 15bd 08ea 063b e7f9 f4bd
00000170: ca4e 39bd fb43 9b3c 03f5 b23c c32e 973b
00000180: 28f5 d4bd 0dfe 44bd 55a8 b1bd ce02 44bd
00000190: fa2e 58bd dd00 953c ace0 d1bb d59f 13bd
000001a0: 61e9 55bd 3ac1 b93d 642d 4cbb 8a6c bbbd
000001b0: 5228 8bbd 2e02 9cbd 91af b7bc 1d41 33bd
000001c0: 3f53 fbbc 4be9 c0bc 76ac 083d 8802 71bb
000001d0: 4127 c1bd 4f5a 1a3d 8a14 5f3c 5e59 d4bb
000001e0: 752a 913d 5b15 a0bd 2595 403d bb7a 983c
000001f0: e27f 833b 9e6a dabc 6592 3cbd 746b a6bd
00000200: 2e79 46bc 3148 aa3c 2b57 103d 8691 383d
00000210: 47f0 493d 4aac 84bc 6802 eb3b 709f bf3c
00000220: 9be4 9a3d f4e0 26bd cc9d 6dbc 3de9 173b
00000230: 43f8 e5bb 2da0 b53d f8f3 103e 577a 72bd
00000240: baa0 8fbd 78f2 3c3d 2c2e 793d 9fa9 063c
00000250: 103f 993d dc43 683d 9b80 debd 0bf0 e5bb
00000260: 2534 f83c d6ac 0abe e4f7 a23b 2be2 ddbc
00000270: de8e 86bd 0967 99bd 393c 25bd e681 d03d
00000280: 7123 d7bd 0413 dabc 40f8 5ebd 5cfd 43bc
00000290: 237a 2ebd e0e4 003c f3cf 863d e254 f9bc
000002a0: 9c5c bbbd c6f8 abbd b275 a0bd dbea eebc
000002b0: ac3b ae3c 91aa d5bd 907c dc3c a91f 4fbd
000002c0: db32 a53d 3bcb 1c3d 987d 483c 66f2 06bd
000002d0: d6d9 443e 9d80 963d 3afc 323c 9182 58bd
000002e0: 31b6 03be 9272 f53c 0708 21be 1f97 0d3d
000002f0: 600f 89bd afed 2cbd 47e9 483d 41bf 8fbd
00000300: ec60 c43a c28b 513e 7509 c63c fda3 c13c
00000310: b0d9 29bb 0cd3 dabd 616d 31bc fd8a 01be
00000320: 77e3 4b3d f5ab 10be b5dd ac3c ad47 993c
00000330: e063 a3b6 00ad 023e 224d 0dbe 3abc d7bd
00000340: 58df 0dbe 13e5 edbd 6758 38bd 87ef 1ebd
00000350: 4ee4 60bd 708e 573d 9ab0 b0bc 83b7 8a3c
00000360: 70eb 4b3d 48a0 00bd 89bc 3d3c fe09 41bd
00000370: 78e3 213d c4bf 833d b9af d1bd e57c 48bd
00000380: 8ed2 a7bd bd9e c0ba 39f1 29bd dcab 83bd
00000390: 9c5b d9bd 4bf4 37bd a874 5ebd 3d12 dabd
000003a0: 085e 9e3b 3475 e0bd 2040 1e3d 2d7d 48be
000003b0: c8a3 10bd 4e9d d5bc 6457 ce3d f2ee 14bd
000003c0: 7253 c1ba da09 3dbd 51cd 1cbe ffff c83d
000003d0: 88d7 a13d d85d dd3d fcda 9c3c df45 c7bd
000003e0: 6e4f ed3d 786b 8b3d 855a f8bd a714 b53d
000003f0: 3dd4 92bd ff86 f7bc 6cb4 1239 b677 edbd
-0.007554051 0.012648672 -0.18391229 -0.05523144 -0.034261916 -0.045013696 -0.1004323 -0.07742084
-0.017256428 -0.21526256 -0.04309405 0.10364029 0.19951904 0.071930714 -0.040227905 -0.12286606
0.023545247 -0.015343142 0.033713933 0.030975578 -0.097654134 -0.09154452 -0.053250145 0.012656081
-0.0040226863 0.12366711 0.051177427 0.0112152975 -0.038074996 -0.1203619 0.024066623 -0.035577413
-0.022151235 -0.006720698 -0.0008673434 0.01223797 0.019048061 0.00042143156 -0.032068603 0.020341875
-0.05137363 -0.17396125 0.070649035 -0.14260876 -0.06778584 -0.07537657 0.024324996 0.00010701371
0.05829595 -0.05699187 -0.023073785 -0.020346696 0.06590358 -0.030548379 0.077008575 -0.07020255
-0.14046244 -0.13942191 -0.067195594 -0.0041763787 -0.16064745 -0.19224645 -0.027480116 -0.06462064
-0.05200097 -0.0071646944 -0.04480699 0.010868095 -0.020808911 0.023714928 0.064487845 -0.015221225
0.06018333 -0.15539747 0.1066121 -0.017556611 -0.04256962 0.051166464 -0.0047093267 0.019864954
-0.06998753 -0.09908312 -0.056099705 -0.065477826 0.044914328 -0.027098013 -0.20413284 -0.07335726
-0.03182393 -0.03646199 0.002058627 -0.119617276 -0.045241155 0.018953314 0.021845346 0.0046137287
-0.10398322 -0.048093844 -0.08674685 -0.047854237 -0.052779175 0.018188888 -0.006404957 -0.0360411
-0.05222452 0.09070058 -0.0031154985 -0.091515616 -0.067948 -0.07617603 -0.022422584 -0.04376327
-0.030679343 -0.023548743 0.033367597 -0.003677519 -0.09431315 0.03768378 0.013615737 -0.00648038
0.07088176 -0.07816573 0.047017235 0.01861321 0.0040130476 -0.026662167 -0.04603805 -0.08125964
-0.012113852 0.020786377 0.03523938 0.045060657 0.049301412 -0.016195435 0.0071719177 0.023391455
0.07563134 -0.040741876 -0.014502954 0.0023179792 -0.0070181205 0.08868442 0.14155567 -0.059198704
-0.07013078 0.046129674 0.06083505 0.008219152 0.07482731 0.05670534 -0.10864373 -0.0070171407
0.030298302 -0.13542494 0.0049733985 -0.027085384 -0.065702185 -0.074903555 -0.040340636 0.10181026
-0.10504807 -0.026620395 -0.05443597 -0.011962261 -0.042596947 0.007867068 0.06582632 -0.030435983
-0.09148523 -0.08397059 -0.078349486 -0.029164722 0.021268688 -0.104329236 0.026914865 -0.050567303
0.080663405 0.038279753 0.012236975 -0.032946013 0.19223723 0.0734875 0.010924393 -0.052858893
-0.1286247 0.029961858 -0.15725718 0.03456795 -0.06692386 -0.04221886 0.049050596 -0.07018901
0.0014982498 0.2046347 0.024174431 0.023637766 -0.0025917105 -0.10684785 -0.010829301 -0.12650676
0.049777474 -0.14128096 0.021101812 0.018710935 -4.8694055e-06 0.12761307 -0.13798955 -0.10533948
-0.1385473 -0.11615958 -0.045006182 -0.03880265 -0.05490523 0.052626073 -0.021568585 0.016933208
0.049785078 -0.031402856 0.011580595 -0.04712867 0.03952357 0.06433061 -0.102385946 -0.048947234
-0.08194457 -0.0014695745 -0.041489813 -0.06429264 -0.10613176 -0.04491071 -0.05431047 -0.1064801
0.0048329867 -0.10959855 0.038635373 -0.19579001 -0.035312444 -0.026075985 0.10075262 -0.03636069
-0.00147496 -0.046151973 -0.15312697 0.098144524 0.079024374 0.10808915 0.019147389 -0.09730124
0.11587416 0.068076074 -0.1212664 0.0884183 -0.071693875 -0.030215738 0.00013990857 -0.11595099

network_body._body_endoder.seq_layers.2.bias f4 [256]
00000000: 80a2 d3bc 8953 c9bb 6e79 30bd 9d0d a7bc
00000010: 06e8 0ebc 341a b7bb 531d 1bba b977 1bbd
00000020: 68f5 06bb ca4b 30bd bff3 47bd 7505 32bc
00000030: f853 04bb 3b77 03bd f3db 49bd b8cd 51bc
00000040: 2619 24bd 17de b1bd 7c00 0ebd 37d8 e6bc
00000050: 0669 79bd 95cd 00bc 64ce 45bd 5fa7 00bd
00000060: a4ed 41bd 9090 c6bc 9be2 94bd 058d ddbc
00000070: 2b04 58bd a5be c1bc f817 77bd 5b37 debc
00000080: 53dc 95bc 2916 15bd bf46 09bd dca3 91bd
00000090: e8d0 fbbc 8e5e 0ebd b9c2 8abd 2557 c7bc
000000a0: 353b 7fbc 0c6a adbc 83fb 26bd 4d65 3f3c
000000b0: 44a7 42bd d15e 07bd d3f3 36bd a62a 3c3c
000000c0: fb23 77bd 8086 18bc f312 9fbd b206 07bb
000000d0: ee66 ddbc d3f0 093b 4cb9 49bd b035 5fbd
000000e0: b1cf 21bd 6d01 6fbd fa16 abbc 5585 1ebd
000000f0: 8e4c a9bc 070f 89bd 5a0d 8cba 6847 24bd
00000100: 3f94 e4bc f0ac 13bd a232 7cbd 96d5 03bd
00000110: c6e4 053c 4336 cbbc e900 55bd 3ee6 82bd
00000120: 3d92 f4bc 1fff b63b 82ca 7abd bdf5 4fbd
00000130: 250d 4dbd 5619 d0bc 3d28 03bc 6ed9 23bd
00000140: bcf8 33bd 9429 50bd 5e27 c0bc 3e19 fbba
00000150: 37e0 bcbc 230c 48bd 2820 97bd 8eaf 8fbc
00000160: 67aa 94bd 0f2f 24bd be7d 19bd f277 89bc
00000170: 966e 45bc e0fc 3fbd 7378 0ebd 7a6f 3fbc
00000180: d177 8ebc fa21 73bd 1c49 9bbd 5410 3cbc
00000190: f2d6 babd 5e74 d63b 17c2 7ebd b212 e6bc
000001a0: 2337 39bd 4d42 9dbd 62e0 90bc 4eab d2bc
000001b0: 607d 3fbc 9619 47bd 0b3b 4abd 2bda fbbc
000001c0: 248f 0cbd dc49 403c 3c2f 80bd dd37 50bd
000001d0: 8e71 9ebc c86f b0bd af9a 6fbd f3fe 4ebd
000001e0: 98da 86bd 4656 90bd 9d45 20bd c94b 1cbd
000001f0: f559 06bd 489a 41bd 6819 4dbc baac 08bc
00000200: fdf2 65bd 4f47 b3bc e788 fabc 2e87 14bd
00000210: f5c0 66bc 9e6a c2bc fa92 90bc be4c 8cbc
00000220: cffb 77bc e77b 16bd f2ef 52bc e99d 96bc
00000230: 4b0b d6bc 1a76 cdbb 6c44 86bd 00df 6fbd
00000240: 4c22 20bd ef8d 0dbd 4b56 35bd 8167 54bd
00000250: bb2f b2bc 82b4 debb f352 91bc 680a 4bbd
00000260: a4ce 2bbd bfce 82bd f198 96bc f24f d7bb
00000270: 29e4 a63c a09b a7bc b1f6 1cbd aaae 29bc
00000280: 350f dcbc 7a58 08bd d228 34bd c07f 0a3c
00000290: 0a92 97bd 898c 12bd 8d67 0dbd 3f29 863b
000002a0: 0100 8ebc 53cd e8bc 3a14 73bd c94f 6bbd
000002b0: f938 42bc 3564 86bd d892 eebc 0ba1 96bc
000002c0: c1c6 87bd 28bc afbd 924a 82bd d55f 80bc
000002d0: a985 58bc aa1b 1ebd 6ea4 cb3c ed8a eabc
000002e0: 3e88 40bd 2bd0 90bd 2f68 3ebd 6b85 63bd
000002f0: df95 5fbd e850 4abd ed4f 96bd c25f 73bd
00000300: 21eb 7dbd e284 a8bc 170f d0bc 0363 80bc
00000310: b31a 96bd e000 8bbc b3ce 96bc 5393 32bd
00000320: 23d5 4cbd 7c46 d8bc eb19 2dbd 526a 4bbd
00000330: 21ad a1bc bbaf be3a ce8a dbbc a9da 74bd
00000340: 65ae 9cbc e4b3 81bd e9d0 2dbc eee6 11bd
00000350: 2136 50bc 0848 06bd d09c c0bc 0293 d4bc
00000360: 5667 47bd 8e45 5dbd 7559 cebc b4c8 61bd
00000370: d6d1 e33b 3705 0ebd 1db7 3fbc 2ea3 09bd
00000380: 3192 b6bc 669d 00bd 9e03 54bb 7c0a c8bc
00000390: 29bf babc 1655 0abd 535d a8bd be5a 92bd
000003a0: af46 2fbd ab72 06bc 25ea 1abd bd0e 69bd
000003b0: 730f 10bd ae14 6e3b e557 d1bc 5350 01bd
000003c0: c5b7 3ebd 139b 22bb 68c9 47bd 967c 43bc
000003d0: 3803 22bd 014a aebd a4b1 ac3c a4bd b2bc
000003e0: 5911 7fbd 654b 57bc 4175 e8bc b496 1dbd
000003f0: decd 9ebc 912c 6abd 9994 46bd 3a0a 26bd
-0.025834322 -0.0061439914 -0.043084554 -0.020392234 -0.008722311 -0.0055878405 -0.00059171504 -0.037955973
-0.002059305 -0.043041028 -0.04881644 -0.010865559 -0.002019165 -0.03209613 -0.049282026 -0.012805395
-0.040063046 -0.086849384 -0.03466843 -0.028179271 -0.060891174 -0.007861515 -0.048292533 -0.031409618
-0.047345772 -0.024238855 -0.07269784 -0.027044782 -0.05273835 -0.023650477 -0.060325593 -0.027126005
-0.018293535 -0.036398087 -0.033514734 -0.07111332 -0.030739263 -0.034758143 -0.06775422 -0.024333546
-0.015578081 -0.021168731 -0.040767204 0.011681867 -0.0475228 -0.03304941 -0.044666123 0.011484778
-0.060337048 -0.009309411 -0.07767286 -0.0020603356 -0.02702662 0.0021048083 -0.04924898 -0.05449456
-0.03950471 -0.05835097 -0.02088498 -0.038701374 -0.020666387 -0.06692319 -0.0010685131 -0.04010716
-0.02790272 -0.036053598 -0.061571725 -0.032186113 0.00817222 -0.024806147 -0.05200282 -0.063915715
-0.029854888 0.005584612 -0.061228283 -0.050771464 -0.050061364 -0.025402706 -0.008005199 -0.04000228
-0.043938383 -0.050820902 -0.023456272 -0.0019157303 -0.023056133 -0.0488397 -0.0737918 -0.017539766
-0.07259064 -0.04008394 -0.037473433 -0.016780827 -0.0120502915 -0.04687202 -0.034782838 -0.011684293
-0.017391117 -0.059358574 -0.07582304 -0.011478502 -0.09123029 0.006544634 -0.062196817 -0.028085086
-0.045218598 -0.076786615 -0.017685119 -0.02571645 -0.011687607 -0.048608385 -0.049372714 -0.030743679
-0.034316197 0.011736359 -0.06259009 -0.050834525 -0.019341256 -0.086150706 -0.058497127 -0.050536107
-0.06584662 -0.07047705 -0.03912889 -0.03815821 -0.032800633 -0.047266275 -0.012518264 -0.0083419625
-0.056139935 -0.021884589 -0.030582858 -0.03626173 -0.0140840905 -0.02373248 -0.017648209 -0.017126437
-0.015135719 -0.036739256 -0.01287459 -0.018385844 -0.026128432 -0.0062701823 -0.06556019 -0.05856228
-0.039095208 -0.034559187 -0.04427175 -0.05185652 -0.021751275 -0.0067964206 -0.017739749 -0.04957047
-0.041945115 -0.0638709 -0.018383475 -0.0065708095 0.020372467 -0.02045995 -0.0383212 -0.010356585
-0.02686272 -0.033287503 -0.04398424 0.00845331 -0.074009016 -0.035778556 -0.03452258 0.0040942724
-0.017333986 -0.028418219 -0.05934546 -0.057449136 -0.011854404 -0.06562082 -0.029122755 -0.018387338
-0.06629706 -0.0858081 -0.063618794 -0.015670696 -0.013215461 -0.0386006 0.02485868 -0.028630698
-0.04700493 -0.07070955 -0.046486076 -0.05554716 -0.054586288 -0.049393564 -0.073394634 -0.059417494
-0.061991815 -0.020571176 -0.02539782 -0.015672212 -0.07329311 -0.01696819 -0.018409109 -0.04359753
-0.05000795 -0.026400797 -0.042261045 -0.04966194 -0.019735875 0.0014548221 -0.026799586 -0.059778843
-0.019126127 -0.063331395 -0.01060889 -0.035620622 -0.012708218 -0.032783538 -0.023512274 -0.025949005
-0.048682533 -0.05402141 -0.02518914 -0.055123046 0.0069525046 -0.034672942 -0.011701372 -0.033602886
-0.022286506 -0.031400107 -0.0032350789 -0.024419062 -0.02279623 -0.03377255 -0.08220925 -0.07146214
-0.04279202 -0.00820605 -0.037820954 -0.05689882 -0.035170984 0.0036328244 -0.025554607 -0.031570744
-0.046561975 -0.002481167 -0.04877606 -0.011931559 -0.03955385 -0.08510209 0.0210808 -0.021818943
-0.062272403 -0.013140534 -0.028376224 -0.0384738 -0.019385274 -0.057171408 -0.048481558 -0.040537097

action_model._continuous_distribution.log_sigma f4 [1, 2]
00000000: 39e7 e5bd 4bcd abbd
-0.11225743 -0.08388766

action_model._continuous_distribution.mu.weight f4 [2, 256]
00000000: 1c3b 3d3c 7fc8 5abc dc91 86bc 0cf1 123b
00000010: ca0d 263c e8ad 8d3b b574 063d 8a81 8cbd
00000020: b49a 8eba 3277 8ebb 1457 afba 9d0d 0cbc
00000030: 6e71 be3a 6026 e8bb 061f 03ba 318b 383c
00000040: f8ca 12bc 756f c4bb 6f10 993c 3d1c f83b
00000050: 21f1 e1bb 97a5 033b 5e2a 64bc cdcd 813c
00000060: b5ed cabc 5b13 eb3b 1955 71bc ad1a 8ebb
00000070: 3738 a13b 2327 9eba 1a7e 19bc 1a9e 663c
00000080: d7a5 e538 fbb0 88bb 3f6f 213b 6c46 d0bb
00000090: 3fd8 ec3c 8333 bfb9 fd9c 6fbc d361 a3bb
000000a0: 623f 013b 63a7 773b 2ee0 0a3c 53c4 99bb
000000b0: c71d 2a3c 0b36 1ebc cebb 10bb 14a9 b5bb
000000c0: c9d5 01bd 0db2 a13b b49d 9dbc f7bb 9fbb
000000d0: c325 503c 8e5d 52bc f1d3 4d3c 2ff2 22bd
000000e0: 4a13 483a 7d0f c13a 4db4 89bb 2f8d 893a
000000f0: a898 8a3c bb9b 15bc dcf4 203b e32b 893a
00000100: 8a3b c9b7 1928 e5bc 65de 97bc f6f5 363c
00000110: b571 a9bb 39f9 2c3b 2d02 91bc 7e5c 653c
00000120: 70b2 4f3c 56c1 a8bb e872 46bc e6d7 09bd
00000130: 585c 79bc 629d 46bb c3df 383c 9448 0abd
00000140: f86d 173c 0ad2 c4bc 6a3f ec3b 5bd4 f5bc
00000150: 4d8b 52bd 348a 80bc e2b5 dabc 5884 b5bb
00000160: ff4a 0dbd 69c4 a2bb b037 e7bc 22c5 01bc
00000170: 51b7 4dbb 7f81 063c ef04 57bb ea8a e13b
00000180: 1e28 abbc 46c0 1abc ffd4 25bb e211 f8ba
00000190: ea59 3fbc f0ce 17bb ad27 a1b9 12ed cebb
000001a0: 662e 1cbc 36a4 a8bb f5a8 60bb 6afd 153b
000001b0: 0661 a0bb 1e11 40bc a68e dabc 5afc 44bb
000001c0: 7cd8 d6ba fb98 37bc 943c c0bc 8379 06bb
000001d0: b676 debb cd06 9bbb 5626 c13b a3e0 563c
000001e0: 155e 1dbb 56ca 79bc ce26 f33b 9e49 fc3c
000001f0: c798 7b3a ee29 0bbd b3d6 823b 288a f93b
00000200: 6b22 28bd 36e3 d1bb c56b 7cbb 3a52 9dbb
00000210: f997 ca3b 07d2 45bc 0532 acba fe56 48bc
00000220: 5c6a 713a 2461 8b3c fc6e 3cba 7021 b53b
00000230: ed8b 65bb 356f 9dbb 53cc b1bc 82a6 c4bb
00000240: 55ae 1e3c d305 943c 3011 12bd 9a9f de3a
00000250: f29e c33c aa1c 24bc f50f 12bb b9bd f2bc
00000260: c23f cb3b aaeb a9ba feeb b9bb 809c a0bb
00000270: ca47 3c3a 7d62 353c bf9d 8cba c471 d8ba
00000280: c7f0 d13a be3a e93b 1f25 05bc b645 90b9
00000290: 4867 87bc 4f35 29bb 3e6d 33ba eeeb 8dbb
000002a0: cb98 47bb c4bc 21bd 99be 8bbc a2cc 74bb
000002b0: d15e 9b3b 7ebd 8cbc 8de9 263b 6c56 c3bb
000002c0: d349 e8bc d998 b4bc f846 25bb 0d52 3abc
000002d0: 13eb 05bb 58f8 2bbb 6281 12bb cfe8 b63c
000002e0: 784f 82bc 9459 d6bb 8d85 edbc e1c0 333b
000002f0: 22cc 6abb c491 b7ba 5632 67bc 7ef7 eabb
00000300: 8f52 8ebb 388c bd3b d828 95bb e6e2 213c
00000310: c314 83bc e6b1 703b 3f14 f8bb 4510 ec3c
00000320: 4adf 51bc db3f a2bc 597c 493c 7eb5 82bc
00000330: 24de fe3b 8199 b9bb 8c0e 36bb 9bf0 38bb
00000340: 7fd2 c5ba 9f4d f8bc 079e 13bc 2952 aebb
00000350: 7384 043c bfda 01bb fb83 3cbd 387f 4a3d
00000360: 710b 3cbb 1409 13bb b2d3 853b 0a55 94bb
00000370: fd58 d63b 73fd 7dbb 2ae5 49bb 6358 55bb
00000380: f124 a0bb 2a8e a23b c11f 9f3a d4c4 13bd
00000390: 476e d43b 3534 703b e13b 2ebb b651 fabb
000003a0: cec3 393b a88d c1bb f126 55bc 475a 15bd
000003b0: c02e f8bc b0f0 ffba 3458 a43b 3216 06bd
000003c0: 9792 7b3b 5bbe 0bbc 07cd 17bb 25db 2f3d
000003d0: f7f9 81bb 0e12 cfbc 4b76 673d 82ee 46bd
000003e0: 6e66 973c 61f1 c6ba efe1 88bb d974 99bc
000003f0: 78cd 9cbc a9b6 abbc 7718 ddbb 3804 a53b
0.011549737 -0.013353466 -0.016426973 0.0022421507 0.0101351235 0.0043237098 0.032826144 -0.06860645
-0.0010879845 -0.0043477053 -0.0013377392 -0.0085481675 0.0014529654 -0.007084653 -0.0005001876 0.011263655
-0.008959524 -0.005994732 0.018684594 0.0075717256 -0.0068952 0.0020087713 -0.013926117 0.015845204
-0.02477155 0.007173938 -0.0147297615 -0.004336676 0.0049200314 -0.0012066107 -0.009368444 0.01407578
0.00010950461 -0.0041714883 0.0024632958 -0.006356051 0.028911708 -0.00036468738 -0.014624831 -0.004986027
0.0019721617 0.003778898 0.0084763 -0.004692593 0.010383076 -0.00965644 -0.0022084597 -0.0055438373
-0.031698022 0.0049345554 -0.019240238 -0.004874702 0.012704316 -0.012839688 0.012562738 -0.039781746
0.0007632269 0.0014729347 -0.0042024017 0.0010494346 0.016918495 -0.009131367 0.002456001 0.001046535
-2.3988792e-05 -0.027973222 -0.018538663 0.01116704 -0.0051710256 0.0026393665 -0.017701233 0.013999103
0.01267682 -0.0051500006 -0.012112357 -0.033653162 -0.01521977 -0.003030621 0.011283818 -0.033760622
0.009242527 -0.024025936 0.007209708 -0.030008486 -0.05140238 -0.0156909 -0.026698057 -0.0055394582
-0.03449535 -0.0049672616 -0.028224796 -0.007920535 -0.0031389783 0.008209585 -0.0032809337 0.006883015
-0.020893153 -0.009445256 -0.0025303958 -0.0018926228 -0.011679152 -0.0023164116 -0.00030737874 -0.006314882
-0.009532547 -0.0051465286 -0.0034280394 0.0022886642 -0.0048943786 -0.011722831 -0.026679348 -0.003005764
-0.0016391422 -0.011205907 -0.023466386 -0.0020519204 -0.006789054 -0.0047310353 0.0058944626 0.013115081
-0.0024012376 -0.015245995 0.0074203974 0.030796822 0.0009597656 -0.033975534 0.0039928793 0.0076153465
-0.04104845 -0.0064052595 -0.0038516384 -0.004801062 0.0061826673 -0.012074 -0.0013137466 -0.012227772
0.0009209269 0.017014094 -0.0007188169 0.0055276677 -0.003502603 -0.0048045167 -0.021703875 -0.0060012946
0.009685119 0.018069183 -0.035660923 0.0016984821 0.023879502 -0.0100166 -0.0022287343 -0.029631482
0.006202669 -0.001296391 -0.0056738844 -0.0049014688 0.0007182328 0.011070845 -0.0010728164 -0.0016513397
0.0016017192 0.0071175983 -0.008126526 -0.0002751776 -0.01652874 -0.0025819128 -0.00068445865 -0.0043311035
-0.0030456062 -0.03948666 -0.017058657 -0.0037353416 0.0047415276 -0.0171802 0.0025468797 -0.00596123
-0.028355515 -0.02204554 -0.0025219303 -0.0113721015 -0.0020434305 -0.0026240554 -0.002235495 0.022327809
-0.015907034 -0.0065414403 -0.028994346 0.0027428197 -0.003582724 -0.0014005234 -0.014111122 -0.0071706166
-0.004343338 0.0057845376 -0.004551988 0.009880757 -0.01600111 0.003672713 -0.007570773 0.028816352
-0.012809584 -0.01980584 0.012297713 -0.015955683 0.007777946 -0.005664051 -0.0027779667 -0.0028219584
-0.001509264 -0.03031045 -0.009009845 -0.005319853 0.008088219 -0.001981422 -0.046024304 0.04943773
-0.0028693343 -0.002243583 0.004084074 -0.004526739 0.00654137 -0.0038755804 -0.0030806758 -0.0032553903
-0.0048872163 0.004960795 0.0012140201 -0.03607638 0.0064828726 0.0036652212 -0.0026585984 -0.0076391352
0.0028345468 -0.0059067793 -0.013009773 -0.03646305 -0.03029573 -0.0019526687 0.0050153974 -0.03273601
0.0038386935 -0.008529271 -0.0023162977 0.042933602 -0.0039665657 -0.025277164 0.056509297 -0.048567303
0.01848146 -0.0015178138 -0.004177324 -0.018732475 -0.019140944 -0.020961123 -0.006747301 0.0050359033

action_model._continuous_distribution.mu.bias f4 [2]
00000000: 1e8f 233d f86c e03b
0.03993141 0.0068489276

66 f4 [20]
00000000: a2e2 ce3c e1e6 b43e ac69 853a c5c6 e03d
00000010: a67f f43e de04 e43e 9a0b 1d3d 3a46 c93d
00000020: e33e ff3e 4d7c f63e ac69 853a f09b d33d
00000030: 83ee e33e 5ffb c23e 80d2 1a3d 8584 ce3d
00000040: 52a9 f93e 0ace eb3e a528 153b 05d8 cf3d
0.025254551 0.35332397 0.0010178587 0.10975412 0.47753638 0.44534963 0.038341142 0.09827848
0.49852666 0.4814171 0.0010178587 0.10332477 0.44517908 0.38082406 0.037798405 0.1008387
0.48761994 0.46055633 0.0022759822 0.10148624

69 f4 [12]
00000000: a2e2 ce3c e1e6 b43e ac69 853a b401 b43c
00000010: da92 ac3e c5bd e33e ac69 853a 1b29 a33c
00000020: 94a8 ab3c 55e3 b43e ac69 853a 2f47 b43c
0.025254551 0.35332397 0.0010178587 0.021973468 0.3370579 0.4448072 0.0010178587 0.019917062
0.020954408 0.3532969 0.0010178587 0.0220066

72 f4 [3]
00000000: c6d8 b53d b158 d53a 136b a43e
0.08879237 0.0016277042 0.3211294
