results/firstry/KartAgent/KartAgent-60715.onnx (onnx, 305043 bytes, 13 tensors)

network_body.observation_encoder.processors.0.normalizer.running_mean f4 [20]
0	0x00000000	0.0
1	0x3f60f6a2	0.8787633
2	0x00000000	0.0
3	0x3e2374d2	0.15962532
4	0x3f4100e7	0.75392
5	0x3e33477d	0.1750774
6	0x3c0ab37c	0.008465644
7	0x3def9756	0.11698787
8	0x3f1a6609	0.60311943
9	0x3ea4b975	0.32172742
10	0x00000000	0.0
11	0x3e418ded	0.18901797
12	0x3f3f6497	0.7476286
13	0x3e2e9737	0.17049871
14	0x3c1900c3	0.0093385605
15	0x3dee5616	0.11637513
16	0x3f1aeacd	0.6051453
17	0x3eaaa4e9	0.3332894
18	0x00000000	0.0
19	0x3e3efaa0	0.18650293

network_body.observation_encoder.processors.1.normalizer.running_mean f4 [12]
0	0x00000000	0.0
1	0x3f60f6a2	0.8787633
2	0x00000000	0.0
3	0x3d02c3dc	0.031925067
4	0x3e2c61a0	0.16834116
5	0x3f399a91	0.72501475
6	0x00000000	0.0
7	0x3cec690e	0.028858688
8	0x00000000	0.0
9	0x3f611a41	0.87930685
10	0x00000000	0.0
11	0x3d03079c	0.03198968

network_body.observation_encoder.processors.2.normalizer.running_mean f4 [3]
0	0xbd1007d4	-0.035163715
1	0x3d4b1daa	0.049588837
2	0x3e5c8544	0.21535212

network_body._body_endoder.seq_layers.0.weight f4 [256, 35]
0	0x3e753282	0.23945048
1	0x3e9325a9	0.2873967
2	0x3e4d32db	0.20038931
3	0xbe57596a	-0.21030203
4	0xbe68a212	-0.22718075
5	0xbdbb31c4	-0.091403514
6	0x3e63c3fe	0.22242734
7	0x3da89148	0.08230835
8	0x3e2b0b4a	0.16703525
9	0x3da24578	0.07923406
10	0xbe69c1eb	-0.2282788
11	0xbd51033d	-0.05102848
12	0xbceefca7	-0.029173208
13	0x3e04aced	0.12956591
14	0x3e70f9d8	0.23532808
15	0x3cf63a0a	0.030056972
16	0xbe15356f	-0.14571165
17	0x3cb8b509	0.022547262
18	0x3e6dff4d	0.23241921
19	0x3d222573	0.039586496
20	0xbea460f7	-0.32105228
21	0xbd985271	-0.074375995
22	0x3ea3e38b	0.3200954
23	0x3d4b9ad8	0.049708217
24	0xbe164050	-0.14672971
25	0x3d0d7034	0.034530833
26	0xbddc4264	-0.107548505
27	0xbe8ca77b	-0.27471527
28	0xbdb5ac4a	-0.08870752
29	0x3d4b21ae	0.049592666
30	0x3e192e5d	0.14959092
31	0xbdab08a0	-0.083512545
32	0xbd65425d	-0.055971492
33	0xbd62787a	-0.055290677
34	0xbe5d0833	-0.21585159
35	0xbcbbd6b5	-0.022929529
36	0x3e0d35fb	0.13790123
37	0x3bfb6cd8	0.0076728873
38	0x3cad4cf7	0.021154864
39	0x3e729b2b	0.23692004
40	0xbd13c624	-0.036077634
41	0xbdd1fad7	-0.10252922
42	0xbe0f90f9	-0.14020146
43	0xbe620629	-0.22072662
44	0x3d6fda6e	0.05855792
45	0x3d30f9c3	0.04320694
46	0x3e950eb8	0.29112792
47	0xbe469f97	-0.19396816
48	0xbd78d32b	-0.06074826
49	0xbd1b0f11	-0.037856165
50	0xbb97900f	-0.0046253274
51	0xbe8b3900	-0.27191925
52	0x3dbfdfcc	0.09368858
53	0x3dea3a97	0.114369564
54	0x3e21ef9f	0.15814064
55	0xbe0467cb	-0.12930219
56	0x3e2dff35	0.16991885
57	0xbdb79662	-0.0896423
58	0x3e09408e	0.13403532
59	0x3c832707	0.01600982
60	0x3d426e73	0.047468614
61	0x3e196037	0.1497811
62	0x3e39be28	0.18138945
63	0xbd993d51	-0.07482398
64	0xbec6e456	-0.38846081
65	0x3e136b9a	0.14396515
66	0x3b5138fd	0.0031924837
67	0xbd553907	-0.05205634
68	0x3e341f2c	0.17590016
69	0x3ca84440	0.020540357
70	0x3e8462ab	0.25856528
71	0x3e5302ff	0.20606612
72	0x3c1184df	0.008881777
73	0xbcacde8f	-0.021102218
74	0xbeaaf69f	-0.33391282
75	0x3d68e0ae	0.056854896
76	0xbe1452eb	-0.14484756
77	0x3dae4b84	0.08510497
78	0xbd80bf4b	-0.06286486
79	0xbd783c45	-0.060604353
80	0x3e8d7710	0.276299
81	0xbe99e4c6	-0.30057353
82	0xbdde3680	-0.10850239
83	0x3c5a4203	0.0133214025
84	0x3d53a29b	0.051668745
85	0xbd30a8ed	-0.04312985
86	0x3e062fe5	0.13104208
87	0x3e44ba4c	0.19211692
88	0xbb9b0353	-0.004730621
89	0xbdbe1e6a	-0.09283145
90	0xbe5257c4	-0.20541292
91	0xbe062c5f	-0.13102864
92	0xbe5422f3	-0.20716457
93	0x3d2f62f3	0.042818975
94	0x3db47a8e	0.08812438
95	0xbd07df7c	-0.033172116
96	0xbcbdaa6c	-0.023152553
97	0xbdbde184	-0.09271529
98	0x3d41b19b	0.04728852
99	0x3de9fe7c	0.11425492
100	0xbe7ac512	-0.24489239
101	0xbc8ba8fd	-0.017048353
102	0x3d72ba91	0.059259955
103	0x3e77409b	0.24145739
104	0xbe4ed816	-0.20199618
105	0x3e0000fc	0.12500376
106	0x3eb2ce89	0.349232
107	0x3f027739	0.5096317
108	0xbe3521c6	-0.17688665
109	0x3e6c2075	0.23059256
110	0xbe024d37	-0.12724768
111	0x3dae7fab	0.085204445
112	0xbe319c25	-0.1734472
113	0x3d8e7413	0.06955733
114	0xbe4892c8	-0.19587243
115	0x3e05c12a	0.13061967
116	0x3dbf3be1	0.09337593
117	0xbd45aa52	-0.048258133
118	0xbd93d371	-0.072180636
119	0x3e23ddd7	0.16002594
120	0x3ed478fa	0.41498548
121	0x3e13e4b0	0.14442706
122	0xbe6324d1	-0.22182013
123	0x3e97e644	0.29667866
124	0xbd2c4871	-0.042061273
125	0x3e09e1ae	0.13464996
126	0xbe0144ee	-0.12623951
127	0xbd5464a9	-0.05185381
128	0x3ccdb7aa	0.025111992
129	0xbdbc5c1b	-0.09197255
130	0xbda8f06f	-0.08248984
131	0xbe5b6a04	-0.2142716
132	0x3d3ea562	0.04654444
133	0x3d1f1986	0.0388427
134	0x3e0628de	0.13101527
135	0x3e725a7e	0.23667333
136	0x3d80a0b2	0.0628065
137	0x3ea8b796	0.32952565
138	0x3ee0ee4c	0.43931806
139	0x3e359b81	0.17735101
140	0x3c7e8d3c	0.015536603
141	0x3d14c79b	0.03632317
142	0xbe79e685	-0.24404342
143	0x3d3f4f2a	0.046706356
144	0x3d6b17ea	0.057395853
145	0xbd19950e	-0.037495665
146	0xbc8123e0	-0.015764177
147	0x3d80118f	0.06253349
148	0xbe90fec0	-0.2831936
149	0x3dd72c6d	0.105065204
150	0xbc847b83	-0.016172176
151	0x3e563267	0.20917664
152	0x3db57a92	0.08861269
153	0x3e68bf97	0.22729336
154	0x3e2ff1b8	0.17182052
155	0x3e14a2a4	0.14515167
156	0xbcba36cb	-0.022731205
157	0xbce18753	-0.027530348
158	0x3d8b0de3	0.06789758
159	0x3eb02762	0.34405047
160	0xbdcc0ea4	-0.0996373
161	0x3dd21b71	0.1025914
162	0xbe8f87f6	-0.28033417
163	0xbe0ef56e	-0.13960811
164	0xbdb3a5f3	-0.08771887
165	0x3dac020b	0.08398827
166	0x3e2a38f3	0.16623287
167	0xbe0da27d	-0.13831516
168	0x3cd1d4e9	0.025614219
169	0x3d9f40c1	0.07776023
170	0x3d1d319c	0.03837739
171	0x3def967c	0.116986245
172	0xbe209b84	-0.15684325
173	0x3dda83d0	0.106696725
174	0x3e0ce3d7	0.13758789
175	0xbe373a1a	-0.17893258
176	0x3da71ecb	0.0816017
177	0x3d8b64d7	0.06806343
178	0x3dab3b40	0.083609104
179	0xbd2b26a3	-0.041784894
180	0x3e75efe4	0.24017292
181	0x3ecec63d	0.4038562
182	0xbe65d0bb	-0.22442906
183	0xbe745117	-0.23859058
184	0x3d837004	0.0641785
185	0x3ddc3dcf	0.107539766
186	0xbe18235f	-0.14857243
187	0x3c8e2f4e	0.017356541
188	0xbe2ada38	-0.16684806
189	0xbec5ee96	-0.3865859
190	0x3e8f9d33	0.2804962
191	0xbd338f78	-0.043837994
192	0x3d612438	0.05496618
193	0xbdabdc7e	-0.08391665
194	0x3d039bff	0.03213119
195	0x3d92ddb2	0.07171191
196	0x3e15270c	0.14565676
197	0x3e4ed258	0.20197427
198	0x3de16ff5	0.11007682
199	0xbe60d2ff	-0.21955489
200	0xbd73ae31	-0.059492294
201	0x3da46065	0.08026198
202	0xbbe3a82c	-0.006947538
203	0xbe2947d5	-0.16531308
204	0x3ea06f87	0.3133509
205	0xbdb8bdf8	-0.09020609
206	0xbe327cfc	-0.1743049
207	0x3e26b9c2	0.16281798
208	0x3e873e25	0.264146
209	0x3e5bca22	0.21463826
210	0x3bb4f5d0	0.005522467
211	0x3e4dcf52	0.20098618
212	0xbdf92a69	-0.12166292
213	0xbeb0d64d	-0.345385
214	0xbd722e65	-0.059126277
215	0xbe5994f0	-0.21248221
216	0xbe28acbd	-0.16472144
217	0xbdfbd18f	-0.122958295
218	0xbd674b8d	-0.056468535
219	0x3b5971ef	0.0033179482
220	0xbe60cb7a	-0.2195262
221	0xbd1b53da	-0.037921764
222	0x3d193b5a	0.037410118
223	0x3c5795a5	0.013158237
224	0x3e190a36	0.14945301
225	0xbdb14749	-0.08656175
226	0x3cf54c9c	0.029943757
227	0x3dbffa49	0.0937391
228	0x3dce4a34	0.10072747
229	0xbe880cb0	-0.2657218
230	0xbeb264c4	-0.34842503
231	0xbdf65c42	-0.120293155
232	0xbdc98db3	-0.0984148
233	0xbd85eaa0	-0.06538892
234	0x3b1ae51c	0.0023635095
235	0x3e22dc80	0.15904427
236	0xbcfec053	-0.031097567
237	0x3e84650b	0.2585834
238	0x3db1ce55	0.08681933
239	0x3d8f18dd	0.06987164
240	0xbddb90a3	-0.10720947
241	0x3dd0d6d8	0.10197228
242	0xbe6f3c6a	-0.2336289
243	0x3e5b7f75	0.2143534
244	0x3e3cf2e2	0.18452027
245	0xbe78d1f9	-0.24298848
246	0x3e442ae2	0.19156983
247	0xbdc38418	-0.09546679
248	0xbea70b60	-0.32625866
249	0xbdc40fd6	-0.09573333
250	0xbe91e9d8	-0.2849872
251	0xbeb4023e	-0.3515796
252	0x3d2ab459	0.0416759
253	0x3ebb47ea	0.36578304
254	0x3e726a70	0.23673415
255	0x3e2961c7	0.16541205

network_body._body_endoder.seq_layers.0.bias f4 [256]
0	0x3abf7505	0.0014607018
1	0x3a055296	0.00050858536
2	0xbcc642c0	-0.02420175
3	0xbb788065	-0.0037918326
4	0xbc669450	-0.014073446
5	0x3b31ba16	0.0027118973
6	0xbc6a5180	-0.014301658
7	0xbbe8b636	-0.0071017994
8	0xbc48f977	-0.012266508
9	0xbbfe96dd	-0.007769449
10	0xbb8ea950	-0.0043536797
11	0xbb547dc6	-0.00324236
12	0xbb6bbd34	-0.0035970928
13	0xbc4ce4b6	-0.012505701
14	0xbc3104b2	-0.010804342
15	0xbc00836f	-0.007843836
16	0xba92b43c	-0.001119263
17	0xbc502250	-0.012703493
18	0xbc71accb	-0.01475067
19	0xbc8b8efc	-0.017035954
20	0xbbf1b2e3	-0.0073760613
21	0xbbfb2618	-0.0076644532
22	0xbc39d1a6	-0.011341488
23	0xbc2cd5db	-0.010549034
24	0x39ac06a9	0.0003281136
25	0x38dbbfa8	0.000104784325
26	0xbc369585	-0.011144047
27	0xbab5810f	-0.0013847667
28	0xbc00aafc	-0.007853266
29	0xbcc12edf	-0.02358192
30	0xbc93e364	-0.018052764
31	0xbc7231d0	-0.014782384
32	0xbb9b8ced	-0.0047470243
33	0xbc13660e	-0.0089965
34	0xbbc0f7e7	-0.0058889273
35	0xbc16a692	-0.009194987
36	0xbcaecc17	-0.021337552
37	0xbb4301f1	-0.0029755796
38	0xbc5228da	-0.012827123
39	0xbca3efa3	-0.020011729
40	0xbbe6a70e	-0.0070389574
41	0xbc1b0c57	-0.009463391
42	0xbbc4685f	-0.0059938873
43	0xbc468e33	-0.012118864
44	0xbc08daad	-0.008352918
45	0xbaf30972	-0.0018542244
46	0xbb563340	-0.0032684356
47	0x3c00e83a	0.007867867
48	0xbc417e33	-0.011809873
49	0xbc5dbfe3	-0.013534519
50	0xbc3df35b	-0.011593665
51	0x3c683c45	0.014174526
52	0xba7136ac	-0.0009201567
53	0xbad76ed7	-0.0016436231
54	0x3ac62bac	0.0015119216
55	0xbc5d8c4e	-0.013522221
56	0xbc9a3a74	-0.0188267
57	0xbc61c44d	-0.013779712
58	0xbc3ab86b	-0.011396508
59	0x3a4e0e8a	0.0007860443
60	0xbc137f9e	-0.009002594
61	0xbbdc5124	-0.00672354
62	0xbcb009f7	-0.021489127
63	0xbae8ad52	-0.0017751849
64	0xbbb17c65	-0.0054164403
65	0xbb6f3f17	-0.003650611
66	0xbbe189dd	-0.0068828897
67	0xbc02dd06	-0.007987266
68	0x3ae500a6	0.0017471507
69	0x3ad9e8be	0.0016625149
70	0xbbc3d69b	-0.0059765107
71	0xbc5ab1db	-0.013348068
72	0xbb4743c2	-0.0030405377
73	0xbc8ea36a	-0.017411906
74	0x3c0aa6eb	0.008462648
75	0x3b94c845	0.0045404756
76	0xbc34c947	-0.011034316
77	0xbb8101cf	-0.003936983
78	0xbb8e808a	-0.004348819
79	0xbc23b088	-0.009990819
80	0xbc7b3fbb	-0.015335019
81	0xba21b164	-0.0006168096
82	0xbc862e60	-0.016379535
83	0xbc2c800e	-0.0105285775
84	0x3a2d86e9	0.00066195294
85	0xbaddea0a	-0.0016930711
86	0xbb4af901	-0.0030971172
87	0xbbb80d05	-0.0056167864
88	0xbabbf2f4	-0.0014339373
89	0xbbf929ea	-0.0076038735
90	0x3baadb2c	0.0052141156
91	0xbc6f4dbe	-0.0146059375
92	0xbc2e6794	-0.010644812
93	0x3bf725ad	0.007542333
94	0x3b4921d0	0.003069032
95	0xbbb83a18	-0.0056221597
96	0xbc407f8f	-0.011749162
97	0xbcba46a7	-0.022738768
98	0xbca6f166	-0.02037878
99	0xbc3f662b	-0.011682074
100	0xbc24c443	-0.010056558
101	0x3b7ebe60	0.0038870797
102	0xba814114	-0.0009861314
103	0xbc54de77	-0.012992493
104	0xbc82ba39	-0.015957939
105	0xbbfa2f85	-0.0076350593
106	0xbc6f58ec	-0.014608603
107	0xbb6e7601	-0.0036386254
108	0x395de2ee	0.0002116074
109	0xbbd6fb86	-0.0065607456
110	0xbc01363e	-0.0078864675
111	0xbb11dea2	-0.0022257944
112	0xbc2c61f1	-0.010521398
113	0xbc83eb7f	-0.016103504
114	0x3b15f57c	0.0022881916
115	0xba089d5a	-0.00052114355
116	0xbc554f66	-0.013019418
117	0xbc6482ee	-0.013947232
118	0xbc580fcb	-0.013187359
119	0xbc7446e1	-0.014909477
120	0xbbdfd3bf	-0.006830662
121	0xbc1a9970	-0.009435996
122	0x392b1e02	0.0001631901
123	0xbc2bab38	-0.010477833
124	0xbc2d5456	-0.010579189
125	0xbcc1d2ff	-0.023660181
126	0x3b5f8b26	0.0034110039
127	0xbc478811	-0.012178437
128	0xbc6a7e2d	-0.014312309
129	0xb9fed644	-0.00048606296
130	0x3bdafc1c	0.006682886
131	0xbaa787b6	-0.0012781534
132	0xbcce603d	-0.025192374
133	0xbc63aa30	-0.013895556
134	0xbbd836b0	-0.006598316
135	0xbcbf79fe	-0.0233736
136	0xbc24925a	-0.010044659
137	0xbc1dcda1	-0.009631545
138	0xbb34a912	-0.0027566594
139	0xbbb3bc6d	-0.0054851086
140	0xbb245f60	-0.0025081262
141	0xbc79c0cd	-0.015243721
142	0xbc2d0ed1	-0.010562615
143	0xbc7499bc	-0.014929231
144	0x3c288904	0.010286573
145	0xbc277db6	-0.010222843
146	0xbbcaf7ca	-0.0061940895
147	0xbbd63787	-0.006537381
148	0xbc810384	-0.015748747
149	0x3ae66ed2	0.0017580634
150	0xbc1b3af1	-0.009474502
151	0xbba478ac	-0.005019268
152	0xbc844279	-0.016144978
153	0xbc62e840	-0.013849318
154	0xbc4c1d99	-0.0124582285
155	0x3a2cb784	0.0006588625
156	0xbb3e59eb	-0.0029045295
157	0x3c3a5ec9	0.011375138
158	0xbbb67795	-0.0055684545
159	0xbb843205	-0.004034283
160	0x395937d2	0.00020715527
161	0xbc729f0a	-0.014808426
162	0xbc8adafd	-0.016950125
163	0xbbf53f20	-0.0074843317
164	0xbc041b2c	-0.008063119
165	0xbb9d1bc2	-0.0047945688
166	0xbc47bf95	-0.012191673
167	0x3b9197b4	0.0044431332
168	0x3abcd40e	0.0014406459
169	0xbc7348d8	-0.01484891
170	0xbb3f1f24	-0.0029162848
171	0x3b12023f	0.002227917
172	0xbc332faa	-0.010936657
173	0xba6fb956	-0.00091447437
174	0xbcebe6f6	-0.028796654
175	0xbbdb316b	-0.0066892407
176	0xbc44886c	-0.011995416
177	0x3b89e563	0.004208253
178	0xbb8ddfac	-0.0043296423
179	0xbb7ee38e	-0.0038892957
180	0xbb2a5fa0	-0.0025996938
181	0x3a636654	0.0008674611
182	0xbc1d8919	-0.009615206
183	0xbc45863a	-0.012055928
184	0xbbb9efc6	-0.005674335
185	0x3901ab96	0.0001236632
186	0xbc5296af	-0.012853309
187	0xbb979b80	-0.0046266913
188	0xbaaa1726	-0.001297687
189	0xbae3926d	-0.0017362364
190	0xbc50e9d7	-0.012751064
191	0xbada45e7	-0.0016652913
192	0x3ac70bef	0.0015186052
193	0xbc19077c	-0.009340163
194	0xbbc8b86a	-0.0061254995
195	0x3ab5ed15	0.001387986
196	0xbb9a81bb	-0.004715172
197	0xbbb62219	-0.005558264
198	0xbc8a254d	-0.01686349
199	0xbb54c68d	-0.0032466978
200	0xbc718a18	-0.014742397
201	0xbbc163a5	-0.005901771
202	0xbc6c090b	-0.014406453
203	0xbacd5539	-0.0015665657
204	0xbb1e47b8	-0.0024151634
205	0xbc5a77b4	-0.0133342035
206	0xb9f0687c	-0.00045854214
207	0xbcc31b4c	-0.023816727
208	0x3b8643e7	0.00409745
209	0xbc9ac1d5	-0.018891254
210	0xbbc3be7a	-0.0059736343
211	0xbc36cdef	-0.011157497
212	0xbc9022d2	-0.017594729
213	0xba03a606	-0.0005021993
214	0xbc05f977	-0.008177153
215	0xbbd6d0ac	-0.0065556373
216	0xbcb8ea55	-0.022572676
217	0xbc90a0a0	-0.017654717
218	0xbc8596d5	-0.016307274
219	0xbb3b7aad	-0.0028607056
220	0xbac09dff	-0.0014695524
221	0x3a97cb70	0.0011581015
222	0xbc01b281	-0.007916094
223	0x3bbe8840	0.005814582
224	0x3a8f34dd	0.0010925789
225	0xbbc17ef2	-0.0059050256
226	0xbbc4c3a8	-0.0060047694
227	0x3bd433ae	0.0064758873
228	0xbc5269ad	-0.012842578
229	0xbc736895	-0.014856477
230	0xbbcd7087	-0.006269518
231	0x3b9578a5	0.004561501
232	0xbc147fbf	-0.00906366
233	0xbbd93be5	-0.0066294544
234	0x392d6586	0.00016536386
235	0xbb681253	-0.0035411313
236	0xbc55439e	-0.0130166095
237	0xbc4a966a	-0.012364963
238	0xbc1a7400	-0.009427071
239	0xba277fa4	-0.00063895644
240	0x3bccddb5	0.0062520155
241	0xbc2286ee	-0.009919865
242	0xbc14d085	-0.009082918
243	0xbb543a6e	-0.003238346
244	0xba0c00fa	-0.00053407217
245	0xbc25bb7d	-0.0101155015
246	0xbc080847	-0.008302755
247	0xbb390288	-0.0028230269
248	0xbbbdf850	-0.0057974234
249	0xbbb8703a	-0.005628613
250	0xbc691d55	-0.014228185
251	0x3abdfde3	0.001449522
252	0xbbf2658f	-0.0073973606
253	0xba3f87f1	-0.00073063286
254	0xbb8a835f	-0.0042270864
255	0xbc88d5d2	-0.01670352

network_body._body_endoder.seq_layers.2.weight f4 [256, 256]
0	0x3db76af6	0.08955948
1	0x3da3f892	0.080063954
2	0x3da3f663	0.08005979
3	0x3d41a2c1	0.047274355
4	0x3d83eeb1	0.06442011
5	0xbbfec2ab	-0.007774671
6	0x3bfdf5ac	0.0077502336
7	0x3dbddf50	0.09271109
8	0xbc983151	-0.018578203
9	0x3c75d8cc	0.015005302
10	0x3c4a0f2e	0.012332721
11	0x3d84d040	0.06485033
12	0x3be8976c	0.007098129
13	0x3e44b050	0.19207883
14	0x3e08faf3	0.1337698
15	0xbdb6edea	-0.08932097
16	0x3dbd6ef7	0.092496805
17	0xbdb4ec83	-0.088341735
18	0x3d18426a	0.037172712
19	0xbcf8e78a	-0.030383844
20	0x3b88380f	0.0041570733
21	0xbc8467bb	-0.016162744
22	0xbd994eb5	-0.07485715
23	0x3de5d9c7	0.11223178
24	0xbc75ca68	-0.015001871
25	0x3d9df1e1	0.0771215
26	0xbd244a50	-0.040109932
27	0x3cb63016	0.022239726
28	0x3d78d6e7	0.06075182
29	0xbd677af9	-0.05651376
30	0x3d894544	0.067026645
31	0x3d373ed4	0.044737652
32	0xbc4ec8a8	-0.012621082
33	0xbcf16bc8	-0.02947034
34	0x3da70b0e	0.081564054
35	0xbc920cbc	-0.017828338
36	0xbd19ecad	-0.037579227
37	0xbbce16fa	-0.00628936
38	0x3c4d143f	0.012517034
39	0xbd1c2d49	-0.038129125
40	0xbe00c058	-0.12573373
41	0xbd1d31be	-0.038377516
42	0xbc7b23e8	-0.015328385
43	0x3d9172d0	0.07101977
44	0xbd7dd02e	-0.061966114
45	0x3d77ede7	0.060529616
46	0x3cc93b06	0.024564277
47	0xbc76ab78	-0.01505553
48	0xbde12f74	-0.10995379
49	0x3d92e5e7	0.07172757
50	0xbc74349f	-0.014905124
51	0xbba9dd6c	-0.0051838662
52	0xbdab1346	-0.083532855
53	0x3c189b33	0.009314346
54	0xbd5dcd66	-0.05415096
55	0x3cf9690f	0.030445604
56	0xbc5f4abd	-0.013628659
57	0x3c45615a	0.012047136
58	0xbe0ebd47	-0.13939391
59	0xbd24fbaa	-0.040279068
60	0x3d2f5b0a	0.04281143
61	0x3c1f6097	0.009727619
62	0x3d86f19d	0.06589053
63	0x3de4204f	0.11138975
64	0xbc0bf60b	-0.008542548
65	0xbd9b472f	-0.075819366
66	0x3d289cf9	0.041165326
67	0xbbb5eae6	-0.0055516837
68	0x3d028714	0.0318671
69	0xbd88c77c	-0.066786736
70	0xbca4b5a6	-0.020106148
71	0x3c68443f	0.014176427
72	0x3d200964	0.039071456
73	0x3ccd5d5e	0.025068935
74	0x3d4693e7	0.048480894
75	0xbd9d3d7f	-0.07677745
76	0x3e3bf556	0.18355307
77	0x3d056b4d	0.032573033
78	0xbda84e41	-0.08218051
79	0x3da019f8	0.07817453
80	0x3ce1204e	0.027481224
81	0xbd3fa062	-0.046783812
82	0xbe02edc0	-0.12786007
83	0xbc1872b3	-0.00930469
84	0x3c91e995	0.017811576
85	0xbabf92e0	-0.0014615916
86	0x3d049cfd	0.03237628
87	0xbc284892	-0.010271208
88	0x3d614e70	0.055006444
89	0x3c268973	0.010164606
90	0xbdbb1298	-0.09134406
91	0xbcdb4771	-0.026767464
92	0xbd6c1114	-0.057633474
93	0xbd53e475	-0.051731545
94	0xbd486f7b	-0.04893444
95	0x3d7dd7a0	0.061973214
96	0x3dc25eff	0.09490775
97	0x3db48991	0.08815301
98	0x3d294046	0.04132106
99	0xbb827df0	-0.003982298
100	0x3d41fa6b	0.047357958
101	0x3d2e5791	0.04256398
102	0x3d1a24be	0.037632696
103	0xbd776a2c	-0.060403988
104	0x3c08f6a6	0.008359587
105	0xbd0129bf	-0.031533953
106	0x3da8ead6	0.082479164
107	0xbd6581ee	-0.056032114
108	0x3d365b41	0.04452062
109	0xbd3e744d	-0.04649763
110	0xbdc26e99	-0.09493751
111	0x3bdf13a6	0.006807762
112	0xbd494a0a	-0.049142875
113	0xbd3fa96a	-0.046792425
114	0xbd3f5845	-0.04671504
115	0x3b4b0146	0.00309761
116	0x3dabd792	0.08390726
117	0xbc040e05	-0.008059983
118	0xbc224986	-0.009905225
119	0xbdf7d459	-0.12101049
120	0xbc89fe58	-0.016844913
121	0xbd2ea8e1	-0.042641524
122	0xbc32772c	-0.010892671
123	0x3b5ad8e5	0.003339344
124	0xbc79178b	-0.015203367
125	0xbd7966de	-0.060889117
126	0xbd420bfa	-0.047374703
127	0xbd7e788c	-0.06212668
128	0x3b2149eb	0.002461071
129	0xbd2bff1a	-0.04199133
130	0x3e1da51d	0.15395017
131	0x3bf2d8fa	0.0074111195
132	0xbcc8abef	-0.024496047
133	0x3c294fb2	0.010333942
134	0xba011d36	-0.0004925312
135	0xbcc779d0	-0.024350077
136	0x3ce85c59	0.028364347
137	0xbcbb31f5	-0.02285097
138	0xbd6c79d7	-0.057733383
139	0x3cb1aff1	0.02169034
140	0xbc7675ab	-0.015042703
141	0xbbea2914	-0.00714601
142	0x3d000e74	0.031263784
143	0x3ddd23a3	0.10797813
144	0xbd872022	-0.06597926
145	0x3d0f5104	0.034989372
146	0xbd1565e4	-0.036474124
147	0x3d8d155c	0.068888396
148	0xba10723d	-0.0005510187
149	0xbdc3422d	-0.095341064
150	0xbd4e6514	-0.050389364
151	0x3cd3b403	0.025842672
152	0x3d0f3b85	0.03496887
153	0x3ce1e829	0.027576523
154	0x3db0aa82	0.08626272
155	0x3df1d972	0.118090525
156	0xbc13bfab	-0.009017865
157	0x3dc7a335	0.09747926
158	0xbd6d6679	-0.057959054
159	0xbd868cf0	-0.065698504
160	0xbb9a60ff	-0.00471127
161	0x3b9ccd4b	0.004785215
162	0x3cbdf6be	0.023188945
163	0x3d9190a6	0.071076676
164	0xbdb638ed	-0.088975765
165	0xbdbb2a0b	-0.091388784
166	0x3a63fabe	0.0008696726
167	0x3d51e215	0.051241
168	0x3defef02	0.11715509
169	0xbc523c67	-0.012831784
170	0x3d0aa2a5	0.033846516
171	0xbd6dbacf	-0.058039483
172	0xbd0c3153	-0.034226727
173	0xbc0e12eb	-0.008671503
174	0xbdcb6273	-0.09930887
175	0xbdbde456	-0.09272067
176	0xbdc8c2a7	-0.09802752
177	0xbd6a43fe	-0.05719375
178	0x3d7ca80d	0.061683703
179	0xbda8920f	-0.082309835
180	0xbc4a9371	-0.012364254
181	0xbda0806f	-0.07836997
182	0x3c4b6221	0.0124135325
183	0xbd899a17	-0.067188434
184	0x3a6abb72	0.0008954323
185	0x3b9c95fb	0.0047786213
186	0xbb681eb3	-0.0035418689
187	0xbd50f69c	-0.051016435
188	0xbcd711db	-0.026253631
189	0x3d21cf07	0.039504077
190	0xbdfc894c	-0.12330875
191	0x3d17adb7	0.0370309
192	0xbc9c2f5a	-0.019065548
193	0x3d8c779d	0.06858752
194	0x3be9edd9	0.0071389494
195	0x3a8c6b7e	0.0010713188
196	0xbcc908a1	-0.024540247
197	0xbd837472	-0.064186946
198	0xbd7aa18e	-0.061189227
199	0xbb5d4e92	-0.0033768755
200	0x3e366856	0.17813239
201	0x3c4fde7a	0.01268732
202	0xbd742d31	-0.05961341
203	0x3d47bdf5	0.04876514
204	0x3d249ac0	0.040186644
205	0xbd3e826e	-0.046511106
206	0x3d116532	0.035496898
207	0xbd582f58	-0.052779526
208	0x3c914882	0.01773477
209	0xbd3c0c29	-0.045910034
210	0x3d08a113	0.033356737
211	0x3d5f7171	0.054551546
212	0xbd907edf	-0.07055449
213	0x3d2a0eec	0.041518137
214	0x3d97b440	0.07407427
215	0x3d210b2d	0.0393173
216	0xbcfbfbd8	-0.030759737
217	0x3c2cfc41	0.010558189
218	0x3dcf733f	0.10129403
219	0x3da44fe5	0.08023051
220	0xbdb6fec1	-0.08935309
221	0xbacd7d1d	-0.0015677545
222	0x3cf2e49a	0.029650021
223	0xbce77d5e	-0.028258022
224	0xbbf820e5	-0.0075722807
225	0xbde16d4b	-0.11007174
226	0x3cab2fc6	0.020896804
227	0xbd5746f2	-0.052557893
228	0x3d04a321	0.032382134
229	0xbc8f1c54	-0.017469563
230	0xbcaf4bfd	-0.021398539
231	0xbe0e5836	-0.13900837
232	0xbdac2709	-0.08405883
233	0xbdbc9882	-0.09208776
234	0x3dc9a5e5	0.09846095
235	0x3d42cc6e	0.04755824
236	0x3d253b7e	0.04033994
237	0x3d82607e	0.06366061
238	0x3d80dfa6	0.062926576
239	0xbd36044b	-0.044437688
240	0xbc8021a0	-0.015641034
241	0xbda0c1d4	-0.0784947
242	0xbd91ca86	-0.071187064
243	0x3c9bab77	0.01900266
244	0xbd7f10eb	-0.062271994
245	0xbdd28355	-0.10278956
246	0x3d0ff418	0.035144895
247	0x3d786e06	0.0606518
248	0x3db81c80	0.08989811
249	0xbdcba366	-0.09943275
250	0xbd9021b7	-0.070376806
251	0x3ddd4e6c	0.108059734
252	0x3cc62aa7	0.02419026
253	0x3b717754	0.0036844807
254	0xbb9edb28	-0.004847903
255	0xbd69d022	-0.057083257

network_body._body_endoder.seq_layers.2.bias f4 [256]
0	0xbc1ecc40	-0.009692252
1	0xba6a448f	-0.00089366076
2	0xb9a77148	-0.00031937123
3	0xbb2936df	-0.002582006
4	0xbc33bbda	-0.01097008
5	0x3aa3424e	0.0012455673
6	0xbc155728	-0.009115018
7	0xbb810769	-0.003937651
8	0xbc39af2f	-0.011333271
9	0x3b22f065	0.0024862525
10	0xbba3cba8	-0.004998643
11	0xbc392366	-0.011299944
12	0x3b0d1108	0.0021525044
13	0xbcb1dcc5	-0.021711716
14	0xbb58c256	-0.0033074818
15	0xbc0a7246	-0.0084500965
16	0xbbf06e8b	-0.0073373965
17	0x39ddfd84	0.0004234129
18	0xbc20d5ae	-0.00981657
19	0xbc091c21	-0.008368523
20	0xbbe98cca	-0.007127379
21	0xbc41fc27	-0.011839903
22	0xbc172dc2	-0.009227218
23	0xbbbaac46	-0.005696806
24	0xbbd39c92	-0.0064578736
25	0xbc02149f	-0.007939487
26	0xbb188318	-0.0023271497
27	0x3bfda5ae	0.007740698
28	0xbbc4bd2e	-0.0060039973
29	0xbc4749ac	-0.012163561
30	0xb986acf4	-0.00025687332
31	0xbaa4ed0b	-0.0012582851
32	0xbc14f314	-0.0090911575
33	0xbbd79601	-0.006579161
34	0x3a508cbd	0.0007955542
35	0xbb4e96e7	-0.003152305
36	0xbc11ae0d	-0.008891595
37	0xba9103cc	-0.0011063754
38	0xb9b068f9	-0.00033647547
39	0xbc0186f6	-0.007905712
40	0xbc07d8af	-0.0082914075
41	0xbc56c979	-0.013109558
42	0xbc0e6feb	-0.0086936755
43	0xbc0741d4	-0.008255441
44	0xbadbb1c4	-0.0016761352
45	0x3c810781	0.015750648
46	0xbaf50233	-0.0018692672
47	0xbc001ea4	-0.007819805
48	0xbbe3df8a	-0.006954138
49	0xbc1a6964	-0.009424541
50	0xbc75aa84	-0.014994267
51	0xbbc76dfa	-0.0060861083
52	0xbb1127dd	-0.0022149005
53	0xbc4070ac	-0.011745613
54	0x3b843da0	0.0040356666
55	0xbbb9243e	-0.0056500724
56	0xbc691e2c	-0.014228385
57	0xbb0593d9	-0.0020382314
58	0xbc7cf1a4	-0.015438471
59	0xbb82fd23	-0.0039974614
60	0xbc089b9c	-0.008337881
61	0xbc153c23	-0.009108576
62	0xbc056152	-0.008140879
63	0xbc33204b	-0.010932992
64	0xba586e70	-0.00082562026
65	0xbb18f8c2	-0.002334163
66	0xbb1b5a39	-0.00237049
67	0xbaafd3cf	-0.0013414564
68	0x3c578db2	0.013156341
69	0xbbdc08db	-0.006714923
70	0xbb905a77	-0.0044053155
71	0x3b6cb153	0.0036116436
72	0xba19801c	-0.00058555766
73	0xbaec3049	-0.0018019761
74	0x3b452c3f	0.0030086187
75	0xbc811846	-0.015758645
76	0xbbbc1882	-0.0057402262
77	0xbc19963b	-0.009374197
78	0xbc4287d6	-0.011873206
79	0xbb44da79	-0.0030037446
80	0xbbee0422	-0.0072636763
81	0x3c513355	0.012768586
82	0xbc7f2690	-0.015573159
83	0xbc0b7d2b	-0.008513729
84	0xbbfba986	-0.007680121
85	0xbb500032	-0.0031738398
86	0xbc0c4252	-0.008560734
87	0x3a9d5018	0.0012002019
88	0xbb5cbd8a	-0.003368231
89	0x3c40b12e	0.011760993
90	0x38a2ac36	7.756839e-05
91	0xbad98437	-0.0016595189
92	0xbc1f6596	-0.00972881
93	0xbb85fdea	-0.004089107
94	0xbb757125	-0.0037451473
95	0x3ab7547a	0.0013986968
96	0xbb81a156	-0.0039560003
97	0x3bcbe08c	0.0062218364
98	0xbb842eaf	-0.0040338854
99	0xbc09452b	-0.008378307
100	0xbbb721e0	-0.005588755
101	0x3a311a1d	0.00067559053
102	0xbb92d7c7	-0.004481289
103	0xbc2bae22	-0.010478528
104	0xbc40b5ab	-0.011762063
105	0xbc0da983	-0.008646372
106	0xba094dd2	-0.00052377314
107	0xbb9156ff	-0.0044354196
108	0xbbc08b2a	-0.0058759646
109	0xbc15dd02	-0.009146931
110	0xbb04165a	-0.0020154924
111	0x3c07bd77	0.008284918
112	0xbc275dbb	-0.010215218
113	0xbbb16ea3	-0.0054148003
114	0xbab4b3cf	-0.0013786497
115	0xbbf65590	-0.007517524
116	0xbbf6bd9c	-0.0075299274
117	0xbb1e6310	-0.0024167933
118	0xbbc7620a	-0.006084685
119	0xbb89f47d	-0.0042100535
120	0xbc55f841	-0.013059677
121	0xbc003a2f	-0.007826372
122	0xbadafa83	-0.0016706738
123	0xbc17b1c0	-0.0092586875
124	0xbba56cb2	-0.005048358
125	0xbb303350	-0.0026886053
126	0xbc17a8d4	-0.00925656
127	0xbc1f043a	-0.009705598
128	0xbc2fb655	-0.010724624
129	0xbc67e6fe	-0.014154194
130	0xbc63dd62	-0.013907762
131	0xbc00f143	-0.007870021
132	0xbb93e812	-0.004513749
133	0xbb79523b	-0.0038043398
134	0xbbc4196c	-0.005984476
135	0xbb54f850	-0.0032496639
136	0xba403821	-0.00073325826
137	0x3acd83ed	0.0015679576
138	0xbb162644	-0.0022910992
139	0xbbbc42fc	-0.00574529
140	0xbc4c1e8d	-0.012458456
141	0xbb9c9f91	-0.004779764
142	0xbc70990c	-0.014684927
143	0xbbd96111	-0.0066338857
144	0x3b2c0ac7	0.002625154
145	0xbbc7aa9c	-0.0060933363
146	0xbbe5c720	-0.007012263
147	0xb9644250	-0.00021768478
148	0xbc84eee4	-0.016227193
149	0xbbb8c9fd	-0.0056393133
150	0xbb8d0417	-0.004303466
151	0xbc0335b2	-0.008008407
152	0xbbabb626	-0.0052402196
153	0xbb73f498	-0.0037224647
154	0xbb2f80ed	-0.0026779727
155	0xbafae545	-0.0019141814
156	0xba95bb32	-0.0011423586
157	0xbac9514c	-0.0015359311
158	0x3b23cb43	0.002499298
159	0xba06164f	-0.00051150186
160	0xbbc12303	-0.0058940663
161	0xbbc1a244	-0.005909236
162	0xbb778a3b	-0.00377716
163	0xbbc565ff	-0.006024122
164	0xbb8b95fb	-0.0042598224
165	0xbc7f9413	-0.0155992685
166	0xbb9f7281	-0.004865945
167	0x3aa76272	0.0012770428
168	0xba557f2c	-0.0008144255
169	0xbb53e093	-0.0032329902
170	0xbb126d27	-0.0022342892
171	0xbb3201a2	-0.0027161618
172	0xbb5f6e13	-0.003409271
173	0xbb3f9c46	-0.0029237433
174	0xbb143d9c	-0.002261973
175	0xbc2c7876	-0.010526767
176	0xbb6f3daa	-0.003650526
177	0xbba87984	-0.005141439
178	0xbc65b3b1	-0.014019893
179	0xbc27a2e1	-0.010231704
180	0xbb8d8c22	-0.0043196836
181	0xbc291310	-0.010319486
182	0xbb9c84e1	-0.0047765826
183	0xbc0c41d2	-0.008560615
184	0xbc1bf3ca	-0.009518573
185	0xbc16e798	-0.00921049
186	0xbb379845	-0.0028014344
187	0xbc830bec	-0.015996896
188	0xbc1f6f03	-0.009731057
189	0xbb740db8	-0.0037239622
190	0xbc46c476	-0.012131801
191	0xbc0b0f01	-0.008487464
192	0xbac42212	-0.0014963767
193	0xbc6d73b2	-0.014492916
194	0xbb9b5583	-0.0047404184
195	0xbb127c5e	-0.002235196
196	0xbc4941b5	-0.012283732
197	0x3b29868d	0.0025867552
198	0x3ad4d570	0.0016237926
199	0xbc047027	-0.00808338
200	0xbbffb6a9	-0.007803757
201	0x3c077c3b	0.008269365
202	0xbc1133a2	-0.008862408
203	0xbc468d34	-0.012118626
204	0xbb84bbc1	-0.0040507023
205	0xbb9c2f83	-0.004766406
206	0xbbe43e72	-0.006965452
207	0xbb66a43d	-0.0035193108
208	0xbc043287	-0.008068687
209	0xbc18634e	-0.00930102
210	0x3b3b794e	0.0028606239
211	0xbb4601fd	-0.0030213587
212	0xba137fcf	-0.000562665
213	0x3a56535b	0.0008175873
214	0xbc228b61	-0.009920926
215	0xbcf898b2	-0.030346248
216	0xbb614c30	-0.0034377687
217	0x3b815f46	0.003948125
218	0xbc3b72a3	-0.011440906
219	0xbb182408	-0.0023214836
220	0xbbdad5dc	-0.006678326
221	0x3a921466	0.0011144995
222	0xba551f08	-0.0008129929
223	0xbaa96a72	-0.00129254
224	0xbb3f4773	-0.0029186874
225	0xbc0fa425	-0.008767162
226	0xbbfedd6f	-0.007777862
227	0x3978ed42	0.00023739508
228	0xbb0df1ad	-0.0021658943
229	0xbb8e1b8c	-0.00433678
230	0x39cbb9be	0.00038857566
231	0xba5d74de	-0.00084478955
232	0xba77846a	-0.00094420335
233	0x3912ca32	0.00013998969
234	0x3a558f5e	0.00081466686
235	0xbbe5dae4	-0.007014619
236	0xbb6aab8d	-0.0035807819
237	0xbbe4c631	-0.006981634
238	0xbc08e018	-0.008354209
239	0xbbbe8f22	-0.0058154026
240	0xbbd47634	-0.0064838175
241	0xbc0db93d	-0.008650121
242	0xbaa54d5a	-0.0012611554
243	0xbbe503fa	-0.0069889994
244	0xbbf7e12d	-0.007564685
245	0xbb234684	-0.0024913857
246	0x3a8d2b48	0.0010770345
247	0xbb5cd2dc	-0.0033695018
248	0xbc2ad157	-0.010425887
249	0x3aa297e1	0.0012404883
250	0xbc0053ef	-0.007832511
251	0xbc4cd81e	-0.012502698
252	0x3a8c4367	0.001070124
253	0xbc272ca6	-0.010203516
254	0xbbeb8490	-0.0071874335
255	0xb91216f8	-0.00013932202

action_model._continuous_distribution.log_sigma f4 [1, 2]
0	0x3b91bcef	0.0044475715
1	0x3c9088ec	0.017643414

action_model._continuous_distribution.mu.weight f4 [2, 256]
0	0xba2ec672	-0.0006667144
1	0xbc49869a	-0.012300158
2	0xbb413131	-0.0029478783
3	0xbba77df0	-0.0051114485
4	0xbad2e8e3	-0.0016091134
5	0x3c5ce59b	0.013482477
6	0x3a414fe5	0.0007374271
7	0x3b3b1cb6	0.0028551049
8	0x3b27438a	0.0025522434
9	0xbc77461e	-0.015092401
10	0x3c2f69d0	0.01070638
11	0x3b91c09a	0.0044480087
12	0xbcd312c5	-0.025765786
13	0x3b8cbf3a	0.004295257
14	0x3cbd349a	0.023096371
15	0xb8cc986e	-9.75587e-05
16	0xbc410932	-0.0117819775
17	0x3b89d1f2	0.0042059356
18	0x3baa3159	0.005193871
19	0x3bafb711	0.0053623994
20	0x3ca6e2a4	0.020371743
21	0x3c95e94e	0.018299725
22	0x3b5c07ea	0.0033574053
23	0xbc718636	-0.014741471
24	0xbc3e66f5	-0.011621227
25	0x3c8d6fe6	0.017265271
26	0x3af3bd43	0.0018595833
27	0x3a8269f6	0.0009949792
28	0xb8b94f5a	-8.836268e-05
29	0x3c8b192d	0.016979778
30	0xbc888e36	-0.016669374
31	0xbb5affd4	-0.0033416646
32	0xbaa80b53	-0.0012820758
33	0x3c173704	0.009229425
34	0x3bee0c9f	0.007264688
35	0x395ebee8	0.00021242688
36	0x3a839e87	0.0010041752
37	0xbbb088bd	-0.005387394
38	0x39da8500	0.00041679293
39	0xbbe10c69	-0.0068679345
40	0x3ae98bf5	0.00178182
41	0x37da39ac	2.601448e-05
42	0x3c13572e	0.008992953
43	0x3b280fb9	0.0025644137
44	0x3b8e2929	0.0043384028
45	0xbb2d115a	-0.0026408047
46	0xba245496	-0.0006268708
47	0xbbf945d1	-0.0076071997
48	0xbb9a213e	-0.00470367
49	0xbad283e0	-0.001606103
50	0x3bb0c373	0.005394393
51	0x3a1bbb2e	0.00059406727
52	0xbb4323af	-0.0029775908
53	0xbb682eb3	-0.0035428226
54	0xb9880c2a	-0.00025949004
55	0x3aeef1a5	0.0018229975
56	0xbb84246c	-0.004032662
57	0x3ada9b46	0.0016678355
58	0xba6aae4a	-0.00089523627
59	0xbb8a2176	-0.0042154146
60	0xba36655e	-0.0006957854
61	0x39557cdc	0.00020359777
62	0xbc0fb3eb	-0.008770923
63	0xbb53b1be	-0.0032301988
64	0xbc1ef638	-0.009702258
65	0x3bfd7257	0.0077345776
66	0xbb9296af	-0.0044735293
67	0x3c0b1e82	0.00849116
68	0x3a829954	0.0009963908
69	0xba776007	-0.00094366114
70	0xbb5b9466	-0.00335052
71	0xba519559	-0.0007994972
72	0xbcc6bbe6	-0.024259519
73	0xbc2697cd	-0.010168028
74	0xbc0085ba	-0.007844383
75	0x3a9e955c	0.0012098956
76	0x3c2bf764	0.010495994
77	0x3b1ad3ac	0.0023624701
78	0x3c638fb0	0.013889238
79	0xbbeee577	-0.007290538
80	0x3c9208ee	0.017826524
81	0xbb978335	-0.0046237954
82	0x3b8c1601	0.004275084
83	0x3c0df7f9	0.008665078
84	0xbbc170eb	-0.0059033534
85	0xbbbee20c	-0.0058252867
86	0xbbe60816	-0.007020007
87	0x3cdf51cd	0.027260685
88	0x3c63c30f	0.013901486
89	0xba60d2b8	-0.00085763214
90	0xbc6dbda4	-0.014510546
91	0x3b0267bd	0.0019898259
92	0x3b248196	0.0025101653
93	0xbb756346	-0.0037443205
94	0xbc9556d4	-0.01822988
95	0x391268a0	0.00013962621
96	0x3ccf2d27	0.025290085
97	0xbbf09ef2	-0.0073431665
98	0x3bd71d1b	0.006564749
99	0x3c8d3a66	0.01723976
100	0xb94d62ed	-0.00019587176
101	0xbb74b135	-0.003733707
102	0xbbf5fb00	-0.007506728
103	0x3ba26dfb	0.0049569583
104	0x3c8000a0	0.015625298
105	0xbbca55ac	-0.0061747637
106	0xbbbafa5a	-0.0057061138
107	0x3a21aaa2	0.0006167089
108	0x3c823bff	0.015897749
109	0xbb8487a5	-0.0040444904
110	0xbc20ee01	-0.00982237
111	0xbb856515	-0.004070888
112	0x3c0418a1	0.008062513
113	0xbc4bc260	-0.012436479
114	0xbc1d4fb3	-0.009601521
115	0xbaff5d44	-0.0019482751
116	0xbbb17792	-0.005415865
117	0x3bd21f32	0.00641241
118	0x3d08d81a	0.033409216
119	0xbb8d206f	-0.004306845
120	0x3b54f339	0.0032493605
121	0x3be2b413	0.006918439
122	0x3befbafa	0.0073159905
123	0x3ceb7917	0.028744264
124	0xbbbfe1bc	-0.005855767
125	0xbc2591b5	-0.01010554
126	0x3c51b0bf	0.012798487
127	0xbbc863ec	-0.0061154272
128	0x3b1d890b	0.0024037983
129	0x3c1093a4	0.008824263
130	0x3bb192e5	0.0054191225
131	0x3bd5d4d1	0.006525614
132	0xbb516fcc	-0.0031957505
133	0x3b3a0af7	0.0028387883
134	0x3c5a5249	0.013325282
135	0xbc9c1042	-0.019050721
136	0xbcadbe2d	-0.021208847
137	0x3bf3807e	0.007431089
138	0x3b497229	0.003073821
139	0x3bcee908	0.0063144006
140	0xbb9753f4	-0.0046181623
141	0x3b3943f9	0.0028269275
142	0x3c8409d7	0.016117973
143	0x3c5e83ac	0.013581198
144	0xbb87ec1e	-0.0041480204
145	0x3b9721b8	0.004612174
146	0xbc076823	-0.008264574
147	0x3c25c413	0.0101175485
148	0x3b98a7ba	0.0046586664
149	0xbae653a6	-0.0017572537
150	0x3bb9179b	0.005648566
151	0xbb90d330	-0.0044197068
152	0x3ab2e445	0.0013648352
153	0x3c191a38	0.00934463
154	0x3b3a5887	0.0028434114
155	0xbc375ba7	-0.011191285
156	0x3ce18a25	0.027531693
157	0x3c131e8c	0.008979451
158	0xbc4691fc	-0.012119766
159	0xbc495e4c	-0.0122905485
160	0x38f81eca	0.000118312964
161	0x3c924e38	0.017859563
162	0x3cb3d52e	0.021952238
163	0xba2c3371	-0.00065689447
164	0xbbead5e2	-0.00716661
165	0x3b654433	0.0034983277
166	0x3bf10159	0.007354897
167	0x3cf050ba	0.029335368
168	0xbc987c58	-0.01861398
169	0xbcd7c192	-0.026337419
170	0xbca64a3a	-0.020299066
171	0xbb03d644	-0.0020116726
172	0xbb6b14d5	-0.003587057
173	0x38e70c16	0.000110171895
174	0xbb2c2763	-0.0026268594
175	0xbba6bd7c	-0.0050885063
176	0xbb859517	-0.004076611
177	0x3d1838bb	0.037163477
178	0xb9f02c2a	-0.00045809272
179	0x3c735bf1	0.0148534635
180	0x3cd5ee29	0.02611454
181	0x39df1149	0.00042546753
182	0xbbc46262	-0.0059931735
183	0xbc0edc9f	-0.008719592
184	0x3b862c1c	0.0040946137
185	0x3c375d6b	0.011191706
186	0xbccb33cd	-0.024804974
187	0x3c43e0c6	0.011955446
188	0x3c050035	0.008117725
189	0x3b59c8ad	0.0033231184
190	0x3bc8032a	0.006103893
191	0x3be8cbd1	0.007104375
192	0x3c1702d0	0.009216979
193	0xbb7fe5f6	-0.003904698
194	0x3be6871f	0.0070351507
195	0xb96ba7af	-0.00022473813
196	0x397a3110	0.00023860135
197	0xbbeb3586	-0.0071780114
198	0x3bae7bab	0.005324801
199	0x3caec740	0.021335244
200	0x3c5ce24f	0.013481691
201	0xbc04ca37	-0.008104852
202	0x3c4a4ba8	0.012347139
203	0x3c0952e6	0.008381581
204	0xbbb21b30	-0.00543537
205	0x3c957e99	0.018248843
206	0x3ca0e5f6	0.019640904
207	0x3b94938e	0.0045341915
208	0x3c8e8ed5	0.017402092
209	0x3c3ab2db	0.0113951815
210	0xbc1c3a92	-0.009535449
211	0xbc404c9c	-0.011737015
212	0xbbf05eb9	-0.0073355106
213	0xbce63c34	-0.028104879
214	0x3bcc2c5c	0.006230874
215	0xbad1bc13	-0.0016001485
216	0xbbb32c78	-0.0054679476
217	0xbb9d4c8c	-0.004800385
218	0xbb0186ef	-0.0019764265
219	0xbb5d3880	-0.00337556
220	0x3d06711a	0.032822706
221	0x3b956668	0.004559327
222	0x3926b56a	0.00015898576
223	0xbbb21f70	-0.0054358765
224	0xbb29155a	-0.002580008
225	0xbb4448f9	-0.0029950722
226	0x3aa38602	0.001247585
227	0xbca482e9	-0.020081954
228	0xbb8ac544	-0.0042349417
229	0xbc6aba37	-0.014326624
230	0x3b380897	0.0028081292
231	0xbc203094	-0.009777207
232	0xbc140793	-0.009035009
233	0xbca5af04	-0.020225056
234	0xbbdd0c8d	-0.006745881
235	0x3bf77d47	0.007552776
236	0xbbe53cb0	-0.00699576
237	0xbb0d2980	-0.0021539629
238	0x3a9c55e7	0.0011927456
239	0xbc01a6ee	-0.007913334
240	0x3c35a49a	0.011086607
241	0xbb69ff22	-0.003570505
242	0xbc33b782	-0.010969045
243	0xbbe6384f	-0.0070257555
244	0xbc9798ec	-0.018505536
245	0x39e2853e	0.00043205352
246	0xbb18c50e	-0.0023310813
247	0xbb9267f1	-0.004467957
248	0x3bc86805	0.0061159157
249	0xbcbaf812	-0.022823367
250	0x3c9721d5	0.01844875
251	0x3ba6be1c	0.005088581
252	0xbbaf2ead	-0.0053461404
253	0x3be4d32a	0.0069831805
254	0xbc030bab	-0.007998387
255	0xb9ee8edf	-0.00045501345

action_model._continuous_distribution.mu.bias f4 [2]
0	0xbb722954	-0.0036950903
1	0x3b871014	0.0041217897

66 f4 [20]
0	0x3b84fbd3	0.00405834
1	0x3ea72178	0.32642722
2	0x3b84fbd3	0.00405834
3	0x3dcf5d38	0.10125202
4	0x3edc8a98	0.4307449
5	0x3ec29690	0.38005495
6	0x3dbbd1a9	0.09170849
7	0x3dfec8cd	0.124406435
8	0x3efa814c	0.4892677
9	0x3eef2f27	0.46715662
10	0x3b84fbd3	0.00405834
11	0x3dd80647	0.10548072
12	0x3ede68ab	0.4343923
13	0x3ec08f29	0.37609223
14	0x3dc528f5	0.096269526
15	0x3e021e81	0.12706949
16	0x3efa48c3	0.48883638
17	0x3ef15c30	0.47140646
18	0x3b84fbd3	0.00405834
19	0x3dda6354	0.106634766

69 f4 [12]
0	0x3b84fbd3	0.00405834
1	0x3ea72178	0.32642722
2	0x3b84fbd3	0.00405834
3	0x3ca90f25	0.020637104
4	0x3ebf95f5	0.37419096
5	0x3ee49ef7	0.4465253
6	0x3b84fbd3	0.00405834
7	0x3c93dd63	0.018049901
8	0x3b84fbd3	0.00405834
9	0x3ea6ceab	0.3257955
10	0x3b84fbd3	0.00405834
11	0x3ca96483	0.02067781

72 f4 [3]
0	0x3db94a32	0.09047355
1	0x3b8d3fc4	0.00431058
2	0x3ef5f34c	0.48037183
