results/firstry/KartAgent/KartAgent-10395.pt (torch, 622315 bytes, 36 tensors)

network_body.observation_encoder.processors.0.normalizer.running_mean f4 [20]
0.0 0.83734125 0.0 0.13803636 0.68343586 0.2676029 0.0 0.16705827
0.7037323 0.25307807 0.0 0.14924371 0.74220854 0.21489033 0.0 0.17142197
0.8136784 0.1388034 0.0 0.1604444
00000000: 0000 0000 ff5b 563f 0000 0000 6759 0d3e
00000010: a7f5 2e3f 3f03 893e 0000 0000 5311 2b3e
00000020: cd27 343f 7393 813e 0000 0000 58d3 183e
00000030: 6101 3e3f 360c 5c3e 0000 0000 3e89 2f3e
00000040: 3a4d 503f 7a22 0e3e 0000 0000 894b 243e

network_body.observation_encoder.processors.0.normalizer.running_variance f4 [20]
1.0 1416.9443 1.0 90.10354 2250.1877 2038.5288 1.0 57.216927
2168.4954 1966.1517 1.0 48.060432 1990.1189 1754.9349 1.0 51.77241
1577.095 1243.7068 1.0 50.368965
00000000: 0000 803f 381e b144 0000 803f 0335 b442
00000010: 01a3 0c45 ecd0 fe44 0000 803f 22de 6442
00000020: ed87 0745 dbc4 f544 0000 803f e23d 4042
00000030: cec3 f844 eb5d db44 0000 803f f316 4f42
00000040: 0a23 c544 9e76 9b44 0000 803f d279 4942

network_body.observation_encoder.processors.1.normalizer.running_mean f4 [12]
0.0 0.83734125 0.0 0.02760727 0.0 0.83762985 0.0 0.027659193
0.0 0.83762985 0.0 0.027659193
00000000: 0000 0000 ff5b 563f 0000 0000 a428 e23c
00000010: 0000 0000 e96e 563f 0000 0000 8895 e23c
00000020: 0000 0000 e96e 563f 0000 0000 8895 e23c

network_body.observation_encoder.processors.1.normalizer.running_variance f4 [12]
1.0 1416.9443 1.0 4.5641403 1.0 1414.9194 1.0 4.576305
1.0 1414.9194 1.0 4.5763044
00000000: 0000 803f 381e b144 0000 803f 700d 9240
00000010: 0000 803f 6cdd b044 0000 803f 1771 9240
00000020: 0000 803f 6cdd b044 0000 803f 1671 9240

network_body.observation_encoder.processors.2.normalizer.running_mean f4 [3]
0.022177223 0.04965073 0.29559445
00000000: 02ad b53c 905e 4b3d 2858 973e

network_body.observation_encoder.processors.2.normalizer.running_variance f4 [3]
29.834768 1.0298948 830.405
00000000: 9bad ee41 98d3 833f ec99 4f44

network_body.processors.0.normalizer.running_mean f4 [20]
0.0 0.83734125 0.0 0.13803636 0.68343586 0.2676029 0.0 0.16705827
0.7037323 0.25307807 0.0 0.14924371 0.74220854 0.21489033 0.0 0.17142197
0.8136784 0.1388034 0.0 0.1604444
00000000: 0000 0000 ff5b 563f 0000 0000 6759 0d3e
00000010: a7f5 2e3f 3f03 893e 0000 0000 5311 2b3e
00000020: cd27 343f 7393 813e 0000 0000 58d3 183e
00000030: 6101 3e3f 360c 5c3e 0000 0000 3e89 2f3e
00000040: 3a4d 503f 7a22 0e3e 0000 0000 894b 243e

network_body.processors.0.normalizer.running_variance f4 [20]
1.0 1416.9443 1.0 90.10354 2250.1877 2038.5288 1.0 57.216927
2168.4954 1966.1517 1.0 48.060432 1990.1189 1754.9349 1.0 51.77241
1577.095 1243.7068 1.0 50.368965
00000000: 0000 803f 381e b144 0000 803f 0335 b442
00000010: 01a3 0c45 ecd0 fe44 0000 803f 22de 6442
00000020: ed87 0745 dbc4 f544 0000 803f e23d 4042
00000030: cec3 f844 eb5d db44 0000 803f f316 4f42
00000040: 0a23 c544 9e76 9b44 0000 803f d279 4942

network_body.processors.1.normalizer.running_mean f4 [12]
0.0 0.83734125 0.0 0.02760727 0.0 0.83762985 0.0 0.027659193
0.0 0.83762985 0.0 0.027659193
00000000: 0000 0000 ff5b 563f 0000 0000 a428 e23c
00000010: 0000 0000 e96e 563f 0000 0000 8895 e23c
00000020: 0000 0000 e96e 563f 0000 0000 8895 e23c

network_body.processors.1.normalizer.running_variance f4 [12]
1.0 1416.9443 1.0 4.5641403 1.0 1414.9194 1.0 4.576305
1.0 1414.9194 1.0 4.5763044
00000000: 0000 803f 381e b144 0000 803f 700d 9240
00000010: 0000 803f 6cdd b044 0000 803f 1771 9240
00000020: 0000 803f 6cdd b044 0000 803f 1671 9240

network_body.processors.2.normalizer.running_mean f4 [3]
0.022177223 0.04965073 0.29559445
00000000: 02ad b53c 905e 4b3d 2858 973e

network_body.processors.2.normalizer.running_variance f4 [3]
29.834768 1.0298948 830.405
00000000: 9bad ee41 98d3 833f ec99 4f44

network_body._body_endoder.seq_layers.0.weight f4 [256, 35]
-0.077679716 0.22213542 0.05048148 -0.038925108 -0.17076372 0.23915611 -0.07530254 0.2586732
-0.15517247 -0.002862673 0.083306 -0.22750206 -0.14362733 -0.017455373 -0.37980065 0.01975143
0.11744466 -0.03185993 0.18016802 -0.25055307 0.13044702 0.011239388 0.173678 0.06788445
-0.040523693 0.102877505 -0.029803483 0.2563262 -0.23530594 0.3317887 -0.0026004242 -0.40255007
0.17881224 0.017487438 -0.10198208 0.044517398 0.05673274 -0.2572858 0.18516114 0.02802914
0.21387658 0.3533787 -0.17657615 0.14021863 -0.16171168 -0.3239977 0.0068597468 -0.18423171
0.27547422 0.06716024 -0.015487882 -0.013521561 -0.0074686934 -0.22344682 0.0670665 0.14113273
-0.0062000975 0.23626173 -0.052303195 -0.11835678 0.009626179 -0.06385784 -0.036038775 0.0901385
-0.14910467 -0.4601011 0.12729129 0.060855635 -0.093883455 0.12171968 -0.032097854 -0.05353046
-0.022209667 0.20753027 -0.31327954 -0.07029465 -0.31196535 -0.26546952 -0.3351499 -0.21071246
-0.057254363 -0.13751195 -0.28084782 -0.041736208 0.041169617 -0.087067045 -0.11734097 -0.33004957
-0.058090873 0.0053384923 0.3322496 -0.00011996945 -0.17295739 0.22242297 -0.12807754 0.013171867
-0.21030122 0.13869178 -0.11053585 0.16659245 0.11818647 -0.25027615 0.06912213 0.22967468
-0.009680001 0.0004770804 0.20293584 0.028353358 0.13626735 0.047209363 0.23238139 -0.3397975
0.37121665 0.017359177 -0.0010300123 0.08123788 -0.07828823 -0.22995484 -0.14995694 0.011025878
0.2125962 -0.28647128 0.033435237 0.18117203 0.17328103 0.0256668 0.08071119 0.030193906
0.1887266 0.15962951 -0.046193466 0.14579242 0.14059271 0.20879154 0.16003726 -0.043285392
-0.11158686 0.031007422 -0.045834687 0.0028163602 -0.023630172 0.19304186 0.42486116 -0.096595526
-0.086876445 0.25444424 -0.114018075 -0.10765841 -0.04141095 0.021390123 -0.015176688 -0.22164008
-0.23344699 -0.063678116 0.27781993 0.19355825 -0.20845538 0.14846033 -0.10708861 -0.16128543
-0.09277004 -0.14442249 -0.1777004 0.024391333 -0.30476204 -0.20571555 -0.118180744 0.01363648
0.0744768 0.037403896 -0.073937856 0.3358982 -0.07415542 -0.13603911 -0.09630434 -0.11955524
-0.21867259 0.094994485 -0.12310259 0.18659285 -0.04496997 -0.05730298 -0.0037045493 -0.030837527
-0.09451612 0.13129054 0.0997508 0.18056986 -0.14706144 -0.017406808 0.055521756 -0.086684
0.30110392 0.011532053 0.10406709 -0.27597806 -0.11938958 0.5242762 0.0009528618 0.1289151
0.0009419336 -0.2598607 -0.10879467 0.2064898 -0.07420149 0.027649188 -0.28002822 0.09414843
-0.1392119 0.04864511 0.07533021 -0.0821732 0.2055867 -0.11857115 0.010051632 0.058522657
-0.07824204 -0.20253244 -0.012137781 -0.07151054 0.09609355 -0.03819389 -0.15870212 -0.054977037
-0.033045772 0.012441455 -0.14149474 0.1256244 0.114864826 -0.359233 -0.26595303 0.096235126
0.2233503 -0.028686821 0.061625615 -0.07849326 -0.010746512 -0.0621544 0.021774538 -0.033094775
-0.086840756 -0.24061225 -0.2087287 0.37794214 0.112519674 -0.09674814 0.22798415 -0.005057889
-0.06336603 -0.14942911 0.082443304 0.07608801 0.19175337 -0.058469765 -0.12825082 0.15391238
00000000: 8b16 9fbd 7877 633e abc5 4e3d ef6f 1fbd
00000010: afdc 2ebe 57e5 743e 3838 9abd d070 843e
00000020: 88e5 1ebe af9b 3bbb 569c aa3d 4df6 68be
00000030: 0b13 13be 92fe 8ebc 3b75 c2be c0cd a13c
00000040: d386 f03d 8f7f 02bd f77d 383e 7e48 80be
00000050: e793 053e 6925 383c a5d8 313e 0107 8b3d
00000060: 2cfc 25bd 71b1 d23d 6f26 f4bc 303d 833e
00000070: 0af4 70be 35e0 a93e e16b 2abb 0b1b cebe
00000080: 8e1a 373e d141 8f3c fbdb d0bd e057 363d
00000090: 9760 683d f7ba 83be e29a 3d3e 5e9d e53c
000000a0: 7602 5b3e 0eee b43e 61d0 34be 7995 0f3e
000000b0: bf97 25be 07e3 a5be bac7 e03b 3da7 3cbe
000000c0: f50a 8d3e 4f8b 893d e3c0 7dbc 8a89 5dbc
000000d0: f1bb f4bb 3ecf 64be 295a 893d 1985 103e
000000e0: 302a cbbb 98ee 713e e03b 56bd 0a65 f2bd
000000f0: 1fb7 1d3c e6c7 82bd 659d 13bd 899a b83d
00000100: e5ae 18be 5f92 ebbe a658 023e c243 793d
00000110: f845 c0bd 2b48 f93d 0a79 03bd c142 5bbd
00000120: 0cf1 b5bc d182 543e 2d66 a0be a4f6 8fbd
00000130: ecb9 9fbe 9feb 87be c598 abbe 02c5 57be
00000140: 8d83 6abd efcf 0cbe 49cb 8fbe 96f3 2abd
00000150: 79a1 283d 3550 b2bd 7650 f0bd 42fc a8be
00000160: b2f0 6dbd 85ee ae3b 9f1c aa3e 1c98 fbb8
00000170: be1b 31be d9c2 633e c226 03be d0ce 573c
00000180: 3459 57be 3805 0e3e 9f60 e2bd 3697 2a3e
00000190: bf0b f23d 3224 80be e78f 8d3d d72f 6b3e
000001a0: de98 1ebc a620 fa39 6ace 4f3e 4d45 e83c
000001b0: ab89 0b3e 9b5e 413d 63f5 6d3e f0f9 adbe
000001c0: 1c10 be3e d534 8e3c 7a01 87ba 0c60 a63d
000001d0: 9455 a0bd 4879 6bbe 508e 19be e2a5 343c
000001e0: d1b2 593e 5dac 92be 63f3 083d 2985 393e
000001f0: 9570 313e 2e43 d23c e94b a53d 3659 f73c
00000200: 8c41 413e eb75 233e 5c35 3dbd 9c4a 153e
00000210: 89f7 0f3e 73cd 553e cfe0 233e 064c 31bd
00000220: a787 e4bd 4703 fe3c 27bd 3bbd af92 383b
00000230: 1094 c1bc c4ac 453e 6787 d93e e0d3 c5bd
00000240: 47ec b1bd 8446 823e 4f82 e9bd 037c dcbd
00000250: 879e 29bd 573a af3c a5a7 78bc 9ef5 62be
00000260: ba0c 6fbe ac69 82bd 6a3e 8e3e 2234 463e
00000270: 5475 55be fc05 183e 4651 dbbd 0228 25be
00000280: 38fe bdbd 7de3 13be 18f7 35be 55d0 c73c
00000290: c509 9cbe 19a7 52be bf08 f2bd 8b6b 5f3c
000002a0: 4b87 983d d434 193d bb6c 97bd d9fa ab3e
000002b0: ccde 97bd d64d 0bbe 363b c5bd 61d9 f4bd
000002c0: b5eb 5fbe 788c c23d 361d fcbd 3212 3f3e
000002d0: 6e32 38bd 88b6 6abd 06c8 72bb fb9e fcbc
000002e0: ab91 c1bd 0771 063e 264a cc3d 4ee7 383e
000002f0: 4697 16be b998 8ebc c86a 633d 6287 b1bd
00000300: 4b2a 9a3e f0f0 3c3c 2021 d53d ff4c 8dbe
00000310: 8682 f4bd f736 063f 79c9 793a 5202 043e
00000320: 18ec 763a 760c 85be bdcf debd 1072 533e
00000330: f3f6 97bd 8d80 e23c dc5f 8fbe e4d0 c03d
00000340: 908d 0ebe 1840 473d ba46 9a3d 6c4a a8bd
00000350: 5285 523e 6ed5 f2bd 9aaf 243c 74b5 6f3d
00000360: 5d3d a0bd aa64 4fbe 8bdd 46bc 1e74 92bd
00000370: b2cc c43d 3271 1cbd cf82 22be 9a2f 61bd
00000380: 015b 07bd 3fd7 4b3c ffe3 10be afa3 003e
00000390: 403e eb3d 63ed b7be ff2a 88be ec16 c53d
000003a0: f1b5 643e a000 ebbc 246b 7c3d 13c1 a0bd
000003b0: 2312 30bc 9d95 7ebd 8460 b23c 638e 07bd
000003c0: 91d9 b1bd 0f63 76be fabc 55be a281 c13e
000003d0: b770 e63d e423 c6bd ad74 693e a6bc a5bb
000003e0: 0dc6 81bd f203 19be 09d8 a83d 08d4 9b3d
000003f0: ff5a 443e fe7d 6fbd 2f54 03be 359b 1d3e

network_body._body_endoder.seq_layers.0.bias f4 [256]
0.0 0.0 0.0 0.0 0.0 0.0 0.0 0.0
0.0 0.0 0.0 0.0 0.0 0.0 0.0 0.0
0.0 0.0 0.0 0.0 0.0 0.0 0.0 0.0
0.0 0.0 0.0 0.0 0.0 0.0 0.0 0.0
0.0 0.0 0.0 0.0 0.0 0.0 0.0 0.0
0.0 0.0 0.0 0.0 0.0 0.0 0.0 0.0
0.0 0.0 0.0 0.0 0.0 0.0 0.0 0.0
0.0 0.0 0.0 0.0 0.0 0.0 0.0 0.0
0.0 0.0 0.0 0.0 0.0 0.0 0.0 0.0
0.0 0.0 0.0 0.0 0.0 0.0 0.0 0.0
0.0 0.0 0.0 0.0 0.0 0.0 0.0 0.0
0.0 0.0 0.0 0.0 0.0 0.0 0.0 0.0
0.0 0.0 0.0 0.0 0.0 0.0 0.0 0.0
0.0 0.0 0.0 0.0 0.0 0.0 0.0 0.0
0.0 0.0 0.0 0.0 0.0 0.0 0.0 0.0
0.0 0.0 0.0 0.0 0.0 0.0 0.0 0.0
0.0 0.0 0.0 0.0 0.0 0.0 0.0 0.0
0.0 0.0 0.0 0.0 0.0 0.0 0.0 0.0
0.0 0.0 0.0 0.0 0.0 0.0 0.0 0.0
0.0 0.0 0.0 0.0 0.0 0.0 0.0 0.0
0.0 0.0 0.0 0.0 0.0 0.0 0.0 0.0
0.0 0.0 0.0 0.0 0.0 0.0 0.0 0.0
0.0 0.0 0.0 0.0 0.0 0.0 0.0 0.0
0.0 0.0 0.0 0.0 0.0 0.0 0.0 0.0
0.0 0.0 0.0 0.0 0.0 0.0 0.0 0.0
0.0 0.0 0.0 0.0 0.0 0.0 0.0 0.0
0.0 0.0 0.0 0.0 0.0 0.0 0.0 0.0
0.0 0.0 0.0 0.0 0.0 0.0 0.0 0.0
0.0 0.0 0.0 0.0 0.0 0.0 0.0 0.0
0.0 0.0 0.0 0.0 0.0 0.0 0.0 0.0
0.0 0.0 0.0 0.0 0.0 0.0 0.0 0.0
0.0 0.0 0.0 0.0 0.0 0.0 0.0 0.0
00000000: 0000 0000 0000 0000 0000 0000 0000 0000
00000010: 0000 0000 0000 0000 0000 0000 0000 0000
00000020: 0000 0000 0000 0000 0000 0000 0000 0000
00000030: 0000 0000 0000 0000 0000 0000 0000 0000
00000040: 0000 0000 0000 0000 0000 0000 0000 0000
00000050: 0000 0000 0000 0000 0000 0000 0000 0000
00000060: 0000 0000 0000 0000 0000 0000 0000 0000
00000070: 0000 0000 0000 0000 0000 0000 0000 0000
00000080: 0000 0000 0000 0000 0000 0000 0000 0000
00000090: 0000 0000 0000 0000 0000 0000 0000 0000
000000a0: 0000 0000 0000 0000 0000 0000 0000 0000
000000b0: 0000 0000 0000 0000 0000 0000 0000 0000
000000c0: 0000 0000 0000 0000 0000 0000 0000 0000
000000d0: 0000 0000 0000 0000 0000 0000 0000 0000
000000e0: 0000 0000 0000 0000 0000 0000 0000 0000
000000f0: 0000 0000 0000 0000 0000 0000 0000 0000
00000100: 0000 0000 0000 0000 0000 0000 0000 0000
00000110: 0000 0000 0000 0000 0000 0000 0000 0000
00000120: 0000 0000 0000 0000 0000 0000 0000 0000
00000130: 0000 0000 0000 0000 0000 0000 0000 0000
00000140: 0000 0000 0000 0000 0000 0000 0000 0000
00000150: 0000 0000 0000 0000 0000 0000 0000 0000
00000160: 0000 0000 0000 0000 0000 0000 0000 0000
00000170: 0000 0000 0000 0000 0000 0000 0000 0000
00000180: 0000 0000 0000 0000 0000 0000 0000 0000
00000190: 0000 0000 0000 0000 0000 0000 0000 0000
000001a0: 0000 0000 0000 0000 0000 0000 0000 0000
000001b0: 0000 0000 0000 0000 0000 0000 0000 0000
000001c0: 0000 0000 0000 0000 0000 0000 0000 0000
000001d0: 0000 0000 0000 0000 0000 0000 0000 0000
000001e0: 0000 0000 0000 0000 0000 0000 0000 0000
000001f0: 0000 0000 0000 0000 0000 0000 0000 0000
00000200: 0000 0000 0000 0000 0000 0000 0000 0000
00000210: 0000 0000 0000 0000 0000 0000 0000 0000
00000220: 0000 0000 0000 0000 0000 0000 0000 0000
00000230: 0000 0000 0000 0000 0000 0000 0000 0000
00000240: 0000 0000 0000 0000 0000 0000 0000 0000
00000250: 0000 0000 0000 0000 0000 0000 0000 0000
00000260: 0000 0000 0000 0000 0000 0000 0000 0000
00000270: 0000 0000 0000 0000 0000 0000 0000 0000
00000280: 0000 0000 0000 0000 0000 0000 0000 0000
00000290: 0000 0000 0000 0000 0000 0000 0000 0000
000002a0: 0000 0000 0000 0000 0000 0000 0000 0000
000002b0: 0000 0000 0000 0000 0000 0000 0000 0000
000002c0: 0000 0000 0000 0000 0000 0000 0000 0000
000002d0: 0000 0000 0000 0000 0000 0000 0000 0000
000002e0: 0000 0000 0000 0000 0000 0000 0000 0000
000002f0: 0000 0000 0000 0000 0000 0000 0000 0000
00000300: 0000 0000 0000 0000 0000 0000 0000 0000
00000310: 0000 0000 0000 0000 0000 0000 0000 0000
00000320: 0000 0000 0000 0000 0000 0000 0000 0000
00000330: 0000 0000 0000 0000 0000 0000 0000 0000
00000340: 0000 0000 0000 0000 0000 0000 0000 0000
00000350: 0000 0000 0000 0000 0000 0000 0000 0000
00000360: 0000 0000 0000 0000 0000 0000 0000 0000
00000370: 0000 0000 0000 0000 0000 0000 0000 0000
00000380: 0000 0000 0000 0000 0000 0000 0000 0000
00000390: 0000 0000 0000 0000 0000 0000 0000 0000
000003a0: 0000 0000 0000 0000 0000 0000 0000 0000
000003b0: 0000 0000 0000 0000 0000 0000 0000 0000
000003c0: 0000 0000 0000 0000 0000 0000 0000 0000
000003d0: 0000 0000 0000 0000 0000 0000 0000 0000
000003e0: 0000 0000 0000 0000 0000 0000 0000 0000
000003f0: 0000 0000 0000 0000 0000 0000 0000 0000

network_body._body_endoder.seq_layers.2.weight f4 [256, 256]
0.017569365 -0.013959811 -0.13795385 0.050260123 0.01895249 0.012010065 -0.08232389 0.031711694
0.019632194 0.03216198 0.015690634 0.107234664 -0.0023541325 -0.039506227 0.0050022486 0.020772435
0.033712246 -0.027391016 0.06535456 0.044331 -0.15459819 0.045364834 0.022484623 0.048946038
-0.15142378 0.06157869 -0.120175496 0.022514874 -0.11173285 0.07301854 -0.0456096 0.06618795
-0.06965498 0.007001931 0.020786026 0.008328792 0.12018432 0.030298453 -0.0027951936 0.094835766
0.018160257 -0.011972994 0.10578653 -0.088889234 -0.08037243 -0.0051606805 0.03867377 -0.09726258
-0.022608079 0.10099088 0.057511706 0.03015483 0.050078 0.020590007 0.04197424 0.075552806
0.045631386 -0.020992402 0.020379154 0.07582967 0.016902987 -0.058887687 -0.03472041 -0.046582308
0.07525498 0.084111884 -0.032850925 0.092097364 -0.053017482 -0.11308697 -0.020745765 0.089366116
0.020300847 0.023190405 0.0084631005 0.030999266 0.020719822 -0.006535859 0.0010893345 0.15243748
0.064583376 -0.010352964 0.007323336 -0.011119434 0.009849691 0.026292814 -0.0503728 0.03237605
0.056802474 -0.060473472 -0.079006515 -0.002504592 0.024861535 -0.04627506 -0.0458099 0.028985405
-0.059611652 -0.05679747 -0.04193432 -0.1354379 -0.04340198 -0.018798446 0.022406312 0.05508089
-0.060372785 0.091704674 0.06980894 -0.06279521 -0.116168 -0.066704884 -0.011194598 0.04888081
0.04873797 0.038218703 0.05941978 -0.096894555 -0.07084487 0.15277237 -0.013717783 -0.00085744914
-0.045835324 0.0046966965 0.026963629 -0.0063737463 -0.031053642 0.09116788 0.023072653 0.13725927
-0.008678119 -0.04034097 0.022144299 0.063112736 0.15300857 0.0470836 0.04292623 -0.11256511
-0.111032136 -0.008140262 9.881408e-05 0.0029929718 -0.0058073974 0.014145644 -0.07560591 -0.002405697
0.006506618 -0.02254211 0.06386806 -0.014859745 -0.039590407 0.07361982 0.052213065 -0.043996405
0.05044712 -0.029653983 0.0029904116 0.023831213 -0.018862246 0.113781184 -0.07685367 0.033334956
-0.022651898 0.03533368 0.008279506 0.00025278836 -0.062054712 -0.081455916 0.028263299 0.058067705
-0.024574306 0.066028096 -0.12952997 0.0010351149 -0.042395834 0.108633384 -0.034748733 -0.011549573
0.00023737183 -0.008792382 -0.020265093 0.016885046 -0.023033584 -0.006821974 -0.09023779 -0.11243767
-0.021485843 0.037655618 -0.016358895 -0.1230074 -0.07011182 0.06376148 0.060197446 -0.03481742
-0.026246373 -0.011707427 0.068647444 0.03184779 0.0936506 -0.048083488 0.018465145 0.03977453
-0.011578409 -0.17313543 -0.06425422 -0.099113435 0.09546536 0.0991419 -0.037025824 -0.020729901
0.036364574 -0.049567465 -0.0096837515 0.05322909 -0.0014964608 -0.0010274427 -0.095050156 -0.10354188
0.046973806 0.09654077 0.023355309 -0.017747708 0.014663195 -0.026842147 0.016625455 0.032316938
-0.08361476 0.04346828 0.14205836 -0.0031077615 0.06730878 -0.0056165084 0.005198063 0.108492866
-0.031693406 -0.0117815435 -0.000381074 -0.001317576 0.06994293 0.0086236885 -0.078641854 0.0041115833
0.011077452 -0.053406075 0.019589325 -0.048192717 0.008269787 0.02371552 -0.1281158 -0.024439434
0.018877283 -0.045457266 -0.063257046 -0.03734131 -0.13055529 0.06508561 -0.0115768695 -0.030330708
00000000: a1ed 8f3c b1b7 64bc c643 0dbe 8fdd 4d3d
00000010: 4142 9b3c ddc5 443c 6d99 a8bd 1fe4 013d
00000020: b2d3 a03c 48bc 033d a589 803c d99d db3d
00000030: ca47 1abb 48d1 21bd e7e9 a33b f42a aa3c
00000040: da15 0a3d 2063 e0bc 9dd8 853d 6c94 353d
00000050: fd4e 1ebe 7ad0 393d ac31 b83c a47b 483d
00000060: d60e 1bbe f039 7c3d 921e f6bd 1d71 b83c
00000070: 31d4 e4bd bf8a 953d 22d1 3abd 8c8d 873d
00000080: 45a7 8ebd 7470 e53b 7547 aa3c 7c75 083c
00000090: 3223 f63d 7634 f83c 912f 37bb 4139 c23d
000000a0: d2c4 943c 602a 44bc 9ca6 d83d 8f0b b6bd
000000b0: 4d9a a4bd ed1a a9bb 6368 1e3d 9b31 c7bd
000000c0: 9434 b9bc 4ed4 ce3d 6591 6b3d 4307 f73c
000000d0: 971e 4d3d 60ac a83c 2eed 2b3d 6ebb 9a3d
000000e0: fae7 3a3d 42f8 abbc 2ff2 a63c 964c 9b3d
000000f0: 2278 8a3c 3734 71bd fd36 0ebd 17cd 3ebd
00000100: 481f 9a3d da42 ac3d b18e 06bd 8b9d bc3d
00000110: dc28 59bd 249a e7bd 06f3 a9bc 9505 b73d
00000120: f64d a63c cef9 bd3c d1a8 0a3c 2cf2 fd3c
00000130: 9ebc a93c c22a d6bb 00c8 8e3a 9218 1c3e
00000140: 4a44 843d 7a9f 29bc 98f8 ef3b 492e 36bc
00000150: 9960 213c 0764 d73c b653 4ebd c09c 043d
00000160: b6a9 683d 08b3 77bd 2bce a1bd 1524 24bb
00000170: 6baa cb3c eb8a 3dbd 29a3 3bbd cd72 ed3c
00000180: 592b 74bd 77a4 68bd 52c3 2bbd 3cb0 0abe
00000190: 46c6 31bd 33ff 99bc 718d b73c 809c 613d
000001a0: 7449 77bd a9cf bb3d fdf7 8e3d c69a 80bd
000001b0: 7de9 edbd 929c 88bd 8c69 37bc 3f37 483d
000001c0: 77a1 473d 378b 1c3d 2862 733d a770 c6bd
000001d0: 1d17 91bd 5c70 1c3e 8dc0 60bc 70c6 60ba
000001e0: d2bd 3bbd bfe6 993b d4e2 dc3c dcda d0bb
000001f0: 3564 febc 3ab6 ba3d dc02 bd3c b28d 0c3e
00000200: ab2e 0ebc 933c 25bd f667 b53c 4041 813d
00000210: 47ae 1c3e bcda 403d 6ad3 2f3d 8988 e6bd
00000220: d164 e3bd bc5e 05bc 683a cf38 bc25 443b
00000230: fb4b bebb 22c3 673c 45d7 9abd e6a8 1dbb
00000240: 7835 d53b 3baa b8bc 42cd 823d 4a76 73bc
00000250: 8d29 22bd fdc5 963d 5edd 553d 9335 34bd
00000260: a4a1 4e3d e9ec f2bc c8fa 433b ad39 c33c
00000270: ff84 9abc 1c06 e93d 7565 9dbd 3c8a 083d
00000280: 7990 b9bc 0dba 103d c4a6 073c ae88 8439
00000290: 152d 7ebd 5cd2 a6bd 6f88 e73c 67d8 6d3d
000002a0: 0e50 c9bc bd39 873d 81a3 04be b1ac 873a
000002b0: 41a7 2dbd 2e7b de3d b054 0ebd 6c3a 3dbc
000002c0: 04e7 7839 ec0d 10bc fb02 a6bc 8252 8a3c
000002d0: edb0 bcbc de8a dfbb 97ce b8bd b945 e6bd
000002e0: 1403 b0bc c73c 1a3d 1703 86bc 4eeb fbbd
000002f0: c996 8fbd 6195 823d 9991 763d b69c 0ebd
00000300: a202 d7bc 82d0 3fbc 0897 8c3d d472 023d
00000310: e3cb bf3d 31f3 44bd 3744 973c 9eea 223d
00000320: 5eb3 3dbc 6a4a 31be b797 83bd fcfb cabd
00000330: 5883 c33d e90a cb3d 64a8 17bd c1d1 a9bc
00000340: 05f3 143d 4107 4bbd 99a8 1ebc bf06 5a3d
00000350: e424 c4ba 42ab 86ba a8a9 c2bd c40d d4bd
00000360: 9b67 403d 2bb7 c53d a253 bf3c a463 91bc
00000370: e63d 703c 10e4 dbbc 1b32 883c c45e 043d
00000380: 373e abbd cc0b 323d bf77 113e 96ab 4bbb
00000390: 30d9 893d b00a b8bb 8354 aa3b 8231 de3d
000003a0: f2d0 01bd 6007 41bc e3ca c7b9 84b2 acba
000003b0: 3d3e 8f3d 5f4a 0d3c fb0e a1bd 76ba 863b
000003c0: 347e 353c 54c0 5abd cb79 a03c ba65 45bd
000003d0: 007e 073c 0d47 c23c ca30 03be 3535 c8bc
000003e0: 88a4 9a3c 6631 3abd e98c 81bd 34f3 18bd
000003f0: 49b0 05be 9b4b 853d e9ac 3dbc 1b78 f8bc

network_body._body_endoder.seq_layers.2.bias f4 [256]
0.0 0.0 0.0 0.0 0.0 0.0 0.0 0.0
0.0 0.0 0.0 0.0 0.0 0.0 0.0 0.0
0.0 0.0 0.0 0.0 0.0 0.0 0.0 0.0
0.0 0.0 0.0 0.0 0.0 0.0 0.0 0.0
0.0 0.0 0.0 0.0 0.0 0.0 0.0 0.0
0.0 0.0 0.0 0.0 0.0 0.0 0.0 0.0
0.0 0.0 0.0 0.0 0.0 0.0 0.0 0.0
0.0 0.0 0.0 0.0 0.0 0.0 0.0 0.0
0.0 0.0 0.0 0.0 0.0 0.0 0.0 0.0
0.0 0.0 0.0 0.0 0.0 0.0 0.0 0.0
0.0 0.0 0.0 0.0 0.0 0.0 0.0 0.0
0.0 0.0 0.0 0.0 0.0 0.0 0.0 0.0
0.0 0.0 0.0 0.0 0.0 0.0 0.0 0.0
0.0 0.0 0.0 0.0 0.0 0.0 0.0 0.0
0.0 0.0 0.0 0.0 0.0 0.0 0.0 0.0
0.0 0.0 0.0 0.0 0.0 0.0 0.0 0.0
0.0 0.0 0.0 0.0 0.0 0.0 0.0 0.0
0.0 0.0 0.0 0.0 0.0 0.0 0.0 0.0
0.0 0.0 0.0 0.0 0.0 0.0 0.0 0.0
0.0 0.0 0.0 0.0 0.0 0.0 0.0 0.0
0.0 0.0 0.0 0.0 0.0 0.0 0.0 0.0
0.0 0.0 0.0 0.0 0.0 0.0 0.0 0.0
0.0 0.0 0.0 0.0 0.0 0.0 0.0 0.0
0.0 0.0 0.0 0.0 0.0 0.0 0.0 0.0
0.0 0.0 0.0 0.0 0.0 0.0 0.0 0.0
0.0 0.0 0.0 0.0 0.0 0.0 0.0 0.0
0.0 0.0 0.0 0.0 0.0 0.0 0.0 0.0
0.0 0.0 0.0 0.0 0.0 0.0 0.0 0.0
0.0 0.0 0.0 0.0 0.0 0.0 0.0 0.0
0.0 0.0 0.0 0.0 0.0 0.0 0.0 0.0
0.0 0.0 0.0 0.0 0.0 0.0 0.0 0.0
0.0 0.0 0.0 0.0 0.0 0.0 0.0 0.0
00000000: 0000 0000 0000 0000 0000 0000 0000 0000
00000010: 0000 0000 0000 0000 0000 0000 0000 0000
00000020: 0000 0000 0000 0000 0000 0000 0000 0000
00000030: 0000 0000 0000 0000 0000 0000 0000 0000
00000040: 0000 0000 0000 0000 0000 0000 0000 0000
00000050: 0000 0000 0000 0000 0000 0000 0000 0000
00000060: 0000 0000 0000 0000 0000 0000 0000 0000
00000070: 0000 0000 0000 0000 0000 0000 0000 0000
00000080: 0000 0000 0000 0000 0000 0000 0000 0000
00000090: 0000 0000 0000 0000 0000 0000 0000 0000
000000a0: 0000 0000 0000 0000 0000 0000 0000 0000
000000b0: 0000 0000 0000 0000 0000 0000 0000 0000
000000c0: 0000 0000 0000 0000 0000 0000 0000 0000
000000d0: 0000 0000 0000 0000 0000 0000 0000 0000
000000e0: 0000 0000 0000 0000 0000 0000 0000 0000
000000f0: 0000 0000 0000 0000 0000 0000 0000 0000
00000100: 0000 0000 0000 0000 0000 0000 0000 0000
00000110: 0000 0000 0000 0000 0000 0000 0000 0000
00000120: 0000 0000 0000 0000 0000 0000 0000 0000
00000130: 0000 0000 0000 0000 0000 0000 0000 0000
00000140: 0000 0000 0000 0000 0000 0000 0000 0000
00000150: 0000 0000 0000 0000 0000 0000 0000 0000
00000160: 0000 0000 0000 0000 0000 0000 0000 0000
00000170: 0000 0000 0000 0000 0000 0000 0000 0000
00000180: 0000 0000 0000 0000 0000 0000 0000 0000
00000190: 0000 0000 0000 0000 0000 0000 0000 0000
000001a0: 0000 0000 0000 0000 0000 0000 0000 0000
000001b0: 0000 0000 0000 0000 0000 0000 0000 0000
000001c0: 0000 0000 0000 0000 0000 0000 0000 0000
000001d0: 0000 0000 0000 0000 0000 0000 0000 0000
000001e0: 0000 0000 0000 0000 0000 0000 0000 0000
000001f0: 0000 0000 0000 0000 0000 0000 0000 0000
00000200: 0000 0000 0000 0000 0000 0000 0000 0000
00000210: 0000 0000 0000 0000 0000 0000 0000 0000
00000220: 0000 0000 0000 0000 0000 0000 0000 0000
00000230: 0000 0000 0000 0000 0000 0000 0000 0000
00000240: 0000 0000 0000 0000 0000 0000 0000 0000
00000250: 0000 0000 0000 0000 0000 0000 0000 0000
00000260: 0000 0000 0000 0000 0000 0000 0000 0000
00000270: 0000 0000 0000 0000 0000 0000 0000 0000
00000280: 0000 0000 0000 0000 0000 0000 0000 0000
00000290: 0000 0000 0000 0000 0000 0000 0000 0000
000002a0: 0000 0000 0000 0000 0000 0000 0000 0000
000002b0: 0000 0000 0000 0000 0000 0000 0000 0000
000002c0: 0000 0000 0000 0000 0000 0000 0000 0000
000002d0: 0000 0000 0000 0000 0000 0000 0000 0000
000002e0: 0000 0000 0000 0000 0000 0000 0000 0000
000002f0: 0000 0000 0000 0000 0000 0000 0000 0000
00000300: 0000 0000 0000 0000 0000 0000 0000 0000
00000310: 0000 0000 0000 0000 0000 0000 0000 0000
00000320: 0000 0000 0000 0000 0000 0000 0000 0000
00000330: 0000 0000 0000 0000 0000 0000 0000 0000
00000340: 0000 0000 0000 0000 0000 0000 0000 0000
00000350: 0000 0000 0000 0000 0000 0000 0000 0000
00000360: 0000 0000 0000 0000 0000 0000 0000 0000
00000370: 0000 0000 0000 0000 0000 0000 0000 0000
00000380: 0000 0000 0000 0000 0000 0000 0000 0000
00000390: 0000 0000 0000 0000 0000 0000 0000 0000
000003a0: 0000 0000 0000 0000 0000 0000 0000 0000
000003b0: 0000 0000 0000 0000 0000 0000 0000 0000
000003c0: 0000 0000 0000 0000 0000 0000 0000 0000
000003d0: 0000 0000 0000 0000 0000 0000 0000 0000
000003e0: 0000 0000 0000 0000 0000 0000 0000 0000
000003f0: 0000 0000 0000 0000 0000 0000 0000 0000

action_model._continuous_distribution.log_sigma f4 [1, 2]
0.0 0.0
00000000: 0000 0000 0000 0000

action_model._continuous_distribution.mu.weight f4 [2, 256]
0.0042753685 -0.0052809375 -0.01225441 0.0024816585 0.01839201 -0.021287277 0.013223541 0.004861954
-0.007795078 -0.0010967889 -0.0073508727 0.018101288 -0.015859703 -0.0023728488 0.00898811 0.015780447
-0.003281241 0.0016273598 -0.007540937 0.013241793 0.013520329 0.012751149 0.0053440756 -0.012811229
0.0024325151 -0.007517463 -0.0059062513 -0.017487563 0.009222715 0.0055931886 -0.0024456156 0.012074564
0.0012512822 -0.012354992 -0.0044039926 -0.0003357126 0.004920608 0.0027790784 0.013874218 0.025008265
0.0029558095 -0.008251394 0.006003455 -0.010868414 6.1584135e-05 0.018659048 0.0070634545 -0.0007297065
0.016764399 -0.009988545 0.013122188 -0.0021312947 0.012608932 0.031349953 -0.03288841 -0.010128165
-0.00012620696 0.011618071 -0.018047249 0.013894145 0.01875907 -0.0064760945 -0.004333991 -0.0061330968
0.005919131 0.004181975 -0.013486152 0.001725091 -0.016619964 0.0011749677 -0.011327043 0.023674017
-2.515572e-05 0.021234391 0.0021110391 0.01882525 0.0247782 0.031441856 -0.012020645 -0.014156289
0.0039032344 0.007481072 0.00034084273 -0.0011715236 0.013390876 0.0005657316 -0.01677657 0.017585
0.008219316 0.012225304 0.0160122 0.009897569 -0.0026124553 -0.023651123 -0.014731504 0.00960357
0.013442382 0.014570626 0.010442178 -0.012050155 0.0029002142 -0.029188594 0.023498224 -0.008694882
-0.0058026295 -0.005918411 0.023891484 -0.015264464 0.010614513 0.001534904 0.0007484326 -0.009205
-0.0027521774 0.010529306 -0.014474327 -0.0119668 -0.00051410496 0.00074697245 -0.024133025 -0.002051885
0.011076192 0.0031310709 0.0077265906 -0.002929614 0.0020423362 -0.017071774 -0.007686525 -0.0013281445
0.030750481 -0.0023938676 -0.008974559 -0.015476336 -0.01644932 0.012463103 -0.010783582 0.0021491193
0.008147128 0.008238049 0.00989439 0.00034835679 0.02030239 0.011779173 0.013315487 -0.01984411
0.002205189 -0.0049468135 0.0042161667 0.00505456 0.0022965034 0.021178082 -0.010178792 -0.01013387
0.001079756 -0.0006968243 -0.011548772 -0.029033396 -0.006149394 0.014050509 -0.010879062 0.006397433
0.0018718102 0.012436455 0.011215496 -0.002717452 -0.010275972 -0.011259466 0.019838722 0.0004337417
-0.0058530713 0.015217942 0.009401589 0.0030522484 0.0016572826 -0.0030248072 0.0018577628 0.008548996
-0.0038790784 -0.010485167 -0.0025341946 0.007763821 0.011001161 -0.019394308 0.0012680257 -0.01800181
0.011161664 -0.0023950376 -0.0067775124 -0.010519563 -0.006284974 0.009823798 0.021002436 0.014850162
0.0029455614 0.0082982825 0.01884047 -0.0039601615 0.013545692 -0.011178668 0.0064282045 0.014360212
-0.008522004 0.003819316 -0.011222928 -0.003029634 0.023900848 0.003794619 -0.017086733 0.011838401
0.006741352 -0.018645093 -0.008273808 -0.001238456 0.0007193543 -0.012427878 -0.0011121787 0.016746547
-0.0021469833 -0.009364623 0.011706515 -0.0018194545 -0.011192259 -0.027360955 0.0037915655 0.008563188
-0.011839138 0.017822193 0.013819999 0.012281256 0.0009934744 0.018132752 -0.010801551 -0.025555396
-0.0005822249 0.017777732 -0.00416792 0.012824358 0.0073997574 0.018326536 -0.0046652406 0.015100385
0.0019585025 0.009694088 -0.004338236 0.0018594966 -0.0011923262 0.0039789835 0.008731108 -0.0063302303
0.0031447876 0.011046688 0.0055977297 0.018703628 -0.0031766226 0.014772366 -0.0076520476 0.0045862156
00000000: 6418 8c3b b70b adbb b9c6 48bc 52a3 223b
00000010: d7aa 963c a862 aebc 8da7 583c 0751 9f3b
00000020: db6d ffbb 21c2 8fba 97df f0bb 2749 943c
00000030: 35ec 81bc cc81 1bbb de42 133c ff45 813c
00000040: 170a 57bb 224d d53a f719 f7bb 1bf4 583c
00000050: 5f84 5d3c 32ea 503c 5b1d af3b 30e6 51bc
00000060: d56a 1f3b 0d55 f6bb 3a89 c1bb 1442 8fbc
00000070: df1a 173c 1147 b73b 9f46 20bb 64d4 453c
00000080: 1002 a43a 986c 4abc 5e4f 90bb 9502 b0b9
00000090: 0d3d a13b 3321 363b b050 633c 22de cc3c
000000a0: 41b6 413b db30 07bc a1b8 c43b 6f11 32bc
000000b0: bb26 8138 dcda 983c 8d74 e73b c649 3fba
000000c0: 7e55 893c ffa6 23bc 72fe 563c 31ad 0bbb
000000d0: b295 4e3c cf68 003d ffb5 06bd 9af0 25bc
000000e0: 6c56 04b9 b959 3e3c d3d7 93bc 45a4 633c
000000f0: 9fac 993c 6b35 d4bb 2704 8ebb 25f8 c8bb
00000100: 45f5 c13b f308 893b 05f5 5cbc 731c e23a
00000110: 9726 88bc 6001 9a3a 1095 39bc 03f0 c13c
00000120: 7f05 d3b7 bff3 ad3c 5c59 0a3b 6937 9a3c
00000130: a7fb ca3c 2dc9 003d 3df2 44bc c8ef 67bc
00000140: 68cd 7f3b c823 f53b 23b3 b239 cf8d 99ba
00000150: 6865 5b3c 9b4d 143a 046f 89bc 6b0e 903c
00000160: 4faa 063c a44c 483c 042c 833c 6a29 223c
00000170: ba35 2bbb 00c0 c1bc 685c 71bc 4b58 1d3c
00000180: 703d 5c3c a3b9 6e3c ab15 2b3c 036e 45bc
00000190: 8511 3e3b eb1c efbc 597f c03c fa74 0ebc
000001a0: fc23 bebb 3bef c1bb 13b8 c33c cd17 7abc
000001b0: 7fe8 2d3c d52e c93a 7632 443a 91d0 16bc
000001c0: e05d 34bb 1c83 2c3c ba25 6dbc 6610 44bc
000001d0: 00c5 06ba 79d0 433a 9fb2 c5bc eb78 06bb
000001e0: eb78 353c a732 4d3b 572f fd3b c4fe 3fbb
000001f0: b7d8 053b 1bda 8bbc 3fdf fbbb 2215 aeba
00000200: 6fe8 fb3c 6fe2 1cbb 070a 13bc 7590 7dbc
00000210: b9c0 86bc 0b32 4c3c 9fad 30bc 3dd8 0c3b
00000220: 887b 053c e2f8 063c 141c 223c a8a3 b639
00000230: 3351 a63c 6ffd 403c 3329 5a3c 1d90 a2bc
00000240: ef84 103b e118 a2bb c527 8a3b b9a0 a53b
00000250: ef80 163b a87d ad3c f3c4 26bc 8808 26bc
00000260: 9986 8d3a 16ab 36ba 1037 3dbc 72d7 edbc
00000270: db80 c9bb 1b34 663c 183e 32bc 8fa1 d13b
00000280: 8757 f53a 46c2 4b3c 33c1 373c 4717 32bb
00000290: 8d5c 28bc a079 38bc d184 a23c d367 e339
000002a0: 1fcb bfbb ad54 793c 1f09 1a3c 3b08 483b
000002b0: 2d39 d93a d83b 46bb 2d80 f33a 1711 0c3c
000002c0: 2338 7ebb fac9 2bbc bb14 26bb a767 fe3b
000002d0: 373e 343c d0e0 9ebc e233 a63a 8878 93bc
000002e0: 69df 363c 10f6 1cbb e515 debb 3f5a 2cbc
000002f0: 2ff2 cdbb fff3 203c 4d0d ac3c 184e 733c
00000300: 520a 413b 85f5 073c 5457 9a3c 3ec4 81bb
00000310: c0ee 5d3c bb26 37bc b0a3 d23b 1847 6b3c
00000320: e09f 0bbc 7d4d 7a3b 5fe0 37bc d38c 46bb
00000330: b6cb c33c 25af 783b 7af9 8bbc daf5 413c
00000340: 8fe6 dc3b 98bd 98bc de8e 07bc b053 a2ba
00000350: 0d93 3c3a 4c9e 4bbc 86c6 91ba 0e30 893c
00000360: 67b4 0cbb 136e 19bc afcc 3f3c c37a eeba
00000370: bd5f 37bc 1524 e0bc ea7b 783b 9d4c 0c3c
00000380: f2f8 41bc d9ff 913c 476d 623c 5237 493c
00000390: 7837 823a 238b 943c fdf8 30bc 8d59 d1bc
000003a0: 74a0 18ba 9ba2 913c 0c93 88bb 421d 523c
000003b0: aa79 f23b 8821 963c e0de 98bb 9b67 773c
000003c0: 385a 003b f4d3 1e3c c327 8ebb 5aba f33a
000003d0: d447 9cba 2262 823b ec0c 0f3c d26d cfbb
000003e0: c818 4e3b 2bfd 343c 296d b73b 5a38 993c
000003f0: e22e 50bb cb07 723c 07be fabb f747 963b

action_model._continuous_distribution.mu.bias f4 [2]
0.0 0.0
00000000: 0000 0000 0000 0000

network_body.observation_encoder.processors.0.normalizer.running_mean f4 [20]
0.0 0.0 0.0 0.0 0.0 0.0 0.0 0.0
0.0 0.0 0.0 0.0 0.0 0.0 0.0 0.0
0.0 0.0 0.0 0.0
00000000: 0000 0000 0000 0000 0000 0000 0000 0000
00000010: 0000 0000 0000 0000 0000 0000 0000 0000
00000020: 0000 0000 0000 0000 0000 0000 0000 0000
00000030: 0000 0000 0000 0000 0000 0000 0000 0000
00000040: 0000 0000 0000 0000 0000 0000 0000 0000

network_body.observation_encoder.processors.0.normalizer.running_variance f4 [20]
1.0 1.0 1.0 1.0 1.0 1.0 1.0 1.0
1.0 1.0 1.0 1.0 1.0 1.0 1.0 1.0
1.0 1.0 1.0 1.0
00000000: 0000 803f 0000 803f 0000 803f 0000 803f
00000010: 0000 803f 0000 803f 0000 803f 0000 803f
00000020: 0000 803f 0000 803f 0000 803f 0000 803f
00000030: 0000 803f 0000 803f 0000 803f 0000 803f
00000040: 0000 803f 0000 803f 0000 803f 0000 803f

network_body.observation_encoder.processors.1.normalizer.running_mean f4 [12]
0.0 0.0 0.0 0.0 0.0 0.0 0.0 0.0
0.0 0.0 0.0 0.0
00000000: 0000 0000 0000 0000 0000 0000 0000 0000
00000010: 0000 0000 0000 0000 0000 0000 0000 0000
00000020: 0000 0000 0000 0000 0000 0000 0000 0000

network_body.observation_encoder.processors.1.normalizer.running_variance f4 [12]
1.0 1.0 1.0 1.0 1.0 1.0 1.0 1.0
1.0 1.0 1.0 1.0
00000000: 0000 803f 0000 803f 0000 803f 0000 803f
00000010: 0000 803f 0000 803f 0000 803f 0000 803f
00000020: 0000 803f 0000 803f 0000 803f 0000 803f

network_body.observation_encoder.processors.2.normalizer.running_mean f4 [3]
0.0 0.0 0.0
00000000: 0000 0000 0000 0000 0000 0000

network_body.observation_encoder.processors.2.normalizer.running_variance f4 [3]
1.0 1.0 1.0
00000000: 0000 803f 0000 803f 0000 803f

network_body.processors.0.normalizer.running_mean f4 [20]
0.0 0.0 0.0 0.0 0.0 0.0 0.0 0.0
0.0 0.0 0.0 0.0 0.0 0.0 0.0 0.0
0.0 0.0 0.0 0.0
00000000: 0000 0000 0000 0000 0000 0000 0000 0000
00000010: 0000 0000 0000 0000 0000 0000 0000 0000
00000020: 0000 0000 0000 0000 0000 0000 0000 0000
00000030: 0000 0000 0000 0000 0000 0000 0000 0000
00000040: 0000 0000 0000 0000 0000 0000 0000 0000

network_body.processors.0.normalizer.running_variance f4 [20]
1.0 1.0 1.0 1.0 1.0 1.0 1.0 1.0
1.0 1.0 1.0 1.0 1.0 1.0 1.0 1.0
1.0 1.0 1.0 1.0
00000000: 0000 803f 0000 803f 0000 803f 0000 803f
00000010: 0000 803f 0000 803f 0000 803f 0000 803f
00000020: 0000 803f 0000 803f 0000 803f 0000 803f
00000030: 0000 803f 0000 803f 0000 803f 0000 803f
00000040: 0000 803f 0000 803f 0000 803f 0000 803f

network_body.processors.1.normalizer.running_mean f4 [12]
0.0 0.0 0.0 0.0 0.0 0.0 0.0 0.0
0.0 0.0 0.0 0.0
00000000: 0000 0000 0000 0000 0000 0000 0000 0000
00000010: 0000 0000 0000 0000 0000 0000 0000 0000
00000020: 0000 0000 0000 0000 0000 0000 0000 0000

network_body.processors.1.normalizer.running_variance f4 [12]
1.0 1.0 1.0 1.0 1.0 1.0 1.0 1.0
1.0 1.0 1.0 1.0
00000000: 0000 803f 0000 803f 0000 803f 0000 803f
00000010: 0000 803f 0000 803f 0000 803f 0000 803f
00000020: 0000 803f 0000 803f 0000 803f 0000 803f

network_body.processors.2.normalizer.running_mean f4 [3]
0.0 0.0 0.0
00000000: 0000 0000 0000 0000 0000 0000

network_body.processors.2.normalizer.running_variance f4 [3]
1.0 1.0 1.0
00000000: 0000 803f 0000 803f 0000 803f

network_body._body_endoder.seq_layers.0.weight f4 [256, 35]
0.070338555 0.10414802 0.027374245 -0.2009997 -0.025634414 0.17761251 0.40474346 0.35900584
-0.22167133 0.14860389 0.06474907 0.007921043 -0.25846678 -0.2479992 0.040018644 -0.021568043
-0.13159582 -0.109716885 0.028499216 0.006712904 -0.19948947 0.048632823 -0.09407547 0.27104673
0.19388738 0.27343932 -0.276788 0.29063156 -0.15382409 0.051423352 -0.030963423 0.019393176
0.3055377 0.1641542 0.039865978 -0.18463466 -0.15659171 0.025743773 0.0029372752 0.14994632
0.044145852 0.018347943 -0.4426728 -0.06660745 -0.026492724 0.15295507 -0.032379813 -0.036034003
-0.17579919 0.35501012 -0.05676542 -0.19859749 -0.034060437 -0.2769792 0.27230522 0.21087387
-0.26447788 0.15457132 0.10260436 -0.029197756 0.15672264 0.25667584 0.2392922 -0.21666574
0.18974602 -0.19644187 -0.23079453 -0.13286959 0.18597361 0.32172742 0.02267301 0.12899669
0.0038502698 -0.035030566 -0.23320761 0.26796412 0.32154077 0.08518093 0.42992604 0.3411225
-0.070921056 0.3821034 -0.19084218 -0.026311398 0.011255844 0.051923964 0.052369814 -0.18057795
-0.105692565 0.06348976 0.10496086 0.17565969 -0.054546874 -0.15891545 0.3336771 -0.0720228
0.25306016 0.17684309 0.05743089 0.39015964 -0.19527324 -0.032628093 -0.16109456 0.019144256
-0.039301973 0.29044545 0.15817176 -0.24178831 -0.18628643 0.037565943 0.29654804 -0.110693246
-0.09296493 -0.09716733 0.0184019 -0.24835789 -0.0718079 -0.010987591 -0.01303307 0.274416
0.07017484 0.3504287 0.09508036 0.12755178 0.15703544 -0.1819863 0.43384627 0.052906886
-0.11305412 -0.22682919 0.17076798 -0.058119476 0.029342001 -0.28891885 0.22390044 0.008784211
-0.055639725 -0.0048915287 -0.16180466 0.11760087 -0.21072893 0.23987685 -0.012017633 0.11749999
-0.0968388 -0.050629713 -0.062029663 -0.10005044 -0.091620825 0.034528542 0.09762122 0.08761448
0.1611792 -0.22469576 -0.12760629 0.17333546 0.2602761 0.031998087 0.03807205 -0.018868404
0.2011035 0.031226508 0.12628601 -0.01367759 0.17184897 0.24210447 0.21259412 -0.00065296347
-0.07663265 -0.028233457 0.027858818 0.06900928 -0.108370036 0.15538138 -0.32893425 -0.08759854
-0.02094409 -0.14364824 -0.028230688 -0.021174047 -0.18488978 0.019010637 0.023342734 -0.13363522
0.38287225 -0.07112767 -0.050297763 0.08200683 -0.06868585 0.17696162 -0.05401059 -0.08881862
0.019834008 -0.21231936 -0.055204887 0.014323261 -0.19876356 0.12838954 0.21271499 0.0032259282
0.14672531 -0.030671863 0.04672763 0.14174893 0.053540908 -0.07777838 0.12984245 -0.31273174
0.25263727 0.08152796 0.08112181 0.04669911 -0.13861026 0.18418261 -0.122446634 0.11646552
0.15425615 0.11593422 0.11088283 -0.30490014 -0.13973601 -0.0035529344 0.004224103 0.17887263
0.14404605 0.19550246 0.28742635 0.05225035 -0.089682326 0.22727866 -0.21604756 -0.11946592
0.09461167 0.35968915 -0.032686498 -0.19933628 -0.110344864 -0.031425983 -0.11442692 0.085953176
-0.11121132 -0.20345539 -0.029898746 0.112628385 -0.052119084 0.02837411 0.0323067 -0.13810015
0.1384368 -0.1785007 0.15468955 0.52167445 0.044910733 0.08500972 0.1766857 -0.44144768
00000000: a90d 903d 8f4b d53d f43f e03c ded2 4dbe
00000010: 43ff d1bc 0ee0 353e 893a cf3e 9dcf b73e
00000020: cffd 62be 9e2b 183e 299b 843d 43c7 013c
00000030: c255 84be 81f3 7dbe 97ea 233d 77af b0bc
00000040: 0ec1 06be 3fb3 e0bd 3077 e93c ecf7 db3b
00000050: f846 4cbe 3633 473d a4aa c0bd a3c6 8a3e
00000060: 6a8a 463e 3d00 8c3e 28b7 8dbe a9cd 943e
00000070: 1084 1dbe 4ba1 523d 01a7 fdbc 70de 9e3c
00000080: 706f 9c3e 0a18 283e 824a 233d de10 3dbe
00000090: 9459 20be 9be4 d23c 4d7f 403b 878b 193e
000000a0: 48d2 343d 6d4e 963c 02a6 e2be 7d69 88bd
000000b0: 4507 d9bc 41a0 1c3e b2a0 04bd 6498 13bd
000000c0: b404 34be e3c3 b53e db82 68bd 245d 4bbe
000000d0: f582 0bbd 38d0 8dbe 976b 8b3e 52ef 573e
000000e0: a569 87be f247 1e3e 3c22 d23d 2230 efbc
000000f0: e67b 203e 046b 833e 0409 753e a0dd 5dbe
00000100: c84c 423e 0f28 49be 6755 6cbe f70e 08be
00000110: de6f 3e3e 75b9 a43e c0bc b93c b517 043e
00000120: cf54 7c3b 367c 0fbd facd 6ebe 9832 893e
00000130: fea0 a43e 5773 ae3d 441f dc3e 9ca7 ae3e
00000140: 0f3f 91bd 0fa3 c33e 226c 43be 008b d7bc
00000150: 6e6a 383c 39ae 543d bb81 563d 6de9 38be
00000160: 5875 d8bd eb06 823d b8f5 d63d 22e0 333e
00000170: 8b6c 5fbd bbba 22be bad7 aa3e b180 93bd
00000180: 1a91 813e 5b16 353e a73c 6b3d 01c3 c73e
00000190: b5f5 47be 09a5 05bd f9f5 24be 6ad4 9c3c
000001a0: 1bfb 20bd 44b5 943e c7f7 213e 5b97 77be
000001b0: dfc1 3ebe bfde 193d 25d5 973e 24b3 e2bd
000001c0: 6664 bebd aaff c6bd 95bf 963c 8851 7ebe
000001d0: 0510 93bd 4c05 34bc a888 55bc 4180 8c3e
000001e0: d4b7 8f3d 646b b33e 7eb9 c23d ef9c 023e
000001f0: e6cd 203e 9e5a 3abe 1921 de3e e4b4 583d
00000200: eb88 e7bd e945 68be cddd 2e3e b00e 6ebd
00000210: a35e f03c 2ced 93be 2846 653e a7eb 0f3c
00000220: 7be6 63bd 1e49 a0bb 1fb0 25be bad8 f03d
00000230: 53c9 57be 47a2 753e 9be5 44bc d6a3 f03d
00000240: 6c53 c6bd 1a61 4fbd d112 7ebd 3fe7 ccbd
00000250: b3a3 bbbd cd6d 0d3d a2ed c73d 386f b33d
00000260: 290c 253e a516 66be 39ab 02be da7e 313e
00000270: e942 853e 6d10 033d 70f1 1b3d e991 9abc
00000280: 13ee 4d3e bcce ff3c 1f51 013e f817 60bc
00000290: 2df9 2f3e 3cea 773e 46b2 593e a32b 2bba
000002a0: 94f1 9cbd da49 e7bc 2d38 e43c bd54 8d3d
000002b0: 1cf1 ddbd 4c1c 1f3e 126a a8be dd66 b3bd
000002c0: f192 abbc 8618 13be 0b44 e7bc 3275 adbc
000002d0: bf53 3dbe 32bc 9b3c 4339 bf3c acd7 08be
000002e0: d507 c43e 62ab 91bd 0705 4ebd 32f3 a73d
000002f0: 2bab 8cbd 6d35 353e 353a 5dbd 89e6 b5bd
00000300: ee7a a23c 3f6a 59be 851e 62bd 1cac 6a3c
00000310: ad88 4bbe 8c78 033e f5d1 593e 186a 533b
00000320: 293f 163e 8f43 fbbc 7965 3f3d a226 113e
00000330: b64d 5b3d 454a 9fbd 6bf5 043e 601e a0be
00000340: ac59 813e 22f8 a63d 3123 a63d 9147 3f3d
00000350: d9ef 0dbe 5e9a 3c3e 4dc5 fabd 7985 ee3d
00000360: 53f5 1d3e ec6e ed3d 8a16 e33d df1b 9cbe
00000370: f516 0fbe 59d8 68bb 586a 8a3b 632a 373e
00000380: cf80 133e cc31 483e 8c29 933e 7704 563d
00000390: 5eab b7bd bdbb 683e 923b 5dbe 8caa f4bd
000003a0: c3c3 c13d 2d29 b83e 47e2 05bd cf1e 4cbe
000003b0: 7dfc e1bd 88b8 00bd a958 eabd 3808 b03d
000003c0: c3c2 e3bd 9c56 50be 37ee f4bc b6a9 e63d
000003d0: d27a 55bd d270 e83c 0854 043d 206a 0dbe
000003e0: 60c2 0d3e e3c8 36be f066 1e3e 758c 053f
000003f0: 51f4 373d 9319 ae3d 19ed 343e 6e05 e2be

network_body._body_endoder.seq_layers.0.bias f4 [256]
0.0 0.0 0.0 0.0 0.0 0.0 0.0 0.0
0.0 0.0 0.0 0.0 0.0 0.0 0.0 0.0
0.0 0.0 0.0 0.0 0.0 0.0 0.0 0.0
0.0 0.0 0.0 0.0 0.0 0.0 0.0 0.0
0.0 0.0 0.0 0.0 0.0 0.0 0.0 0.0
0.0 0.0 0.0 0.0 0.0 0.0 0.0 0.0
0.0 0.0 0.0 0.0 0.0 0.0 0.0 0.0
0.0 0.0 0.0 0.0 0.0 0.0 0.0 0.0
0.0 0.0 0.0 0.0 0.0 0.0 0.0 0.0
0.0 0.0 0.0 0.0 0.0 0.0 0.0 0.0
0.0 0.0 0.0 0.0 0.0 0.0 0.0 0.0
0.0 0.0 0.0 0.0 0.0 0.0 0.0 0.0
0.0 0.0 0.0 0.0 0.0 0.0 0.0 0.0
0.0 0.0 0.0 0.0 0.0 0.0 0.0 0.0
0.0 0.0 0.0 0.0 0.0 0.0 0.0 0.0
0.0 0.0 0.0 0.0 0.0 0.0 0.0 0.0
0.0 0.0 0.0 0.0 0.0 0.0 0.0 0.0
0.0 0.0 0.0 0.0 0.0 0.0 0.0 0.0
0.0 0.0 0.0 0.0 0.0 0.0 0.0 0.0
0.0 0.0 0.0 0.0 0.0 0.0 0.0 0.0
0.0 0.0 0.0 0.0 0.0 0.0 0.0 0.0
0.0 0.0 0.0 0.0 0.0 0.0 0.0 0.0
0.0 0.0 0.0 0.0 0.0 0.0 0.0 0.0
0.0 0.0 0.0 0.0 0.0 0.0 0.0 0.0
0.0 0.0 0.0 0.0 0.0 0.0 0.0 0.0
0.0 0.0 0.0 0.0 0.0 0.0 0.0 0.0
0.0 0.0 0.0 0.0 0.0 0.0 0.0 0.0
0.0 0.0 0.0 0.0 0.0 0.0 0.0 0.0
0.0 0.0 0.0 0.0 0.0 0.0 0.0 0.0
0.0 0.0 0.0 0.0 0.0 0.0 0.0 0.0
0.0 0.0 0.0 0.0 0.0 0.0 0.0 0.0
0.0 0.0 0.0 0.0 0.0 0.0 0.0 0.0
00000000: 0000 0000 0000 0000 0000 0000 0000 0000
00000010: 0000 0000 0000 0000 0000 0000 0000 0000
00000020: 0000 0000 0000 0000 0000 0000 0000 0000
00000030: 0000 0000 0000 0000 0000 0000 0000 0000
00000040: 0000 0000 0000 0000 0000 0000 0000 0000
00000050: 0000 0000 0000 0000 0000 0000 0000 0000
00000060: 0000 0000 0000 0000 0000 0000 0000 0000
00000070: 0000 0000 0000 0000 0000 0000 0000 0000
00000080: 0000 0000 0000 0000 0000 0000 0000 0000
00000090: 0000 0000 0000 0000 0000 0000 0000 0000
000000a0: 0000 0000 0000 0000 0000 0000 0000 0000
000000b0: 0000 0000 0000 0000 0000 0000 0000 0000
000000c0: 0000 0000 0000 0000 0000 0000 0000 0000
000000d0: 0000 0000 0000 0000 0000 0000 0000 0000
000000e0: 0000 0000 0000 0000 0000 0000 0000 0000
000000f0: 0000 0000 0000 0000 0000 0000 0000 0000
00000100: 0000 0000 0000 0000 0000 0000 0000 0000
00000110: 0000 0000 0000 0000 0000 0000 0000 0000
00000120: 0000 0000 0000 0000 0000 0000 0000 0000
00000130: 0000 0000 0000 0000 0000 0000 0000 0000
00000140: 0000 0000 0000 0000 0000 0000 0000 0000
00000150: 0000 0000 0000 0000 0000 0000 0000 0000
00000160: 0000 0000 0000 0000 0000 0000 0000 0000
00000170: 0000 0000 0000 0000 0000 0000 0000 0000
00000180: 0000 0000 0000 0000 0000 0000 0000 0000
00000190: 0000 0000 0000 0000 0000 0000 0000 0000
000001a0: 0000 0000 0000 0000 0000 0000 0000 0000
000001b0: 0000 0000 0000 0000 0000 0000 0000 0000
000001c0: 0000 0000 0000 0000 0000 0000 0000 0000
000001d0: 0000 0000 0000 0000 0000 0000 0000 0000
000001e0: 0000 0000 0000 0000 0000 0000 0000 0000
000001f0: 0000 0000 0000 0000 0000 0000 0000 0000
00000200: 0000 0000 0000 0000 0000 0000 0000 0000
00000210: 0000 0000 0000 0000 0000 0000 0000 0000
00000220: 0000 0000 0000 0000 0000 0000 0000 0000
00000230: 0000 0000 0000 0000 0000 0000 0000 0000
00000240: 0000 0000 0000 0000 0000 0000 0000 0000
00000250: 0000 0000 0000 0000 0000 0000 0000 0000
00000260: 0000 0000 0000 0000 0000 0000 0000 0000
00000270: 0000 0000 0000 0000 0000 0000 0000 0000
00000280: 0000 0000 0000 0000 0000 0000 0000 0000
00000290: 0000 0000 0000 0000 0000 0000 0000 0000
000002a0: 0000 0000 0000 0000 0000 0000 0000 0000
000002b0: 0000 0000 0000 0000 0000 0000 0000 0000
000002c0: 0000 0000 0000 0000 0000 0000 0000 0000
000002d0: 0000 0000 0000 0000 0000 0000 0000 0000
000002e0: 0000 0000 0000 0000 0000 0000 0000 0000
000002f0: 0000 0000 0000 0000 0000 0000 0000 0000
00000300: 0000 0000 0000 0000 0000 0000 0000 0000
00000310: 0000 0000 0000 0000 0000 0000 0000 0000
00000320: 0000 0000 0000 0000 0000 0000 0000 0000
00000330: 0000 0000 0000 0000 0000 0000 0000 0000
00000340: 0000 0000 0000 0000 0000 0000 0000 0000
00000350: 0000 0000 0000 0000 0000 0000 0000 0000
00000360: 0000 0000 0000 0000 0000 0000 0000 0000
00000370: 0000 0000 0000 0000 0000 0000 0000 0000
00000380: 0000 0000 0000 0000 0000 0000 0000 0000
00000390: 0000 0000 0000 0000 0000 0000 0000 0000
000003a0: 0000 0000 0000 0000 0000 0000 0000 0000
000003b0: 0000 0000 0000 0000 0000 0000 0000 0000
000003c0: 0000 0000 0000 0000 0000 0000 0000 0000
000003d0: 0000 0000 0000 0000 0000 0000 0000 0000
000003e0: 0000 0000 0000 0000 0000 0000 0000 0000
000003f0: 0000 0000 0000 0000 0000 0000 0000 0000

network_body._body_endoder.seq_layers.2.weight f4 [256, 256]
-0.028159054 0.037887145 0.030906023 0.0004032327 -0.06115492 -0.03926572 -0.00017481382 -0.06964436
-0.055218164 -0.0029803596 -0.064200796 0.07381783 -0.03212668 -0.041526724 0.013273664 0.036396947
0.04842812 -0.09494513 0.031924006 0.017938912 0.036106788 0.073546074 0.019932235 0.010395282
0.010382072 0.04970903 0.06711965 0.03487154 -0.01795438 0.008486341 0.029626949 0.013498465
-0.011885804 -0.059840325 -0.042221863 -0.08592184 -0.1318621 -0.017974973 0.13083214 -0.045103505
-0.049942784 -0.013991344 -0.044454142 -0.05393283 -0.04846103 -0.017876789 0.01155432 0.017271291
-0.045756344 -0.006664781 -0.00097631064 0.019145714 -0.01195748 0.039034292 -0.030840134 -0.09028086
-0.0046457844 0.07057294 0.013360667 0.050527968 -0.04240265 -0.030258076 0.059752785 0.031238986
-0.02627063 -0.114939116 0.013763525 0.013925046 -0.12320241 0.051176246 -0.04485897 0.020333856
-0.024727186 0.081649765 0.039480127 0.073172964 -0.040623844 0.052496452 0.012247038 0.0010702407
0.022521378 -0.045214295 0.01863312 0.02985237 0.028328858 -0.06838301 0.012029368 -0.016052227
-0.112639986 -0.035211183 0.01629277 0.035007257 -0.04636588 0.10286226 0.047011156 0.076526895
0.0124298455 -0.07165397 -0.07861948 0.012617863 0.11035235 -0.012632473 0.023252975 -0.03648504
0.011818985 0.08136588 -0.015520427 -0.09661981 0.116185896 -0.08102177 -0.07015778 0.04848165
-0.038605176 0.011984501 -0.00043597742 0.02548637 -0.0048967875 0.05512519 0.06544087 0.03520198
-0.039872754 -0.021044293 0.09927747 -0.03633622 0.01693975 -0.028735489 -0.06359502 -0.02239061
0.01863421 -0.0074688504 -0.066740796 -0.083623275 -0.029074695 0.08125205 0.009900425 -0.039075997
0.05229526 0.024302604 0.0036573072 -0.040165287 0.05838572 -0.07522951 0.07345946 -0.036503967
-0.0033204465 -0.03229219 0.067568116 0.039660595 -0.05468552 -0.027868051 0.021930786 0.022161849
0.00890354 0.015419506 0.08775001 0.13509005 -0.03943513 0.034026846 0.06043254 0.057677284
-0.12995847 0.083443604 0.07040606 -0.038502276 0.059896402 -0.030762797 -0.0053568915 -0.08500683
0.026691088 -0.031549674 0.033156663 0.06962162 0.12481826 -0.01690329 -0.05133431 -0.08472124
0.009075736 0.032566186 0.007165158 -0.016833171 -0.122207135 -0.045810156 -0.04686968 0.013177023
-0.11099454 -0.10974219 -0.066824846 -0.028647585 0.059532136 -0.084852755 0.023441063 -0.23539436
0.019145481 0.07050554 0.03629417 -0.17974374 -0.013516833 0.0050568716 0.024629323 -0.033572786
0.04455484 0.120520145 -0.07846353 -0.008894378 -0.02557167 -0.012994678 0.07024345 -0.1004733
-0.030603077 -0.10711605 0.07106761 0.11568537 0.07049734 -0.09092415 0.062276125 -0.01685133
-0.01701426 0.0023646227 -0.08721877 0.106740944 -0.0614391 0.008144681 -0.029307786 0.044592768
-0.04402185 -0.05179501 -0.042682797 -0.0851065 -0.03117546 -0.046705578 -0.019331666 -0.01568412
0.009505224 0.019562563 0.01646782 -0.015913714 0.08391155 -0.066646 -0.018827673 0.08232577
0.02994858 0.13745132 -0.09286505 0.006268738 -0.01847702 0.0061670616 0.054439813 -0.06328878
-0.025871154 0.061301842 -0.0899106 0.028776275 -0.045110393 -0.085686035 0.10522419 -0.03313742
00000000: d1ad e6bc 8d2f 1b3d a12e fd3c fa68 d339
00000010: 957d 7abd 17d5 20bd 3a4e 37b9 b4a1 8ebd
00000020: 712c 62bd 2352 43bb b57b 83bd cd2d 973d
00000030: 4497 03bd ed17 2abd c879 593c f714 153d
00000040: 905c 463d 9872 c2bd bfc2 023d a0f4 923c
00000050: b6e4 133d 539f 963d ed48 a33c f950 2a3c
00000060: 9119 2a3c b29b 4b3d 0776 893d 76d5 0e3d
00000070: 1015 93bc 4b0a 0b3c 37b4 f23c aa28 5d3c
00000080: adbc 42bc 211b 75bd d5f0 2cbd caf7 afbd
00000090: dc06 07be 4040 93bc dcf8 053e 74be 38bd
000000a0: ce90 4cbd f33b 65bc 8c15 36bd ace8 5cbd
000000b0: 137f 46bd 5872 92bc 554e 3d3c 867c 8d3c
000000c0: 016b 3bbd 3c64 dabb 19ef 7fba 79d7 9c3c
000000d0: 4ee9 43bc 6ce2 1f3d 73a4 fcbc 2ce5 b8bd
000000e0: aa3b 98bb 8c88 903d b3e6 5a3c 6af6 4e3d
000000f0: 67ae 2dbd c9df f7bc 56bf 743d e7e8 ff3c
00000100: 8135 d7bc 3365 ebbd 6880 613c e025 643c
00000110: 8c51 fcbd 2f9e 513d 0abe 37bd 3093 a63c
00000120: ab90 cabc fe37 a73d eab5 213d b5db 953d
00000130: 3065 26bd 8506 573d cda7 483c 5247 8c3a
00000140: c17e b83c a032 39bd 7ca4 983c f58c f43c
00000150: ec11 e83c 640c 8cbd d416 453c f67f 83bc
00000160: cbaf e6bd 9a39 10bd 6a78 853c c563 0f3d
00000170: 26ea 3dbd 73a9 d23d c58e 403d 22ba 9c3d
00000180: 8da6 4b3c 51bf 92bd 4003 a1bd 27bb 4e3c
00000190: 6a00 e23d 6ff8 4ebc 067d be3c 5671 15bd
000001a0: 6ba4 413c 28a3 a63d 6449 7ebc 9be0 c5bd
000001b0: dff2 ed3d beee a5bd e2ae 8fbd b294 463d
000001c0: 7620 1ebd a45a 443c e693 e4b9 cbc8 d03c
000001d0: 3b75 a0bb f4ca 613d dd05 863d f42f 103d
000001e0: 9d51 23bd 1565 acbc fc51 cb3d 4ad5 14bd
000001f0: 3bc5 8a3c b066 ebbc 1b3e 82bd 836c b7bc
00000200: c5a6 983c 42bd f4bb 66af 88bd ae42 abbd
00000210: 0e2e eebc 7a67 a63d 6435 223c 270e 20bd
00000220: 8e33 563d 4116 c73c 6faf 6f3b 5b84 24bd
00000230: dd25 6f3d ee11 9abd ea71 963d 2f85 15bd
00000240: d99b 59bb d144 04bd 2761 8a3d 2673 223d
00000250: ecfd 5fbd 8a4b e4bc 31a8 b33c c48c b53c
00000260: 27e0 113c 18a2 7c3c 47b6 b33d 0c55 0a3e
00000270: bb86 21bd bc5f 0b3d 1c88 773d 043f 6c3d
00000280: d513 05be 7be4 aa3d 0d31 903d 90b4 1dbd
00000290: ee55 753d 4302 fcbc dd88 afbb 1018 aebd
000002a0: 45a7 da3c 3b3a 01bd 48cf 073d c895 8e3d
000002b0: b7a0 ff3d c578 8abc ed43 52bd 5482 adbd
000002c0: 65b2 143c 1f64 053d b4c9 ea3b b8e5 89bc
000002d0: bc47 fabd 6ea3 3bbd 6cfa 3fbd 71e4 573c
000002e0: 1b51 e3bd 83c0 e0bd 77db 88bd 57ae eabc
000002f0: f8d7 733d 48c7 adbd 7907 c03c 380b 71be
00000300: fcd6 9c3c 3565 903d 32a9 143d be0e 38be
00000310: b575 5dbc 1db4 a53b 6fc3 c93c 9e83 09bd
00000320: 237f 363d 44d3 f63d 7db1 a0bd bab9 11bc
00000330: ae7b d1bc a1e7 54bc ccdb 8f3d f2c4 cdbd
00000340: 4eb3 fabc a95f dbbd e58b 913d 74ec ec3d
00000350: e960 903d 7136 babd 4015 7f3d cd0b 8abc
00000360: 7d61 8bbc c9f7 1a3b c19f b2bd ff9a da3d
00000370: 91a7 7bbd 4571 053c e216 f0bc e8a6 363d
00000380: 4150 34bd 0127 54bd 28d4 2ebd 514c aebd
00000390: ae63 ffbc 594e 3fbd 715d 9ebc fc7b 80bc
000003a0: cdbb 1b3c ab41 a03c 86e7 863c 7a5d 82bc
000003b0: d2d9 ab3d b37d 88bd 7e3c 9abc 6a9a a83d
000003c0: b956 f53c 0ac0 0c3e 0830 bebd fc69 cd3b
000003d0: 1f5d 97bc 1015 ca3b 48fc 5e3d 8c9d 81bd
000003e0: beef d3bc a417 7b3d 0c23 b8bd 39bc eb3c
000003f0: adc5 38bd 297c afbd c87f d73d 1abb 07bd
