results/firstry/KartAgent/KartAgent-36357.onnx (onnx, 305043 bytes, 13 tensors)

network_body.observation_encoder.processors.0.normalizer.running_mean f4 [20]
000000 00 00 00 00 e8 9c 7e 3f 00 00 00 00 0b c7 1f 3e
       0.0 0.9945817 0.0 0.15603273
000010 4b 47 13 3f 99 dd d8 3e 00 00 00 00 16 9c 5d 3e
       0.5753066 0.42356566 0.0 0.21641573
000020 9c ed 5d 3f f4 21 07 3e 00 00 00 00 ea 9f e5 3d
       0.8669069 0.13196546 0.0 0.11212142
000030 a0 cb 2c 3f 2c ee a5 3e 00 00 00 00 43 1b 61 3e
       0.6749821 0.32408273 0.0 0.21983056
000040 8b f8 5a 3f a9 28 13 3e 00 00 00 00 c5 8e e2 3d
       0.85535496 0.1437098 0.0 0.110623874

network_body.observation_encoder.processors.1.normalizer.running_mean f4 [12]
000000 00 00 00 00 e8 9c 7e 3f 00 00 00 00 dd a4 ff 3c
       0.0 0.9945817 0.0 0.031206543
000010 00 00 00 00 e8 9c 7e 3f 00 00 00 00 c9 05 00 3d
       0.0 0.9945817 0.0 0.031255517
000020 00 00 00 00 e8 9c 7e 3f 00 00 00 00 c9 05 00 3d
       0.0 0.9945817 0.0 0.031255517

network_body.observation_encoder.processors.2.normalizer.running_mean f4 [3]
000000 55 8e 9a 3d 55 e6 4a 3d 50 bc 68 3e
       0.07546679 0.049536068 0.22728086

network_body._body_endoder.seq_layers.0.weight f4 [256, 35]
000000 64 33 30 be 14 a7 82 3e 2a 2a 7a bd b4 8d 21 3b
       -0.17207104 0.25518095 -0.061075367 0.0024651112
000010 2f 10 fb 3d e3 09 5a 3e b1 f1 28 3e 79 28 85 be
       0.12258946 0.21292834 0.16498448 -0.2600744
000020 56 6a 23 be 92 4f 3f be ef d9 65 3e 55 8e 3f 3e
       -0.15958533 -0.18682697 0.22446416 0.18706639
000030 29 7a d3 3d 94 c1 42 3e fa cf b1 bd e2 53 9b bd
       0.103260346 0.19019157 -0.086822465 -0.07584359
000040 61 09 bd bd d1 62 dd 3d 25 95 6f 3e b8 16 55 be
       -0.092303045 0.10809863 0.23396738 -0.20809448
000050 12 55 2e bb 9d a3 57 be 9d 78 97 3d 0c cc 4c 3d
       -0.0026600999 -0.21058507 0.07396052 0.04999928
000060 e4 78 41 3e 59 77 e6 bd e2 f1 c4 bd be 11 ca 3c
       0.18893772 -0.112532325 -0.09616448 0.024666663
000070 7d c9 26 3e 92 c8 16 bd e5 e3 2c bd 9a 91 18 3e
       0.16287799 -0.036812373 -0.042209525 0.14899293
000080 1b fb 37 3e 23 02 59 be c6 af 97 be bf b0 b3 3e
       0.17966883 -0.21192221 -0.29626292 0.35095784
000090 d0 7e bc 3d 65 6f 81 3d c1 28 39 be 0f e6 6a bd
       0.09203875 0.06320075 -0.18081953 -0.057348307
0000a0 bb ca c3 bd 08 68 ad bd dd fd e5 3d 13 22 1a 3e
       -0.09560152 -0.08467108 0.11230061 0.15052061
0000b0 a6 c3 5c 3e 59 2a bd bd c0 41 b1 bd 36 a7 35 3d
       0.21559009 -0.09236593 -0.08655119 0.044348918
0000c0 28 ee b9 3c eb 1f 9f 3d 43 c6 32 be b5 c6 44 3d
       0.02269657 0.0776976 -0.17458443 0.048041064
0000d0 5b 54 61 3e 05 24 08 bd 40 61 52 3e 07 15 3a be
       0.22004835 -0.033237476 0.2054491 -0.18172084
0000e0 82 01 29 3d 23 a5 7e 3e 29 f7 45 be 3e cf 54 3e
       0.041261204 0.24867682 -0.19332565 0.20782182
0000f0 9b b7 82 be 6c c2 8a 3d 14 dc aa 3b f6 e5 e9 bc
       -0.25530705 0.06775364 0.0052142236 -0.028552037
000100 58 74 1b be d4 6b ea bd dd 7a 05 bd 63 8c d2 bd
       -0.151811 -0.11446348 -0.032587875 -0.10280683
000110 be ab 3e 3e a6 82 d9 3d 55 16 bc bd 98 e8 f2 3d
       0.18620202 0.10620622 -0.09183947 0.1186077
000120 0b 26 91 bd 66 d0 13 3d 56 63 46 bc a2 ac 42 3e
       -0.07087334 0.036087416 -0.0121086445 0.19011167
000130 a3 aa 13 be b5 f2 57 3e ae 0e f3 3c 61 83 67 be
       -0.14420561 0.21088679 0.029670086 -0.22608711
000140 6e 26 5d be 0a a0 92 bd d6 be 0e be 3f 24 f1 3d
       -0.21596691 -0.07159431 -0.13939986 0.117744915
000150 23 16 1f bd e3 d4 52 3e 64 6b ba be 2c 94 f4 3d
       -0.03883947 0.20589022 -0.36410058 0.11942324
000160 1b b5 a4 bd 15 bb f5 3d 88 12 1b 3e 92 69 da bd
       -0.080423556 0.11998574 0.15143788 -0.10664667
000170 a3 c3 87 3d 90 b4 42 be 3d 14 5a 3d c6 a7 ca bd
       0.066291116 -0.19014192 0.053241957 -0.098952815
000180 e6 84 9e 3c 38 2c 1d 3d a1 bb 75 3e ce 0d fa 3d
       0.01935048 0.03837225 0.23997356 0.12209664
000190 eb 68 78 bd ef b7 05 bd 71 85 8e 3e da 13 76 3d
       -0.060646933 -0.032646116 0.27836183 0.060077526
0001a0 b9 81 36 bd 34 01 3a bd 91 ca c7 3e 84 7f ac 3a
       -0.044557307 -0.045411304 0.39021733 0.0013160561
0001b0 fe 65 63 be 0e de 22 3e cb 97 40 be 7d ed 31 3e
       -0.22206876 0.1590502 -0.18807904 0.17375751
0001c0 47 15 3e bd 2c 75 82 3e fd 3c 10 be c6 34 13 be
       -0.04640701 0.2548002 -0.14085765 -0.143756
0001d0 59 a2 77 bd fd f9 8a 3e 8a 0b a2 3d 6f af d0 bd
       -0.06045756 0.2714385 0.07912357 -0.10189711
0001e0 10 45 08 3e e9 89 3e 3d 0c a0 ca bd a4 4a 1d 3e
       0.13307595 0.04651824 -0.09893808 0.15360504
0001f0 57 b4 97 3e 94 00 b5 bd 36 89 5b 3e bd ec 84 3e
       0.29629776 -0.08838001 0.2143906 0.25961867
000200 25 5f 5f be 0a 28 42 3d 4b fe 1b 3e 6f 6f 0e 3d
       -0.21813639 0.047401465 0.15233724 0.03477424
000210 f5 54 51 be ed 3b 6a be e7 50 9d 3e b9 6a 49 3d
       -0.20442565 -0.22874422 0.30725786 0.049174044
000220 f5 33 bc bd 29 97 3a 3d ca 79 4f 3e c9 ac 10 3d
       -0.091895975 0.045554314 0.20261303 0.03532103
000230 8f b7 70 3d d2 bd 18 be 34 d6 34 bd f4 ab 84 be
       0.058768805 -0.1491616 -0.044149593 -0.2591244
000240 ee 09 e6 3c 3e 80 58 bd db 43 a6 3d a0 2b b0 bd
       0.028080907 -0.052856676 0.08118411 -0.08602071
000250 e5 c8 e5 3d 24 1d a8 bd 7e 5b a2 bc db 25 46 3e
       0.11219958 -0.08208683 -0.019819017 0.19350378
000260 c1 13 44 be 34 47 48 be 86 bf 4b bd f2 22 14 3e
       -0.1914816 -0.19558412 -0.049743198 0.14466456
000270 e2 51 9a 39 d8 fa 91 bd 80 54 bd bd 80 5b b7 bd
       0.00029434176 -0.07127923 -0.09244633 -0.08952999
000280 a1 02 a5 3d 5a c1 a5 3c 22 04 46 3c d9 8f d5 be
       0.08057142 0.020233799 0.012085946 -0.4171131
000290 29 94 62 bd 2b 2f 78 3a f7 29 44 be 23 8c 01 3e
       -0.055317078 0.0009467478 -0.19156633 0.12651114
0002a0 20 ea 3f bd 32 5a 77 3e 02 d8 bb bd 66 8e 25 be
       -0.04685414 0.241555 -0.091720596 -0.16167602
0002b0 65 ae 78 be e5 6d 6c be 95 4f c0 be 2c 86 39 3e
       -0.24285276 -0.23088796 -0.37560716 0.18117589
0002c0 8c 5a 52 bb 7d 6f 41 be 83 72 ce bc f8 a2 5e 3e
       -0.0032097427 -0.18890186 -0.025201088 0.21741855
0002d0 6a ef 3e be 56 8a 4d 3d d8 f9 1f be 8f 40 14 3e
       -0.18646017 0.050180756 -0.15622652 0.14477752
0002e0 cd 8b fe bd a9 56 c2 3b 52 1f 92 bc c6 2d 08 be
       -0.12429009 0.005930741 -0.0178372 -0.13298711
0002f0 59 39 b5 be 1e 3e db 3d 48 04 f0 3d 3a 0c 83 be
       -0.35395315 0.10705207 0.117195666 -0.25595266
000300 d4 26 bb 3c bc bf f3 bd 1f 4a b1 3d 97 5c 73 3e
       0.022845663 -0.11901805 0.086567156 0.23765789
000310 f3 7e c1 3c c1 2c 04 3e 44 36 6e be 69 40 6b be
       0.023620104 0.12907697 -0.23262888 -0.2297379
000320 12 17 07 be c0 8c e7 bc 3c e8 13 3e 28 74 a3 bd
       -0.13192394 -0.028265357 0.14444059 -0.079811394
000330 84 c5 29 3e b8 ba 98 3e 93 09 d1 3d 0e 7f b1 be
       0.16579252 0.29829955 0.10206904 -0.34667248
000340 eb b3 5c 3e f2 c7 af 3c 94 77 21 3e 91 e2 3d 3d
       0.21553008 0.021457646 0.15768272 0.04635865
000350 89 59 c3 bd 40 73 2a 3e 2c 72 92 3e 78 b7 d4 3d
       -0.09538562 0.16645527 0.2860273 0.103865564
000360 76 6c 5d 3e b2 61 36 be 9d 8f e7 3d ad bf c9 3d
       0.21623406 -0.17810705 0.11306689 0.098510124
000370 2f e3 e5 bd 9f 17 98 3d cf 00 e3 3d 27 c8 c8 bd
       -0.112249725 0.0742638 0.110841386 -0.09803801
000380 67 df 34 bc 7f 07 5d 3e 2e 2f 88 bd 4d ca f8 3d
       -0.011039591 0.21584891 -0.06649624 0.12147961
000390 db c7 3c be 08 87 5b be a5 65 c9 bd 9b ec 4c 3d
       -0.18435614 -0.21438229 -0.0983384 0.050030332
0003a0 5e b2 22 3e 63 9c 15 3e a9 e6 80 3e 8b 1b b3 3e
       0.15888354 0.14610438 0.2517598 0.3498195
0003b0 8f 70 2a 3c a8 66 b8 bd 2f c3 84 bc c5 56 3f 3e
       0.010402813 -0.09003955 -0.016206352 0.18685444
0003c0 bd 77 10 3e dd 62 82 be 8f c2 02 3e 26 4d e2 3d
       0.14108177 -0.25466052 0.1276953 0.11049871
0003d0 35 23 62 3e 1a 9d bc 3d 33 79 b7 bd 3c 19 73 3e
       0.22083743 0.09209652 -0.08958664 0.23740095
0003e0 dc 83 ca bb 14 1d 97 3d 70 87 87 3e 79 73 b8 3d
       -0.0061802696 0.07378593 0.26470518 0.090064
0003f0 1c 9e fb bd 17 d7 97 3d 29 59 e3 ba 07 f9 4f 3e
       -0.12286016 0.07414072 -0.0017345297 0.2030984

network_body._body_endoder.seq_layers.0.bias f4 [256]
000000 77 c8 f8 bb b1 1e 7a bb e6 34 3f bc 87 4c 68 bb
       -0.0075922566 -0.0038165266 -0.011670327 -0.0035446004
000010 5b b5 0c bc 29 cb 53 3b af 50 82 ba b9 38 1c 3c
       -0.00858816 0.0032317138 -0.0009942258 0.009535008
000020 9b de 9f b9 26 b1 07 bb 2e 6c cf ba bb 66 ed bb
       -0.00030492697 -0.0020704954 -0.0015825087 -0.0072449124
000030 c1 a7 25 bc 50 cb 1a 3a 29 e3 01 bc d3 f3 52 bb
       -0.010110796 0.000590493 -0.007927694 -0.0032188788
000040 da 6c 00 bc 35 fc 60 bc a5 c7 c3 bb 20 ee 37 3b
       -0.007838452 -0.013732006 -0.005974727 0.0028065518
000050 a2 f2 18 ba 0d 12 e2 bb 9f 8f 45 bc 6f 14 a7 ba
       -0.0005834495 -0.0068991245 -0.012058168 -0.0012747179
000060 0d 88 96 bb f8 84 b6 3a 3b b7 10 bc cd c3 07 bc
       -0.0045938552 0.0013925126 -0.008832748 -0.008286429
000070 43 0d 3c bb 52 07 c0 bb 00 7b d3 bb f3 af e2 ba
       -0.0028694428 -0.0058602476 -0.0064538717 -0.0017294869
000080 2b 24 ee bb 14 7b a5 bb b1 c8 d1 bb bc 9f d3 ba
       -0.007267495 -0.0050500724 -0.006402098 -0.0016145627
000090 69 cd 66 bb f5 38 6b 3a 57 7a 98 ba 0e e0 ab bb
       -0.003521765 0.0008973026 -0.001163314 -0.0052452153
0000a0 d6 a8 12 bc 8f aa d6 bb 25 8d 4b bb 27 09 4e ba
       -0.008951386 -0.006551094 -0.003105947 -0.000785964
0000b0 07 10 4c bb 7f 79 a8 3b 43 b0 82 bb e5 b3 92 bb
       -0.0031137483 0.0051414366 -0.003988297 -0.0044770115
0000c0 33 1e ba bb d3 c2 54 bc d3 0f 37 3b 41 d4 37 bb
       -0.0056798696 -0.012985903 0.0027933016 -0.0028050097
0000d0 a2 20 27 bb e8 ad 20 bc d3 a2 94 39 f5 26 a7 bb
       -0.0025501628 -0.0098070875 0.00028350073 -0.0051010796
0000e0 12 68 82 3b 08 bb fc ba 17 bc 3e bb b4 41 45 bc
       0.0039796913 -0.0019281814 -0.002910381 -0.012039591
0000f0 d4 71 01 3b 4c b9 49 bc 65 8d 37 bc d5 b3 7a bb
       0.0019751685 -0.012312245 -0.011203145 -0.003825416
000100 69 2e e5 bb 3d a4 dd bb 4f db f9 bb f2 cd 82 ba
       -0.006994058 -0.0067639635 -0.0076250206 -0.0009979589
000110 8f 03 50 3b d1 95 8e bc 50 97 9e 3a be 0f dc bb
       0.0031740402 -0.017405422 0.0012099538 -0.006715744
000120 1a ff 3b 39 da 25 50 bc a8 50 17 bc f4 ef 2d bc
       0.00017928742 -0.012704337 -0.009235539 -0.010616291
000130 7e 1e 77 ba 69 09 99 3a ed e8 6d bc 07 6e 71 3a
       -0.0009426846 0.0011675778 -0.014520866 0.0009209816
000140 0b dc a1 bb 66 b6 0e bc 66 26 bc bb 29 19 b9 bb
       -0.0049395612 -0.008710479 -0.005741882 -0.0056487513
000150 9f ce 42 bb 51 b9 11 bc 02 00 90 bb d8 e9 20 bb
       -0.0029725207 -0.0088942805 -0.004394532 -0.0024553444
000160 5c 2c ac bb da 0f e6 bb 91 c5 af 3a 5c dc 26 bc
       -0.0052543115 -0.0070209326 0.001341032 -0.010184374
000170 49 5b 1c bc 65 91 15 b8 f9 d4 c3 3b 7b db af ba
       -0.009543248 -3.5659777e-05 0.005976316 -0.0013416851
000180 5a 76 95 bc d5 22 84 bb ff 7d e8 bb 05 5e 35 bc
       -0.018244911 -0.0040324726 -0.007095098 -0.011069779
000190 12 19 33 3c a2 86 1a bc c3 a7 5c bb 80 4b 23 bc
       0.01093127 -0.009431513 -0.003366933 -0.009966731
0001a0 f2 e4 1b bc 51 7d 91 3b fb ca 1b bb cf f3 e8 bb
       -0.009515034 0.0044399877 -0.0023772109 -0.0071091424
0001b0 e5 fd 47 bb 3e 0f 6b bb 2e 6c ea bb a5 79 68 bc
       -0.0030516323 -0.003586724 -0.0071540093 -0.014189159
0001c0 94 f6 24 bc 65 6e ec bb 18 7a dc 3b 9a fb b9 bb
       -0.010068554 -0.0072153085 0.006728422 -0.005675745
0001d0 00 10 f0 b9 8e 61 af bb 11 ac a5 bb 62 ac 62 3a
       -0.00045788288 -0.0053522056 -0.0050559123 0.0008646903
0001e0 1a 45 52 bb 61 06 a5 bb f9 f3 36 bb 16 87 54 bb
       -0.0032084645 -0.005036161 -0.0027916415 -0.003242915
0001f0 3c 10 d4 3b 74 26 59 bc 02 aa e3 bb 11 8d 76 bb
       0.006471662 -0.013253797 -0.0069477567 -0.0037620703
000200 f1 81 bc b9 ee 65 1e 3b 38 26 e7 bb 46 94 86 bb
       -0.00035954968 0.0024169642 -0.0070541166 -0.004107031
000210 32 39 b6 38 6f 7b ac b8 b1 cc 51 bb fe 74 81 ba
       8.68909e-05 -8.2245904e-05 -0.0032012875 -0.0009876785
000220 11 a1 f8 bb b2 cb 20 3b 1d 68 d1 bb 59 7e 89 3b
       -0.00758756 0.0024535474 -0.006390585 0.00419597
000230 a8 b8 01 3c 14 ed 31 3b d1 9f 4c bb ac b8 81 bb
       0.007917561 0.0027149366 -0.0031223188 -0.003958782
000240 eb f9 39 bc 3f 75 06 bc f5 e0 c1 bb 94 01 9a b9
       -0.011351089 -0.008206665 -0.0059167095 -0.00029374345
000250 7e dc 8f 3a a8 db 5b bb 96 fe 37 bc ce e1 f3 39
       0.0010975746 -0.0033547673 -0.011230132 0.0004651681
000260 59 bf 71 bb b9 cd 8b 3a 4f 3f e8 b8 39 4d 9e bb
       -0.0036887734 0.0010666169 -0.00011074414 -0.004830983
000270 03 61 41 3b ed d3 97 3a 63 94 05 bc 26 a7 64 bc
       0.0029507286 0.0011583545 -0.008153054 -0.013955867
000280 57 7e 66 bc a1 59 90 bc f9 1b 13 3b ec 98 59 3c
       -0.014068208 -0.017620863 0.0022447093 0.013281088
000290 ef fa 76 bc 2b 0d 6a 3b 78 83 70 3b 5e e8 eb bb
       -0.015074476 0.0035713415 0.0036699455 -0.007199331
0002a0 69 0a 73 3b cb 4f 36 bb 5c 84 89 bb 6b c9 54 bb
       0.0037085062 -0.0027818556 -0.0041966867 -0.0032468687
0002b0 f3 5b 2b bc ff fe ec 3b 16 bf 8e bb bb 70 7a 3a
       -0.010458934 0.0072325463 -0.0043562753 0.00095535413
0002c0 7d 51 04 bc 2d 8f 1e 3a 50 20 37 bb 20 c9 08 bc
       -0.008076069 0.00060485565 -0.0027942844 -0.008348733
0002d0 84 9c 0a bc 12 e1 da ba 40 1f 8f 3a 30 f8 47 bc
       -0.008460168 -0.0016699156 0.0010919347 -0.012205169
0002e0 9c 3c da 39 71 9d 4d 3b a3 80 02 bc 6a b4 70 bb
       0.00041625358 0.003137436 -0.00796524 -0.003672863
0002f0 78 8d 2b bb 12 31 f7 3a ab 7b 1a bb e1 81 be bb
       -0.0026176851 0.0018859229 -0.0023572247 -0.0058138226
000300 ff 1e 87 bb 42 9b 1a bb ec eb aa 3b f4 38 61 bc
       -0.004123568 -0.0023591076 0.0052161124 -0.013746489
000310 da 9a 62 3a 9d cb 5d bb 78 f7 83 bb 08 2e f4 bb
       0.00086442905 -0.0033843287 -0.0040273033 -0.0074517764
000320 47 f6 0e bc ec 76 72 bb 71 14 99 bb 81 3d 20 bc
       -0.008725709 -0.0036997152 -0.0046716263 -0.009780289
000330 3b d1 5c bc 5a e1 d9 ba 2b 06 46 3b 8b 38 39 bc
       -0.013477619 -0.0016622946 0.0030216079 -0.011304985
000340 02 63 7d ba c9 bd 1f 3b cb 7d bb bb 54 85 d0 bb
       -0.00096659374 0.0024374595 -0.005721783 -0.00636355
000350 84 0b ad bb 3f 66 b2 bb 0f a5 8b ba 91 cb 21 bc
       -0.005280914 -0.0054443176 -0.001065405 -0.009875194
000360 6b 18 bf bb 75 a0 53 ba b4 66 58 ba f7 bf aa ba
       -0.0058317683 -0.0008072921 -0.000825505 -0.0013027181
000370 d2 8e 1a bb 37 8f dc ba f1 88 0d bb 5c 64 83 3a
       -0.0023583663 -0.0016827349 -0.0021596516 0.0010024416
000380 2e f8 a3 bb e2 67 85 bb 77 43 a6 bc 50 9c 6c ba
       -0.0050039506 -0.0040712217 -0.020295842 -0.0009025978
000390 6d ba a4 bb 21 b7 86 bb 91 28 a8 bb 2c a4 26 3c
       -0.0050271065 -0.004111186 -0.005131789 0.010170978
0003a0 68 40 9f 3b e6 8d bc 3b be 47 8d bc 04 ac 89 bb
       0.0048599727 0.0057542203 -0.017246123 -0.004201414
0003b0 86 3e d1 3b fc 80 61 bb 39 2a 94 bb 47 4c 7c 38
       0.006385627 -0.0034409156 -0.004521635 6.015252e-05
0003c0 e4 20 86 bb c4 35 b1 bb 8c d5 3b ba 9c 49 29 bb
       -0.0040932763 -0.0054080207 -0.0007165305 -0.0025831228
0003d0 83 a8 71 39 c7 a9 16 ba 57 0f c2 bb 76 95 d5 3a
       0.00023046327 -0.00057473447 -0.005922239 0.0016295153
0003e0 61 2b 3e bc f6 f7 fb bb 3d 23 36 bc 37 09 16 3c
       -0.011607022 -0.0076894714 -0.0111168 0.00915747
0003f0 e9 93 49 bc fa e2 a8 bb d7 22 9c bb 97 a1 e2 bb
       -0.012303331 -0.005154011 -0.0047648954 -0.0069162357

network_body._body_endoder.seq_layers.2.weight f4 [256, 256]
000000 3b 86 2d 3c c4 f0 a2 bc d7 0c 18 bd 1d f2 a0 3d
       0.010591085 -0.019890197 -0.03712162 0.078586794
000010 ae d1 e5 3c 54 0e 9c 3d 42 23 09 3d 02 e2 85 bc
       0.028054085 0.076199204 0.03348089 -0.01634312
000020 5d 3f 4d bd 0e 29 04 3e 4d f7 2e bb 5d 27 c4 3d
       -0.050109256 0.12906286 -0.0026697696 0.095778205
000030 20 e3 49 3d 00 2d a8 3d 91 0b 86 bd 29 37 50 bd
       0.04928887 0.08211708 -0.06545175 -0.050833855
000040 00 29 af 3b 63 57 92 3c d5 13 a0 bd 87 47 07 bd
       0.0053454638 0.017863935 -0.07816283 -0.0330272
000050 7e d4 e8 3d 06 8d bc bd 52 e0 39 3c cb 67 c1 3d
       0.11368655 -0.092065856 0.011344986 0.09443625
000060 07 aa 54 bd af 26 2c 3e 50 75 06 be ec 3f cb 3d
       -0.051919963 0.16811632 -0.13130689 0.099243015
000070 17 ba 9f 3b 2a 5b 11 3d a1 cc 98 bd 3a 57 ec bc
       0.0048744786 0.03548733 -0.07460905 -0.028850187
000080 c4 ad e2 bd c3 13 61 3c 38 20 9d 3d a8 76 4a bd
       -0.110682994 0.013737622 0.07672161 -0.049429566
000090 6d 69 b9 bd f3 38 6f bd 12 3c 07 3d 7a 8b e3 3d
       -0.090533115 -0.05840392 0.033016272 0.111105874
0000a0 cf 9c dc bd b6 bd 00 3e 40 02 8b bc 16 a1 f3 3c
       -0.10772096 0.12572369 -0.016968846 0.029739898
0000b0 2b aa 88 bd b3 f8 d9 bd 3a d3 86 3d 64 3f 09 be
       -0.06673082 -0.10643139 0.06583257 -0.13403088
0000c0 30 6a a0 3d 1e b2 4f bd 22 1b bc bd 75 9c 5d bd
       0.07832754 -0.050706975 -0.09184863 -0.054104287
0000d0 3c cc 84 3d 22 c2 a0 3d 22 00 a7 3c 2d b6 18 3d
       0.06484267 0.07849528 0.020385806 0.03728311
0000e0 d8 25 4a 3d 59 15 8f bc 34 7b 22 3b cb 7d d9 bc
       0.049352497 -0.017466234 0.0024792673 -0.02654924
0000f0 19 78 9a bd 7d 7c d7 3b 6e 7e 72 3c 81 e7 67 bd
       -0.07542438 0.0065761195 0.014800651 -0.056617264
000100 fd 01 b2 3d ca 18 7b bc e7 6d e6 bc 3e c7 34 bd
       0.086917855 -0.015325734 -0.028128577 -0.044135325
000110 8f d1 ac bd c4 c3 17 3d 2a 07 67 3c 00 5c 59 bd
       -0.08438408 0.03705193 0.014100829 -0.053066254
000120 e9 29 5d 3d f3 73 56 3d 20 30 17 3d 4e cf 31 3d
       0.053995047 0.05235667 0.03691113 0.04341059
000130 3b e9 2a bd 88 a0 71 bd 71 f2 c1 3d fd a5 5a 3d
       -0.041726332 -0.058990985 0.0947007 0.053380955
000140 80 44 98 bd 08 64 41 bc ec 98 3e bd 63 a5 c2 3d
       -0.0743494 -0.011803634 -0.046532556 0.09504201
000150 b1 2d 55 bd b3 d1 b1 bc 0d 2a 3b bd 11 52 b5 3d
       -0.052045528 -0.021706438 -0.0456944 0.088535435
000160 95 cc 8f bb f4 6e 06 bd 82 a4 41 bc cb 23 91 3b
       -0.0043884018 -0.032820657 -0.011819007 0.0044293157
000170 97 7c f0 3c c2 40 ac bd 4f be f2 3c fd 60 56 bc
       0.029356284 -0.08410789 0.029631762 -0.013084647
000180 95 5b 0b 3d af 95 78 bc 2e a2 69 bc b9 7a 28 3d
       0.034022886 -0.015172406 -0.014259858 0.041132662
000190 2a 9d aa 3c 2b c1 5e 3d a4 ee 0c bd 39 3e d3 3b
       0.020826895 0.054383438 -0.034407273 0.0064466265
0001a0 73 9a ed bd b1 6a 84 bb d1 14 0f 3d 7e d8 af bd
       -0.116017245 -0.004041039 0.03493196 -0.085862145
0001b0 48 1e f2 3c b7 4d a4 bd 97 7e 43 be 4f 9f c6 3d
       0.029555455 -0.080226354 -0.19091259 0.096983545
0001c0 4f 90 45 3d 48 21 98 bc d6 8e 98 bb 04 94 5e 3d
       0.048233327 -0.018570557 -0.0046556992 0.054340377
0001d0 91 81 d4 bb 11 e2 45 bd 2d 8d 3c 3d 44 24 e7 bd
       -0.006485172 -0.048311297 0.046033073 -0.11286214
0001e0 f0 8a 86 3a 74 53 77 3d e4 41 50 3d e2 f3 a0 3d
       0.0010264795 0.06038232 0.05084409 0.07859017
0001f0 5b 55 8d bd 4a c2 cc 3d 22 62 7b bd e0 85 77 bb
       -0.06901046 0.09997995 -0.061372884 -0.0037769005
000200 24 1a d0 bd 32 19 7c 3d 17 f2 03 bb 84 3d 98 3d
       -0.10161236 0.061547466 -0.002013331 0.07433608
000210 5d 39 8d 3d 0a f0 9c bd 88 20 7c bc b8 d4 3d 3d
       0.06895707 -0.07662971 -0.015388615 0.046345443
000220 2c d7 94 bc 08 2c c8 bc 3c a2 82 3c e3 23 38 3d
       -0.018169008 -0.024435058 0.0159465 0.0449561
000230 e6 ce d9 bd 8b 8d 3a be 4f 37 18 be f2 c3 91 3d
       -0.10635166 -0.18218057 -0.14864849 0.07117452
000240 ba ea d8 bd 3c 4a 1b 3d c3 6f bc 3d 11 dc a1 3b
       -0.105916455 0.037912592 0.09201004 0.004939564
000250 b3 77 82 bd db f5 93 bd 03 ad d4 bc 21 ae ca bd
       -0.06370487 -0.072246276 -0.025961405 -0.09896494
000260 28 a4 7d bc d8 0e a3 bd 3e 39 52 3d d2 ea 9e 3d
       -0.015481032 -0.079618156 0.05132412 0.07759632
000270 3b ab 62 3d eb 00 0a 3d 0c ba dc bc eb 72 a2 bc
       0.05533908 0.03369228 -0.026944183 -0.019830188
000280 39 22 2a bd aa ca 72 3d 85 65 d7 bc 1e fb 8d 3c
       -0.041536544 0.059275307 -0.026293525 0.017331656
000290 a1 1b 49 3d d2 31 dc bd 75 f9 b3 bd e6 5b f4 bb
       0.049098615 -0.1075169 -0.087878145 -0.007457244
0002a0 0f 19 af bc d2 59 60 3c 64 25 4a 3c ca ea 97 bd
       -0.021374254 0.01369329 0.012338016 -0.07417829
0002b0 b0 c4 05 3d bd 91 4f bd ef 84 42 bd 0f a6 eb 3b
       0.03265828 -0.050676096 -0.047490057 0.0071914266
0002c0 43 17 81 3b b6 0b fb 3d cd 1f cc bd 78 67 16 3b
       0.0039395406 0.12258093 -0.09967003 0.0022949856
0002d0 0e fa 0e bd 4b 51 25 3c df 44 8c 3c 23 2c c4 3d
       -0.03490644 0.010090183 0.017122684 0.09578731
0002e0 39 1a 0a bd 3d c1 eb 3a be 7a 14 bd 0c 0e b5 3b
       -0.033716414 0.0017986667 -0.03624987 0.005525356
0002f0 dd 6c 8f 3c 6b b5 da bc 7f 19 f0 bc 3e 90 33 3d
       0.017507965 -0.026697835 -0.029309032 0.043838732
000300 e2 c1 67 bd 2c 92 a7 bc cb 19 8c bc 7f f3 5c 3d
       -0.056581385 -0.020455442 -0.017102143 0.053943153
000310 26 f9 a7 bd 2e 15 b2 bd bb 54 63 3d 1c c8 5c bd
       -0.08201818 -0.08695446 0.055500727 -0.053901777
000320 a6 a1 a5 bc 36 e4 e0 3b 65 12 1c bd b4 1d fe bd
       -0.020218682 0.0068631424 -0.03810348 -0.12408009
000330 3d 9a 91 3d 29 4a ef bc 16 1a 22 bd 68 51 90 3d
       0.07109497 -0.029210167 -0.03957566 0.07046777
000340 03 b1 83 3d 12 0f bc bd 25 fa 1c 3d 5e 28 b8 3c
       0.06430247 -0.09182562 0.038324494 0.022480186
000350 89 cc 5c 3c fe 13 f6 bd 77 a2 5b bc 70 dc d4 bc
       0.013476499 -0.12015532 -0.013405434 -0.025984019
000360 69 36 0b 3d 25 22 b0 3d ca 4a 93 bd 1d 5e 61 bc
       0.033987436 0.086002626 -0.07191999 -0.0137553485
000370 30 e0 bc 3c 4d b8 4d bd 6d 6a 9d bc 15 db a8 bc
       0.02305612 -0.05022459 -0.019215787 -0.020612279
000380 68 95 b2 ba 8b 27 f6 3c 5a c8 b1 bd 04 8b 07 bc
       -0.0013624849 0.030048152 -0.08680792 -0.00827289
000390 41 37 f4 3d b3 cf 84 bc 4d b2 91 bd 50 b5 7c 3d
       0.11924601 -0.01621232 -0.07114086 0.06169635
0003a0 11 d7 36 be 6f b5 fb bd c7 e7 50 bb 48 af 1a bd
       -0.17855479 -0.12290465 -0.0031876431 -0.037764817
0003b0 aa 9c be 3c 03 f0 b1 bc 3f 76 7b 3d 92 11 6d bd
       0.023268063 -0.021720892 0.061392065 -0.057878084
0003c0 d9 95 43 bd e2 df ef bc ed 00 19 bd 2f b1 71 3d
       -0.047750328 -0.02928156 -0.0373544 0.059006866
0003d0 4a 70 48 3d 97 4c f7 bd 56 ee 06 be 0d 25 f2 bc
       0.048935212 -0.12075155 -0.13176855 -0.029558683
0003e0 ab 15 0e bd a5 02 14 bc 9a fa a3 bc 21 95 ca 3b
       -0.034688633 -0.009033834 -0.020016957 0.0061823283
0003f0 0e 07 19 3c c9 9d af bc 9c 83 d0 bd 9c df a9 bc
       0.009340061 -0.021437543 -0.101813525 -0.020736508

network_body._body_endoder.seq_layers.2.bias f4 [256]
000000 55 fe 01 bc e8 36 dd bb fd 1c de 3b 80 bc b7 bb
       -0.007934173 -0.00675093 0.006778358 -0.0056071877
000010 d8 1f 55 3a 6f e5 79 bb fd 72 2c bb e8 5d d5 bb
       0.000813005 -0.0038131138 -0.0026313656 -0.0065114386
000020 c7 98 6a b8 5f 52 ea ba 82 c1 0e bb 72 de eb bb
       -5.5932232e-05 -0.0017877332 -0.002178282 -0.0071981484
000030 5b f4 49 39 8a 83 f4 bb 31 f9 9c ba 48 97 b0 bb
       0.00019259883 -0.0074619697 -0.001197612 -0.005389128
000040 35 5e 02 bc 45 4c b8 bb 7e e8 42 ba e5 6a 3a bb
       -0.007957031 -0.0056243264 -0.0007435157 -0.0028445062
000050 13 4c a0 bb 68 9e 9d bb 53 3a e1 bb 0d 49 cb bb
       -0.0048918813 -0.0048101433 -0.006873408 -0.0062037767
000060 ba 47 c7 ba 33 43 51 bb 83 78 f4 b9 ca 0d 7e bb
       -0.0015203871 -0.0031930923 -0.00046629095 -0.0038765543
000070 fa 79 e6 ba 0f 3d 71 b9 1c bc 8a ba 93 c0 9c ba
       -0.0017583959 -0.00023006297 -0.0010584625 -0.0011959247
000080 95 be b9 bb 2e 4f ba 3b 25 ca ca bb a3 17 fd 3a
       -0.005668471 0.0056857085 -0.0061886483 0.0019309412
000090 56 65 2e 3b 20 5e 26 bc 67 c7 1f bb 8a 66 ad bb
       0.0026610694 -0.010154277 -0.0024380328 -0.0052917646
0000a0 2e 68 67 bb ad 0a 05 3b 59 7e ae ba c0 ac c5 b9
       -0.0035309899 0.0020300553 -0.0013312801 -0.00037703477
0000b0 fb 87 8f ba 13 1e e8 3a 4d 61 71 3b 64 67 a6 bb
       -0.001095056 0.0017709158 0.0036831677 -0.005078243
0000c0 a5 6d 89 bb b6 a9 34 3b ef 00 fb bb c2 76 35 bb
       -0.004193979 0.0027566976 -0.0076600234 -0.0027689193
0000d0 8d 0f b5 bb 8e 85 ae 3a 44 c6 c3 bb 04 54 84 bb
       -0.0055255354 0.0013314949 -0.005974563 -0.0040383358
0000e0 2c 27 e0 bb e7 51 01 3b fe e2 6c 3a 4b b5 0a bc
       -0.006840607 0.0019732655 0.000903651 -0.008466075
0000f0 13 09 53 ba de 3b a1 3b 9c 30 26 bb 64 c2 9e bb
       -0.00080503634 0.004920467 -0.0025358563 -0.0048449505
000100 7e 0f 0f ba fd fb aa 3a 08 35 b2 39 90 d9 27 3b
       -0.00054573256 0.0013045069 0.00033990317 0.0025611855
000110 ff 58 fa bb 42 14 ae ba cf f2 cd 3a 15 a4 95 bb
       -0.0076400037 -0.0013281184 0.0015712621 -0.0045666792
000120 e4 c1 9b ba 85 16 65 b9 89 0a 61 3b c2 c2 01 ba
       -0.0011883345 -0.00021847531 0.0034338555 -0.00049499806
000130 d7 59 16 bb ec 27 00 3b 90 54 6d 3b 02 06 44 3a
       -0.0022941732 0.0019555045 0.0036213733 0.0007477702
000140 a7 f1 5f bb 36 78 f9 bb bb 76 1a ba 4d 1f 31 bc
       -0.0034171136 -0.007613207 -0.0005892326 -0.010810685
000150 34 58 5d b9 b1 68 2a 3b 44 39 de bb e7 8c bc bb
       -0.0002110906 0.0026002342 -0.006781729 -0.0057541016
000160 e5 a8 00 bc d2 0b 4a 3a ab 62 23 bb 3c f2 a5 ba
       -0.007852768 0.000770745 -0.0024930637 -0.0012660692
000170 82 b1 37 3b e6 42 d4 bb ec 64 05 3b bd 12 65 3b
       0.0028029387 -0.0064777015 0.0020354344 0.0034953796
000180 92 1a d3 b9 f1 27 e6 bb cc da 63 3b fe 2b c6 bb
       -0.00040264853 -0.0070238044 0.0034767864 -0.0060477247
000190 63 97 45 ba c8 28 b7 bb b7 00 c8 3a b3 89 4c 3a
       -0.0007537512 -0.0055895783 0.0015259002 0.0007802501
0001a0 7e 0c 02 3b c8 e8 4a 3a 88 2c 01 bb 87 38 c9 ba
       0.0019843872 0.00077403756 -0.001971038 -0.001535193
0001b0 93 08 bd bb 2b 26 b8 bb fa c4 94 39 5c 44 09 bc
       -0.0057688444 -0.0056197844 0.0002837552 -0.008378115
0001c0 d5 00 b1 3a 5a 56 fe 3a e4 27 31 bb fc 29 de 39
       0.0013504276 0.0019404397 -0.0027031833 0.0004237442
0001d0 ac 01 9f bb 8d 7c 70 bb fc c8 14 39 8d 65 cc bb
       -0.004852494 -0.0036695332 0.00014189252 -0.0062376917
0001e0 b9 0c 97 3a 04 b4 83 bb 27 49 10 ba 10 f7 73 ba
       0.0011524177 -0.0040192623 -0.00055040646 -0.00093065295
0001f0 00 de d6 bb e5 ce 78 bb dd bd 1b b9 48 d7 83 bb
       -0.006557226 -0.0037965116 -0.00014852681 -0.0040234663
000200 7f 13 c9 bb fb 4a 78 3a 8f 1f 4c 3b 01 98 46 3b
       -0.0061363573 0.0009471622 0.003114674 0.0030303004
000210 9e a0 f3 3a ca 0a db 3b c9 1a d9 3b 71 da e5 bb
       0.0018587296 0.0066846358 0.0066255075 -0.0070145656
000220 84 84 37 3b 92 ac 9c bb 21 f7 06 bc 4c d9 a7 bb
       0.002800257 -0.004781314 -0.008237631 -0.0051223394
000230 8e 1b 04 3a 0d c0 d0 ba 2e 0a b0 3b 93 34 38 3b
       0.00050395064 -0.0015926376 0.0053723073 0.0028107509
000240 46 e7 37 3b e2 b9 f7 ba d2 24 c7 bb a2 8f 10 3a
       0.0028061434 -0.0018900002 -0.0060773874 0.0005514567
000250 85 d8 fa bb 88 34 ec bb a3 39 e3 bb d0 6e 6a bb
       -0.0076552057 -0.0072084107 -0.006934361 -0.0035771616
000260 fb 09 be 3b 97 e0 56 bb e0 c9 00 bc ae e3 4d 3a
       0.0057995296 -0.0032787675 -0.007860631 0.00078540563
000270 9d e4 63 3a d8 a9 df 3b 8e 93 02 bc 4d 96 7e ba
       0.0008693429 0.006825667 -0.00796975 -0.00097117276
000280 a8 db 94 38 ff 9c 13 3b 7e c4 2b bb bd c0 c2 bb
       7.098104e-05 0.0022523997 -0.0026209648 -0.0059433863
000290 5e ff af bb 08 40 de ba 3f fd 37 bb ff ab 42 3b
       -0.0053710183 -0.0016956339 -0.002807453 0.0029704568
0002a0 4f f1 fe bb 5f a9 dc 3a 73 fa c0 bb a7 14 ef ba
       -0.007780231 0.0016835144 -0.005889231 -0.0018240408
0002b0 26 25 d7 3a d5 5f d9 bb 17 d9 6b 3b 63 9d c5 bb
       0.0016414269 -0.0066337385 0.003598755 -0.006030725
0002c0 ce b4 a8 3b 70 89 79 bc 0b a5 4c ba 65 8b a5 ba
       0.0051485067 -0.015230522 -0.0007806576 -0.0012630044
0002d0 c0 0e a4 bb 48 b0 de bb ef 00 c7 bb af 7b 45 bb
       -0.005006641 -0.0067959167 -0.0060731093 -0.0030133536
0002e0 84 d4 b5 bb ec b1 1f bb 4c 85 95 b9 8a d5 38 3b
       -0.0055490155 -0.0024367524 -0.00028518809 0.002820345
0002f0 49 06 43 3b 91 7e b8 bb 11 e1 96 bb 0c 7d 95 bb
       0.0029758385 -0.0056303223 -0.0046044667 -0.004562026
000300 ff 6e 84 3b 2a 91 8b bb 2c 4b 3a bb 25 d8 9c bb
       0.004041552 -0.0042592483 -0.0028426154 -0.0047865086
000310 ae 71 f0 ba ea 59 63 3a 19 a3 cf ba e3 9d 04 bc
       -0.0018344426 0.0008672761 -0.0015841454 -0.008094284
000320 56 0b e7 39 ad 5e b7 bb dd 9b 20 3b ce 8c 91 bb
       0.000440682 -0.005596003 0.0024506964 -0.004441834
000330 93 bf cf bb ac a0 38 bb a8 00 31 bb 51 eb 90 3b
       -0.006339976 -0.002817194 -0.0027008448 0.004422583
000340 8c e1 aa bb b7 e1 1f bc 55 41 59 bb af 7c a9 bb
       -0.0052148756 -0.009758404 -0.0033150513 -0.005172334
000350 04 96 ce bb 89 91 a6 bb f7 27 00 bc 5f 71 18 3b
       -0.0063045043 -0.005083267 -0.007822028 0.0023260934
000360 dd d6 02 bc 48 d4 74 ba a8 05 d6 bb bd e0 14 bb
       -0.007985798 -0.00093394937 -0.006531436 -0.0022716962
000370 88 06 9a bb 49 b3 95 3b 06 93 cd bb e4 e2 ad ba
       -0.0047004856 0.0045684916 -0.00627363 -0.0013266471
000380 d6 cd c0 bb e9 9d a9 bb 7a dd f7 3b e7 b3 4f 39
       -0.0058839126 -0.005176295 0.007564244 0.00019808077
000390 fb 4c b1 bb 6c 21 be ba b0 65 a9 3a 85 32 3f 3a
       -0.005410788 -0.001450581 0.0012923982 0.00072936
0003a0 41 71 c6 bb 03 72 8b bb aa 01 89 3b 1c 8a b9 bb
       -0.0060559814 -0.0042555346 0.0041811066 -0.005662216
0003b0 30 71 82 bb f0 70 a8 bb 51 f0 80 bb 53 20 b1 bb
       -0.003980778 -0.0051404163 -0.003934898 -0.0054054647
0003c0 66 e8 b5 3a 0b e2 a7 ba c3 b9 83 ba 13 f1 c9 bb
       0.0013878464 -0.0012808455 -0.0010049868 -0.0061627715
0003d0 e9 01 fe bb 3d fa 64 bb 04 6c ac bb 7a 09 cf bb
       -0.0077516926 -0.0034939193 -0.0052619 -0.0063182684
0003e0 86 05 f4 bb 39 27 6b 3b 3f 67 74 bb 5c cf 7c bb
       -0.0074469475 0.0035881533 -0.0037292985 -0.0038575744
0003f0 fe 04 a6 bb 97 ea 9e ba dd 06 6a ba 7c 89 d6 b9
       -0.005066513 -0.0012124357 -0.00089274143 -0.00040919695

action_model._continuous_distribution.log_sigma f4 [1, 2]
000000 66 7b 17 3c 8b f4 1a bc
       0.009245729 -0.009457718

action_model._continuous_distribution.mu.weight f4 [2, 256]
000000 d2 27 3f 3b ff 3e c0 bb 43 c8 ae bc 1c 9f 8c bb
       0.0029168022 -0.0058668847 -0.021335727 -0.0042914283
000010 aa fa bf bc 24 c5 ce 3a 5c 6c ea 3b e5 34 b1 bb
       -0.023434956 0.0015775305 0.0071540307 -0.005407917
000020 80 3f a0 bb 72 fb a1 bc a1 07 45 bc 80 4c c1 3c
       -0.0048903823 -0.019773219 -0.012025745 0.023596048
000030 4a a9 a7 bb d1 8e 63 39 9e 8e b9 bb bb 5f 44 3b
       -0.0051166164 0.0002170161 -0.0056627532 0.0029964286
000040 53 19 36 3b e3 3a 83 3b 71 aa c3 3b 55 a4 c4 bb
       0.002778609 0.0040048226 0.005971246 -0.006001035
000050 70 dd dd ba c6 67 1f 3b a9 db ca 3b c6 8f d6 39
       -0.0016926955 0.0024323328 0.0061907363 0.0004092438
000060 d7 96 aa 3b 17 20 48 3c ae 06 0f 3c cc 49 b2 3b
       0.00520597 0.012214682 0.00872962 0.005440926
000070 cf d3 c3 bc 45 30 93 bb 1a 3d 82 3c 3c af 11 3c
       -0.02390471 -0.004491838 0.015898276 0.008891877
000080 1b ae f3 3b e4 2f 95 3b 43 78 94 3a 9c 50 88 bc
       0.0074365265 0.004552828 0.0011327345 -0.01664
000090 66 67 22 bc 3f 93 c6 ba f0 f9 8e bc 11 31 c3 bb
       -0.009912347 -0.0015150084 -0.017453164 -0.005956777
0000a0 28 f7 30 3c 02 b8 b2 bc 18 e6 8b bc 71 0d 06 bc
       0.010801114 -0.021816257 -0.01707749 -0.008181916
0000b0 2a cf 91 3c 60 62 db 3b 3c 00 b9 b9 33 bc cc 3a
       0.017798979 0.006695077 -0.00035286124 0.0015620053
0000c0 4c 10 66 bc 00 0a 25 bc ac a4 96 3b e0 8b 1b 3a
       -0.014041971 -0.010073185 0.004597267 0.0005933624
0000d0 53 76 fd bb f7 8b 5a 3b 43 78 6e ba 41 f4 59 ba
       -0.0077350526 0.0033347586 -0.00090969 -0.000831429
0000e0 c7 3b 29 bc 6d c8 00 bc 27 53 9d 3a 9c 51 66 3b
       -0.010329193 -0.007860285 0.0012002931 0.0035143858
0000f0 ca bc 2f bc a0 e3 25 38 e5 55 cc 3c 9e 32 f6 bb
       -0.010726163 3.9551058e-05 0.024943301 -0.0075133583
000100 31 29 b2 bc e9 75 98 bb 70 e4 2d 3c c0 0a 33 bd
       -0.021748157 -0.004652728 0.010613546 -0.043711424
000110 83 d7 ac 3a 85 79 c0 bc 1f 8c 41 3c 24 e7 ac 3b
       0.0013186786 -0.023495445 0.011813193 0.0052765775
000120 97 21 66 bc be 08 9e bb 90 29 a1 bb 00 ef 37 3b
       -0.014046094 -0.0048228195 -0.0049182847 0.002806604
000130 f3 fd 37 bc 70 59 a9 3b 4a a3 37 3c c9 9e 69 b9
       -0.01122998 0.0051681325 0.011208365 -0.00022279764
000140 44 3b e0 3a f8 d3 cf 3b 79 ea b4 3c 2f 11 3b bb
       0.0017107506 0.0063424073 0.022084462 -0.0028544178
000150 13 ab b4 3b 95 10 3c 3c 7d 9f 8d bb 1e fa 79 bb
       0.0055135577 0.011478563 -0.004321991 -0.0038143466
000160 55 d1 9d 3b dc 90 67 bc 85 83 0f 3c 02 ff 1e 3c
       0.004816214 -0.014133658 0.008759384 0.009704353
000170 f4 0d 47 bc e8 49 c8 3b dd 79 d1 3b de a5 42 ba
       -0.012149323 0.006112326 0.006392701 -0.0007425229
000180 66 c7 49 ba 6f 34 fd 3b a6 96 4f ba d6 4b 9b 3c
       -0.0007697254 0.007727198 -0.00079188717 0.01895706
000190 09 aa a6 ba 7d 08 1f bc c1 5a e5 bc 35 39 12 3b
       -0.0012715469 -0.009706614 -0.027997376 0.002231193
0001a0 f8 84 c7 bb c0 bc 08 3c b2 6b 92 3c 32 c7 92 3c
       -0.006088849 0.008345783 0.017873619 0.01791725
0001b0 0a 6a 23 3c ab 47 58 3c af 02 17 bc ed 86 74 3b
       0.009974012 0.013200681 -0.009216948 0.0037311867
0001c0 c7 55 a3 3b 30 78 52 3b bd 93 a9 3b 77 ab 0a bc
       0.0049845907 0.0032115094 0.0051750825 -0.008463732
0001d0 4b 72 37 b9 f4 df 40 bc 1c af 5a bc 70 9e c6 bb
       -0.00017494817 -0.011772145 -0.013347413 -0.0060613677
0001e0 7a 24 cd bb b7 19 bd 3b 5f 47 34 3c ba b3 92 3c
       -0.006260452 0.0057708877 0.011003344 0.017907966
0001f0 9a 55 08 3c 60 7f a8 3b b9 62 07 bd 8e 9e bd 3b
       0.00832119 0.0051421374 -0.033053134 0.0057867235
000200 fa 09 7d 3c e5 37 5f 3b 5c be d8 39 40 ce 57 3b
       0.015444273 0.0034060415 0.0004134056 0.003292933
000210 5c 02 d3 3b 21 9b 31 bc 24 91 7c 3a fc d9 41 3a
       0.0064394902 -0.010840208 0.0009634665 0.0007394848
000220 45 6e d9 bc dd 01 6e 39 8e a5 a2 bb 04 01 ae bc
       -0.026541838 0.00022698143 -0.0049635833 -0.021240719
000230 27 38 58 3c 0c cd 2d ba 58 53 4b bc c2 13 6b b9
       0.0131969815 -0.00066299806 -0.012410007 -0.00022418707
000240 eb fe a4 bb 2b 13 11 3b 74 fc 45 37 ba 99 fd b8
       -0.0050352714 0.002213667 1.1800894e-05 -0.00012092614
000250 84 1b 31 bb 31 26 bf 3a 6c a3 3a bb a1 bd ae bb
       -0.0027024457 0.0014583525 -0.0028478755 -0.005332664
000260 d4 a7 48 3b 07 76 af bc 99 11 23 bb 56 5d 0a bb
       0.0030617611 -0.021418585 -0.0024882315 -0.0021112761
000270 2d 54 d7 3b 1d 7a 31 bb aa 51 eb 3b eb 4a 8f 3c
       0.006571314 -0.0027080842 0.007181366 0.017491778
000280 71 b4 5a bc d3 bd 24 bc 6f 88 0b 3c 17 ba 58 3b
       -0.013348685 -0.010055023 0.008516415 0.0033069903
000290 4d 1b 1d 3c c5 55 fb 3b d1 77 10 bc 16 6f 2b 3a
       0.009589029 0.0076701366 -0.008817629 0.00065396854
0002a0 8e 0f 74 38 c7 5b 9a ba d4 7b 90 bb 45 86 9c bc
       5.818862e-05 -0.0011776619 -0.0044092927 -0.019106993
0002b0 46 c0 b5 ba 39 3b 94 3c 8a a1 83 bc a0 1a 0c bc
       -0.0013866506 0.018094646 -0.016068239 -0.00855127
0002c0 74 c4 26 bb 43 16 3b 3b 97 05 91 bc 16 63 e2 3c
       -0.0025446685 0.0028547205 -0.01770286 0.027635138
0002d0 6f 57 28 3b c3 6a 2d b9 ff 0c 20 3c bf 66 15 bc
       0.002568688 -0.00016538338 0.0097687235 -0.009118735
0002e0 85 e3 8c ba f7 af 15 bc 7d 8d 1b 39 81 86 ec 3b
       -0.0010748958 -0.009136192 0.0001483466 0.0072181826
0002f0 54 e2 4c 3b 0d 10 cf 3b d1 bd 19 bc d7 04 5a 3a
       0.0031262832 0.006319052 -0.009383635 0.0008316761
000300 4a 91 05 3c 7c 87 92 b9 94 24 99 3b bd 48 8e ba
       0.008152315 -0.00027948234 0.00467355 -0.0010855418
000310 1c 6b e3 b9 f9 35 ed 3b 1b d6 bb bb be ef f5 ba
       -0.00043376617 0.0072391 -0.0057323105 -0.0018763465
000320 d3 74 5c 3c e4 d2 96 3c 15 48 4d 3c 25 0c 89 3c
       0.013455587 0.018411107 0.012529393 0.016729424
000330 be c0 e5 bb 61 9f 77 3c 99 eb 07 3c c2 21 29 bb
       -0.007011502 0.0151136825 0.008295917 -0.0025807475
000340 00 ea b2 3b a3 c5 b3 b9 dc 1e ca 3a 17 a6 7b 3b
       0.005460024 -0.0003428879 0.0015420574 0.0038398558
000350 fa 4a 6e bb 4d 45 0d 3c bf 95 85 3b b7 27 be 3c
       -0.0036360607 0.00862248 0.004076689 0.023212297
000360 38 fe 23 3b 2f 7b 07 bc 9a 8a 4b bb 06 6b 99 3a
       0.0025023352 -0.008269115 -0.0031057955 0.0011704869
000370 09 69 1f bc aa 9c b7 bb d4 49 c5 bb e9 a9 a1 ba
       -0.009729632 -0.0056033926 -0.006020764 -0.0012333962
000380 b8 31 2a bb 40 4a f4 3b dc 45 b9 bb e0 70 2a bc
       -0.0025969576 0.0074551404 -0.00565408 -0.010402888
000390 e6 38 3d 3b e8 14 3c bc 64 e4 af bb d3 11 4f 3c
       0.0028873025 -0.011479594 -0.0053678025 0.012638527
0003a0 5a a4 ac 3a bd 16 7b 3b 99 65 9d bb 6a 65 af 3c
       0.0013171539 0.0038313114 -0.004803371 0.021410663
0003b0 de b8 44 3a 1b da e6 bb fb 55 b5 3b 61 a6 8f bb
       0.0007504354 -0.007045043 0.0055339313 -0.0043838476
0003c0 93 69 71 bc 51 28 c5 bc f1 52 38 3b 84 64 86 bc
       -0.0147346435 -0.024067076 0.0028125609 -0.016405351
0003d0 5e 5b 2c 3c 20 62 04 3b 6e ec 2c bb c6 46 a3 3c
       0.0105198305 0.0020200089 -0.002638604 0.019931208
0003e0 22 39 92 ba 4f 67 78 ba 8d 05 b3 bc 92 97 cb 3c
       -0.0011155943 -0.00094758434 -0.021853233 0.024852548
0003f0 2d 6b ed ba e8 53 ad 3c 57 4b 10 3c d5 eb 93 3b
       -0.0018113606 0.021158174 0.008807025 0.0045141974

action_model._continuous_distribution.mu.bias f4 [2]
000000 3b 6f a1 ba e5 d4 d1 3b
       -0.0012316474 0.006403553

66 f4 [20]
000000 a4 d9 ab 3b e9 b9 96 3d a4 d9 ab 3b 4f fa b6 3d
       0.0052444506 0.07359678 0.0052444506 0.08934461
000010 0f 18 fd 3e 60 01 fd 3e a4 d9 ab 3b eb 22 91 3d
       0.49432418 0.49415112 0.0052444506 0.07086738
000020 3d ef ad 3e 11 4f ad 3e a4 d9 ab 3b 9b 81 bd 3c
       0.33971587 0.33849385 0.0052444506 0.02313309
000030 8e d3 ef 3e a0 a5 ef 3e a4 d9 ab 3b 87 2d 99 3d
       0.4684109 0.4680605 0.0052444506 0.07479387
000040 b7 1c b4 3e 91 a0 b3 3e a4 d9 ab 3b 0f 61 d2 3c
       0.35178158 0.3508344 0.0052444506 0.025681047

69 f4 [12]
000000 a4 d9 ab 3b e9 b9 96 3d a4 d9 ab 3b 83 50 98 3c
       0.0052444506 0.07359678 0.0052444506 0.018593078
000010 a4 d9 ab 3b e9 b9 96 3d a4 d9 ab 3b 7c 88 98 3c
       0.0052444506 0.07359678 0.0052444506 0.018619768
000020 a4 d9 ab 3b e9 b9 96 3d a4 d9 ab 3b 7c 88 98 3c
       0.0052444506 0.07359678 0.0052444506 0.018619768

72 f4 [3]
000000 92 ae ac 3b 14 3a ac 3b 85 00 9c 3e
       0.005269834 0.005255947 0.30469146
