results/firstry/KartAgent/KartAgent-46232.onnx (onnx, 305043 bytes, 13 tensors)

network_body.observation_encoder.processors.0.normalizer.running_mean f4 [20]
00000000: f696 523d 96d6 a53e 2863 153f 7c36 203f
00000010: e6ad cb3d 7f16 c93e 5079 f53e fc38 083f
00000020: 4adc af3d 5413 3c3f 6717 053e e9bd 833e
00000030: d35e 013e dde4 433f 1ea4 a13d 1748 543e
00000040: 29db ad3e bb63 1b3f bc11 dc3c 0e6a 623e
0.0514135 0.3239028 0.58354425 0.62583137 0.09945278 0.39274976 0.47944117 0.5321195
0.08586939 0.7346699 0.12997209 0.25730827 0.12633829 0.7652109 0.07892631 0.20730625
0.33956268 0.6069905 0.026863925 0.22110769

network_body.observation_encoder.processors.1.normalizer.running_mean f4 [12]
00000000: 6155 bb3d 96d6 a53e e921 0b3f 7fa8 133f
00000010: f6d6 bc3d 2d9a 9c3e 90e3 0f3f 7662 183f
00000020: b775 bd3d 179b af3e dadd 053f a8b8 0e3f
0.09147144 0.3239028 0.5434862 0.5767898 0.09220688 0.30586377 0.5620661 0.5952524
0.09250968 0.34298012 0.52291644 0.55750513

network_body.observation_encoder.processors.2.normalizer.running_mean f4 [3]
00000000: 23b7 b6bd ad51 4a3d c2d1 953d
-0.08921649 0.0493943 0.07315399

network_body._body_endoder.seq_layers.0.weight f4 [256, 35]
00000000: d5d6 1a3e 5f64 2c3d 5086 c43d 2828 cabd
00000010: 1678 003d 91a6 843e a07d 223e ca6f af3d
00000020: 1416 39be 1d62 9c3e da01 a43e 4e1b d23d
00000030: 67c5 41bc 9f8e 04be 38f6 5d3e d328 163d
00000040: 14c8 f4bd 938d 2dbe 1165 103e 51d6 e63a
00000050: 3559 0b3e 6048 ee3d 9f92 0e3c 3293 093e
00000060: 6f01 da3d 78fd cdbd 573a 03be a7fc 003d
00000070: 2e30 debd 4baf 813d 39d1 adbd 55ff 91be
00000080: 1dab 0fbb 7d47 483e 4e6c 0b3e 000c 71bd
00000090: b94c 353d 060e bb3e 8060 293e 328c cdbd
000000a0: 3b71 a13d aff4 943e f6a4 6b3e ca22 313e
000000b0: 60c3 e2bd 8097 4c3d 44bf 57be a4ff 12bd
000000c0: cd6e 3d3e 62a1 a5be 3930 52be 4ae7 b53d
000000d0: bba6 1ebe ca7c 80be 6103 30bc 5732 72bb
000000e0: ccac 1dbe 5255 133d e951 43bc a429 87be
000000f0: edc6 b0bc a0c0 a33e 1c27 b33e 3b62 de3b
00000100: c64b bdbb c355 523d 31e6 1fba a643 45be
00000110: 7dc0 b03d c513 263e 56ba 213e e438 9d3d
00000120: 61ea 2b3e 64d5 6e3e 7ac1 fcbd 97bb 9a3e
00000130: 57a6 ccbd b105 46be 2dd7 16bd 6973 433e
00000140: a4ef f5be b9db a13c bbc8 dc3d 53d3 90bd
00000150: 2941 a63e f70f 033b 0ccd e4bd f1bf 313c
00000160: 2674 943d 269d b63d 5cdd 443e 7fa0 283e
00000170: eb9a 9dbd 036a 9b3d 038d f23c b0c3 063c
00000180: c0c6 6739 b331 57be cfca 81bd 54ef 733e
00000190: d3c1 063d 483a 803d 2e49 b8bd 595d 283e
000001a0: 82fb 37bd 8e17 a63d 4344 683d eda5 57be
000001b0: eecd c4bd 55ae 1d3e 539e 873e c032 493d
000001c0: 07e1 bfbc d1b1 173e 2e25 893d 5754 f53d
000001d0: 0fe2 1abd ab46 13be 3fc6 033e c30c 013d
000001e0: 51fd a0bd 22c1 0d3d 262c 56be 0977 24be
000001f0: 0789 933e 32a7 fa3d 783c 943d f8a9 7f3e
00000200: b675 633d e61b 323e 7423 033e 5223 ac3d
00000210: 8a0a fd3e 90f7 debd 189d e4bd bb06 3cbd
00000220: a46f fcbd 1005 e03d e858 0dbe 2ae2 0d3e
00000230: 6163 ed3c f99a bbbc 2beb 49ba 4848 063d
00000240: f292 453e f8bb 353e 8ec4 623e 3aea 2ebe
00000250: 890e a93e 4e80 1ebe e310 a73d 3b7f c7bc
00000260: 3bf1 c43c b730 c53d 7a89 27be 6734 8ebd
00000270: fe8d 8c3e 43d7 173e 53a7 5f3e 655d 3dbd
00000280: a738 893d d655 843d c3a6 cb3d 6f3e 763d
00000290: 55ac 0a3e 3077 e83c d2ce bebd 707e ccbc
000002a0: 3cb3 57bd 03fa 9c3e 0053 e5bd 8947 05be
000002b0: d283 2d3d b76f 85be 2a54 bfbc 693b 3f3d
000002c0: 7736 4d3e 6026 41be 6e3b ecbd ba1a 3dbe
000002d0: e08f 1ebe a88b db3d 7195 9cbe 1aed 5dbe
000002e0: 7f37 1a3e 2853 25be 3af3 95bc f3c6 893e
000002f0: c35a 3cbe 39d5 5abe 49e7 643d 4c31 cf3d
00000300: 6160 18be 5f86 913d 9396 933e 8461 a13d
00000310: 6185 fa3d fbf4 77be 409c 32bd 8b7c eebd
00000320: 972d 66bc 687e 4e3e d275 13bc 62a5 d3bd
00000330: 5780 853d dfb2 463e f0d1 13be 606f e73b
00000340: 071c 3a3e a0e4 c3bd c80a 12be acff 3bbe
00000350: 4a45 9a3c d3ff 23be b386 e3bd 3b4e 4a3e
00000360: 8e5b 683c b294 10b9 b9b1 0ebd a960 903d
00000370: df53 21bd f948 7f3e 607d 153e 2089 96be
00000380: 76c4 af3e cc2d 20be b013 23be fea7 c23d
00000390: 4ee2 e03e 9d76 bb3d 9c91 a8bd 3903 7d3d
000003a0: 9359 6f3e e874 a93d 141d 5fbe 06ca 5d3d
000003b0: 1552 2abd d744 87bc 7f9b 6c3e 09e6 31bb
000003c0: 3aed 58be 3fc6 9a3e 9cd2 3b3e 17ee aebd
000003d0: 2d0d 473e 510b 28be fe58 29be 464f f83d
000003e0: bb54 463e 1d5f 413e 5616 f43c 7008 a8bd
000003f0: 57c3 d53d 2bcc 7e3d 072b 253e a3db d8bd
0.15121014 0.04208791 0.095959306 -0.098709404 0.031364523 0.2590833 0.15868235 0.08566244
-0.18074828 0.30543604 0.32032663 0.10259114 -0.01182685 -0.1294503 0.21675956 0.036660027
-0.119522244 -0.16948538 0.14101054 0.0017611479 0.13608249 0.11634898 0.008701949 0.13435057
0.10644805 -0.10058111 -0.12815224 0.031490948 -0.10849033 0.063322626 -0.08487172 -0.28515115
-0.002192206 0.1955852 0.13615534 -0.058849335 0.04426262 0.36534137 0.16540718 -0.10036506
0.07882925 0.2909293 0.23012146 0.17298427 -0.11072421 0.04994917 -0.21069056 -0.03588833
0.18499298 -0.32349688 -0.20526208 0.088820055 -0.1549329 -0.25095206 -0.010742993 -0.0036956274
-0.15397948 0.03597004 -0.011921384 -0.26398957 -0.02157923 0.319829 0.34990776 0.0067866123
-0.005776855 0.05135132 -0.000609967 -0.19264087 0.08630464 0.16218479 0.15793738 0.07676867
0.16788627 0.2332359 -0.1234159 0.30221245 -0.09992664 -0.19338109 -0.0368263 0.19086994
-0.48034394 0.019758092 0.10780474 -0.07071557 0.32471588 0.001999853 -0.11171922 0.010848985
0.07248716 0.089166924 0.19225067 0.16467474 -0.07695564 0.075885795 0.029608255 0.0082253665
0.00022103917 -0.21015052 -0.06337511 0.23821765 0.03289969 0.06261116 -0.08998333 0.1644186
-0.04491759 0.081099615 0.056705724 -0.2105939 -0.096095905 0.15398534 0.2648798 0.049120665
-0.023422731 0.14813925 0.066965446 0.11978977 -0.037813243 -0.14382426 0.12868594 0.03150631
-0.07860816 0.034608014 -0.20915279 -0.16061033 0.2881548 0.12238921 0.07238096 0.24967182
0.05553218 0.17393455 0.12806493 0.08405174 0.49422103 -0.108870625 -0.11162776 -0.045904856
-0.12325981 0.109384656 -0.13803446 0.13855806 0.028978052 -0.022901045 -0.0007702584 0.032783777
0.19294336 0.17747486 0.22145292 -0.17081538 0.33018902 -0.15478632 0.08157518 -0.02435266
0.024040809 0.09628432 -0.16361037 -0.06943589 0.2745208 0.1482821 0.21841173 -0.046231646
0.06700259 0.064616844 0.09943917 0.060118135 0.13542302 0.028377146 -0.093167916 -0.024962634
-0.052661166 0.30659494 -0.111974716 -0.1301557 0.04236204 -0.26061794 -0.023355562 0.046687517
0.20040308 -0.18862295 -0.11534773 -0.18467227 -0.15484571 0.10719997 -0.30582765 -0.21672478
0.15060233 -0.16145003 -0.018304456 0.269096 -0.18393998 -0.213704 0.055884633 0.101168245
-0.14880516 0.071057074 0.28825817 0.07879928 0.12232471 -0.24214546 -0.043606043 -0.116448484
-0.014048955 0.20165408 -0.0090002585 -0.10334279 0.065186195 0.19404171 -0.14435554 0.0070628375
0.18174754 -0.09565091 -0.14261925 -0.1835925 0.018831868 -0.16015558 -0.11109676 0.19756405
0.014181985 -0.00013788303 -0.03483746 0.070496865 -0.039386626 0.2493018 0.14598608 -0.29401493
0.34329575 -0.1564247 -0.15925479 0.09504698 0.43922657 0.09153483 -0.08230898 0.06177065
0.23374014 0.08274251 -0.21788436 0.054147743 -0.041582186 -0.016512318 0.23106192 -0.0027145168
-0.21184245 0.30229375 0.1834206 -0.08541506 0.1943862 -0.16410567 -0.16537854 0.12124495
0.1936826 0.18883939 0.029795807 -0.08204734 0.10437649 0.06220643 0.16129695 -0.105887674

network_body._body_endoder.seq_layers.0.bias f4 [256]
00000000: feab 4cbb 05b7 4c3b bdbf 8dbc 082e 993b
00000010: ec08 a8bb c1c8 003b e24b 42bb 098f 51bb
00000020: 0fe0 88ba 2a2f a039 c013 bcbc c73b ccbb
00000030: 0a79 84bc 95d0 92bb 800b 23bc b20f 28bc
00000040: 9669 0fbc c44d b3bc 8f5e fdba 27ce 933b
00000050: 7867 4ab8 4bac 6bbc 8ad2 d7bb 7187 183a
00000060: ac7b bbbc ac6a f2bb 73fc 86bb ff92 2ebc
00000070: b8f8 c4bb 7a06 03bc 2a77 36bb 4393 5ebc
00000080: c873 b5b9 f775 2dbc 17b8 9cbb 30a4 f2bb
00000090: 0472 25bc 7956 9f3b ff03 c3bb 4477 92bb
000000a0: 7ffe cdba 9f72 01bc 4256 4bbc a7dc 77bb
000000b0: 0dc7 5fbb 2283 14bb a02d a0bb d877 2cbc
000000c0: 1723 6f3c 251c eebb 50a7 afb9 e504 b6bb
000000d0: 1e42 963b 496d 01bc 345a 543c f40e 19ba
000000e0: 9af1 08bc 441f d43a 122a 56bb dcc7 44bc
000000f0: b471 4b3b 46b4 39ba 5a36 f8b9 95b1 5dbc
00000100: 4533 523b 1866 82bc 5fd7 dabb 759e 40bb
00000110: 7993 22bc 94b9 36bc 5955 093b 2e2c 88bb
00000120: 7622 2ebc 2771 3dba 75ac b43b 949d c3bb
00000130: f2cd 21bc b1db c0b9 797c 16bc 57ce 5cbc
00000140: 7407 0abc ff49 bfbb e2f3 85bc 815b 59bb
00000150: 41b0 24bc 2eca 32bc c961 24bc 6325 283b
00000160: e0b7 48ba 743b cf3a 3c58 36bb 64ee 9d3b
00000170: 484b d33b 9ce5 e4ba 264c efbb 5f48 7bbc
00000180: 3f6a 07bc 0894 cb37 4707 8abc 5fdf 94ba
00000190: 3a20 86bc 56e9 04bc af4b 5f3b 6f38 25bc
000001a0: f010 443c 8c37 40bb 1169 07bc e49f e0ba
000001b0: bd73 12bc 81fc 3bbc ea15 31bc 6351 e63a
000001c0: 0739 69bb 90f2 aaba 6804 67bb dc7e 65ba
000001d0: 8a30 adbb a6f2 27bc 23f0 51bc 651d 44bc
000001e0: 0f30 4dbc c84d ddbb 5f9a 15bc 2831 d5bb
000001f0: f5f1 32bc 177a 05bc 5b3a 3cbc 5a47 31bc
00000200: 9d0e e9ba 858c 28bc ad08 29bc 956a a63a
00000210: 40a2 72bc 0552 bbbc 9cfa 26bc f8c6 0d3c
00000220: 3b0f 1bbb 92c1 91bb 86f8 babc b503 8bbb
00000230: 6948 1c3b a712 5739 e0ac 76bb f018 84b7
00000240: c8da bebb a900 b7bb 9588 c139 938f 9c3b
00000250: 458d 32bc bb57 f03b fee9 36bc 203c 9bbb
00000260: 0910 013c bd49 f63b 8d71 15bc 9459 63bc
00000270: 8d9e d13b 38ef 06bc d105 63bc 25bd b13b
00000280: 03cf 22bb 9855 83bc db2e ca3a a9ed efbb
00000290: d54f 70bb 3561 f83a 7ad0 9cba ef07 133b
000002a0: 2d53 be3b 9be5 72bc e40a c3bb f634 2b3c
000002b0: 214f 353b 573a 92bb 0b9d b6bc 5803 bb3a
000002c0: 3326 023c b62d 92bc fb39 cebb eecf b83a
000002d0: c541 59bb 5790 46bc 1057 8039 799c 723b
000002e0: c098 82ba 93a5 b5ba 014e 23bc 0669 d1bc
000002f0: e4de 823b 5318 0dbc e92e 833b 27d2 30bc
00000300: 2d9e 8abb ef25 1cbc ee47 12bc 5382 7ebb
00000310: 2a77 7c3b b540 91ba 6c8b 973b 82e3 8abc
00000320: 94b2 a6ba f6fe 5ebc 1242 a7bb fb1c e0bb
00000330: 7505 95bb fb71 8abb ac2d 27bb 9417 00bc
00000340: f535 2abb 095b f9bb f25e 9fbb f341 63bb
00000350: 82e5 19bc fcb2 783b 1b93 2cbb 3166 c1bb
00000360: 47d2 9d3a 4ae8 2ebc 9104 21bc 1daa 13bc
00000370: 2dc1 18ba 4721 63bc b1d1 b43b ef2f 34bc
00000380: 6ee9 36bc f3b8 e13a 6e71 68bc faff 40bc
00000390: 8860 033b 5253 c8bc c9da 2c3c f091 923b
000003a0: 3a1a 32bc 8c26 dcbb 5867 903b 62b4 88bb
000003b0: 270a 46bc 6868 b2bb a73c 963b 3e21 41ba
000003c0: 5f85 4cbc dff4 c0bb a6bb f03b eca2 10bc
000003d0: ffa4 abbc 329f acbb 6efd 55bc 5149 b0bb
000003e0: ff41 e3bb 0e62 baba 2945 62ba 80fe 8a3a
000003f0: 0579 893a a92b 23bc 1316 5ab9 c6ef 68bb
-0.0031230445 0.0031237018 -0.017303342 0.004674677 -0.0051280167 0.0019650909 -0.002964728 -0.0031976125
-0.0010442751 0.00030552718 -0.022958636 -0.006232712 -0.016170997 -0.0044804313 -0.009951472 -0.010257648
-0.008753201 -0.021887667 -0.0019330549 0.0045106593 -4.8256916e-05 -0.01438434 -0.0065863775 0.0005818522
-0.02288612 -0.00739797 -0.0041194498 -0.010655164 -0.006011095 -0.00799715 -0.0027842023 -0.013584915
-0.00034609274 -0.010587207 -0.0047826874 -0.0074048266 -0.010097984 0.0048626033 -0.005951404 -0.004469784
-0.0015716105 -0.007900863 -0.012410702 -0.0037820728 -0.0034145743 -0.002266117 -0.0048882514 -0.01052662
0.014595768 -0.0072665387 -0.0003350326 -0.0055547827 0.0045855185 -0.007899591 0.012960959 -0.0005838715
-0.008358384 0.0016183634 -0.0032678884 -0.012010541 0.0031043114 -0.0007084053 -0.0004734274 -0.013531108
0.0032074016 -0.015917823 -0.0066785063 -0.0029391323 -0.0099228555 -0.011152644 0.0020955412 -0.0041556573
-0.010628333 -0.0007226639 0.0055137225 -0.0059697125 -0.009875761 -0.00036784777 -0.00918495 -0.01347693
-0.0084246285 -0.0058376784 -0.016351644 -0.0033166113 -0.010051788 -0.010912461 -0.010033079 0.002565705
-0.0007656794 0.0015810565 -0.0027823588 0.004819678 0.006448183 -0.0017463448 -0.007302779 -0.015337079
-0.008265077 2.4268418e-05 -0.016849173 -0.0011358074 -0.016372789 -0.008112272 0.003407221 -0.010084256
0.011966929 -0.0029329984 -0.008264796 -0.0017137495 -0.008938727 -0.011473776 -0.010808447 0.0017571863
-0.003558697 -0.001304226 -0.003525043 -0.000875456 -0.0052853273 -0.010250723 -0.012813601 -0.011969899
-0.012523665 -0.006753657 -0.009131043 -0.006506104 -0.010921945 -0.008146784 -0.011488522 -0.010820234
-0.0017780844 -0.010287409 -0.01031701 0.0012696559 -0.014809191 -0.022866258 -0.010191586 0.008653395
-0.00236602 -0.004448124 -0.022823583 -0.0042423853 0.002384687 0.00020510946 -0.0037639663 -1.5747239e-05
-0.0058244206 -0.0055847955 0.0003691359 0.0047778576 -0.010897939 0.007334677 -0.0111641865 -0.004737392
0.007877358 0.0075161145 -0.009121311 -0.013876338 0.0063970746 -0.008235745 -0.013856367 0.005424159
-0.0024842627 -0.016032025 0.0015425341 -0.0073220325 -0.0036668677 0.0018949868 -0.0011963986 0.0022435149
0.005808255 -0.01482525 -0.005952226 0.010449639 0.0027665573 -0.004462521 -0.02229168 0.0014267964
0.007943678 -0.017844062 -0.006293533 0.0014100054 -0.0033150774 -0.012119374 0.0002447893 0.0037019535
-0.0009963736 -0.0013858549 -0.009967328 -0.025562774 0.003993856 -0.008611756 0.004003395 -0.010792292
-0.004230282 -0.009530528 -0.008928282 -0.0038835004 0.0038523176 -0.0011081906 0.0046247747 -0.016954187
-0.0012718015 -0.013610592 -0.0051043117 -0.0068393922 -0.0045477697 -0.0042250133 -0.00255094 -0.007818121
-0.0025972102 -0.007609729 -0.0048636133 -0.003467676 -0.009393098 0.003794848 -0.00263328 -0.0059020747
0.0012040817 -0.010675499 -0.009827749 -0.009012726 -0.0005827125 -0.013862914 0.005518161 -0.010997756
-0.011164052 0.0017221257 -0.0141872 -0.01177978 0.002004655 -0.024453793 0.010550209 0.0044729635
-0.010870511 -0.0067184623 0.004406851 -0.004171894 -0.012087381 -0.005444575 0.004584867 -0.0007367319
-0.01248297 -0.005888566 0.007346588 -0.008827906 -0.0209527 -0.005268001 -0.013060911 -0.0053798337
-0.0069353576 -0.0014219896 -0.00086315215 0.0010604411 0.0010488337 -0.00995914 -0.00020798323 -0.0035543307

network_body._body_endoder.seq_layers.2.weight f4 [256, 256]
00000000: 231d ae3d ea4e 223b 59ad 133d 545f 8ebd
00000010: e4fd c1bb 817c 9a3d 9a58 8dbb 3add f3bd
00000020: 96ca 0bbc d775 1b3b d492 1abe 35f7 1d3d
00000030: 0ea1 2a3d 8f65 fabc eb62 96bd dbdb 873b
00000040: 904e d43c 450d 0038 57fd 47bb 4246 6a3c
00000050: 3820 7bbc 8a4e 89bd 0434 ac3d c9d4 0cbd
00000060: 5ee5 c1bc e97a 383d e1ae b4bc 818b 5e3a
00000070: 215f 48bc 2ccd e1bd 08fb 6dbd a660 ac3d
00000080: 5763 a4bd 7b9b b13d 92b3 7c3d 151f 4b3c
00000090: 63bd 7fbd f180 993d 1b4a 163d e296 d6bb
000000a0: 5ea0 aa3c e8ed 2dbd 4aa4 2bbd 99e9 853d
000000b0: 4985 a03d 2d34 193d 5372 c3bb 7610 24bd
000000c0: d706 c8bd d137 dc3d 9f43 f7bd 2e44 a93c
000000d0: 4aee 8cbd 39cd 17bd 54ea 33bd 0053 7bbc
000000e0: e541 6e3c 7c3c d73d 42dd 0f3d 52c6 eebb
000000f0: d8f4 583c 6449 03bd 58d1 9b3c 0ee1 493d
00000100: ee79 153d 01b7 b93d 76a2 7abd 37d8 d2bc
00000110: 3dd9 efbd cd57 213d 04d9 aebc 778a 363c
00000120: 0ae3 e23b a469 fd3c d249 2d3d 57ec 6abd
00000130: e267 553d a502 203b f430 15bd 6ff5 95bc
00000140: 6ed5 4eba 2c65 223e 9e32 d1bc a22b aa3c
00000150: 5f1c fcbc cf9a aabd 598a b8bd 63f5 6ebc
00000160: 882a 0e3d ef96 903c 25aa 5bbc 0b07 adbd
00000170: 910b 46bd 03bb 66bd 890d 26bd b0d0 2d3d
00000180: 72ce d83c 9437 9bbd 74e6 06be 3f24 bebd
00000190: 307d 593d 6d2f 4b3d 47c9 9d3d 1d94 863c
000001a0: 025c 1e3d 245e 2dbd 0ab5 693b 83ea 2a3c
000001b0: bcb7 b4bc a730 18bd 4f59 6ebd ddb5 983d
000001c0: 3fa0 053d f7bb 093e 7d09 183d 97d5 e2bc
000001d0: cdc2 19bd db75 70bd 909a d63b accd 44bd
000001e0: f6f4 92bd a9f4 88bd 97a1 de3c c454 4739
000001f0: ee3a 39bd 7478 77bd 96bf d8bc d6ec d53d
00000200: b46e 873d 6060 09be aed8 183c 68d5 f8bd
00000210: a893 02be 8ad3 a7bd 1d4d d5bd be88 763d
00000220: 0fbc f1bc e14c c5bc a9a5 cdbd d7de bb3d
00000230: e9ca 9dbd 7d35 9d3d 58ac d0bc 6c04 a5bd
00000240: 3fba 5a3d 677b 863d a0ba bbbd f531 81bd
00000250: bb71 a43d e341 03ba 3be5 733d a374 963d
00000260: ca01 1f3d 5162 ab3d 3542 a6bd 9ba5 a0bd
00000270: b131 923d a56a bdbd 2b5f 243c 5cb2 2c3e
00000280: e509 8abb f3c3 a93d 83a1 70bd aefb 343d
00000290: 65c1 9d3c e8c0 1c3d 050f 1f3d 687a a13d
000002a0: 4aad b5bd 509b 59bd 3db1 48bd 7980 1c3e
000002b0: 2443 433c 277b 403d 0f20 663b bcd7 93bd
000002c0: f0de 363d 7602 7b3d 5367 b33b 4ee0 9dbc
000002d0: ecac 8cbd 46ed 02be 9558 afbc 1376 f4bc
000002e0: 8ed2 293d 4771 a7bc 19cb 2bbd 254b f6bd
000002f0: d376 d0bc c428 d43c f428 cd3d 7670 a0bb
00000300: a2b6 8cbd df0a a33d 0322 7d3c 7edc 523d
00000310: 30cf 99bd 94ba 0ebd e51b d9bd 898a 6bbd
00000320: 6592 0abd 0d95 083e ce79 053d 767c a63d
00000330: 6a5e e3bd 66cb 17bd afbf 453b 226e 633a
00000340: 36dc 993d 36cd fd3d 3b49 683d 6142 3f3d
00000350: b607 213d 5c91 a6bd fe51 e83d a919 273d
00000360: 5132 00bd e75f 10be ce16 e8bc f35b a2bc
00000370: 542a c3bc 0d87 873d 539d 6cbd 6a87 8fbd
00000380: 084c 9b3c 0028 16bd 627d 013c 53e6 6cbd
00000390: 6907 01be ffca 5e3d 2534 753d 8364 9bbc
000003a0: 2414 3ebd 667f 4dbd 6776 663d 30f6 b6b9
000003b0: 295d 2c3e e52e bbba 67af b9bd 5792 64bd
000003c0: 8acd 71bd e834 6b3d b348 8cbd 0224 a1bc
000003d0: 9b5b 94bc eb15 6bbd df10 af3d a49c 22bd
000003e0: b8fe b9bd 2459 86bc 1872 6abd 03b6 44bd
000003f0: e905 d13c 9d93 323d 4fff de3d e703 3bbd
0.08501651 0.0024766275 0.03605399 -0.06951776 -0.0059201587 0.075432785 -0.0043135406 -0.1190743
-0.008532187 0.002372136 -0.15095073 0.038565833 0.0416575 -0.030566005 -0.07343086 0.004146082
0.025916368 3.0529936e-05 -0.0030515993 0.014298977 -0.015327506 -0.06704433 0.08408359 -0.034382615
-0.023668941 0.04503909 -0.022056045 0.00084894156 -0.012229712 -0.110254616 -0.05810073 0.08416872
-0.0802676 0.08672234 0.06169469 0.012397547 -0.062436473 0.07495297 0.036691766 -0.0065487484
0.020828422 -0.042463213 -0.041904725 0.06538696 0.07837922 0.037403274 -0.0059645562 -0.04005476
-0.097669296 0.10752834 -0.120734446 0.020662393 -0.068813875 -0.03706095 -0.043924645 -0.015339613
0.014542078 0.10509583 0.035123117 -0.007286825 0.013241969 -0.032052413 0.019020721 0.049286895
0.036493234 0.09068108 -0.06119009 -0.025737865 -0.11711357 0.039390374 -0.021343715 0.011141411
0.006924038 0.030934162 0.04230673 -0.057354297 0.052101023 0.0024415639 -0.03642364 -0.018305508
-0.000789008 0.15858907 -0.025536831 0.020772759 -0.030775247 -0.08330309 -0.09010763 -0.014584872
0.03470853 0.017650096 -0.013407265 -0.08448609 -0.048350874 -0.056330692 -0.040540252 0.042435348
0.026465628 -0.0757896 -0.13173848 -0.09284257 0.053097904 0.049605776 0.07704406 0.016428048
0.038661964 -0.042326108 0.0035660886 0.0104318885 -0.022060268 -0.037155773 -0.05819064 0.07456563
0.032623526 0.13450609 0.037118424 -0.027689738 -0.037539292 -0.058706146 0.006549187 -0.048047706
-0.07175629 -0.0668729 0.027176661 0.00019009697 -0.045222215 -0.060417607 -0.026458543 0.104455635
0.06612912 -0.1341567 0.009329004 -0.12150079 -0.12751639 -0.08194645 -0.10415099 0.060189
-0.029508619 -0.02408451 -0.10041363 0.09173363 -0.07704718 0.07676218 -0.025472805 -0.08057484
0.053400274 0.06566506 -0.09166455 -0.06308357 0.08029505 -0.00050070713 0.059544783 0.073464654
0.038820066 0.08368362 -0.08118097 -0.07844087 0.07138384 -0.092488565 0.010032455 0.16864914
-0.0042126053 0.082893275 -0.05874778 0.044185333 0.019257257 0.038269907 0.038832683 0.07884675
-0.08870943 -0.053126633 -0.048997153 0.15283383 0.011917863 0.046992447 0.0035114323 -0.072188824
0.044646204 0.061281644 0.0054749637 -0.019271996 -0.0686892 -0.12785825 -0.021404544 -0.029841458
0.041460566 -0.020439757 -0.041941736 -0.120260514 -0.025447285 0.025898345 0.10017577 -0.004896219
-0.06870772 0.07961058 0.015450004 0.05147981 -0.07510221 -0.034845904 -0.106010236 -0.057505164
-0.03383102 0.13338108 0.032586865 0.08129208 -0.111019924 -0.03705921 0.0030174067 0.0008675774
0.07512705 0.123926565 0.056710463 0.046694163 0.039313994 -0.08133194 0.11343764 0.040795956
-0.031297985 -0.14099084 -0.028331187 -0.019819235 -0.023823895 0.06617556 -0.057767224 -0.0700825
0.018957153 -0.03665924 0.007903429 -0.05783684 -0.12600483 0.05439281 0.059864182 -0.018968826
-0.046405926 -0.050170325 0.05626526 -0.0003489717 0.16832413 -0.0014280943 -0.090666585 -0.055803623
-0.059033908 0.057423502 -0.06849804 -0.01967049 -0.018110087 -0.05739395 0.0854814 -0.039700165
-0.09081787 -0.016399927 -0.057237715 -0.048025142 0.025515513 0.043597806 0.1088854 -0.04565802

network_body._body_endoder.seq_layers.2.bias f4 [256]
00000000: a91f 18bb 8ce4 21bc 07d5 893a 244b af3b
00000010: 11b5 11bb 8523 0dba 9fa3 dabb f3d6 87bb
00000020: 7519 29bc a3e9 a83a 0eda 8039 b11c 24bc
00000030: 477c bfba 16e2 31bc 486e 13bc eda5 1abc
00000040: 5be1 08bc e36a 1e3b f451 05ba 06fe b93a
00000050: 3e8b 62bc 3f7a 113b 021b 79ba 9af2 663a
00000060: f774 92bb e74d e4bb a6f4 80bb 508f 673b
00000070: 2920 0ebc 3686 80ba a22c 9bbb 9798 2bbb
00000080: 435f 0abb 849b deba 2028 63b9 88cb 08bc
00000090: 8698 0abc e5c8 babb 4275 0d3b 192a f5bb
000000a0: 34ed 7f3a 30e0 48bc badf f4ba 2060 53bc
000000b0: 4c56 513b 4216 d3bb 4271 6f3b 0180 8abb
000000c0: 6a6f f7bb afdc e0bb e68f 36bc 94e0 053c
000000d0: 31fb 20bc ebaf 3c3a 8b11 a8bb 3ef0 d3bb
000000e0: 8a5f 5f3b e5c9 113c 5c95 15bc 3616 adba
000000f0: c2a5 87ba ac48 fd3a f17a 08bc 287b 10bc
00000100: e0b7 803a d749 15bc cf7a 9b3b 178a 3dbc
00000110: 59df 273b 0930 59bb 9de9 ff3a 895a 2abb
00000120: 86d5 9038 a64d e8bb ffad 4dbc 5d04 f1ba
00000130: 8197 f0ba 6d4b b2bb 582b eaba 0c97 a0b8
00000140: f88e 3fbb 58e4 c7ba a560 423a fc17 72bc
00000150: d8fa f6ba 9afa 8dbb 94d8 5c3a 744a 97ba
00000160: 3801 11bc 0e99 e1bb 86e0 dcbb 1937 e7ba
00000170: 6b41 86bb a342 20bc 9ce0 93bb 0294 39bb
00000180: ffe1 77bb 6dc6 ec3b faa9 a8bb b769 2a3a
00000190: 3869 2ebc 217e 13bc 1bfc 7c3b 0684 8abb
000001a0: d69d 17bc 1346 6dba f141 273b 1f3e 38bb
000001b0: 3fc1 13bc 561e 1ebc 75d8 6fbb b8ae 33bc
000001c0: 0482 4bbb ab46 e5bb e649 7cbb ffa0 403b
000001d0: cf08 b9ba 0938 38bc 4300 f1bb 0153 ebbb
000001e0: 06c0 0e3b 6c6a a2bb 24e4 1dbb 22b2 233a
000001f0: 0bc1 853a 4d86 2dbc 1933 eb39 fd34 f2bb
00000200: d004 e1bb c1bd 16bc 9d15 43bc 210c 03bc
00000210: c74d 01bc 8dc4 773b 9850 67bb 1d70 d5bb
00000220: 06a6 1ebc 44c9 24bc 7065 b53a 94a6 94bb
00000230: 2ec9 ecba 12ba 8ebb 2c11 38bc 9282 873b
00000240: 4de3 05bc 732c 23bc c638 263b fad7 8abb
00000250: f0ad d2bb 7a56 2ebc f00e af36 6b6b b33a
00000260: 6770 1bbc f894 7ebb 6c88 cfbb 42e9 03bc
00000270: b197 2ebc b607 46bc 3c81 703b 0339 2bbc
00000280: fee8 bdba df3f 61bc 2a31 92bb f249 4d3b
00000290: a7fe 15bc 8e82 0bbc 4003 33b9 6528 84bb
000002a0: 8fc5 1bbc eed2 3ebc 4bc5 a7ba e480 26bc
000002b0: da6b 25bc 9fc4 42bb 9e11 b0ba bccf 30bc
000002c0: 5068 283b 565e 023a bea7 303b cf27 87bb
000002d0: e449 85b8 1852 b3b9 a047 37ba c2aa f6b8
000002e0: a129 4ab9 38b9 a2ba e7f6 903a d3cb 953b
000002f0: 74c1 1dbc e99f 483b 9867 243b c94c 26bc
00000300: 6850 d43a 5162 e7bb e22d 24bb 05b8 4dbb
00000310: b322 413a 79f1 cebb d9ab 0ebc 35c3 4a3b
00000320: 312b 92bb 19a5 f4ba 05f7 fabb 608f 2ebb
00000330: dbe5 1abc 5ca0 3abc 5947 f1b9 b59a 53bb
00000340: bb4d d9ba f07c 503b 323e b83b 0633 82bb
00000350: 9056 33ba d10e babb 97a1 cabb a8e8 b73a
00000360: 5ff9 a73a af7b 143b 38ca bfba 7658 77bb
00000370: d3c8 ccbb f369 3ebb ee74 00bc a924 cfb9
00000380: 9a3d 00bc ae8e 1b3b 392b 62bb 68d2 95bb
00000390: 256e 843b 5394 c5ba db56 39bc 4151 3ebc
000003a0: b7f4 d4bb 2068 ab3a 384c f1bb 3e55 35bc
000003b0: 9ae5 bfb9 c834 31bc d44f 083b 9ef5 0d3b
000003c0: fe4f 083b 3774 70bc ab33 2fbc f871 07bc
000003d0: 4647 3b3b f485 2fba 5bcc 8bba c6b5 873b
000003e0: 3fd9 c2bb 12b8 16bc 4c54 e1bb 97da e83a
000003f0: 3f22 6ebb 039f fdbb 183f 523a 2ffb 9739
-0.002321223 -0.00988115 0.0010515758 0.0053495336 -0.0022233168 -0.0005384016 -0.006672337 -0.004145497
-0.010321011 0.0012887012 0.00024576526 -0.010016606 -0.0014609181 -0.010857126 -0.008998461 -0.009438974
-0.00835451 0.0024172596 -0.00050857593 0.0014190085 -0.013827143 0.0022198108 -0.00095026207 0.0008809954
-0.0044695097 -0.0069672945 -0.0039354144 0.0035333224 -0.00867466 -0.0009805623 -0.0047355453 -0.002618348
-0.002111391 -0.0016983603 -0.00021663355 -0.008349307 -0.008459216 -0.005700218 0.0021584784 -0.007481825
0.0009762824 -0.012260482 -0.0018682398 -0.012901336 0.0031942306 -0.0064418623 0.0036536013 -0.004226685
-0.0075511234 -0.006862245 -0.0111427065 0.008171219 -0.009825514 0.00071978447 -0.0051290444 -0.006467848
0.0034084045 0.008898233 -0.009129848 -0.0013205472 -0.0010349082 0.0019324026 -0.008330093 -0.008818425
0.0009820424 -0.009111843 0.0047448645 -0.011568568 0.0025615303 -0.0033140203 0.0019524578 -0.0025993905
6.906227e-05 -0.0070893345 -0.012553691 -0.0018388141 -0.0018355699 -0.0054411204 -0.0017865701 -7.657529e-05
-0.0029229503 -0.0015250547 0.0007414914 -0.014776226 -0.0018843068 -0.0043328525 0.00084246066 -0.0011542575
-0.008850388 -0.0068847006 -0.0067406325 -0.0017640322 -0.004097154 -0.009781512 -0.0045128595 -0.002831698
-0.0037823913 0.0072258026 -0.005147216 0.0006500738 -0.010645203 -0.009002239 0.0038602415 -0.004227164
-0.00925394 -0.00090512744 0.0025521482 -0.00281132 -0.009018241 -0.009650787 -0.0036597524 -0.010966949
-0.0031052837 -0.0069969497 -0.0038496195 0.0029392836 -0.0014117005 -0.011243829 -0.0073547675 -0.0071815257
0.0021781935 -0.004956534 -0.0024092281 0.00062445004 0.0010204626 -0.010591102 0.00044860764 -0.0073915706
-0.006867029 -0.009200514 -0.0119070085 -0.007998497 -0.007892079 0.0037806362 -0.003529584 -0.006513609
-0.009683138 -0.010057751 0.0013839435 -0.004536459 -0.0018065327 -0.0043556774 -0.011234563 0.0041354382
-0.0081718685 -0.009959328 0.002536343 -0.004237172 -0.0064294264 -0.010640735 5.2171454e-06 0.0013688629
-0.009487248 -0.0038846117 -0.0063334014 -0.008051218 -0.010656283 -0.012086799 0.0036698123 -0.010450604
-0.0014488993 -0.013748138 -0.004461427 0.0031324592 -0.009154952 -0.008515013 -0.00017071981 -0.0040331357
-0.009507551 -0.011646969 -0.0012799887 -0.010162566 -0.010096515 -0.0029719246 -0.0013432985 -0.010791715
0.002569694 0.00049731636 0.002695545 -0.0041246186 -6.3556974e-05 -0.00034202705 -0.0006991569 -0.00011762
-0.00019279729 -0.0012414819 0.0011059911 0.004571417 -0.009628642 0.0030612892 0.002508616 -0.010150143
0.0016198279 -0.007061281 -0.0025051762 -0.0031390202 0.00073675363 -0.006315407 -0.008707964 0.0030939106
-0.004460715 -0.0018664926 -0.0076588416 -0.002663575 -0.009454216 -0.011390772 -0.0004602026 -0.0032288257
-0.0016578952 0.003181275 0.0056226486 -0.0039733676 -0.0006841207 -0.005678036 -0.006183814 0.0014031129
0.0012815407 0.002265673 -0.001463241 -0.0037741936 -0.006249526 -0.002905485 -0.007840378 -0.0003950943
-0.007827187 0.0023736167 -0.0034510626 -0.0045722015 0.0040414506 -0.0015074111 -0.011312212 -0.011616052
-0.006498899 0.0013077296 -0.0073638223 -0.011067687 -0.00036601425 -0.010815807 0.0020799534 0.0021661292
0.0020799632 -0.014676145 -0.010693471 -0.008266918 0.0028576418 -0.0006695681 -0.0010665761 0.004141542
-0.005946308 -0.009199159 -0.006876504 0.001776534 -0.003633633 -0.007739903 0.0008020266 0.0002898811

action_model._continuous_distribution.log_sigma f4 [1, 2]
00000000: 887b 19bd adf7 b83c
-0.037471324 0.022579039

action_model._continuous_distribution.mu.weight f4 [2, 256]
00000000: 2f6b 2c3c c356 e63b a9a5 b1bb 0768 b93c
00000010: f602 393c d7d8 4abb 774e 84bc 3bac bf3c
00000020: 9617 0abc 7f72 f63b 43f3 113b 8b48 05ba
00000030: 1ce3 e8bb ba3e 8ab9 d342 c6bb 69d5 4d3c
00000040: eb17 393a f589 98bc ebd1 3cbc 941c d4ba
00000050: 1492 113b 0036 1d3c 75b4 a63b 5a08 c8bc
00000060: cc09 cf3c 50f8 523a 6958 bb3b 7ec6 23bb
00000070: ffaa 46b9 0938 40bb b66e c83b 8af2 193c
00000080: b02c 093c ccc8 49bb e329 a2b8 4c1b fabb
00000090: d827 4b3c b549 57ba e120 063c 5dfc 37bc
000000a0: a0e9 443c b050 e4b9 aede 893c c5ff 1e3b
000000b0: e51f bebb 3780 ca3c 71ec 2ebc 4fa7 9b3b
000000c0: 10b3 32bb ea3d 27bc a4c4 7b3b 1c5b 16bc
000000d0: 5582 bb3a 0465 3cbc 107e 44bc 27fb 0abc
000000e0: 2d0f e3bb eb91 01bb 51a9 663c aa16 2ebb
000000f0: d610 e5ba 8b1e 03bc b334 043b df93 1b3c
00000100: c433 b6ba 497d fbbb 79b1 7d3b de62 24bb
00000110: bbde 6cbc e1d0 323a 4c7e 29bc 2150 afbc
00000120: b88f 65bb fd2c be3c 17c0 3b3c 3674 913b
00000130: 92c2 853c a61f 823c 907e df3c 88c2 ffbb
00000140: 460d e23b c20a daba 76b0 a33b 7bf9 ad3a
00000150: ab28 0e3c d675 85bc fabe 1cbc e41c 44bc
00000160: b5c6 59bb c5a7 913c 66b2 a939 37b5 b8b8
00000170: d210 8c3c 7a80 873b ec2e 46bb 48a9 e1bb
00000180: 3a60 603c 1b1b 73bc a808 a63c 35bb bd3b
00000190: daa4 973c 2e8e 70b8 b322 0e3c fdba a7bb
000001a0: 92b4 d0ba be09 383c 3c37 013c ede8 783c
000001b0: 4ca0 3ebc f771 e0ba 0a62 a53c 3dbe 89ba
000001c0: e4f4 4c3c d86b 753c c69f 46bb 9138 223c
000001d0: 8df1 6bbc b220 a03b 775e aeba 622b 9e3c
000001e0: c095 8ebc 5e4b 5dbc 3c18 9cbb a617 be3c
000001f0: 5b66 a2bb c450 923c ad86 9a3a fa46 13bb
00000200: a744 233c a289 0e3c 5f41 063c e868 ddbb
00000210: c9ed 4d3c 20fe 1fbc 6364 90bc ae13 053c
00000220: 685b a03c a331 043c ee9b 51ba 1625 9dba
00000230: 5e50 9fbc d757 a0ba 4b81 033c 87e7 f0b9
00000240: 5a5b d3bb 0c1f e33b 9dd0 0c3b b243 d7ba
00000250: bdab 58bb 9393 7b3b a4cd 3b3c ac0d 243c
00000260: 891a 91ba 36b1 54bc 7caa fdba 7630 a239
00000270: ce44 1c3c 30d2 70bb 788d f6ba cff3 6f3c
00000280: e1e3 ee3b 58d5 833b 6e0c fdba 402e e33c
00000290: b404 8d3b 5b49 553b 3ee2 6f3c 41ff 06bc
000002a0: 0897 ecbb 69c1 e4ba f86f cabb 4e44 9abb
000002b0: 1157 ed3b 124e 7c3c f338 78bc 87f8 743a
000002c0: 15d5 29bc 9c8c 6cbc a850 66bc c08c 153b
000002d0: de34 6c3b 6be1 8fbc b72e 0bbc bc9d d0bc
000002e0: 94f7 c7bb 04e3 1abb 0084 37bc 42a5 963a
000002f0: 650f e23a 1962 cfbc d5e5 b73b 5d6d b03b
00000300: 67de b3bc fe6f 983c 640b e23c 5bdf 3cbb
00000310: 637b 2abc 0e7f 293a 71ff bb3a b7a6 32bc
00000320: 787a 893c 51b3 9439 48b2 1dbc 2329 6fbc
00000330: f1b4 fb3b 16ae e3ba 3c3b 70bb baff 3d3b
00000340: 6edf 6e3c 077a 7abb 6f0a ddbb 9c26 68bb
00000350: f1e6 f03b 0161 b4bb 3b69 12ba c21f b33b
00000360: 0db7 df3a 14df 17bc 1e01 473b e96d b6bb
00000370: c220 21bc 326d 823c 5bb6 04ba 8a81 f7b9
00000380: 98ca 1dbc 2e3d a9bb 070e a1ba 8e34 8d3c
00000390: 6a5f cebc f1a7 81bb b01d 4e3b 3078 14bb
000003a0: 88de 59bc 0270 cb3b ba37 30bc d300 cd3b
000003b0: bb7d 903c 9e8e eb3b be6e 1b3c ec50 83bb
000003c0: 3330 173b 67b6 14bb e184 f1bb 7a82 82bc
000003d0: a930 06bc b0db fabb 9a03 473c ddcc 103c
000003e0: e67b 3c3c 9c6d 263c 7252 a9bb 988f 083c
000003f0: fa8c 803a 4466 2f3b c998 9839 abc4 923c
0.010523601 0.007029386 -0.0054213596 0.022632612 0.01129221 -0.0030952 -0.016150696 0.023397556
-0.008428475 0.007520973 0.002227024 -0.0005084357 -0.0071071517 -0.00026368146 -0.0060504465 0.012563088
0.0007060754 -0.01862047 -0.011524658 -0.0016182833 0.0022212313 0.009595394 0.00508743 -0.024418045
0.025273226 0.00080478657 0.0057173264 -0.0024990137 -0.00018946452 -0.0029330275 0.0061167134 0.009396205
0.008372471 -0.003078985 -7.732564e-05 -0.0076326486 0.012399636 -0.00082125823 0.00818655 -0.011229602
0.012018591 -0.00043547666 0.016829815 0.0024261337 -0.005802142 0.02471934 -0.010676489 0.0047501693
-0.0027267374 -0.010207633 0.0038416767 -0.009176996 0.001430581 -0.011498693 -0.011992946 -0.008482731
-0.0069292993 -0.0019770812 0.014078454 -0.0026563802 -0.0017476331 -0.0080028875 0.0020173013 0.009495704
-0.0013900925 -0.0076748473 0.0038710518 -0.0025083343 -0.0144574 0.00068212865 -0.010345053 -0.021400513
-0.003502829 0.023214811 0.011459372 0.0044389023 0.01632813 0.015884232 0.02728203 -0.0078051724
0.006898555 -0.0016635286 0.004995401 0.0013273204 0.008676688 -0.01629154 -0.009567017 -0.011969779
-0.003323001 0.017780194 0.0003236711 -8.8075576e-05 0.017097864 0.0041351886 -0.003024037 -0.006886635
0.013694817 -0.014838005 0.0202678 0.005790139 0.018511225 -5.7352874e-05 0.008675265 -0.0051187263
-0.0015922955 0.0112327915 0.007886704 0.015192253 -0.011634897 -0.0017123808 0.02018835 -0.0010508966
0.012509558 0.014979325 -0.0030307635 0.009901182 -0.014400852 0.00488671 -0.0013303299 0.019307796
-0.01740539 -0.0135067385 -0.004763631 0.023204636 -0.0049560494 0.017860778 0.0011789404 -0.0022472725
0.009965098 0.008699806 0.008194297 -0.0067568906 0.012568899 -0.009765178 -0.017625993 0.008122368
0.019574836 0.008068475 -0.00079959526 -0.0011989202 -0.019447502 -0.001223321 0.008026431 -0.00045948869
-0.006450099 0.0069311913 0.0021486648 -0.0016423373 -0.0033061348 0.0038387522 0.011462603 0.010013025
-0.001107053 -0.0129817035 -0.0019353176 0.00030935154 0.009537889 -0.0036746375 -0.0018810472 0.014645531
0.007290349 0.0040232353 -0.0019306072 0.027732015 0.004303539 0.0032544944 0.014641343 -0.008239568
-0.0072201528 -0.001745266 -0.0061778985 -0.0047078496 0.007243045 0.015399473 -0.0151502965 0.0009344895
-0.010365744 -0.014437821 -0.014057316 0.002281949 0.0036042253 -0.017563542 -0.008495024 -0.025465839
-0.0061025117 -0.0023633847 -0.011200905 0.0011493342 0.001724702 -0.025315331 0.005612115 0.005384131
-0.021956636 0.01860809 0.027593322 -0.0028819654 -0.010405394 0.0006465771 0.0014343095 -0.010904006
0.01678203 0.0002836236 -0.009625025 -0.01459721 0.007681482 -0.0017370607 -0.00366564 0.0028991536
0.014579637 -0.0038219707 -0.0067456285 -0.0035423404 0.007351749 -0.005504728 -0.00055851386 0.0054664323
0.0017068103 -0.009269495 0.0030365656 -0.0055673015 -0.00983447 0.015921209 -0.00050625735 -0.00047208025
-0.009630822 -0.005164764 -0.0012287506 0.017236974 -0.025191981 -0.0039567878 0.00314508 -0.0022654645
-0.0132976845 0.0062084207 -0.010755474 0.006256202 0.017638078 0.007188632 0.009486852 -0.0040074494
0.00230695 -0.0022691728 -0.0073705767 -0.015931357 -0.008190312 -0.0076555833 0.012146855 0.008837906
0.011504149 0.010157969 -0.005167299 0.008335017 0.0009807639 0.0026763836 0.00029105533 0.017916044

action_model._continuous_distribution.mu.bias f4 [2]
00000000: 8d50 64bb 0975 f63b
-0.003483805 0.007521276

66 f4 [20]
00000000: 9f30 623e ed9b ef3e 9269 fc3e aee9 e43e
00000010: 843e 993e 7c0d fa3e 6bcb ff3e 3a5d e83e
00000020: a677 8f3e a610 e23e 2830 ac3e f583 9f3e
00000030: 5b1e aa3e 6d08 d93e 6011 8a3e 23bf 833e
00000040: 8f79 f23e f114 fa3e 76a2 253e 2e44 3a3e
0.2208886 0.4679865 0.49299294 0.44709533 0.29930508 0.48838413 0.49959883 0.45383626
0.28020972 0.44153327 0.3363049 0.31155363 0.33226284 0.4238924 0.2696638 0.25731763
0.47358367 0.48844102 0.16175255 0.18190071

69 f4 [12]
00000000: 249e 933e ed9b ef3e 820a ff3e e1a1 f43e
00000010: 5b26 943e 6ded eb3e f807 fe3e b109 f33e
00000020: 3b5e 943e 810f f33e f6bd ff3e 449b f53e
0.2883159 0.4679865 0.49812704 0.47779754 0.28935513 0.4607958 0.49615455 0.4746833
0.28978142 0.47472766 0.49949616 0.4797002

72 f4 [3]
00000000: 2755 603e 924b a03b 8f76 073f
0.21907483 0.004891821 0.5291528
