Assets/KartAgent.onnx (onnx, 305043 bytes, 13 tensors)

network_body.observation_encoder.processors.0.normalizer.running_mean f4 [20]
000000 04 ea ba 3d 5e 8f 4a 3f 49 2c a4 3d c8 4a 6d 3e
       0.09126666 0.7912501 0.08016259 0.23173058
000010 5a 5e 0c 3f ba f2 ab 3e 16 ac c3 3d a5 69 6b 3e
       0.5483147 0.33583623 0.09554307 0.22989519
000020 e9 cd 04 3f 3b 64 d0 3e ce 45 64 3d dd 6a 49 3e
       0.51876694 0.4070147 0.055730633 0.19669671
000030 7a 61 29 3f 27 18 92 3e 36 4a 12 3d f2 6a 42 3e
       0.6616436 0.28534052 0.035715304 0.18986109
000040 ba b2 16 3f 2c 97 bd 3e f1 bc b8 3c a3 4e 3c 3e
       0.58866465 0.37029397 0.022551032 0.18389373

network_body.observation_encoder.processors.1.normalizer.running_mean f4 [12]
000000 79 f4 d7 3d 5e 8f 4a 3f d5 21 87 3d 7c aa d4 3d
       0.10544676 0.7912501 0.0659825 0.1038408
000010 a8 64 de 3d f0 2f 49 3f ab e7 8b 3d 19 5d d7 3d
       0.108590424 0.7858877 0.068312965 0.10515804
000020 e4 94 e5 3d 1c 9f 49 3f 72 83 81 3d 3a bb d1 3d
       0.11210039 0.78758407 0.06323899 0.10240789

network_body.observation_encoder.processors.2.normalizer.running_mean f4 [3]
000000 f4 04 ba bc 97 e6 4a 3d be 90 0e 3d
       -0.02270744 0.049536314 0.034806006

network_body._body_endoder.seq_layers.0.weight f4 [256, 35]
000000 fa 2d 5f bd c6 55 6a 3e ee 42 e6 3d d1 77 94 be
       -0.054487206 0.22884282 0.112432346 -0.28997663
000010 02 4a 6f be 28 d1 0d 3d 48 3e 1e bd 71 e3 1f be
       -0.23368075 0.034623295 -0.038633615 -0.15614106
000020 eb 67 75 be eb d2 6b be 10 59 85 3d 15 f4 60 bd
       -0.23965423 -0.23029678 0.06511128 -0.054920275
000030 f2 5f 00 3f 85 b4 62 bd 4f fa 08 3e 50 b8 ad 3c
       0.501464 -0.055347938 0.13376735 0.021206051
000040 7c 21 08 3f 98 e1 1f bd 73 3b 48 3e 00 e8 fa bc
       0.53176093 -0.039033502 0.19553928 -0.030628204
000050 73 ab c5 3c f4 89 76 be cd cc 27 3e 50 1f a3 3b
       0.024129605 -0.24076062 0.16386719 0.004978098
000060 61 e8 fa bd af 82 3b bc 71 6f b5 3c 5e ab a9 bd
       -0.12251354 -0.011444732 0.022147866 -0.08284639
000070 51 b3 ad 3e a5 67 0c be f1 c6 d7 3d 55 be 2b 3e
       0.3392587 -0.13711412 0.10535992 0.16771825
000080 9a 71 ea 3d 25 52 23 3e 24 46 a8 3e b9 6b 46 be
       0.11447449 0.15949304 0.32866013 -0.1937703
000090 be 7f ee 3d 38 81 55 bb 52 c3 06 3e cb 91 00 be
       0.11645459 -0.003257824 0.13160446 -0.12555616
0000a0 42 85 d2 3d 63 c7 82 bb fd 85 3e 3d a1 80 cd bd
       0.10279323 -0.003991054 0.0465145 -0.100343
0000b0 9a 08 50 bd f5 84 8c 3d e8 f3 e5 3d 1a 0e 55 bd
       -0.050789453 0.06861297 0.11228162 -0.0520154
0000c0 d9 20 a4 3d 21 5e d5 3d b7 4c 5d 3d 65 81 94 bd
       0.08014078 0.10418344 0.05402824 -0.072512425
0000d0 87 dd 34 bd a0 3e 8f 3d 68 4e 59 bd a6 8d cf 3e
       -0.044156577 0.06994367 -0.05305329 0.40537757
0000e0 cf 2c 8e 3e c6 11 b1 3d f2 87 2a 3e 22 66 ba 3d
       0.2776856 0.08645968 0.16653422 0.091015115
0000f0 06 d0 0d 3d 19 22 c1 3e 7b ef a9 3d fb 1e e6 bd
       0.034622215 0.37721327 0.082976304 -0.11236378
000100 d0 84 51 3b f6 df c9 be 47 16 d6 bd ba 7c 0d 3d
       0.0031970032 -0.3942868 -0.10453468 0.034542777
000110 7e f6 63 3e 02 c1 76 38 6b 34 05 be 9d eb c7 3c
       0.22261998 5.8830723e-05 -0.13008277 0.024404341
000120 71 27 e8 3c 16 00 11 bd 26 f4 9c be 9a 4a da bc
       0.02833912 -0.035400473 -0.3065502 -0.0266469
000130 35 0c 37 be 99 63 df 3d 95 d8 98 3d c8 72 bf 3d
       -0.1787575 0.109076686 0.07463185 0.09348065
000140 97 dd 5b 3e 9b f1 4e 3a 99 59 0d 3e ca 34 24 bd
       0.21471249 0.00078942784 0.1380371 -0.040089406
000150 2a f6 05 be a9 76 58 3d 45 b7 61 be 60 09 0f be
       -0.13082185 0.05284754 -0.22042568 -0.1396842
000160 9d 77 8f bd cd 6c 4d be ca 1e 05 3e c5 ba f1 3c
       -0.07005236 -0.20061035 0.13000026 0.029508004
000170 05 77 65 bd 4b 07 3a 3e c8 30 9e bd 5b bf 77 bd
       -0.05602171 0.18166845 -0.07724148 -0.060485225
000180 15 be f6 bd c3 2d a5 bc 25 f8 18 3e a3 31 45 be
       -0.12047974 -0.020163422 0.1493841 -0.19257216
000190 f8 e5 27 be 20 22 23 3e 5d 25 0e 3e 05 78 dc 3c
       -0.1639632 0.15930986 0.1388144 0.026912699
0001a0 a8 47 36 3d 24 e9 20 be e6 90 2c be 7e 4e ee 3d
       0.04450193 -0.15713936 -0.1685215 0.11636065
0001b0 9a 66 73 be 7f 42 da 3d 63 10 db be c6 be e8 bd
       -0.23769608 0.106572144 -0.4278594 -0.11364512
0001c0 99 3d b2 3e 21 58 46 be 92 a7 85 3e f4 44 b5 3d
       0.3481262 -0.19369556 0.26104409 0.088510424
0001d0 b1 bc ad be 67 d5 b6 bd 30 08 09 be 7a 5b d2 bd
       -0.33933023 -0.08927422 -0.1338203 -0.10271354
0001e0 0d 1b 82 3e 66 f0 40 be e9 be 2d bc 44 af cc bd
       0.25411263 -0.18841705 -0.010604599 -0.09994367
0001f0 c0 ea 94 3b 47 a4 86 3c 8d ab d7 bd 1f bb 19 be
       0.004544586 0.016435755 -0.105307676 -0.15012787
000200 c6 9f 43 be 1c be 93 bc ca d2 45 be 16 c3 3f bd
       -0.19103917 -0.018034987 -0.19318691 -0.046816908
000210 a7 ab 94 3c d5 48 98 3d ad 3e 32 bd f6 61 42 be
       0.018148256 0.074357666 -0.043516804 -0.18982682
000220 59 6f 4a 3d 24 50 43 bd f6 91 45 3e d2 60 c4 3d
       0.049422596 -0.04768385 0.19293961 0.095887795
000230 5c 05 63 be 43 b2 23 be e7 d6 26 be 27 9d 13 be
       -0.22170013 -0.1598597 -0.16292916 -0.14415418
000240 62 e7 7e 3d f8 2e 3f be a8 3c 5e 3e 1f da 1e 3e
       0.062232383 -0.18670261 0.21702826 0.15512894
000250 5f 66 2b 3d 8a 4d 0e 3e 7c 23 ce 3c 8b 8a 3f be
       0.041845676 0.13896766 0.025163405 -0.18705194
000260 57 1c 94 be 03 bd 9f 3e 14 c5 e0 bd 9d 94 5f 3e
       -0.28927872 0.31198892 -0.1097509 0.21834035
000270 8c cc 00 be b1 cd 78 3e 25 de 25 be 81 0d 88 3e
       -0.12578028 0.24297215 -0.16198023 0.26572803
000280 cf 22 9a 3d 67 5a 9a 3d db f7 1e bc bc b5 1a be
       0.075261705 0.07536774 -0.009702648 -0.15108389
000290 91 50 5b 3c 39 d8 69 3e 93 7d 76 bb 93 41 86 be
       0.013385908 0.22836389 -0.003761147 -0.26221904
0002a0 bf 9b a8 bd 13 1f 88 be f0 ae 2e bd 4f bb 98 bd
       -0.08232831 -0.26586208 -0.042647302 -0.07457601
0002b0 cb 39 24 be 93 04 f0 be 1c 82 f7 3d 47 2e 0f be
       -0.16037671 -0.4687849 0.12085363 -0.13982497
0002c0 d3 7a 3e 3d d1 f9 44 be 40 e5 91 bd 44 58 9c be
       0.046503853 -0.19235922 -0.07123804 -0.3053609
0002d0 25 28 20 3e f0 d6 fd bc 25 80 b7 bc 9b 4d af 3d
       0.15640314 -0.03098628 -0.022399971 0.08559724
0002e0 d5 58 d0 3d 72 ad a4 3d 83 c7 82 be 0e 32 46 3b
       0.10173193 0.080408946 -0.2554284 0.0030242237
0002f0 ee 70 54 3d 2d 65 b1 bd 2a f3 52 be d2 44 a8 bd
       0.05186551 -0.08661876 -0.20600572 -0.082162514
000300 31 c5 2a 3e 4e e4 f6 be e5 6d 72 3e 2e a1 38 be
       0.16676785 -0.48221058 0.23674734 -0.18030235
000310 73 cf a4 bd 31 a5 03 bd 9c 28 66 bd 01 22 4b 3e
       -0.0804738 -0.03213996 -0.056191072 0.1983719
000320 93 bf 0b be 0d 50 74 be 0a b5 8c 3e 6c 27 b4 bd
       -0.13647299 -0.23858662 0.27481872 -0.087965816
000330 f3 a5 34 be 3d 5b 81 be 3a 18 77 3e aa 3b 06 3e
       -0.1764143 -0.25264922 0.24130335 0.13108698
000340 8b 2d be 3d b7 28 20 be dd 8c 5c be b1 5f a8 bd
       0.092860304 -0.15640531 -0.2153811 -0.08221377
000350 32 70 21 bc fa a7 12 be d6 ba a8 bd 29 82 1a 3e
       -0.00985341 -0.1432189 -0.08238761 0.15088715
000360 aa f9 63 be 3c de 0d 3e 6a 63 e8 bd 2c 41 8a 3c
       -0.22263208 0.13854307 -0.11347087 0.01687678
000370 f4 3b 84 3e 87 14 bb 3e 6c 35 ba 3e d4 cb 82 3d
       0.2582699 0.365391 0.36368883 0.063865334
000380 e7 7d fa 3d b9 d8 b1 bd a2 69 87 3e be 97 4a 3d
       0.12231045 -0.08683915 0.2644778 0.04946112
000390 f7 d5 f1 bc 15 2f c2 be db 17 86 3e 30 7d 0b be
       -0.029520972 -0.37926546 0.26190075 -0.13621974
0003a0 ea a6 c8 bc 91 16 8a bd ca c7 10 3c e7 c4 a4 3c
       -0.024493653 -0.067425855 0.008836696 0.020113422
0003b0 d5 16 47 3c 65 ac 62 3e ff 92 a7 3d 08 60 29 3e
       0.01215144 0.22136076 0.08182334 0.1654054
0003c0 e8 eb 1f 3e b9 e3 77 be a5 19 26 be 15 1b 40 bd
       0.15617335 -0.24207963 -0.1622072 -0.046900827
0003d0 46 ed 5d bd c8 b4 77 3e d1 15 4f 3e 0e 62 a6 bc
       -0.05418136 0.24190056 0.20223166 -0.020310428
0003e0 38 32 75 3c 36 03 31 3d 7c 75 67 3e f4 11 49 3e
       0.014965586 0.043215953 0.2260341 0.19635755
0003f0 31 4f 15 be c0 10 35 3e ae 22 13 be a7 db c5 bc
       -0.1458099 0.17682171 -0.14368698 -0.02415259

network_body._body_endoder.seq_layers.0.bias f4 [256]
000000 13 90 d5 bc 88 34 7e 3c 44 6f 7c bc b9 b2 29 bc
       -0.026069677 0.015515454 -0.015407387 -0.010357552
000010 eb 44 b7 3c 0d 20 a3 bc 63 fa 62 bd 07 da d8 bb
       0.02237173 -0.019912744 -0.05541457 -0.0066177878
000020 a7 e3 62 bd 19 c4 a1 bc 8c 5f 0f bd 4e ea 02 bb
       -0.055392887 -0.019746827 -0.03500323 -0.0019976082
000030 ea 0b 44 bc c2 9d a0 bc 68 84 86 3c 71 b3 3e bd
       -0.011965731 -0.019606475 0.016420558 -0.046557847
000040 78 f9 c8 bc f4 12 ff bc d6 34 e3 bc 53 09 04 bd
       -0.024533018 -0.031136967 -0.027735155 -0.032235455
000050 d7 ac 46 bc 43 84 34 bd 21 2d 85 bc 58 5a 58 bd
       -0.012126169 -0.044071447 -0.01625687 -0.052820534
000060 3e 32 44 bd 4e 82 df bc 13 7f 9e bd c6 30 13 ba
       -0.047899477 -0.027283814 -0.07739081 -0.0005614873
000070 fa ef 7e bb 63 86 b5 bb e1 58 2f 3b 02 68 46 bc
       -0.0038900361 -0.005539702 0.0026755857 -0.012109758
000080 bc 44 fa bc 2a a7 49 bd 96 76 68 bb 2c 53 f2 bc
       -0.030550353 -0.049231686 -0.0035471073 -0.029580675
000090 5a 76 92 bc e6 54 70 bb 93 79 e0 3c af 94 99 bd
       -0.0178787 -0.0036671697 0.027401721 -0.07499062
0000a0 e2 13 88 bc 9f 23 67 bd 8a 3b 9d bb 75 f0 82 3c
       -0.016611043 -0.056430455 -0.0047983574 0.0159838
0000b0 16 09 bd 3c 40 f0 17 3c ae 51 46 bd b2 5e d3 bc
       0.023075622 0.009273589 -0.04841774 -0.02580199
0000c0 7c 02 31 bd aa 76 0c bc 98 55 d3 bc cd 44 03 bd
       -0.04321526 -0.008573214 -0.02579765 -0.032048035
0000d0 d0 08 b0 bc 05 ff 32 bd 00 dd 03 bc 33 d5 64 bb
       -0.021488577 -0.043700237 -0.008048296 -0.0034917116
0000e0 6e ba 3d 3a 4b f2 25 bd a0 16 2f bd a1 05 55 bc
       0.0007237558 -0.04051427 -0.042746186 -0.01300183
0000f0 c6 e0 c6 bc b1 7a 05 bd 86 a3 3c bd 59 9e 20 bc
       -0.024277102 -0.03258771 -0.046054386 -0.009803378
000100 ae 90 95 bb 3e 95 a5 bc e1 eb 8a bd b7 4a 5d 38
       -0.0045643663 -0.020212766 -0.067832716 5.276009e-05
000110 8c b2 a2 bc f4 1b 9d bc 2a f0 84 3a d9 e2 d4 bb
       -0.019860528 -0.019178368 0.0010142375 -0.006496769
000120 0e e2 01 3a 65 db c1 bc 45 a5 ef bb 9c 07 13 bd
       0.0004954644 -0.023664186 -0.007313403 -0.03589593
000130 70 ab 51 bd f6 ed 09 bd a7 45 a8 bb fd c9 09 bd
       -0.051188886 -0.033674203 -0.0051352563 -0.033639897
000140 8c 43 a5 bc f7 05 0d 3b 24 de d8 bc 08 c1 c8 38
       -0.02017381 0.0021518448 -0.026473112 9.572698e-05
000150 41 90 9b bb cf f8 1d bc 20 30 00 bc 1b 85 df 3b
       -0.004747421 -0.00964184 -0.007823974 0.0068212873
000160 fe 1c 1c bd 81 3b 92 3c f7 3b 78 bb 03 2e a2 bc
       -0.038113587 0.01785064 -0.0037877539 -0.01979733
000170 00 b1 2c bd dc 9a 25 39 65 de 2d bc b9 4c 10 3c
       -0.042160988 0.00015793316 -0.010612105 0.008807355
000180 ec 45 f0 bb 06 64 75 bb 64 d0 23 bd ab 5c 98 ba
       -0.007332554 -0.0037443652 -0.03999366 -0.0011624297
000190 59 38 14 3d 1d c4 17 bd 63 19 80 bd 18 72 93 3b
       0.03618655 -0.037052263 -0.06254842 0.004499685
0001a0 37 b4 a2 3c 07 db 89 bb 8a 30 c5 ba f4 ba 34 bd
       0.019861324 -0.0042070183 -0.0015044373 -0.044123605
0001b0 8d b6 a8 3c 79 7a c8 3b 52 b6 96 bd bd 20 02 bd
       0.02059486 0.0061181155 -0.073589936 -0.031769503
0001c0 80 d2 81 bc 3e 2d 20 bd 77 4f 2e bd 57 c2 0a bd
       -0.015847445 -0.039105646 -0.042556252 -0.033876743
0001d0 db a8 a9 3c 48 74 86 3c 8a ef 3a 3c c4 56 4c bd
       0.0207104 0.01641287 0.01140965 -0.049887434
0001e0 92 3e 25 bd 44 29 23 bd 28 25 b4 3c 22 5f 65 bc
       -0.040342875 -0.039834276 0.021990374 -0.013999732
0001f0 42 ea e3 bc a0 81 50 3c 9f dd ab 3b 18 98 61 ba
       -0.027821664 0.0127262175 0.005244925 -0.00086057326
000200 df 89 95 3b 35 9e 87 3c b3 5a 92 bc 15 50 e6 bc
       0.0045635547 0.016554931 -0.017865514 -0.028114358
000210 a1 57 21 bd 64 41 9a bc 3c 28 8e bc 05 7f 4b bd
       -0.03939021 -0.018830009 -0.01735317 -0.049681682
000220 a7 bf 8b bc f9 af 84 bd 0c 43 4d bd e7 3b 86 3c
       -0.01705916 -0.064788766 -0.05011277 0.016385986
000230 ab e7 ed bc 8f 25 60 3b 09 31 02 bd 14 54 04 bd
       -0.029041132 0.0034202074 -0.031785045 -0.032306746
000240 0c 7d 92 bc 0d 14 56 bd 52 22 08 3a d7 b5 51 bd
       -0.017881893 -0.052265216 0.00051931024 -0.051198807
000250 ab 10 c0 bc 31 df 76 bc 4a 5c 15 bc 1c 9a 7e bc
       -0.023445448 -0.015067861 -0.009116242 -0.015539672
000260 21 39 86 3a b9 91 32 bc 61 e8 89 bc 59 ee c1 bc
       0.0010240414 -0.010899001 -0.01683444 -0.023673223
000270 98 39 4b 3d d1 a0 f2 bc 11 83 e2 bc ed 35 34 bc
       0.049615473 -0.029617699 -0.027650388 -0.010999185
000280 52 b8 e8 bc 36 d8 ad bb 33 60 24 bd c7 9b 14 bd
       -0.028408203 -0.0053053154 -0.040130805 -0.036281373
000290 23 16 9a bc ba cf 62 bc fd 28 cd bb 49 55 3c bc
       -0.018809384 -0.013843471 -0.0062609897 -0.011494943
0002a0 f6 1b b6 bc f0 b7 71 bb d3 ee 00 bd 28 24 54 bc
       -0.02223013 -0.0036883317 -0.03147776 -0.012948073
0002b0 44 70 bf bb 8c 41 da bc 45 ab 97 ba da 51 e1 3b
       -0.0058422405 -0.026642583 -0.0011571428 0.0068762125
0002c0 65 7a 8a bb 46 85 26 ba 69 e1 ff bc ed 98 57 bd
       -0.0042260163 -0.0006352257 -0.031235414 -0.052636076
0002d0 3a 54 72 bc 06 58 d2 bc 29 00 6d 3b cb 42 76 bc
       -0.014790589 -0.025676738 0.0036163426 -0.015030573
0002e0 31 ba 55 bc e1 79 60 bd 7f b2 4f 39 c7 0e 9a 3b
       -0.01304488 -0.054803733 0.00019807553 0.0047014686
0002f0 ce c8 b1 bc 49 3e 49 bd 6b 15 84 3c fc ff a6 bd
       -0.021702196 -0.049131665 0.016123494 -0.08154294
000300 80 ea 13 bc 26 cd e8 bb b8 e1 08 bd bd cb 29 bd
       -0.009028077 -0.0071045337 -0.033418387 -0.041454066
000310 5f cb 05 3d db d1 69 bc f0 1b 1d bd 61 5d d1 3b
       0.032664653 -0.014271225 -0.03835672 0.0063893055
000320 b3 0e 32 bd b6 e8 6c 3c ef 8f 4d 3a a7 61 ef bc
       -0.04347105 0.0144597795 0.0007841577 -0.029221369
000330 2d cd 6a bc df cf 45 bd d4 4a a8 b9 81 26 6f bb
       -0.014331144 -0.048293944 -0.00032099208 -0.0036491456
000340 be b4 94 bd 54 72 3d bc aa 94 44 bd ef 73 1c bc
       -0.07261036 -0.0115629025 -0.04799334 -0.009549125
000350 b0 be ba 3b 5c 03 3c bd 3f d8 c5 3b 22 1b b5 3c
       0.0056990013 -0.04590164 0.0060377414 0.022107664
000360 a0 57 61 bb 79 ef 5f bb de 3c bc 3c 8c 8b c6 bc
       -0.0034384504 -0.0034169836 0.022978242 -0.024236463
000370 83 e4 ec bc 0c ad 05 bd ae a4 fa bc 1a ce 33 3c
       -0.028917557 -0.032635733 -0.030596104 0.010974431
000380 b1 a5 8e bc 66 33 26 bd 00 f3 bb 3c 6c a5 ff 3c
       -0.017412992 -0.04057636 0.02294302 0.031206809
000390 9f af ab bc e5 66 0e 3c 94 fc 43 3c 83 8c 47 bc
       -0.020957766 0.008691524 0.011962075 -0.012179497
0003a0 d2 e9 15 bc 0a c5 5c bc 2a 74 87 bc 64 70 02 bd
       -0.009149985 -0.013474712 -0.016534884 -0.031845465
0003b0 a0 68 99 3c f0 b7 94 3c 6c 7c c1 bc dc 55 64 bc
       0.018726647 0.018154114 -0.0236189 -0.013936486
0003c0 a8 cc 93 3b 98 07 c0 bc 8e 01 10 bd 2d 5d f4 bc
       0.004510481 -0.023441121 -0.035157733 -0.029829586
0003d0 80 bf ee bc ec ae f6 bc f4 54 21 bd 54 ea 6e bd
       -0.029144049 -0.030112706 -0.03938766 -0.05832894
0003e0 62 01 95 bb 63 9b 8a bc e2 4e 74 bc b0 f4 88 bd
       -0.004547284 -0.016919797 -0.014911385 -0.066872954
0003f0 95 99 c0 3a 74 07 df bc ea 97 db bc 79 6e 8d 3b
       0.0014694209 -0.027225234 -0.026805837 0.004316148

network_body._body_endoder.seq_layers.2.weight f4 [256, 256]
000000 73 dd 0d 3d e2 5d 49 bd 80 b9 2b 3d 71 03 d8 bc
       0.03463502 -0.0491618 0.041924953 -0.026368828
000010 bb 94 d6 3d ff 09 63 3c 3b 27 38 bd 7a 90 c0 3c
       0.10477587 0.013857364 -0.044959288 0.023506392
000020 68 17 87 bd f7 07 2d bb 7e eb 99 3a a9 a9 6e bc
       -0.06596261 -0.0026402452 0.0011743156 -0.014566817
000030 d1 5c 8d 3d 58 94 0c 3d 01 7b c5 bd d9 39 23 bd
       0.06902469 0.03432116 -0.09642602 -0.03985009
000040 5a 87 4d 3d 8b 6d 81 bb 32 69 1b 3d c2 c4 ba bd
       0.05017791 -0.003949826 0.03794212 -0.0911956
000050 ac 05 11 bd 12 c8 25 bd 23 20 11 3d bd 76 65 bd
       -0.0354058 -0.040474005 0.03543104 -0.05602144
000060 fa 99 df bc f1 a4 55 3d 34 f1 a0 3c 3f 72 44 bd
       -0.027295101 0.052159254 0.019646265 -0.047960516
000070 87 0c 2c be b8 ba 18 bd d2 61 f8 bd 7c 5a 81 3d
       -0.16801654 -0.037287444 -0.12128033 0.06316087
000080 da 2a 5c 3b 53 f0 be bc c6 6f 3d be f6 78 74 3d
       0.0033594877 -0.023307955 -0.1849967 0.05968567
000090 7f 70 7c bd 57 00 30 be c4 96 23 ba 19 46 8b bd
       -0.061630722 -0.1718763 -0.00062404224 -0.068004794
0000a0 99 6f 41 bd b2 c3 b6 3d 53 a2 b7 3d e7 23 5a 3c
       -0.04722557 0.08924045 0.08966508 0.013314224
0000b0 bf 4b c6 3c d8 6d d4 bd d4 a6 28 be bc 01 e9 3c
       0.02420604 -0.103725135 -0.1646989 0.02844321
0000c0 bf 86 15 3d e3 b3 d9 bd 7f c9 3e bd 72 e6 ca 3d
       0.036505457 -0.10630014 -0.04657888 0.09907235
0000d0 f8 1d c5 3d fe ba 56 3d 13 43 7f bd 4f b2 00 be
       0.09624857 0.052424423 -0.062319826 -0.1256802
0000e0 28 37 98 3c a9 dd 7b 3d 2a 2f 04 bc 94 b0 b0 bd
       0.018580988 0.06149069 -0.008067885 -0.086274296
0000f0 58 05 3d bd b8 a9 98 3d 04 2e 2d bc 3f b5 ab bc
       -0.046147674 0.07454246 -0.010570053 -0.020960448
000100 0c f3 d0 3d 62 d0 c8 3d 06 37 56 3d 53 b6 8f bc
       0.102026075 0.09805371 0.05229857 -0.017542994
000110 2e 8f 83 3d 30 f1 05 3d 27 2d f4 bd 60 08 1b bd
       0.06423794 0.032700717 -0.119226746 -0.037849784
000120 01 d1 b1 bb d5 a6 82 bd bc 29 1b 3e 64 cc d9 3a
       -0.0054265265 -0.06379477 0.15152639 0.0016616699
000130 52 9a 29 bd 04 50 14 3e 03 d2 00 bc cb 37 a3 bb
       -0.041406937 0.14483649 -0.007862571 -0.0049810163
000140 14 f0 c3 bd 90 70 f9 bd 65 72 9c 3c d7 09 6c bd
       -0.09567276 -0.12179673 0.019097516 -0.05762657
000150 2c 79 b7 3d 84 63 c4 3d c3 17 8a bd c0 d0 5e bd
       0.089586586 0.095892936 -0.067428134 -0.0543983
000160 eb 59 ca 3d 21 1c c8 bc 05 f8 6f 3c cc bc 0a be
       0.09880432 -0.024427475 0.014646535 -0.13548583
000170 7b 4c 47 3d 73 20 ba bd 31 78 a5 3b 8b 78 96 bd
       0.04865692 -0.090882204 0.0050497283 -0.073472105
000180 d1 c2 db bc fc 60 f2 bd 63 38 9f bd a1 6a 10 3d
       -0.026826294 -0.118349046 -0.07774427 0.03525794
000190 a1 11 41 bd 5e 28 a9 3c a6 4d 44 bd b2 26 1b bc
       -0.047135953 0.020649131 -0.047925614 -0.009469675
0001a0 f1 84 41 3d 03 40 a4 3d db 3c 9b bc f0 d5 64 3c
       0.047245923 0.08020022 -0.018949917 0.013967022
0001b0 9b b6 a5 3d 35 60 36 be 47 60 a7 bc c2 14 57 3d
       0.0809147 -0.17810138 -0.02043165 0.05251003
0001c0 04 f4 2f bc 91 7e 0f 3d b8 87 b0 3d 68 d7 a2 3c
       -0.01073933 0.035032813 0.08619636 0.019878104
0001d0 11 7a 0b bd c9 64 07 3d c3 bc 14 bd 0e 3f 8b bd
       -0.03405196 0.0330551 -0.03631283 -0.06799136
0001e0 9b 4d a2 3d aa 52 3b 3c 20 16 57 3d dc a0 5c bd
       0.07924958 0.011433283 0.052511334 -0.053864345
0001f0 70 08 db bd dd d6 ba 3d b7 96 fe 3d ba d1 e0 3d
       -0.10694969 0.09123013 0.1243109 0.10977502
000200 c9 1c 7c bd 28 a5 2f bc e8 f9 3f 3d cb a1 46 3c
       -0.06155089 -0.010720529 0.04686919 0.012123535
000210 d4 06 3d bb b5 ca 9d 3d ed ff 02 3d ce 94 ac 3c
       -0.0028843181 0.07704679 0.03198235 0.02106705
000220 f0 3a c9 bd b3 9d 0f bb d2 9f 26 38 01 5a 62 3d
       -0.098256946 -0.0021914064 3.972633e-05 0.055261616
000230 41 80 c7 3c 6f 0b ec bd ce 0b 60 bd bf e1 52 bd
       0.024353148 -0.11525618 -0.054698758 -0.05148482
000240 2a 9d 13 3e a7 79 00 be 43 a0 9e 3d 6b ae b4 3b
       0.14415422 -0.12546407 0.07745411 0.0055139563
000250 71 35 7d bd 3c 1d 9d 3c 96 e2 19 3d 67 10 55 3d
       -0.061818544 0.01917898 0.037569605 0.052017596
000260 d9 44 50 3d 16 95 fd bc e6 cd a1 3c 57 fd 37 bd
       0.05084691 -0.030954879 0.0197515 -0.044919338
000270 9f c1 ef 3c 7d 78 bb 3c da 51 bf 3c 96 19 19 3d
       0.02926713 0.022884602 0.02335446 0.037377916
000280 ff 22 9a bc b5 4d 31 bd f4 e9 b4 bc db 35 aa bc
       -0.018815516 -0.043286998 -0.022084214 -0.020777633
000290 62 e0 56 3b d0 c5 1f 3d c7 a6 0a bd 39 6d 89 3d
       0.0032787551 0.039007008 -0.033850458 0.06710286
0002a0 d2 d2 1e bd 40 57 28 bd 4f 21 04 be f8 ae bc bd
       -0.038775273 -0.041098833 -0.12903331 -0.0921306
0002b0 5a b4 8d bd c2 02 0f bd 6c 04 4d 3d b6 68 e5 bd
       -0.06919165 -0.03491474 0.050053045 -0.11201613
0002c0 37 67 50 bd 4b 2f 10 bd f9 f4 ee bd d6 a0 a5 3d
       -0.050879683 -0.035201352 -0.116678186 0.08087318
0002d0 03 de f5 bd f8 97 af bc d4 6b 4f bd 32 92 df bc
       -0.12005236 -0.021434769 -0.050639942 -0.027291391
0002e0 65 71 c1 3c d1 22 f1 bc 5c 1b 38 bd 58 b9 39 bc
       0.023613641 -0.029435547 -0.044947967 -0.011335693
0002f0 65 a2 a3 bc 42 0d ab bb 10 e8 dc bc 71 0f 88 bb
       -0.019974897 -0.0052200863 -0.026966125 -0.0041522314
000300 88 c2 2d 3c f3 52 d3 bb 98 44 0a bd 2e e2 d5 3b
       0.010605462 -0.0064490973 -0.033756822 0.006527207
000310 96 22 01 3d 6c 36 06 bd e8 45 97 3c ca ed ad 3b
       0.031527124 -0.032766744 0.018465951 0.0053078877
000320 4f 97 16 be 4d 50 15 be 4d 50 55 be 94 ac c0 bc
       -0.14706157 -0.14581414 -0.20831414 -0.023519792
000330 53 8f 9a 3c dc d4 d6 3d 11 0e f5 bd b9 1b 95 bd
       0.01886717 0.104898185 -0.119655736 -0.07280678
000340 22 96 9f 3d 81 c5 b2 bd da e5 d9 bd 68 b4 88 bd
       0.077923074 -0.08729077 -0.10639544 -0.06675035
000350 06 3d b5 3d 33 d7 a8 3c 2c 20 85 3d fd a0 d5 bd
       0.0884953 0.020610427 0.06500277 -0.10431097
000360 74 fd 94 3c 98 9a b4 3d e5 5b aa 3c 6d db 6a 3d
       0.018187262 0.08818549 0.020795772 0.057338167
000370 5f 16 a6 bd 9e f4 9c 3d 69 4f 0d bc 0b 61 d8 bc
       -0.08109736 0.076638445 -0.00862489 -0.026413461
000380 7e ed 3f 3d ff 8d 2d 3d 81 41 10 bd e6 f6 a4 3d
       0.04685735 0.042371746 -0.03521872 0.08054905
000390 30 9a 50 bc da d5 ae 3c df 69 18 3d 42 ed 60 bc
       -0.012732074 0.021342207 0.03721034 -0.013728442
0003a0 8a ca 6d 3c d8 53 02 bd b9 f4 64 bd d3 8b 85 3d
       0.014513621 -0.03181824 -0.05589745 0.0652081
0003b0 2a b9 9f bc 89 ca 02 bb 29 70 54 3d 78 87 3e bc
       -0.019497473 -0.0019957146 0.051864777 -0.011628978
0003c0 54 21 ac bd 85 5b 83 bd 3a f0 c9 bd 60 3f 87 bd
       -0.08404794 -0.0641394 -0.09860273 -0.06603885
0003d0 a4 77 25 3d 2b aa b5 bc e5 16 cf 3d c6 94 a0 3c
       0.0403973 -0.022175869 0.10111789 0.01960219
0003e0 fe a5 17 be cf e8 f2 3d 0a 3b 4c bd 2d 09 81 bd
       -0.14809415 0.11860811 -0.04986099 -0.06300578
0003f0 f0 78 2a 3d 5a d9 a9 bc 4d 56 5b bd 27 be f7 bd
       0.04161924 -0.020733524 -0.0535491 -0.120968156

network_body._body_endoder.seq_layers.2.bias f4 [256]
000000 81 4e 9c bb 32 0a 9a bc c2 ef c8 bc e0 44 55 ba
       -0.0047701006 -0.01880369 -0.024528388 -0.00081355684
000010 27 63 c0 bb c9 13 8d bc e6 d7 4d 3c cb fb c5 bc
       -0.005871195 -0.017221348 0.012563681 -0.024167916
000020 d8 3b 18 bd 4b 98 1d bb 39 84 80 bc df 07 6f bc
       -0.037166446 -0.0024047073 -0.015688049 -0.014589279
000030 d3 c4 1a 3b 75 22 ae bc 4a 0f ea bc 5c 00 0f bd
       0.0023615852 -0.021256665 -0.028571744 -0.034912452
000040 dc 45 a7 bc 60 17 5f 3b d2 da f3 bc 97 e8 88 bc
       -0.020419054 0.0034041032 -0.029767428 -0.01671247
000050 45 f2 f5 bc e8 84 05 bd c7 ca e4 bb 90 45 29 3c
       -0.03002275 -0.032597452 -0.0069821808 0.010331526
000060 91 98 f2 3b a6 d4 b9 bc 2a fc df bc 6a 97 16 bd
       0.0074034412 -0.022684406 -0.02734192 -0.036765493
000070 f0 d7 15 bd 4b 40 c7 bc 7e f7 f0 bc c1 16 78 3b
       -0.036582887 -0.02432265 -0.029414888 0.003785536
000080 bb f2 5e bc d4 ea bf bc 22 f8 3f bb 06 a2 6e bc
       -0.013607676 -0.023427404 -0.0029292186 -0.014564997
000090 68 48 17 bc 89 48 9b bb ae c5 81 bc c1 49 09 bd
       -0.009233572 -0.0047388715 -0.015841331 -0.033517603
0000a0 87 af eb bc 98 4d a7 bc 50 cc 34 bd 53 67 11 bd
       -0.028770221 -0.020422742 -0.04414016 -0.03549893
0000b0 ce 45 9d 3a 49 21 65 3b 86 25 83 bc 26 75 ef bb
       0.0011998953 0.0034962466 -0.016009104 -0.0073076664
0000c0 c3 3f 96 bc a2 73 e1 39 5a df f6 bc 18 e0 d7 bc
       -0.01834095 0.00043001497 -0.0301358 -0.026351973
0000d0 b2 ab ef 3b a5 00 e6 ba 80 9c 92 bc d7 ef 83 bc
       0.007314169 -0.00175478 -0.01789689 -0.016105575
0000e0 85 90 22 3c 28 8f 12 bd 70 bd 9f bc a4 2a 30 bd
       0.009922151 -0.035781056 -0.01949951 -0.043009415
0000f0 53 ea 60 bb b5 a6 7b bb 38 ef b1 3a 15 61 8c bb
       -0.0034319356 -0.0038398926 0.0013575321 -0.004284034
000100 89 70 f3 bc c9 92 c9 bb 18 d3 fd bc 34 9c a6 bc
       -0.029716747 -0.0061515314 -0.030984446 -0.020338155
000110 8e cf 3c bc aa 9a 2e bd a8 b4 da bc d3 67 19 bd
       -0.011524094 -0.042627968 -0.026697472 -0.03745253
000120 89 8b 06 bd ee f0 32 bd 0b cc 1c bc e9 bb 3d bc
       -0.032847915 -0.0436868 -0.009570132 -0.011580446
000130 f5 d7 8f bc b5 07 af bc 36 81 20 bd d7 c4 8e bc
       -0.017559031 -0.02136598 -0.039185725 -0.017427845
000140 de c3 91 bc 94 b5 ed bc 7c 02 29 bd c3 e1 08 bd
       -0.017793592 -0.029017247 -0.041262135 -0.03341843
000150 63 18 83 bc 40 a0 c4 bc cc 80 13 bd 7a ad 9d 3c
       -0.01600284 -0.024002194 -0.036011502 0.01924776
000160 9d a1 9b bc e4 69 4c bc 17 0c 05 bd 48 ae 33 bd
       -0.018997962 -0.012476418 -0.032482233 -0.04386738
000170 ab 0a 73 3b 3f ce f3 bc d5 b4 2d 3c 92 dc 90 3b
       0.0037085216 -0.029761432 0.010602196 0.0044208253
000180 9a 27 a6 3c 6e 5f 11 bd 6f 45 47 37 ad a1 08 bd
       0.020282555 -0.0354914 1.1877491e-05 -0.03335731
000190 2b 91 94 bc 86 11 8b bb 7f e2 d1 bc df 5d f5 bc
       -0.018135628 -0.0042440323 -0.025620697 -0.029951988
0001a0 2e 0f d7 3a c0 8e c9 3b fa e5 c6 bc f8 fc c0 bc
       0.0016407722 0.0061510503 -0.024279583 -0.023558125
0001b0 2d 36 5a bc 2e 5c 0a 3c 3f 15 03 bd e2 a9 d7 bc
       -0.013318581 0.008444829 -0.032002684 -0.026326124
0001c0 03 a9 9e bc af 40 2e bc 55 47 e5 37 7d 30 3c bd
       -0.0193677 -0.010635539 2.7332144e-05 -0.04594468
0001d0 4e e9 8d 3c 5b f3 c3 bc 34 7a 4d bc d3 7b e0 bc
       0.017323162 -0.023919752 -0.0125413425 -0.027402794
0001e0 32 88 f1 bc 82 b8 f2 bc b3 46 1f bd 62 51 b0 bc
       -0.029483888 -0.029628996 -0.038885783 -0.021523181
0001f0 5b af 82 bc e5 af ad bc 1a 1a 77 bc db 23 56 bc
       -0.015952757 -0.021202037 -0.015081907 -0.013070072
000200 b2 d0 86 bc d2 d9 91 3b c9 bf ff bc 59 71 82 bc
       -0.016456936 0.004451015 -0.03121938 -0.015923189
000210 62 fd a1 bc d7 fe 08 bd e5 23 09 bc 17 c0 85 3b
       -0.019774143 -0.03344616 -0.008370374 0.004081737
000220 a2 bb b6 bc 2a df a8 bc 15 50 51 bc 13 47 f5 bc
       -0.022306267 -0.020614225 -0.012775441 -0.029941117
000230 41 69 40 3b 23 cd b8 bc ef 80 56 bc 17 da 31 bd
       0.0029359611 -0.022558754 -0.013092264 -0.043420877
000240 60 10 10 bd c4 c3 22 bc ee c4 2c bd 79 a6 68 bb
       -0.035171866 -0.0099343695 -0.042179994 -0.0035499616
000250 13 25 7c bc 66 46 e8 bc 13 6a 15 bd 16 80 d7 bb
       -0.015389699 -0.028353881 -0.036478113 -0.0065765483
000260 17 f7 b9 ba 6c 49 ba bc 55 d0 ca ba 5f d5 af 3b
       -0.0014188018 -0.022740088 -0.0015473465 0.005366012
000270 d9 97 40 bc f4 88 1e bb e9 bd 4d bc c4 55 96 bb
       -0.011754953 -0.0024190517 -0.012557485 -0.004587861
000280 c1 3a 56 bb 6e 59 19 bd d2 75 b4 bc 34 4f ab bc
       -0.0032688829 -0.037438802 -0.022028837 -0.02091179
000290 22 2e 18 bd 36 9c 72 bb 73 49 37 bc be 26 49 bd
       -0.03715337 -0.0037019379 -0.011186945 -0.049109213
0002a0 71 c2 ec bc c7 81 78 bc b4 d2 74 3a ce 2a b1 bc
       -0.02890131 -0.01516766 0.00093392585 -0.021626856
0002b0 0f 97 4a bc 61 06 b5 bc cb 82 97 bc 95 87 27 bd
       -0.012365117 -0.022097768 -0.018494984 -0.040900785
0002c0 2d 38 8b bc a0 75 47 bd c4 56 ed bc 00 1f f0 bc
       -0.01699456 -0.04869616 -0.028972037 -0.029311657
0002d0 cb 64 4d bc c5 69 b8 bc 6c 7f 0d bd 67 7f 1c bd
       -0.012536238 -0.022511372 -0.034545347 -0.038207438
0002e0 6c 70 ca bc f1 ce 1d bc 0d 09 ad 38 be 69 de bc
       -0.02471181 -0.009631858 8.250969e-05 -0.027150031
0002f0 45 3e e8 bc 75 1d f2 bb 39 f9 e0 bc 24 f9 e4 3b
       -0.028350005 -0.0073887655 -0.027462589 0.0069877077
000300 80 12 ec bb 3d 4e 83 3a cf 4a 02 bb f8 11 ad bc
       -0.007204354 0.0010017824 -0.0019881015 -0.021126732
000310 a7 14 5f bd 49 bf 72 bb 88 07 ee bc b4 78 0a bd
       -0.054463055 -0.0037040284 -0.029056326 -0.033806518
000320 d2 46 45 bb 2d 8b e0 bc 73 96 5e bc d9 5a 13 bd
       -0.0030102027 -0.027410114 -0.013585675 -0.03597531
000330 bf f3 df bc 00 20 aa bc b0 4a e5 bc 2d 29 7a bc
       -0.027337907 -0.020767212 -0.027989715 -0.015268606
000340 8f c7 12 bc 06 15 d0 bc 6f 2b 45 bd 40 3b 8e bc
       -0.008958711 -0.02540065 -0.048137125 -0.017362237
000350 a4 60 d9 bc 99 36 15 bc a9 44 5d bc 45 c4 bf bc
       -0.02653534 -0.009107255 -0.013505139 -0.023409018
000360 3a c5 13 bd c8 df d6 bc f9 b0 15 bd 96 af 29 bd
       -0.03607676 -0.026229754 -0.036545727 -0.041427217
000370 3d f1 ab bc fa 0d 05 bd f9 a1 1e bd fb 2d 98 bb
       -0.020989055 -0.032484032 -0.038728688 -0.004644153
000380 78 c4 9b bc 13 d1 bb bb d9 4a 13 bd 32 00 60 3c
       -0.019014582 -0.0057317107 -0.035960052 0.013671922
000390 ce e2 8d bc 09 41 3a bd 34 b0 27 bd 70 1c f5 3a
       -0.017320063 -0.04547218 -0.040939525 0.0018700492
0003a0 8e 28 90 bc f4 bd 3a bd 43 35 cf bc 5e 4c a6 bc
       -0.017597463 -0.04559131 -0.025293952 -0.020300087
0003b0 d5 ed 09 bc 7b d8 98 bc 59 bc b5 bc d0 48 fc bb
       -0.00841852 -0.018657913 -0.022184538 -0.0076991096
0003c0 a9 f7 16 bd fa b3 d5 bc e9 83 53 bc 56 6a 66 bc
       -0.03685728 -0.026086796 -0.012909868 -0.014063438
0003d0 73 d5 c9 bc bb 0a 50 3c ff f2 0a bd d8 f7 95 bb
       -0.024637913 0.012697871 -0.033923145 -0.0045766644
0003e0 42 cf 46 bd e3 e6 e1 bc 16 71 e6 bc 33 90 eb bc
       -0.0485375 -0.027575916 -0.028130095 -0.028755283
0003f0 a6 ab 9b ba f7 28 cf 3c 68 0c 12 bd 53 0f 15 bc
       -0.0011876717 0.025288088 -0.035656363 -0.009097892

action_model._continuous_distribution.log_sigma f4 [1, 2]
000000 db 50 ae bd ec 36 bf bd
       -0.08511516 -0.093366474

action_model._continuous_distribution.mu.weight f4 [2, 256]
000000 0b c3 e1 bb 9b 28 18 3c 33 c8 d2 3b 82 91 84 bb
       -0.006889706 0.009287025 0.006432557 -0.004045666
000010 8c 61 12 3a 36 b8 7e 3b 51 81 40 bd 16 e2 ca ba
       0.00055839936 0.0038867122 -0.046998326 -0.0015478756
000020 e8 32 6c 3c 76 cd de bc 8e b1 16 bc d4 eb 85 3c
       0.014416434 -0.02719758 -0.009197606 0.016347803
000030 51 8a c4 bc 53 fb 29 3a 62 c0 61 3a eb 64 9f 3c
       -0.023991736 0.00064842886 0.0008611736 0.019457301
000040 54 1a b5 b9 eb 6a f4 ba d4 0f 86 3a 4a bd 57 3a
       -0.00034542626 -0.0018647587 0.0010228106 0.00082298054
000050 02 61 66 3a a2 8d bb 3b 09 86 60 bb 0b aa 04 bd
       0.0008788259 0.005723671 -0.0034259579 -0.032388728
000060 d7 e1 f4 ba a4 ca f5 3c 00 53 d6 3b b3 1a 29 3c
       -0.0018683028 0.030003853 0.006540656 0.010321307
000070 fd 92 2e 3c 1b 00 0b bb 8b 97 0d 3c ea 7b 57 bc
       0.010655162 -0.002120978 0.008642088 -0.013152102
000080 1b 00 a7 ba 07 61 10 3b 09 e7 79 3b 2d f4 1a bb
       -0.001274112 0.002203049 0.0038132092 -0.0023644075
000090 21 ff 37 bc 72 c6 b1 3b 20 ba a6 bb 6e 04 88 3c
       -0.011230261 0.005425268 -0.005088106 0.016603675
0000a0 69 4f 78 3a 1c bd 91 3c 5e d3 c4 3b 2c 67 43 3c
       0.0009472282 0.01779037 0.0060066422 0.011926454
0000b0 b3 78 03 bc f4 35 fc bb f6 1e 43 3a bf 11 a4 bc
       -0.008024382 -0.0076968614 0.0007443273 -0.020027993
0000c0 ae 07 2c 3b f5 a2 a2 bc 45 13 6b bb be 74 08 3a
       0.0026249695 -0.019853095 -0.003586964 0.0005205384
0000d0 dd 88 73 bc 35 27 37 bc b6 dd 2c bb 33 5f 33 3c
       -0.014864174 -0.011178781 -0.0026377267 0.01094799
0000e0 f8 0a 65 bc 31 6a 14 3b 9a 17 46 bc c6 73 1a 3b
       -0.013979666 0.0022646303 -0.012090588 0.0023567542
0000f0 2b 77 88 3c 44 4b e8 bb 31 95 c8 bb 99 f6 90 3b
       0.016658386 -0.0070890505 -0.0061213006 0.004423928
000100 ea 9c 94 bc 2e 33 ca bc 5e 23 b5 3b 3b 64 ee 3c
       -0.018141229 -0.024682608 0.0055278977 0.029100528
000110 23 ff 9f bc 4a 10 31 3c c0 91 b2 3a 2a 34 5f 3b
       -0.019530838 0.010807106 0.0013623759 0.0034058192
000120 75 05 d2 3b 6e c9 eb 3b 69 75 c4 ba b8 a7 4e bc
       0.006409342 0.007195643 -0.0014988604 -0.012613229
000130 ce 0b 0c 3c a7 1c 98 3b ed 22 7e 3c f3 af ab bc
       0.008547736 0.0046420875 0.015511257 -0.020957923
000140 f3 a2 53 3b ae 89 1f 3a b4 dd 08 3c 1f 25 12 bc
       0.003229317 0.00060858845 0.008353639 -0.008919983
000150 96 3a 8d ba 03 fb 92 ba 29 13 1f 3c 40 fd 27 bd
       -0.0010774906 -0.0011213723 0.009709158 -0.041013002
000160 c9 90 85 3a 2f 13 bc ba 8e d3 a1 39 f6 0b 6c 3b
       0.0010190244 -0.0014348979 0.00030865934 0.0036017871
000170 d4 81 0e 3a 48 f3 c2 bb 09 4b bd bb 37 69 0d 3a
       0.0005436216 -0.0059494115 -0.005776767 0.00053944014
000180 65 9c 30 bd 0c c9 0a 3b f2 54 36 bc a3 e6 b8 3a
       -0.0431179 0.0021176962 -0.011128651 0.0014106821
000190 64 d9 2d 3c 6b c7 bb bb 6d 00 90 bb aa 4c a4 3c
       0.010610912 -0.0057305596 -0.004394582 0.020056088
0001a0 1c 67 a4 bc 9f 03 bf bc 92 4a f7 3c 25 62 d6 3a
       -0.020068698 -0.023317156 0.030186925 0.0016356154
0001b0 bb fb 4f 3d 19 83 b7 39 19 3c a5 bb 97 f5 07 3d
       0.05077718 0.00035002155 -0.0050425646 0.033193197
0001c0 35 aa 30 3c 37 46 ae bb 04 9d bc bb cc 7e bf 3b
       0.010782768 -0.005318429 -0.0057560224 0.005843973
0001d0 72 62 3c bd 0d 6e 55 3b 9c d3 c0 3a 64 35 3f 3b
       -0.045992322 0.0032566816 0.0014711502 0.002917611
0001e0 89 13 fd 3b ee 94 fa 3b 10 23 74 3b 1a 74 51 3b
       0.007723276 0.0076471483 0.0037252344 0.003196007
0001f0 a3 39 ec ba 19 f3 de 3c e4 5c 9f 3c 94 37 7c 39
       -0.0018022548 0.027215527 0.019453473 0.00024053297
000200 02 c4 93 3c ad 0c 6c bc f1 f6 b7 3c f5 7d e8 3a
       0.0180378 -0.014407319 0.022456618 0.0017737733
000210 7a 54 1d 39 fc 01 52 3c 16 d8 49 bb 99 3f 0e bd
       0.00015004157 0.012817856 -0.0030798963 -0.03472862
000220 66 38 c3 3c 69 23 e3 bb d6 82 a8 bb 56 d2 fc 3b
       0.023830604 -0.0069317115 -0.00514255 0.0077155037
000230 91 e1 20 bc 94 01 93 38 38 61 a2 bc 48 f8 cf 3b
       -0.009819404 7.0098e-05 -0.019821748 0.006346736
000240 f6 1d cb 3b ff 63 32 bc da 89 db 3c 52 64 8d 39
       0.00619864 -0.010888099 0.026799131 0.0002696836
000250 f7 34 e6 3b 00 d6 86 3b 77 20 48 3b e5 42 37 bb
       0.007025357 0.0041148663 0.0030536929 -0.0027963456
000260 ce da 98 bb 1d 1b 08 3c 12 e7 9b bb 4a 6c 3d bc
       -0.0046647554 0.008307246 -0.0047577703 -0.011561463
000270 1e a5 3f 3c 63 26 17 bc aa 04 aa b9 3b 02 1a bd
       0.011697082 -0.009225461 -0.00032428402 -0.037599783
000280 b3 07 c2 3b a4 75 36 3c 79 1b 02 3b 7e f1 d1 3b
       0.005921328 0.011136446 0.00198528 0.006406962
000290 b3 71 fd 3b cf 3c 61 bc 77 e8 80 ba d1 e4 d2 3c
       0.0077345013 -0.013747408 -0.0009834905 0.025743874
0002a0 9a 6e 0e 3b 3f b2 98 ba ce fd f8 3a 6f cb 30 3a
       0.0021733404 -0.0011649801 0.0018996538 0.0006744181
0002b0 75 90 25 3b 82 d0 c3 b9 00 be d4 3c 9a ec a4 3b
       0.0025263105 -0.0003734865 0.025969505 0.005033088
0002c0 65 51 1d bb a9 b9 04 3c bf be a4 3b d8 93 38 38
       -0.0024004814 0.008100905 0.0050276215 4.400671e-05
0002d0 66 b4 61 bc 4f c7 9c bb 6a de 61 3c 7e 50 3d 3b
       -0.0137759205 -0.0047845016 0.013785938 0.0028887088
0002e0 b0 e5 af bb 38 c3 4e 3c 5a 2d 9b bb a2 3d 04 3c
       -0.005367957 0.012619786 -0.004735631 0.008071335
0002f0 a7 08 33 3c bb 54 9a 3d c1 a8 81 38 90 04 42 b9
       0.010927356 0.07535692 6.182632e-05 -0.00018502981
000300 ba bb 5a bb 54 09 e6 bb 27 c2 bb bb e5 ec 2c 3d
       -0.0033376054 -0.007020155 -0.005729932 0.042218108
000310 d8 41 42 3a f2 30 c1 bb 30 c7 17 bb f2 de 68 3c
       0.0007410324 -0.0058957273 -0.0023159496 0.014213311
000320 9d d8 0f ba 84 eb 0b 3b 34 cd df 3a d0 b9 d0 3a
       -0.0005487295 0.0021350095 0.0017074705 0.0015924517
000330 3d df 5e 3c 23 3a 60 3c 27 ae c0 3a 41 e5 80 bb
       0.013603029 0.013685736 0.0014700339 -0.003933579
000340 cc 93 da bb 15 db 2c bb 72 5b 73 3c 6f bd e1 ba
       -0.006670451 -0.00263757 0.014853345 -0.0017222593
000350 3c 8d 48 bb b2 ca b7 bb 07 67 d6 bb 9c ef 50 bc
       -0.003060176 -0.00560888 -0.0065430435 -0.01275244
000360 a9 f3 ce 3b 7c 52 a3 3a b8 2f 0e 3c 73 46 6b 3c
       0.0063156676 0.0012460495 0.008678369 0.014360058
000370 af 33 1d 3d fe 02 a6 3b be 8c 2d 3c 3c 31 27 3b
       0.038379367 0.0050662747 0.010592638 0.0025511524
000380 13 7a 28 bc dd a4 0b bc 74 b1 3c 3c 69 1c bf bc
       -0.010283011 -0.008523193 0.0115169175 -0.023328977
000390 e1 f1 8c bb 6c c7 a0 3b 04 4a 29 3c 58 b0 76 3c
       -0.004301295 0.0049065854 0.010332588 0.015056692
0003a0 47 55 b4 3a 71 e3 d8 3b 90 ca 0e bb e5 ce e5 3b
       0.0013758325 0.00661891 -0.0021788217 0.007013189
0003b0 f3 4e 1f bc c3 e9 fa 3c aa f0 b2 3a 96 f6 99 bb
       -0.009723413 0.030629044 0.0013652046 -0.004698585
0003c0 b4 5b 7b 3c a4 f9 f4 3c 8f d3 be bb ac cf a7 3b
       0.015341688 0.029904194 -0.0058235596 0.005121192
0003d0 f1 47 cb 3a e0 ce 4a bd 8f 58 41 3b 88 b5 8e 37
       0.0015509111 -0.049513698 0.0029502248 1.7012251e-05
0003e0 8d 3c 32 3c 47 6a 1d 3c 2f 73 18 3d 17 1e ad 3b
       0.010878694 0.009607858 0.037219223 0.005283128
0003f0 d3 0d 46 3b 3c 45 09 bd 0a 31 7d 3c 71 7f 97 ba
       0.0030220642 -0.033513293 0.015453586 -0.0011558366

action_model._continuous_distribution.mu.bias f4 [2]
000000 53 ec 59 bc 28 6c 0f bd
       -0.013300973 -0.035015255

66 f4 [20]
000000 bf 73 93 3e 1c 16 d0 3e 8c 08 8b 3e 6d 89 84 3e
       0.28799245 0.40641868 0.27154958 0.25886098
000010 ab cd fe 3e 49 cf f1 3e fa 82 96 3e 43 41 89 3e
       0.49766287 0.4722846 0.29396802 0.26807603
000020 28 d2 ff 3e 19 89 fb 3e 88 e9 6a 3e 63 62 5e 3e
       0.49965024 0.49128035 0.22940648 0.21717219
000030 20 41 f2 3e 66 35 e7 3e 5f 0a 3e 3e b6 8f 3e 3e
       0.4731531 0.45157927 0.18558644 0.18609509
000040 b8 f1 fb 3e d7 3c f7 3e 0b 0a 18 3e 56 06 24 3e
       0.49207854 0.48288605 0.14847581 0.16018042

69 f4 [12]
000000 77 40 9d 3e 1c 16 d0 3e 07 37 7e 3e c6 af 7d 3e
       0.30713245 0.40641868 0.24825679 0.24774083
000010 44 4c 9f 3e d9 06 d2 3e cd 2b 81 3e 90 6a 80 3e
       0.31112874 0.4102085 0.2522873 0.250813
000020 6d 88 a1 3e 2d 6b d1 3e 3f 3d 79 3e f3 1c 7a 3e
       0.31549397 0.4090208 0.2433977 0.24425106

72 f4 [3]
000000 f8 1e 32 3e c9 97 e7 3a 57 5b 64 3e
       0.17394626 0.0017669137 0.22300468
