Assets/KartAgent.onnx (onnx, 305043 bytes, 13 tensors)

network_body.observation_encoder.processors.0.normalizer.running_mean f4 [20]
000000 9a 9b 50 3e 0c 89 1b 3f 74 6e b9 3d 71 d3 8d 3e
       0.20371857 0.6075599 0.090542704 0.2770038
000010 1a be 1c 3f 7b 61 84 3e 7a 11 77 3d 8c 73 60 3e
       0.6122757 0.25855622 0.0603194 0.21919078
000020 0a ed 1e 3f b7 db 68 3e e7 71 9d 3d c2 8d 68 3e
       0.6208044 0.22740065 0.07687741 0.22710326
000030 10 01 2c 3f 4b 5e 74 3e 06 9b af 3c 7a 6d 45 3e
       0.6718912 0.23864095 0.021436226 0.19280043
000040 94 8b 25 3f bd ab 7f 3e 73 8d fb 3c c5 76 45 3e
       0.64666104 0.24967857 0.030707097 0.19283588

network_body.observation_encoder.processors.1.normalizer.running_mean f4 [12]
000000 e4 ec 5b 3e 34 b9 1b 3f 28 4d 8c 3d 2a ea ec 3d
       0.21477085 0.6082947 0.06850654 0.11568101
000010 40 33 5e 3e 34 75 1b 3f 4f cf 8b 3d c0 45 eb 3d
       0.21699238 0.6072571 0.0682665 0.11487913
000020 83 e6 67 3e 92 a2 18 3f 5b bf 8a 3d 5e a9 ec 3d
       0.22646527 0.5962306 0.067747794 0.11555742

network_body.observation_encoder.processors.2.normalizer.running_mean f4 [3]
000000 5a 00 ef bd c0 2e 55 3d 46 aa a2 3e
       -0.11669989 0.052046537 0.31770533

network_body._body_endoder.seq_layers.0.weight f4 [256, 35]
000000 2a e4 90 bc 91 9a 38 3e 3b 0e 6f bd 6a 06 3f 3e
       -0.017686922 0.18027712 -0.05836318 0.1865479
000010 ce 86 3c 3e c5 da 18 3e be 0f 2f bd a2 6e 3f be
       0.18410799 0.14927204 -0.042739622 -0.18694547
000020 d7 fa 01 bd 90 df 50 3d b7 c2 8c 3d cb d4 83 3d
       -0.03173336 0.050994456 0.068730764 0.064370714
000030 96 b1 7c 3d a9 bd 26 3e 8d b9 09 be 3b 4b 12 3e
       0.061692797 0.16283287 -0.13449688 0.1428651
000040 17 05 ed 3c 40 7b 75 3e 13 6d 11 3e cb 7d 27 3e
       0.028933091 0.23972797 0.14201765 0.1635658
000050 ce 93 88 3e ca 5b b6 bd 42 f9 c1 3d 90 86 70 3c
       0.26675266 -0.08904226 0.0947137 0.01468052
000060 15 19 a8 be cf f2 25 3e f2 70 8f bd 3d 55 47 bd
       -0.32831636 0.16205905 -0.070039645 -0.048665274
000070 bc cf 63 3e ca d5 65 bd 10 c8 3e be 0d 8f 32 be
       0.22247213 -0.05611209 -0.18631005 -0.17437382
000080 76 fb 89 bd 61 d0 c4 be 38 63 aa bc 3c b9 8f bd
       -0.067374155 -0.3844023 -0.020799264 -0.070177525
000090 f1 5b b2 3d de 3f aa bd 43 bc 02 3e 63 6c 83 3e
       0.08708943 -0.08312963 0.12767129 0.2566863
0000a0 59 2f 6c bd 01 5c 37 3e 72 63 32 3e 78 33 51 bd
       -0.05766234 0.1790619 0.17420748 -0.051074475
0000b0 61 34 2a be c9 5c b6 bc 87 a7 08 3e c5 99 62 3e
       -0.16621543 -0.02226104 0.13345157 0.22128971
0000c0 69 df 58 bc 3e 30 51 3e 0a 6c 12 3e d8 76 93 3a
       -0.013236859 0.20428559 0.14299026 0.0011250628
0000d0 12 ee e4 3d 39 97 83 3e 07 7b 21 bd d0 3e c5 bd
       0.11178221 0.2570131 -0.03942397 -0.09631121
0000e0 77 05 16 be d6 c6 52 3c d4 b2 92 3e 13 f5 ac be
       -0.14650522 0.012864789 0.2865206 -0.33780727
0000f0 42 b5 8d be fe c3 87 be 28 93 00 3e 5c e2 f7 3e
       -0.2767735 -0.26516718 0.12556136 0.48414886
000100 1c 07 32 be 14 08 9b 3e f0 7e 9c bd d7 28 65 be
       -0.17385525 0.302796 -0.07641399 -0.2237886
000110 f4 31 32 3e 1a ba 97 3d e5 44 cd be d6 7c 94 3c
       0.17401868 0.07408543 -0.40091625 0.018125933
000120 b0 25 0b 3c 99 dd 4c 3d 96 cd a6 3d 0c 03 92 be
       0.008492872 0.05001602 0.08144681 -0.2851795
000130 69 0f ef 3c cd 1c 88 3d d6 4d 33 3e 94 15 6f be
       0.029182153 0.06646118 0.17510161 -0.23348075
000140 2b 56 19 bd f4 34 8b 3e 5d d0 7d be 38 e3 9d be
       -0.03743569 0.27188838 -0.24786516 -0.30837417
000150 fc 77 37 3d a2 97 1e 3e f2 d0 02 be 02 60 b6 3e
       0.04479216 0.15487531 -0.12775019 0.35620123
000160 35 ed 57 bc ed 22 27 3d aa 04 49 3d 88 2d 3e bd
       -0.013179113 0.040804792 0.049076714 -0.04643014
000170 ef 68 c2 bd 1d 15 37 3e 6d af aa 3e 11 cc 83 be
       -0.09492671 0.17879148 0.33336964 -0.25741628
000180 a1 d0 00 3d cf 09 9c 3e 8c a0 d9 bc d6 1e 96 be
       0.031448964 0.30476233 -0.026565813 -0.293204
000190 79 23 8f be 43 b1 90 bc 29 89 1f 3e 92 4b 08 be
       -0.2795675 -0.01766265 0.15579666 -0.13310078
0001a0 4f 01 6d 3d fa b2 a4 3e 4d 0d c1 bb c8 d1 30 be
       0.057862576 0.32167798 -0.005891478 -0.17267525
0001b0 97 f0 cc bd c3 c2 70 bd 16 c2 12 3e 74 ba 15 3e
       -0.10006826 -0.05877949 0.1433185 0.14621907
0001c0 1c b2 02 3e dc b7 e5 3c b3 53 a8 3e 3c 00 68 3e
       0.12763256 0.028041773 0.32876357 0.2265634
0001d0 67 f5 ce bd e3 d2 a9 be c2 99 50 3e cb 1a d3 3d
       -0.101054005 -0.33168706 0.20371154 0.10307845
0001e0 18 8d 0d bd 98 d5 2c bb 0d 43 8f bd d4 46 2d 3d
       -0.034558386 -0.002637243 -0.06995211 0.042303875
0001f0 52 cc e3 3d f2 15 2f 3e c0 22 f4 3d d0 55 b5 3c
       0.111229554 0.17098215 0.119206905 0.022135645
000200 ed 23 7a bd 5b 65 d9 bd 9a a6 7c 3c 03 2b 99 bd
       -0.061069418 -0.10615035 0.01542058 -0.07478907
000210 fe c3 58 be db 8e 0d 3e 53 e1 1a 3d 78 cb 23 3e
       -0.21168515 0.13824026 0.037812542 0.15995586
000220 fe 6f 8d 3e 6d 46 ac bc 3f 22 e6 3d b1 55 38 3e
       0.27624506 -0.021029675 0.11237001 0.18001439
000230 22 12 f6 bd 92 e7 0a 3e 52 43 60 be b9 1f 93 3e
       -0.12015177 0.135649 -0.2190068 0.2873514
000240 10 2d 3b be cf 58 ce bc 42 11 aa 3d ac 01 f6 3c
       -0.18278909 -0.025188832 0.08304073 0.030030094
000250 71 35 80 3d e5 50 64 bd a5 9b ac 3c 99 ed 19 3e
       0.06260193 -0.05574121 0.02107031 0.15032043
000260 1a f4 04 bd a1 8d 68 3e cc be c1 be 10 03 99 3e
       -0.032459356 0.22710277 -0.3784088 0.2988515
000270 5d bb 28 be 41 35 8f be d5 7c 0d be ec 50 de 3d
       -0.16477723 -0.27970317 -0.13817151 0.108552784
000280 a4 5e e5 3c 21 2c b1 bd 89 31 88 be 92 38 94 be
       0.02799923 -0.08650995 -0.26600292 -0.2894941
000290 15 9d 17 3e 95 bf 45 3e 63 5a e4 bc da 79 5d 3e
       0.14806016 0.19311364 -0.027875131 0.21628514
0002a0 7c 30 dd 3c 70 40 8d be a2 7e 28 3c c0 51 06 be
       0.027000658 -0.27588224 0.010284098 -0.13117123
0002b0 3f 15 53 be 00 d5 db 3d 33 7b b6 bd c4 bd 50 3c
       -0.20613573 0.10733986 -0.08910217 0.012740556
0002c0 06 73 5f 3e 94 2d 6f 3c 58 44 cc 3e 16 73 5a 3e
       0.21821222 0.014598269 0.39895892 0.21332964
0002d0 fc 7c 89 bd 9b 8a a4 be 5d 05 04 3f 2d 97 9e bd
       -0.06713292 -0.32136998 0.51570684 -0.07743678
0002e0 ce a5 34 bd 5a 1c 04 3e 61 a7 42 be 0a d9 c4 3d
       -0.044103436 0.1290144 -0.19009162 0.096117094
0002f0 bc 8f 80 3e 03 3d 8e bd 8c de 26 3e ba 09 f6 bd
       0.2510966 -0.06945231 0.16295832 -0.12013574
000300 c8 11 e2 bd 72 f2 1e bd 94 d7 37 bb 03 a4 a4 3d
       -0.11038548 -0.038805433 -0.0028052079 0.08039095
000310 37 49 0d bd 08 c9 4b bd 2a 5a 81 be 8c fd c4 3c
       -0.03449365 -0.049752265 -0.25264102 0.024046682
000320 72 4d 53 3e 21 7f 7c 3e 91 78 01 3e 68 1a c4 3e
       0.20635012 0.24657871 0.12643649 0.38301396
000330 88 44 00 3e 18 0c c6 bc 92 0d d0 bd 86 d7 ef bd
       0.12526143 -0.024175689 -0.10158838 -0.1171103
000340 b5 2d a1 3d a4 b8 2b 3e e7 3e 67 3e f4 f6 80 3c
       0.07870046 0.16769654 0.22582589 0.015742756
000350 5f fe 44 3e b7 ba ad 3e fa c8 c9 3d 76 47 23 3e
       0.1923766 0.33931515 0.09852786 0.15945229
000360 d9 9b d9 bd af 8d e5 be 15 e8 b2 bd d7 0e 8b be
       -0.10625429 -0.44834659 -0.087356724 -0.2715976
000370 02 43 38 be e2 c7 9c be db 87 48 3e 63 b8 8b 3e
       -0.17994311 -0.30621248 0.19583075 0.27289113
000380 6d ea 0b 3e 9b c1 31 be 40 dd 6e 3e 11 bc c4 bb
       0.13663645 -0.17359011 0.23326588 -0.0060038646
000390 40 66 e8 bc 12 14 56 be e8 25 5a bd 3f b7 a3 bd
       -0.02836907 -0.20906094 -0.053258806 -0.07993936
0003a0 6a 24 4b 3e 7a eb 87 be 06 da 6a 3d 34 ef ae be
       0.1983811 -0.26546842 0.05733683 -0.34166873
0003b0 db 06 4e 3d fd 92 bf be ff 30 5a 3d 5e 3a 4c be
       0.050299507 -0.3741683 0.053269383 -0.1994414
0003c0 9b 58 1a be 52 bd 33 bb 5f ba 1e be 39 5e ad 3e
       -0.15072863 -0.0027426076 -0.15500782 0.3386095
0003d0 80 92 59 be 5a 13 85 3e dd 63 83 bd a0 ee 81 be
       -0.21247292 0.25991327 -0.06415532 -0.2537737
0003e0 83 65 11 3d 8d 3e 00 be 7b 0e 0d be db 59 90 bc
       0.0354972 -0.12523861 -0.13775055 -0.017620971
0003f0 fb a2 b1 be 5f 1d 3d 3e 03 f4 a4 bd 11 6b 14 3b
       -0.34694657 0.18468235 -0.08054354 0.0022646824

network_body._body_endoder.seq_layers.0.bias f4 [256]
000000 7e b3 03 bd 0e 96 89 3a 0d e6 36 3d 4f 19 7a bd
       -0.0321536 0.001049699 0.044652987 -0.061059292
000010 75 f4 04 bd 9d 34 7f bc 0f a4 90 bd 91 56 91 bd
       -0.032459695 -0.015576509 -0.07062542 -0.07096589
000020 ef d7 20 3b da c4 83 3c 3f 5e 15 3d 7f ec e9 bd
       0.002454277 0.016085077 0.036466833 -0.11422061
000030 d3 e4 47 3d bf 6e a5 bd 4e 32 04 3e 40 7f af bd
       0.04880221 -0.08077764 0.12909815 -0.08569193
000040 28 50 31 bd cf b5 bc bb f4 f6 9f bd 3a 80 1f 3d
       -0.043289334 -0.005758978 -0.078107744 0.038940646
000050 eb 41 ac bd 53 66 60 3d 3e 5f 34 bd 24 99 04 bd
       -0.0841101 0.054785084 -0.044036143 -0.03237261
000060 e6 5f 9d bd c9 5d eb 3c 2f 8a 82 bd b1 eb af bd
       -0.07684307 0.028731244 -0.06374013 -0.085898764
000070 97 b8 ac bd cf 7f 4c bd 2c 6e 36 bd ca 1f 6e bd
       -0.08433645 -0.049926575 -0.04453866 -0.058135785
000080 27 7e 3b 3a ef 6b 98 b9 b4 02 a3 bd 06 e6 81 3d
       0.0007152282 -0.00029072116 -0.079595 0.063427016
000090 7d 35 b5 bd a2 23 c3 bc 74 be e3 bc 2f fb 23 bc
       -0.08848093 -0.023820702 -0.027800776 -0.010008617
0000a0 3c 85 14 bc 99 55 02 3d 27 0b 93 bd ff e2 a2 bd
       -0.009064969 0.031819914 -0.071798615 -0.07953452
0000b0 c3 0f c5 bd 14 3d 12 3b b4 18 d5 bc 6b 42 ac bc
       -0.09622147 0.0022314237 -0.026012756 -0.021027764
0000c0 57 ab a8 3c c3 ed cc bd e8 12 09 3d 7a 05 f4 bd
       0.020589514 -0.10006287 0.033465296 -0.11915107
0000d0 8e 9d 89 3d 86 fe 05 be 31 ab 77 bd 3d 72 5f ba
       0.06719504 -0.13085374 -0.060465995 -0.0008523798
0000e0 88 dc c3 3c b7 5f 69 3c 14 f5 de bd ab 8c a5 bd
       0.023908868 0.014244012 -0.10886589 -0.08083471
0000f0 13 4e c5 bd 91 07 1e bd 3d a1 17 bd 44 5d 97 3d
       -0.09634032 -0.038581435 -0.037019003 0.07390836
000100 50 74 89 bd 7e 12 f9 3c fe 3f 77 bd 39 20 62 3b
       -0.06711638 0.030404326 -0.060363762 0.003450407
000110 89 fb 34 bd f3 3a 86 bd f5 34 00 bd bc 93 a0 3c
       -0.044185195 -0.065542124 -0.031300504 0.019601695
000120 19 b0 36 bc 50 10 09 bd 94 33 33 be 44 fa db bc
       -0.011150383 -0.033462822 -0.17500144 -0.026852734
000130 39 99 2f 3d 99 d2 91 3d 86 b3 3e 3d e9 e4 3f bd
       0.042870734 0.071202464 0.046557926 -0.046849165
000140 93 cf 0d bc 7e 82 b3 bc a2 1a 93 3c 9d 59 06 be
       -0.008655447 -0.02191281 0.017957035 -0.13120122
000150 d1 03 cc bd ca ed ed bd 66 12 a0 3c a4 63 f0 bb
       -0.099616654 -0.1161762 0.019540023 -0.007336097
000160 e0 e7 01 bd 3b c0 c4 bd c1 e1 4c bd db e1 38 3c
       -0.031715274 -0.096069776 -0.050019983 0.011284317
000170 5a 08 21 bd c9 93 97 3d d5 82 82 bd d1 f6 6c bd
       -0.039314605 0.07401235 -0.063726105 -0.05785257
000180 69 50 b0 3c e7 11 c0 3d 9a 0a 72 bd 2f 77 c1 bd
       0.021522718 0.093784146 -0.05909214 -0.094465606
000190 fd 6b 4c bd 19 a9 9b bc 55 93 a3 3c da 98 9d bd
       -0.049907673 -0.01900153 0.019967714 -0.0769517
0001a0 01 f7 97 bd 6d d9 bd bd 04 e5 44 bd 1b 57 59 3c
       -0.07420159 -0.09269986 -0.04806997 0.0132653965
0001b0 7c 0a 11 be 0f db 17 bd e8 0d 2d 3c 5f a2 65 bd
       -0.14164156 -0.037074145 0.010562398 -0.056063052
0001c0 d2 6e 5c bd c6 ac 2a bd 94 88 05 bc 9a f3 fc 3c
       -0.053816624 -0.041668676 -0.008150239 0.030877877
0001d0 44 48 ce 3c e9 97 c7 bc 57 da 81 bd bb 80 a6 bd
       0.025180943 -0.024364429 -0.06340473 -0.08130022
0001e0 c1 c8 17 bd 77 06 3b 3a f5 ee 8c bd 1f b7 8a bd
       -0.03705669 0.0007134447 -0.06881515 -0.06773209
0001f0 3c cf f1 bc d4 61 16 3c 3b ab 6d bd 2b f1 21 bc
       -0.029517762 0.0091785975 -0.058024626 -0.009884159
000200 65 e2 99 bd fb 6b 94 bd 89 47 f2 bc e5 18 b5 bd
       -0.075138845 -0.07247158 -0.029575126 -0.08842639
000210 d9 81 05 bb 80 2f bd 3c 29 18 3c bd 78 3c e4 bc
       -0.0020371585 0.023093939 -0.04592148 -0.027860865
000220 04 53 33 3d 64 e6 47 3d d3 66 91 bd 4a 0b b4 bb
       0.04378034 0.048803702 -0.0709969 -0.00549451
000230 22 f9 08 be 75 a3 03 be d1 43 77 bd 42 94 e4 bd
       -0.13376287 -0.12855323 -0.06036741 -0.111610904
000240 c3 f1 07 be 15 d7 8d bd a2 35 4e bd ed 77 92 bd
       -0.13275819 -0.06925789 -0.050344117 -0.0715178
000250 00 0e b2 bc 38 6b 83 bd ec f5 f2 bd 36 43 00 3e
       -0.021735191 -0.06416935 -0.11863312 0.12525639
000260 09 b2 aa bd 4c 2a 9d 3c 0b e1 59 bd a5 74 ba bd
       -0.08334739 0.019185208 -0.053193133 -0.091042794
000270 8c 0c cb bd 9a 2d 92 bc 3d 40 07 be 0f 82 50 bd
       -0.099145025 -0.01784401 -0.13208099 -0.050905284
000280 bf 4f 54 bc b8 3d 49 bd 93 4a f4 bc 70 d1 61 b9
       -0.012958466 -0.049131125 -0.029820716 -0.00021535694
000290 df 01 7f bd 9d 43 96 bd c4 af 23 be 68 b0 bc bd
       -0.062257644 -0.07337115 -0.15985018 -0.09213334
0002a0 65 75 05 bd 74 25 7d bd f5 39 f5 bc 98 76 14 bd
       -0.03258266 -0.061803296 -0.029934863 -0.036245912
0002b0 16 79 0c bd 13 b3 ef 3b 7d 2a 13 be 0e d2 84 3b
       -0.034295164 0.0073150485 -0.14371677 0.004053361
0002c0 1c f3 7a bd 14 fe a5 3b c1 5a d8 3c 28 3d dd 3b
       -0.061267003 0.005065689 0.026410462 0.006751675
0002d0 5b a7 60 3c 00 f4 de bc 7d 3d f0 bd f3 56 29 be
       0.013711776 -0.027215958 -0.11730478 -0.16537075
0002e0 e9 50 54 bd 22 b0 56 bd db 64 b1 bc e5 ab 61 3b
       -0.051834974 -0.052414067 -0.021654537 0.0034434733
0002f0 d4 35 e3 bb b6 9c b8 bd 68 9b a0 bc 4d 85 e1 bc
       -0.006933907 -0.09014265 -0.019605353 -0.027529383
000300 da eb 65 bb d7 f8 3f bd 85 53 32 bd 64 30 ab bc
       -0.0035083205 -0.04686817 -0.04353668 -0.020897098
000310 26 10 6d bd 41 18 d9 bd bb 33 2c bd 09 0e f5 bd
       -0.05787673 -0.10600329 -0.04204152 -0.119655676
000320 09 2b f3 bd 22 4d 83 bd 9a d2 75 3d ef 8c 66 bd
       -0.11873443 -0.06411196 0.0600153 -0.05628675
000330 14 94 c1 3c 49 a4 0f bd e4 81 a4 bd b4 75 54 bd
       0.02363018 -0.035068784 -0.08032587 -0.051870063
000340 06 3c 86 bd 28 c3 d3 bd 14 70 8a bd 9c 95 05 bd
       -0.06554417 -0.103399575 -0.067596585 -0.03261338
000350 fb 42 cb bd 56 c5 26 be a6 11 d3 bd 8e e9 b4 bd
       -0.09924885 -0.16286215 -0.103061005 -0.088336095
000360 d2 3f 9a bc 41 49 05 be bf e5 84 bd 59 73 36 bd
       -0.01882926 -0.13016225 -0.06489133 -0.044543598
000370 e5 42 13 bd 59 c3 b5 3c 6d 3d 56 bc ee ad dd bd
       -0.035952467 0.022187876 -0.0130761685 -0.1082419
000380 57 09 b4 bc 37 32 b2 3c 91 61 f0 bc 27 21 ed 3d
       -0.02197711 0.02175246 -0.029343398 0.11578589
000390 51 bd 0c 3c 23 43 71 3d 88 13 a9 bd bc 7f a0 3c
       0.008590058 0.058901917 -0.082556784 0.019592158
0003a0 45 79 ec bd 4b c1 03 be ae 51 1b be 02 f9 9c bc
       -0.11546568 -0.12866704 -0.15167877 -0.019161705
0003b0 5d b8 89 bd e0 fe f0 bd b6 3b be bd a6 be 0b be
       -0.06724618 -0.117673635 -0.09288733 -0.13646945
0003c0 c1 bc aa 3c d8 aa 98 bd 7b d1 b7 bb b9 f1 78 bd
       0.020841958 -0.07454461 -0.005609689 -0.0607774
0003d0 5e 79 05 be 19 ef f8 bd 3c c1 6f 3b 1b 06 88 bd
       -0.13034579 -0.12154979 0.0036583683 -0.066417895
0003e0 55 4e 2e bd c5 95 b3 3d 74 94 c0 bc 68 29 d4 3c
       -0.042555172 0.08768801 -0.023508288 0.02589865
0003f0 dd 7d d9 3c 37 f1 57 bc bf 56 3b bd 65 87 ff 39
       0.026549274 -0.013180069 -0.045737024 0.00048738267

network_body._body_endoder.seq_layers.2.weight f4 [256, 256]
000000 33 06 a3 bc 3e 2a 98 bb ab 47 05 3d 55 83 c8 bd
       -0.019900417 -0.0046437075 0.03253905 -0.097906746
000010 93 94 1a 3d 0e 5b 18 3e a8 6c 8e 3d 6b 22 a7 bd
       0.037739348 0.14878485 0.06954318 -0.081608616
000020 8e 53 ff bb 42 1d a7 bd d0 96 47 bd bd 15 2d be
       -0.007791943 -0.08159877 -0.04872781 -0.16902824
000030 46 5e bd bc 15 96 34 be dc 33 ac bd 96 08 a8 bc
       -0.023116242 -0.17635377 -0.08408329 -0.020511907
000040 d9 6f 04 3d 17 51 62 bd 82 9d 57 bc 51 0c 6f 3c
       0.03233323 -0.055253115 -0.013160111 0.014590339
000050 08 50 8c 3c 79 6b db bd eb 07 9a bc 05 80 02 be
       0.017128006 -0.10713858 -0.018802604 -0.12744148
000060 73 bb 33 bd 22 01 45 be 29 29 5d 3e db 70 83 bc
       -0.043879937 -0.19238713 0.21597733 -0.016045025
000070 93 0c 13 bd d6 55 d3 bd d8 bc 28 bd df 36 83 3d
       -0.035900664 -0.10319106 -0.04119572 0.0640695
000080 02 5d 43 3d 33 ef e1 bb d5 8d 26 be 98 4c ff bd
       0.04769612 -0.00689497 -0.16265042 -0.12465781
000090 5f 1a 55 be 87 47 86 3d 22 02 5b bd b4 f3 08 3e
       -0.20810841 0.065566115 -0.05346883 0.13374215
0000a0 28 31 09 bb 32 d3 49 be 87 c6 8b 3d 93 b6 6d bd
       -0.002093384 -0.19709471 0.068249755 -0.058035444
0000b0 17 09 8e bd 9a ff 45 3e 7d de 4d 3e 23 1a c3 bd
       -0.069353275 0.19335786 0.20104404 -0.095264696
0000c0 4e fa c1 bd 23 28 a5 bd d5 55 cd 3a d3 e1 28 3d
       -0.0947157 -0.08064296 0.0015665839 0.041230988
0000d0 6d fe 78 3d f8 3c 6b bc a5 80 91 bd fa 0a 3b be
       0.060789514 -0.014357798 -0.07104615 -0.18265906
0000e0 a9 27 3f 3d 11 23 9f bd f6 3d 4e bc 72 c2 57 3c
       0.046668682 -0.0777036 -0.012588015 0.013168918
0000f0 7a 1d 11 be ee ee 7a 3c c7 76 1c bc d3 7e 02 3e
       -0.141714 0.015315754 -0.009549803 0.12743692
000100 a8 c7 e3 3d 11 4e 8e bd f6 0e 3a be 83 b2 e3 3b
       0.11122066 -0.06948484 -0.1816977 0.0069487705
000110 ee 41 83 3d d9 f6 42 bd ca d0 e8 3c 70 05 4c bd
       0.064090595 -0.047598694 0.02841987 -0.049809873
000120 e2 fe 00 bd c5 2b 85 bd e2 42 be 3c 7b c2 5c bd
       -0.031493075 -0.06502489 0.023225252 -0.05389641
000130 af c7 c3 bd 78 e8 1b be 6e 99 15 be b0 d3 13 3d
       -0.09559571 -0.15225399 -0.1460931 0.036090553
000140 d1 6e ea bc fb 7f 5a 3d 16 68 41 3d 5c f4 41 3d
       -0.028617295 0.053344708 0.047218405 0.04735218
000150 84 ac df bc 85 fe 21 bd 81 61 cf bc 51 6d 89 bd
       -0.027303942 -0.03954937 -0.025315048 -0.067103036
000160 1d 7c 7a 3b ea a6 00 be 2a b3 f9 bd db 2e 98 bd
       0.003822095 -0.12563673 -0.12192376 -0.07430812
000170 68 6d bc bd df 1a 64 bd a6 64 ba bd 13 11 3d bd
       -0.09200555 -0.05568969 -0.091012284 -0.04615886
000180 2a 25 98 bd 01 07 ca bd 76 03 d8 bd bd 18 35 3e
       -0.074289635 -0.09864617 -0.10547535 0.17685218
000190 23 a7 79 bd b8 1c 89 bd 1b c0 82 3b 08 d6 61 be
       -0.06095041 -0.06694931 0.003990186 -0.22054303
0001a0 f0 e3 9e bd 31 43 97 bd be eb d6 3d 5c 0c 3a bc
       -0.077583194 -0.073858626 0.10494183 -0.011355486
0001b0 03 c8 ea 3c 52 fb b5 bd dc b7 0b be b2 82 38 3d
       0.028659826 -0.08885826 -0.13644356 0.045046516
0001c0 bd 28 49 3e a8 05 69 bd 87 75 af 3c 47 f7 c9 3c
       0.19644447 -0.05689016 0.021418346 0.024654044
0001d0 ba 83 5c bd 3d 4f 6b 3e 3f f7 56 be 83 37 c1 3d
       -0.05383656 0.22979446 -0.20992754 0.09434416
0001e0 a3 53 79 3c b1 36 11 be 58 a4 4e bb 4b ee 81 bd
       0.015217694 -0.1418102 -0.0031531062 -0.06344279
0001f0 bc f1 b7 bd d0 f8 5f bd 8a ed b6 3b ed cc 84 bd
       -0.08981654 -0.054680645 0.005582516 -0.06484399
000200 6d e2 e1 bd 45 41 aa 3d 09 bc 08 3d 45 6c e1 bd
       -0.110295154 0.083132304 0.03338245 -0.11006979
000210 62 41 c8 bc e2 e5 02 be 87 d7 a3 ba 3d 85 15 be
       -0.02444524 -0.12783006 -0.0012500145 -0.14601608
000220 32 98 25 bd 95 b7 fb 3d fe e7 4e be 18 38 58 3d
       -0.040428348 0.12290875 -0.20205685 0.05278787
000230 d1 ea 5c 3e 95 76 bd 3c 55 8d a5 3d d0 10 e8 3c
       0.2157395 0.023127833 0.080835976 0.02832833
000240 31 a7 bf bc 8d 83 dd 3d 2a b6 80 3d eb 6f 1f be
       -0.023395153 0.10816107 0.06284745 -0.15570037
000250 71 d0 5a bd 3c f9 52 3c 79 d6 83 3c 88 53 f2 bd
       -0.05342144 0.012876805 0.01609348 -0.118323386
000260 c8 7b b4 bb 34 03 95 3d 52 70 c7 3d 7f 8b b1 3c
       -0.00550792 0.072760016 0.0973822 0.021672962
000270 f2 1d ba 3d 39 c1 8c 3d 46 c9 92 be 0f 65 86 bd
       0.09087743 0.06872792 -0.28669184 -0.06562244
000280 03 71 a8 3b 29 9f 5c bc 5b 1b 13 3d 9c 04 91 3c
       0.005140425 -0.013465681 0.03591476 0.017702393
000290 db fb 85 bd 5b 63 87 3c b5 ea 31 3d cc ec 06 3e
       -0.06542178 0.016526869 0.043436725 0.13176268
0002a0 f3 c7 8e bb 59 6d 8c bd cd 76 15 3d d2 6b 22 be
       -0.004357332 -0.06856794 0.03649025 -0.15861443
0002b0 ff 32 05 3d 4e 7d f6 bd 57 cb 0c 3d 66 07 a2 3d
       0.032519337 -0.12035619 0.034373607 0.079115674
0002c0 e9 89 1b 3c 7b 0a 49 bc 21 4d 1f 3d 86 75 32 3a
       0.00949333 -0.012270565 0.038891915 0.00068076735
0002d0 f1 2f 1e bd ef 8d 88 bd e4 d1 fc bd 78 23 00 3e
       -0.03861994 -0.06667697 -0.12344721 0.1251353
0002e0 e2 1f 1b 3d 2d 59 c0 bc dc fe 7b 3d ee 2e d2 bd
       0.037872203 -0.023480022 0.06152235 -0.102628574
0002f0 7b 2a 82 3d bc bc 10 be 6c e2 c1 3b f3 0b c8 bb
       0.06355759 -0.14134496 0.005916884 -0.00610494
000300 f2 a5 47 be 53 3f cb bd 95 2b 25 bd 5f dd 37 3d
       -0.19496897 -0.099241875 -0.040324766 0.04488885
000310 6a 7d f6 3d 1f 87 07 3e dc 20 0d bd 01 37 76 bd
       0.120356396 0.13235138 -0.034455165 -0.06011105
000320 d6 05 2d bb 6f 3d 4b 3d 8d cd f5 bd e3 d8 b6 bb
       -0.0026401184 0.049619135 -0.12002096 -0.005580054
000330 7c d7 90 bb 40 8f 88 bd 9f de 2d bd 07 dc b7 bb
       -0.004420219 -0.06667948 -0.042448636 -0.005610946
000340 9b 1b 13 bd cc 3f ae 3d 2f dd ad 3d 5b 70 94 3d
       -0.035915 0.08508262 0.08489453 0.072479926
000350 0d 90 32 bd 82 16 9f bc db cb 75 3e 8c 33 a0 3b
       -0.04359441 -0.019419912 0.24003546 0.0048889574
000360 a8 5f d8 3c bc 46 59 bd 11 66 01 3d 50 39 32 be
       0.0264128 -0.053045973 0.03159148 -0.17404675
000370 8c a0 03 3e c8 be cd bd 31 04 e1 bc 62 8a 61 bd
       0.12854213 -0.10046154 -0.027467819 -0.055063613
000380 6c 3d 9b bd 4b a1 98 3d de a6 28 3d cc fd 00 bd
       -0.07580075 0.07452639 0.041174762 -0.03149204
000390 21 16 da 3c 10 81 1d bc ab 51 e0 3c 4a 4b eb bc
       0.02662188 -0.00961329 0.027382692 -0.028722424
0003a0 0c 2b 04 be a8 88 a9 3c 0c 05 d4 3d d9 e8 b1 3d
       -0.12907046 0.020695046 0.10352525 0.0868699
0003b0 3e 83 23 bd 5d 4a 05 3d c5 0a 4c bd c0 bb c4 3d
       -0.039920084 0.03254162 -0.049814958 0.09606123
0003c0 92 1c 1b 3e 76 84 fb 3b 93 8f 0d bd 85 e4 a9 3b
       0.15147617 0.0076757027 -0.03456075 0.0051847124
0003d0 13 11 42 3e 7c 7c ca 3d 53 d3 05 3e e3 71 0f 3c
       0.18951826 0.09887025 0.13068895 0.00875518
0003e0 71 cd 71 3d 7c 8d 0d bd 68 af 85 3b 7c fc 49 bd
       0.059033815 -0.03455876 0.004079748 -0.049313053
0003f0 f3 16 5f bd b2 34 73 3c f1 95 af 3d 63 2f e5 bd
       -0.054465245 0.0148441065 0.08573521 -0.11190679

network_body._body_endoder.seq_layers.2.bias f4 [256]
000000 37 29 99 bd 35 c2 92 bd 0d f2 b6 bd 55 1c c2 bd
       -0.07478564 -0.07165948 -0.08932886 -0.0947806
000010 c2 8c ea bd 91 2f 69 bd 57 0c d3 bc ab cd c9 bd
       -0.11452629 -0.05693013 -0.02576272 -0.09853681
000020 00 eb c3 bd 67 d5 4d bc 0a e4 67 bd ac 70 e0 bc
       -0.09566307 -0.012563086 -0.05661396 -0.027397476
000030 ab 98 7f bd dc 15 06 be 06 7c 1a be 29 fe 95 bd
       -0.062401455 -0.13094276 -0.15086374 -0.07323868
000040 41 b7 eb bd 43 73 81 bd a9 32 6c bd 35 45 fc bc
       -0.11509562 -0.063208126 -0.0576655 -0.03079472
000050 c9 21 a1 bd 17 ea ea bd 91 6e 12 be 66 64 ac bd
       -0.07867772 -0.1147043 -0.1429999 -0.08417587
000060 de 81 fc bd de 11 c0 bd 0a d3 db bd 05 1e 41 bd
       -0.12329458 -0.09378408 -0.10733612 -0.04714777
000070 35 b0 c6 bd 22 3c 01 be 0c 0f 31 bd a4 db a6 bd
       -0.097015776 -0.12620595 -0.04322724 -0.08147362
000080 1d 1f fc bd fd 0b 69 bd ed 86 93 bd 66 ea 45 bd
       -0.12310622 -0.0568962 -0.072034694 -0.048319243
000090 d6 a8 cd bd 9c 2b 6c bd d9 4d 5c bd 8b 88 65 bd
       -0.100419685 -0.057658777 -0.05378518 -0.05603842
0000a0 2f b1 da bd bd d7 65 bd 13 e2 ba bd 19 5a 93 bd
       -0.10678326 -0.056113947 -0.091251515 -0.07194919
0000b0 13 47 70 bd b7 c7 21 bd 44 0c 2b bd c9 1f 85 bd
       -0.05866153 -0.039497104 -0.041759744 -0.06500203
0000c0 98 73 98 bd 00 2d 90 bd 79 66 00 be 48 a7 a5 bd
       -0.07443923 -0.07039833 -0.1253909 -0.08088547
0000d0 31 b4 9c 3b b1 b2 ff bc 16 c4 1a be 91 38 b2 bd
       0.0047822227 -0.031213136 -0.15113863 -0.087021954
0000e0 bd ef fd bd 74 41 9f bd 3c bc 28 be 7a 8e f1 bc
       -0.12399242 -0.07776156 -0.16478056 -0.029486883
0000f0 33 30 78 bd 3f 93 05 be 77 5c b4 bd 61 cf cd bd
       -0.06059284 -0.13044451 -0.08806699 -0.1004932
000100 17 77 9d bd 6b bc ce bd 9a 03 90 bd 23 80 cb bd
       -0.0768873 -0.100945316 -0.07031937 -0.099365495
000110 ca 83 42 bd 50 3b e5 bd a5 85 2e bd 8a 4f 6e bd
       -0.047488965 -0.111929536 -0.042607922 -0.058181323
000120 2e 95 d1 bd 8d 54 85 bd 42 c7 d0 bd 2f dd bc bd
       -0.10233532 -0.065102674 -0.101942554 -0.09221875
000130 b6 f4 a1 bd 1b e2 5f bd 4b 5b e4 bd d2 3c e2 bd
       -0.07908003 -0.05465899 -0.11150225 -0.11046757
000140 46 58 78 bd df 5b b7 bd 0d 7f a1 bd 19 91 2c bd
       -0.06063106 -0.0895307 -0.07885561 -0.042130563
000150 31 a3 67 bb 75 28 82 bd 4f 24 03 bd fe 04 8d bd
       -0.0035345072 -0.06355373 -0.03201705 -0.06885718
000160 8f bd e0 bc 21 67 bb bd c3 7b d0 bd 13 1c a2 bd
       -0.027434139 -0.0915053 -0.10179856 -0.07915511
000170 2f e9 91 bd 99 16 cc bc e7 b9 ec bd ee 6b f8 bd
       -0.07124554 -0.02491312 -0.115588956 -0.12129961
000180 74 ed c1 bc 2c 92 36 be bb 00 81 bd d4 97 6b bd
       -0.023672797 -0.17829198 -0.062989675 -0.05751784
000190 02 da bb bd 2e 79 40 bd d7 5a c3 bd 49 32 8c bd
       -0.09172441 -0.046990566 -0.09538811 -0.06845529
0001a0 71 41 75 bd ff 05 8d bd 87 23 b4 bd 9a d9 d4 bd
       -0.059876863 -0.06885909 -0.08795839 -0.10393067
0001b0 50 71 ad bd 82 ca bc bd 5f 59 ac bd 90 6f d8 bd
       -0.08468878 -0.09218313 -0.08415484 -0.10568154
0001c0 7b 3c cb bd 36 0b fa bd c1 f8 2b bd d1 19 db bd
       -0.09923645 -0.122091696 -0.041985277 -0.106982835
0001d0 45 7d 0b be 57 a3 cd bd e6 09 de bd 9e ab 8a bd
       -0.13622005 -0.1004092 -0.10841732 -0.06771015
0001e0 84 c6 01 be 58 58 ad bd 59 ae 01 bd bb 93 aa bd
       -0.12673384 -0.08464116 -0.03166041 -0.083289586
0001f0 a0 b5 4d bd 70 a7 1a bd 26 aa e7 bd 4f af f3 bd
       -0.05022204 -0.037757337 -0.1131175 -0.11898672
000200 c3 5f dd bd 09 98 a8 bd fb 1c a1 bd 8f 8a 37 bd
       -0.10809281 -0.082321234 -0.07866856 -0.044809874
000210 d2 d3 8d bd d9 7f 98 3c 30 09 3f bd 11 db 26 bd
       -0.06925167 0.01861565 -0.04663962 -0.04073626
000220 b5 ec ec bd 23 e8 e6 bd 88 82 0c be ad 0d d0 bd
       -0.11568586 -0.11274745 -0.13721669 -0.101588584
000230 16 d8 37 bd 40 95 52 bd b3 f4 e7 bd b5 dc d2 bd
       -0.04488381 -0.051411867 -0.113259695 -0.10296003
000240 2f c2 b1 bd d9 4f c8 bd e5 0b b7 bd ba 44 35 bd
       -0.08679616 -0.09780855 -0.089378156 -0.044254996
000250 fd 22 ee bd 13 9a 84 bd 0a 7c 84 bd 84 31 a9 bd
       -0.11627767 -0.064747 -0.06468971 -0.082613975
000260 ae 88 60 bd fd 80 88 bc b8 16 b9 bc 61 7e 8f bd
       -0.054817848 -0.016663069 -0.022593841 -0.07006527
000270 13 8e 15 be 9b d9 04 3b cb 16 9e bd f7 2f f5 bd
       -0.14604978 0.0020271305 -0.07719191 -0.11972039
000280 1f e3 ac bc aa 58 7a bd 5a 3f a3 bd d7 52 95 bd
       -0.021104394 -0.061119713 -0.07971068 -0.07291191
000290 a8 2d 3d bd 35 07 96 bd d2 dd 3e bd 81 b3 9a bd
       -0.04618612 -0.073255934 -0.046598263 -0.07553769
0002a0 28 8d bf bd 0e f5 5c bd b1 74 01 be 95 37 34 bd
       -0.09353095 -0.05394464 -0.1264217 -0.04399832
0002b0 76 83 86 bd e4 84 bd 39 93 ed 9a bd 7c 8f 02 be
       -0.06568043 0.000361479 -0.07564845 -0.12750047
0002c0 21 90 b1 bd 19 24 62 bd e9 93 8a bb 96 26 f4 bd
       -0.086700685 -0.055210207 -0.004229058 -0.11921422
0002d0 ce 21 e2 3a d4 7d b3 bd 81 ad 5e bd e7 b9 af bd
       0.0017252506 -0.08764234 -0.054364685 -0.0858038
0002e0 10 52 b6 bd 22 b0 f2 bd 82 ff f1 bd e6 36 4f bd
       -0.08902371 -0.11850001 -0.118163124 -0.050589465
0002f0 a6 28 a7 bd aa 20 e9 bd 7a df 34 bd 9c 42 26 bd
       -0.0816205 -0.11383183 -0.044158436 -0.040590867
000300 36 fa 49 bd 22 58 0e bd ad 05 9b bd 5c 50 d9 bd
       -0.049310885 -0.03475202 -0.07569442 -0.106110305
000310 b6 a1 86 bb 01 56 98 bd 49 30 ab bd 47 3a 29 be
       -0.004108633 -0.07438279 -0.08358819 -0.16526137
000320 e4 d5 c0 bd 6a 18 45 bd 7f c4 af bd 66 94 e3 bd
       -0.094157964 -0.048118986 -0.085824005 -0.11112289
000330 66 ab 6f bd 7d 25 dd bd d1 c3 41 bd c4 d1 f9 bd
       -0.058513068 -0.10798166 -0.047305886 -0.12198213
000340 62 90 e1 bd f1 b8 05 be 03 17 b8 bd 2d 11 38 bd
       -0.11013867 -0.13058831 -0.08988764 -0.044938255
000350 17 f0 c5 bd db ee aa bd eb 1f 69 bd dd 34 95 bd
       -0.09664934 -0.08346339 -0.056915205 -0.072854735
000360 8d 32 9b bd 20 88 03 be b4 52 56 bc c5 5a 1e be
       -0.07578001 -0.12844896 -0.013081241 -0.15464313
000370 82 60 70 bc 02 70 e8 bd 14 f0 c9 bd 84 da e1 bc
       -0.014671447 -0.11349489 -0.098602444 -0.027570017
000380 b4 7a 94 bd 8a 99 96 bd 5a ba 97 bd 27 09 34 bc
       -0.07249966 -0.07353504 -0.074085906 -0.01098851
000390 f8 c1 33 bd 4a 27 c0 bc f9 89 1b be c6 a7 5c bd
       -0.043886155 -0.023456234 -0.15189351 -0.05387094
0003a0 e1 40 b5 bd 9c fe 15 be c8 92 35 bd 44 ec b6 bd
       -0.08850265 -0.14647907 -0.044329435 -0.08931783
0003b0 14 fa 45 bd 14 80 f8 bd 7e cc d4 bd 9a c8 bd bd
       -0.048334196 -0.12133804 -0.10390566 -0.09266777
0003c0 f4 cb 96 bd 3a 11 8c bd 65 ef 2a bd d6 69 99 bd
       -0.0736312 -0.06839223 -0.04173221 -0.0749089
0003d0 20 5c 8f bd c9 4d ab bd 85 ec d5 bd dd 7b 88 bd
       -0.06999993 -0.08364446 -0.10445503 -0.0666425
0003e0 03 f6 c4 bd 3e 0a c8 bc 5f 9a 9b bd e0 e0 d9 bd
       -0.096172355 -0.024418946 -0.07597803 -0.106385946
0003f0 40 e1 af bd 2d 45 c7 bd 87 9a 84 bd 37 41 dc bd
       -0.08587885 -0.09729991 -0.06474786 -0.10754626

action_model._continuous_distribution.log_sigma f4 [1, 2]
000000 33 f9 aa 3e ee 0c 7f 3d
       0.3339325 0.06226819

action_model._continuous_distribution.mu.weight f4 [2, 256]
000000 e0 cc 0c bd e1 08 d5 bc af 3a 60 3c 71 53 72 bb
       -0.03437507 -0.02600521 0.013685866 -0.0036976004
000010 77 ad e0 bb 17 45 ad 3b 63 fa 36 3b de ac 05 3d
       -0.006856616 0.005287777 0.0027920238 0.032635562
000020 14 a9 af bc 5f b2 cb bc b6 a7 b5 bc 77 07 26 bb
       -0.021442927 -0.024865327 -0.022174697 -0.002533404
000030 19 55 c2 ba 91 c5 14 bc a9 53 b0 3a 7a 12 e4 3c
       -0.0014826386 -0.009080307 0.0013452667 0.027840842
000040 6a 88 fc bc 52 c7 45 3c 6e fe 5a 3b e8 3b 47 3d
       -0.030826766 0.012071447 0.0033415812 0.048641115
000050 54 1f 62 3c f4 69 5c bc 19 85 02 3c f8 b7 27 bd
       0.0138014145 -0.013452996 0.007966303 -0.04094693
000060 11 6e f3 3a ea ca 9d 3d 10 0b 51 3c 75 28 b6 bc
       0.0018572231 0.077047184 0.012758985 -0.022236088
000070 f2 8d 05 3b 32 12 23 3c 10 23 b6 bb 52 20 94 bb
       0.0020378795 0.009953069 -0.005558379 -0.0045204544
000080 bb 78 44 3c 2f 13 86 3b be 79 db 3b a8 39 7b 3b
       0.011991675 0.0040916423 0.0066978624 0.0038333926
000090 1a 02 ba 39 9e 36 0b bd 46 86 57 3c 42 09 ea 3c
       0.0003547825 -0.033987634 0.013154572 0.028568868
0000a0 bb 36 04 3c f5 1b c2 3b 0c a4 39 bd 76 de e0 bc
       0.008069689 0.005923743 -0.045322463 -0.027449828
0000b0 92 32 e5 3c 80 22 b3 b8 52 9b a2 bd 6a 57 27 bd
       0.027978215 -8.541811e-05 -0.07939781 -0.04085485
0000c0 a8 ec 1b 3a a4 ac 6f bc b2 b5 5f 3c 67 79 de 3a
       0.0005948045 -0.014628563 0.013654159 0.0016973437
0000d0 e7 0e c0 bd 41 9b 38 bb 09 32 4c 3c cd 80 c9 bc
       -0.093778424 -0.002816871 0.012463101 -0.02459755
0000e0 f5 f0 6c 3c 88 bd b3 3b b7 c2 27 3b d7 82 b0 3d
       0.0144617455 0.0054852404 0.0025598237 0.08618706
0000f0 f7 1e 21 3c dc 85 52 bc 54 64 e1 3b fa 9a 5f bd
       0.009834043 -0.012849297 0.006878415 -0.054591157
000100 f5 44 ad b9 8a 1a f9 ba f6 3d 94 bc 94 cd 10 bc
       -0.00033048508 -0.0019005102 -0.018095952 -0.008838076
000110 1c 3b 37 3d 59 60 8f 3c 34 d3 36 3b db 80 e9 ba
       0.044734105 0.017501997 0.0027896883 -0.0017814891
000120 70 e9 d7 bc 4f 59 1a 3d ce 9c ce 3b ec 1a 00 bd
       -0.026356429 0.037682828 0.0063053137 -0.031275675
000130 41 e2 8f bb db e7 ef 3c 98 8e 3a bc dc 4d 76 bb
       -0.0043909852 0.029285362 -0.011386536 -0.003758303
000140 2a f5 c3 bc 94 77 aa bc 9a c2 bc bb e3 4f b8 3d
       -0.023920614 -0.020808972 -0.005760503 0.08999612
000150 a3 e3 a2 bd eb 99 01 3b 07 1d f9 bb f2 0f c3 3b
       -0.079535745 0.001977558 -0.0076023373 0.0059528286
000160 4e e5 27 bc a1 f8 15 bb a9 86 e4 bc 3b 75 80 3c
       -0.010247542 -0.002288379 -0.027896242 0.0156809
000170 b1 4f 15 3d f4 56 34 bd 1e ab 78 bc 67 3c ff ba
       0.036452953 -0.044028237 -0.015177516 -0.0019472957
000180 f9 cb cb 3d 73 7f ff 3c 8e ad 30 bd 42 80 2e bc
       0.09951014 0.031188702 -0.043134265 -0.010650696
000190 d4 cc a1 3c c6 99 96 3d 4a b3 27 bd 7b ec 27 3d
       0.01975099 0.07353549 -0.040942468 0.04099701
0001a0 2d 7c 48 3c 4d e2 68 bc 41 e2 5e bc 67 80 89 bb
       0.012236637 -0.014214111 -0.013603748 -0.004196215
0001b0 8b ba c7 bb 81 4d 9e 3b 70 55 8f ba da ee 8d bd
       -0.0060952357 0.0048310165 -0.0010935497 -0.06930323
0001c0 0b 99 89 3d ab 96 0e 3b c5 c7 30 3c 42 cd 87 bc
       0.06718644 0.0021757286 0.010789816 -0.016577367
0001d0 36 37 fd bb 1b 20 0f bb c6 29 94 bc 5b e2 8b bd
       -0.007727529 -0.0021839205 -0.018086325 -0.06830283
0001e0 a4 86 d9 bb 93 95 18 ba 8e da 50 bd 40 42 2a bd
       -0.006638365 -0.0005820628 -0.05098968 -0.041567087
0001f0 f9 c1 d7 3b c0 55 f9 3a 06 4a 9a 3a ea b3 25 3d
       0.0065844026 0.0019022748 0.0011771328 0.040454783
000200 be 5e 67 bc 38 c8 4e 3c 6a bd 28 bd 52 90 64 3b
       -0.014121709 0.012620978 -0.041196264 0.003487606
000210 e3 e0 d8 3c da 2c ec bd f0 26 55 3c 66 21 d6 3b
       0.026474422 -0.11531992 0.013009772 0.006534743
000220 71 9c 4e 3d 71 dd bb 3c 8a 66 c7 ba da 73 6b bc
       0.050442163 0.02293274 -0.0015213054 -0.014370883
000230 a6 76 af 3c 58 d0 6c bb fe d9 57 bc 1a 70 16 3c
       0.02141888 -0.0036134925 -0.013174532 0.0091820005
000240 fe 2b 96 bc 5d a0 55 3c 15 50 cd 3c 50 30 68 bd
       -0.018331524 0.013038722 0.0250626 -0.0566867
000250 25 89 cc bb 97 f6 7a 3b 4e fd 3f bd 5f 1b 8b bc
       -0.006241935 0.0038293952 -0.04687243 -0.016980825
000260 e8 2c 8c 3d 26 1b 41 bd 8f 9f 23 bd 5b c2 03 3b
       0.06844503 -0.04714503 -0.03994709 0.0020104859
000270 cc ff a7 3b 37 56 d2 bd 20 ce c6 bc c9 dd e5 bc
       0.005126929 -0.102703504 -0.02426821 -0.028059857
000280 b8 e7 90 3a b9 30 80 3c eb 85 f4 ba 69 66 25 3c
       0.0011055386 0.015648233 -0.0018655633 0.010095217
000290 7e 90 13 bc 33 6c 53 bc 09 12 8c 3d 26 b3 41 bc
       -0.009006618 -0.012904215 0.068393774 -0.0118224975
0002a0 2d ce 17 bd e6 c3 59 bd c5 74 15 3a d2 bc fd 3b
       -0.03706186 -0.05316534 0.0005701299 0.0077434564
0002b0 4b 5a ca bc e5 82 2e bd 0a f7 12 bd 9b 20 00 bc
       -0.024701258 -0.0426053 -0.035880126 -0.007820274
0002c0 a8 cf 8b bc b2 15 1b bc ba e9 fd 3a b9 34 6c 3a
       -0.017066792 -0.009465622 0.0019372024 0.0009010542
0002d0 cb d3 5e bd ab 25 fc 3b f3 9f 08 bd f4 2c 03 bd
       -0.0544012 0.00769492 -0.033355664 -0.032025293
0002e0 28 92 be bc e4 8b 3d bc a6 34 8d 3c bc cf 81 3d
       -0.023263052 -0.011568997 0.017237019 0.0633845
0002f0 d9 4a 1c bc 1e f0 1f bb 28 f4 e7 3c 08 c2 21 3c
       -0.009539329 -0.0024404596 0.028314665 0.009872921
000300 b2 a9 da bc 34 52 98 3c f6 f3 3b 3c 8f ec 68 3c
       -0.026692245 0.018593885 0.011471739 0.014216556
000310 cc 56 94 bd bc 15 c5 bc bb c0 56 bd 3c 5e 44 3c
       -0.07243118 -0.024058215 -0.052429896 0.011985358
000320 bf 4f 49 bd d3 85 62 bd 4c 4f e1 3b 9f c2 ea bb
       -0.049148317 -0.055303406 0.006875908 -0.007164314
000330 73 90 86 3c 17 ac 27 bc 2d 7d 9b bb 47 c7 7e 3c
       0.0164263 -0.0102339005 -0.0047451467 0.015550441
000340 2a 77 8f 3c 98 d0 93 3c b6 ed c6 ba f5 63 35 3d
       0.017512877 0.018043801 -0.0015177045 0.04428478
000350 b7 fc bf bc ef 41 f8 bb 77 85 54 bd 75 a2 d0 bc
       -0.023435934 -0.0075762193 -0.051885094 -0.02546809
000360 d7 e3 87 3b 45 c9 96 3c 80 d9 4a bd 4e d4 4f bc
       0.0041470337 0.01840652 -0.04952383 -0.012684895
000370 eb 6d a3 39 5e 03 92 3c 6b a8 ea 3b 67 04 2a bb
       0.00031171678 0.017823871 0.0071611903 -0.0025942565
000380 59 69 37 bd 6b 70 e1 bc 28 bb 21 3c e7 a9 12 bd
       -0.0447782 -0.027519425 0.009871282 -0.035806563
000390 2b 03 a3 bc 24 5e 87 bc ac 3d a2 bb 4d 20 2a bc
       -0.019898972 -0.016524382 -0.0049511995 -0.010383678
0003a0 33 28 60 bd d6 94 3d 3c a1 d1 f2 3b cb 9a aa bc
       -0.054725837 0.01157113 0.0074102436 -0.020825764
0003b0 41 7a 27 bc 41 05 4c bc f8 48 2a 3b a0 a1 d0 3b
       -0.010222019 -0.0124524245 0.0025983434 0.0063669235
0003c0 d7 21 08 bd ec 9e 52 bd 11 38 1a bb 55 41 30 3b
       -0.033235397 -0.05142109 -0.0023531953 0.002689441
0003d0 6c 61 f8 39 86 df 76 bc b1 71 bb bc b7 95 e5 bb
       0.0004737483 -0.015067941 -0.02288136 -0.007006373
0003e0 5b 86 09 3c 88 5e 1d 3b 4d 39 b2 bc db 89 96 bc
       0.008393849 0.0024012644 -0.021755839 -0.018376281
0003f0 82 e0 38 ba 76 61 4c 3b 7d be f6 3c 07 12 45 bd
       -0.0007052497 0.003118602 0.030120129 -0.048112895

action_model._continuous_distribution.mu.bias f4 [2]
000000 29 29 9f 3b 62 c7 7d bc
       0.0048572016 -0.015489431

66 f4 [20]
000000 eb 36 ce 3e b0 01 fa 3e 3f ec 92 3e 33 74 8f 3e
       0.40276274 0.48829412 0.28695866 0.2801834
000010 65 76 f9 3e d1 2c e0 3e ce ca 73 3e 66 ec 70 3e
       0.4872314 0.43784192 0.23807833 0.23527679
000020 76 6a f8 3e 5b 9b d6 3e 44 65 88 3e 81 f8 7f 3e
       0.48518723 0.41915402 0.2663976 0.2499714
000030 8a 65 f0 3e e0 3d da 3e 8f 4f 14 3e 63 25 31 3e
       0.46952468 0.42625332 0.14483474 0.17299418
000040 57 bd f4 3e 8b 9b dd 3e 1f aa 30 3e a8 59 3b 3e
       0.47800705 0.43282732 0.17252396 0.1829592

69 f4 [12]
000000 7a 42 d2 3e 62 ec f9 3e 87 56 81 3e c6 6d 80 3e
       0.41066343 0.48813158 0.25261328 0.2508375
000010 9a 0b d3 3e 7a 0a fa 3e d4 20 81 3e d5 fa 7f 3e
       0.4121979 0.48836118 0.25220358 0.24998029
000020 6d 4b d6 3e df 36 fb 3e 28 ac 80 3e 35 2a 80 3e
       0.4185442 0.490653 0.25131345 0.250322

72 f4 [3]
000000 6a 7b be 3e 3e 5e c7 3c e4 e5 92 3f
       0.37203532 0.02433693 1.1476407
