Assets/KartAgent.onnx (onnx, 305043 bytes, 13 tensors)

network_body.observation_encoder.processors.0.normalizer.running_mean f4 [20]
00000000: 79ae 563e 210b b13e 683e 933d 2ca1 553e
00000010: 8332 003f e679 843e d3b2 e93d ea90 8b3e
00000020: 1dd0 fc3e 03f9 8b3e 4310 c73d 0437 863e
00000030: bf03 0e3f db5a 8b3e 3dc6 c53d 7eaa 8e3e
00000040: 9091 083f 5947 a03e 4f21 983d 50c0 843e
0.20964994 0.34578803 0.071896374 0.20862263 0.50077075 0.2587425 0.11411061 0.27258998
0.49377528 0.27338418 0.097198986 0.2621385 0.55474466 0.27217755 0.096569516 0.2786445
0.5334711 0.31304434 0.07428228 0.25927973

network_body.observation_encoder.processors.1.normalizer.running_mean f4 [12]
00000000: 2bf5 633e 03e7 b13e c232 243d 3da8 a63d
00000010: 2c49 673e 6833 b23e 352f 283d 5c66 a83d
00000020: 8cd5 643e 6a0d b23e e7ce 233d c783 a63d
0.22261493 0.3474656 0.04008747 0.08137558 0.22586507 0.34804845 0.041060645 0.082226485
0.22347087 0.3477586 0.03999224 0.08130603

network_body.observation_encoder.processors.2.normalizer.running_mean f4 [3]
00000000: 43b0 b2bd c966 443d b882 d33d
-0.087250255 0.047949586 0.10327667

network_body._body_endoder.seq_layers.0.weight f4 [256, 35]
00000000: 8b60 69bd bfaf 153e e4bb 25be c192 6b3e
00000010: 30d7 a93d bf4b 1c3e de4e 9a3d 5466 abbe
00000020: db02 ba3e c775 afbd 9ff2 5dbd f85e 9dbe
00000030: f599 2b3e 5c74 e53c 1148 c2be e240 2ebe
00000040: 88dc 983d 3340 3c3e def4 203d e631 b03d
00000050: cf2a 9e3c 8315 823e 8df3 853d 870f eabd
00000060: b465 96bc 16cc 5f3d 8826 163c ae7f 8a3e
00000070: 07a0 0e3d 790a 20be f617 9abd ba08 d83d
00000080: baa3 063e bde8 fbbd 2f50 e7be 73eb 123e
00000090: 1637 123d 9bbf 34bd acf7 a2bd d5bd 36be
000000a0: 6022 0bbe 463c c63c 15cc 9abe aa96 33bd
000000b0: ef84 c5be 9fb4 1d3e 1462 d43c 62e3 44be
000000c0: 80eb c83b a21c aa3d b8ea f0bd de0c f63d
000000d0: 853d 99be 43d5 d5b9 12cb b8bc 0ab9 733e
000000e0: 98f1 383c 3024 283e bc9e 96bd d7ed 2d3d
000000f0: 441b eb3c 0e75 ab3e 344b 12be d06b 91be
00000100: 393a 103d 42b4 41be 1b2c 7fbe 96fc 0c3e
00000110: ad21 0e3d b714 f7bd c88c 393c 76c8 4e3d
00000120: dd63 b8bb d2f0 b6bd 2037 ca3d e725 6f3e
00000130: 814f 08be 45f6 50bc 2331 0cbe aca8 b0bd
00000140: 7c79 81be 61cd 6e3e 94a6 d2bc 79f1 31be
00000150: 5638 87be 23e1 433e 7f91 ccbe b558 b5be
00000160: 53b6 a3be 93cb 8e3d b41a acbe 5676 36be
00000170: 9dab 7dbe ea09 0dbc 0aaf 803d 7802 5cbd
00000180: 311a f03d 72b6 3bbe b557 dc3d 900f 0bbe
00000190: 2faa d23d 7f2a da3d 3cba 833d 0960 ffbc
000001a0: 8a15 f5bd 926b 70bd f9f6 973e 205c 22be
000001b0: 05f7 bd3d 8db4 7fbd f32a f63d 2798 83be
000001c0: 5203 283e d273 163e 1ec8 9cbe bf13 69be
000001d0: 91e7 b83e b116 a3bc de1f 33be fbdb 243e
000001e0: ec76 413c 1567 3d3e 52fb d23d ba86 913d
000001f0: c711 183e 2a86 103d ea45 35be 04d2 a4be
00000200: d777 133e c13a bdbc a1b5 02be b541 8d3d
00000210: 0b58 c5be 5734 e93c bc1b a83e 1160 72bd
00000220: ed56 b93e 857f 8dbe 2425 28bd 5312 8ebd
00000230: 732a c3bc 49d8 ae3d ec16 133d 0c7b 40bd
00000240: 418b 6dbc 5425 7abe 0348 a7be 0e05 ebbc
00000250: 6132 a5bc d1e1 b33d 2ed8 0d3c 78c1 523d
00000260: 3ced 6bbd eb73 8dbd 2192 dd3d 0943 9c3d
00000270: a7e4 c33d 68ed 01bc 2e34 90bb e1e5 5e3d
00000280: 0452 94bd 4462 c83d ef22 363e 6914 453e
00000290: ba25 173e 4ec5 873d 04e5 77bd fa04 123e
000002a0: c562 0cbe 6bc0 d1bd 9225 6bbe bb3a 71be
000002b0: b911 4c3d b3de 6abb 711c 40bd 0757 43bd
000002c0: 14eb 393e ab8d 7abe a46c b23c dc45 403d
000002d0: 2a50 f73d 052e 843e 85ac ad3d f97e d03d
000002e0: a9e1 2f3e ab02 76bd 4b8a 213e ecb6 803e
000002f0: 5d6b 8a3c 95ed 683e 7365 0e3d 1d33 813e
00000300: 7835 7c3b b8c7 91bd 4225 7b3d 432d d0bc
00000310: 2ff3 e8bd ea05 093e 61db 7c3d 1532 dd3d
00000320: 4225 e4bd 9554 e6bd 09b9 72bd e75a babc
00000330: 4783 2a3e 0253 0c3d 381b c33c 26f4 4d3e
00000340: 8411 0f3e a320 ae3d 91f9 1a3d 1801 5dbb
00000350: 27d3 993e 5aad b0be 9c29 24be 3f31 fd3d
00000360: 3975 3abf f864 003d 38e3 b23e 1b26 a0be
00000370: 4836 e63d f58a d5be 27cf 61be 09c2 57be
00000380: 474a 763d 9291 583d 0918 86be 6c0f f43d
00000390: 9067 f03c ae19 02be e483 5a3e 9ea3 b53e
000003a0: f998 11bd d4d2 21be ed79 d3bd c909 eabc
000003b0: f8d3 43bc fb07 1dbd 2f1f 7a3e 740f bcbe
000003c0: 8157 133d 4e40 36be 1e00 c7bb 8c48 2bbd
000003d0: d13a 703e c163 b2bd 9501 52be ca9c 733e
000003e0: d7aa dbbd 6629 2bbe 484a 4fba 8572 a83c
000003f0: 7cdc 203e 074e 0d3e 6805 66be af04 ebbb
-0.056976836 0.14617823 -0.16184956 0.23005201 0.08292997 0.1526327 0.07534574 -0.33476508
0.36330304 -0.08567386 -0.05418646 -0.30736518 0.16757949 0.028009586 -0.37945607 -0.17016938
0.07463938 0.18383865 0.039296024 0.08603267 0.019307522 0.25407037 0.06540594 -0.11428743
-0.018359043 0.05463799 0.00916446 0.27050537 0.034820583 -0.15628995 -0.075241014 0.105485395
0.13148394 -0.12300251 -0.45178363 0.14347629 0.035697065 -0.04412804 -0.07957396 -0.17845853
-0.13587332 0.024198662 -0.30233827 -0.043844856 -0.38577983 0.15400933 0.025925674 -0.19227365
0.0061315894 0.083062425 -0.11763519 0.12014173 -0.29929748 -0.00040785418 -0.022557769 0.23801056
0.011288069 0.16420054 -0.07354495 0.04246315 0.028699525 0.33487743 -0.142865 -0.28402567
0.035211775 -0.18916419 -0.24919169 0.13768229 0.034700084 -0.12064498 0.011325069 0.050484143
-0.005627139 -0.089326516 0.098737955 0.23354302 -0.13311578 -0.012754028 -0.13690619 -0.086259216
-0.25287998 0.23320533 -0.025714196 -0.17377271 -0.26410168 0.19128852 -0.39954755 -0.3541924
-0.3197504 0.069724225 -0.33614123 -0.17818579 -0.24772497 -0.008608321 0.06283386 -0.053713292
0.117237456 -0.18331316 0.10758916 -0.13580155 0.10286366 0.10652637 0.06432006 -0.031173723
-0.11966999 -0.058696337 0.29680613 -0.15855455 0.09275631 -0.062428046 0.12019911 -0.2570202
0.16407517 0.1469262 -0.30621427 -0.22761439 0.3611417 -0.019908281 -0.17492625 0.16099541
0.011808138 0.18496354 0.10301842 0.07105775 0.14850532 0.0352842 -0.17702451 -0.3219148
0.14401184 -0.023099305 -0.12764598 0.06897298 -0.38543734 0.02846734 0.3283366 -0.059173647
0.36199132 -0.27636352 -0.041051045 -0.06937089 -0.023823952 0.08537347 0.035910532 -0.046992347
-0.014498533 -0.24428302 -0.32672128 -0.028688934 -0.020165624 0.087833054 0.008657498 0.051454037
-0.05759929 -0.06906875 0.108188875 0.076299734 0.09565096 -0.007930137 -0.0044007516 0.05441845
-0.07242206 0.09784368 0.17786764 0.19246067 0.14760485 0.0662943 -0.06052114 0.14259711
-0.13709553 -0.10241779 -0.2296355 -0.2355756 0.04982159 -0.0035838305 -0.046902124 -0.047690418
0.18156081 -0.24468105 0.02178032 0.046941623 0.12075837 0.2581636 0.08480171 0.10180468
0.17175926 -0.060061138 0.15775411 0.25139558 0.016896898 0.2274688 0.03476472 0.2523431
0.0038484018 -0.071181715 0.06131483 -0.025412207 -0.113745086 0.13381162 0.061732654 0.10800568
-0.11139919 -0.112466015 -0.059258495 -0.022748424 0.16651641 0.03425885 0.02381669 0.20112666
0.13971525 0.08502319 0.03783566 -0.0033722576 0.3004391 -0.34507257 -0.16031498 0.123629086
-0.7283512 0.03134629 0.3493898 -0.31279072 0.11240822 -0.41707578 -0.22051679 -0.21070112
0.06012943 0.0528732 -0.26190212 0.11917004 0.029346257 -0.12705109 0.21339375 0.35476393
-0.035546277 -0.15803081 -0.1032599 -0.028569119 -0.011952393 -0.03833769 0.24425958 -0.3673054
0.035972122 -0.17797968 -0.006073012 -0.041817233 0.23459937 -0.08710433 -0.20508416 0.23790279
-0.107259445 -0.16715011 -0.0007907492 0.02056242 0.15709108 0.13799296 -0.22463 -0.007172189

network_body._body_endoder.seq_layers.0.bias f4 [256]
00000000: 5eb1 46bd 977f e1bd 930d 52be 1ad7 55bd
00000010: e4b5 04be 8395 3ebe f8cf 0bbd fe75 383d
00000020: a3f6 01bd ab5c 9abd 1bdc 99bc 72f1 28bd
00000030: dac2 15be 834a 7ebb 760e 0abe 6897 bf3b
00000040: 1346 8d3c c2a5 7abd 9e5f 98bd 9071 e73b
00000050: 521f 0bbd a4a6 2dbd dcd3 56bd d3f3 3ebc
00000060: 3d1d 013d ec2c b0bd 30b7 c1bc fd45 adbd
00000070: f204 e5bd 2be6 c8bc ae80 e63b cbd3 2b3c
00000080: 21fd 44be be41 f5bd 17ff c03d aca4 f5bc
00000090: 86b0 3f3c a06e dc3b b167 cabc 2fed 4bbe
000000a0: 965a 8e3c f302 0abd eeaf 00be edac 60bc
000000b0: 30e7 5bbc 74f3 a13d c04e 61bd 3cb7 f53b
000000c0: f71b 68bc 5ec1 79bc 7815 63be 3f87 823c
000000d0: b60d 49bd ac1c 12be d28b 103e 64e0 2fbd
000000e0: 0042 06bd a139 e3bd 9075 aabd d72d a2bc
000000f0: 5216 58bc a9d1 27be 59ec 053e 0ac7 d8bd
00000100: 2f80 5a3d b934 0e3e 8d51 a8bd 720c 063e
00000110: ab6a 3ebe 9dc3 213d 4203 45bc 1444 67bc
00000120: 7bc0 f63a 5d55 8fbc 2cda 9abd 959e 4f3b
00000130: fea4 cebd 125a 45bc 785a e3bd 7698 6fbd
00000140: a1ae 00be 7276 bdbd d2a3 a7b9 e251 023b
00000150: b2ae d53b 6791 77bd 5c2d 323d 0f64 8f3d
00000160: fdf5 a43d 03ca 8bbb 79d8 d43d 998b 02be
00000170: cfed 54bd ce5c 7dbc 554d e2bc 1a51 7b3d
00000180: 8596 75be 45ab 73bd 87e2 30bd 2691 94bc
00000190: 1c8d db3c ff1e 053e 54e4 8ebd 1940 193d
000001a0: 1038 25bd 32a6 67bd a792 923b 7189 b4bd
000001b0: a65b 57bc ba44 cfbd dae5 9a3d 6c55 c53c
000001c0: 3745 373d ea63 513c f748 1cbd 4099 c3bd
000001d0: 03a6 523d 9e87 f73d 6bb0 a5bd eb5f ad3b
000001e0: 3fab 8fbd 2348 3d3d 814a 0ebd b7ba a8bd
000001f0: 743d df3d ea70 2dbe fde9 7ebd dacc 0dbe
00000200: 3bf0 aebc 184d 703c bce7 86bb 6088 733c
00000210: 8ddd 84bc 225d 4fbd 177b 3c3d 5751 e63a
00000220: cf97 4d3d e185 663d 1864 33be 9201 c93c
00000230: 9a95 e0bd 3900 2bbe f71d e8bc 0934 bdbd
00000240: 88ad 7a3d 947f dcbd 2095 2dbd af48 933d
00000250: 8056 35be fe89 9f3d 6633 efbd cca9 b5bd
00000260: c56a 7b3b e190 1e3c d5ae 13bd 064b 7b3d
00000270: 6504 8ebd eb6b 68bd df58 223d 9d25 1d3e
00000280: e594 f03c bc99 873d f61d bbbd b8ac d23d
00000290: 386c b8bd 96cf 213c 5567 ab3c e89d 073e
000002a0: fa8c 60bc 9f62 363e dc34 a3bd ab56 b7bd
000002b0: 8f83 763d abbd 93bd 92d9 663c 8ac8 a73c
000002c0: 7367 023e 0bfd 1abd 40eb 4dbd 7d1b a23d
000002d0: 2ae9 dd3c b38a a0bc 407c 003d c1fd 06be
000002e0: 34d1 cf3b 7dbf 1bbe f361 71bd ea4c 2abe
000002f0: 3211 41be 9808 ffb9 e2da 8e3d fe16 d6ba
00000300: eeb2 00be e39c c73b d8e6 8fbc 97f5 103d
00000310: a2aa 21be cd5d 47be d624 7b3c cad3 f33a
00000320: c5dd 7ebd f085 1dbd cf78 48bb 879f 863c
00000330: d88a 1a3d 56a0 083e 537f f0bd 2e29 633c
00000340: 2bd0 86bd ba8a ecbc 2862 a5bd 6388 a5bd
00000350: 094b c3bb eab8 b73c 8abf 05be 937b af3d
00000360: 7420 d63c 3a13 6abc 356b 1b3d be90 41bd
00000370: 840c 07be 4148 9c3d b3c9 3bbd bae2 b1bc
00000380: 3da1 00be ee2f 18bd 0b27 6fbd 2c91 15be
00000390: c716 0cbe 609b 22bd 1ab0 63bd 7bcb e8bb
000003a0: bedc cc3c b3f2 e2bd c2bd 14bd 3214 803b
000003b0: 3d5c dabd 99e6 1dbd 3fca 4d3d ab12 28bd
000003c0: 6541 53bd c6f7 17be c327 23be a5c7 56bd
000003d0: 7369 8bbd 370f e03d 4413 67bd 2b00 ae3d
000003e0: 964e 93bb 0433 c1bd f3d4 df3d 6ad3 e2bc
000003f0: f6ba 98bc 9767 9bbd d211 2e3d fe03 823c
-0.048508994 -0.11010664 -0.2051299 -0.05220709 -0.12960011 -0.18611722 -0.03413388 0.0450344
-0.03172935 -0.07537206 -0.018781712 -0.041245885 -0.14625111 -0.0038801737 -0.13482079 0.0058469065
0.017245328 -0.061193235 -0.074401125 0.0070630983 -0.033965416 -0.04239525 -0.05244814 -0.011654812
0.031522024 -0.08602318 -0.02364692 -0.08460615 -0.11182584 -0.024523815 0.007034383 0.010487507
-0.19237186 -0.1197543 0.094236545 -0.029985748 0.011699801 0.0067270547 -0.024707647 -0.19914697
0.01737718 -0.03369422 -0.12567112 -0.013713104 -0.013421819 0.07907763 -0.055006742 0.00749865
-0.014166824 -0.015243856 -0.22176158 0.015933631 -0.04908534 -0.1426875 0.14115837 -0.042938605
-0.032777786 -0.11094976 -0.083232045 -0.019797249 -0.013188915 -0.16388573 0.1307844 -0.10584839
0.0533449 0.138873 -0.082186796 0.13090685 -0.18595378 0.039493192 -0.0120247025 -0.014115352
0.0018825674 -0.01749676 -0.07561144 0.0031680216 -0.100900635 -0.0120454 -0.1110124 -0.058495007
-0.12566616 -0.09251107 -0.00031974778 0.0019885232 0.0065210694 -0.0604414 0.04350029 0.070015065
0.08054731 -0.004266025 0.103928514 -0.12748565 -0.051984604 -0.015464021 -0.027624765 0.06135664
-0.239832 -0.059489507 -0.043184783 -0.018135618 0.026800685 0.13000105 -0.06977144 0.037414644
-0.04033667 -0.05655498 0.0044730487 -0.08815277 -0.013144409 -0.101205304 0.07563372 0.024088584
0.044743743 0.012780169 -0.038155522 -0.095507145 0.051427852 0.12086414 -0.0809029 0.0052909753
-0.070150845 0.046211373 -0.03473902 -0.08238738 0.10900393 -0.16937605 -0.062234867 -0.13847676
-0.021354785 0.014666818 -0.0041169804 0.014864057 -0.016218925 -0.050625928 0.046015825 0.0017571849
0.050193604 0.05628002 -0.17518651 0.024536882 -0.10966034 -0.16699304 -0.0283346 -0.092384405
0.06120065 -0.10766521 -0.042378545 0.07191598 -0.17708778 0.07789992 -0.11679725 -0.08870277
0.00383632 0.0096780965 -0.036055405 0.061350845 -0.06934432 -0.056743544 0.039635535 0.1534638
0.029367873 0.066211194 -0.09136574 0.1028685 -0.09005016 0.0098761525 0.020923296 0.1324383
-0.013705486 0.17811058 -0.079690665 -0.089520775 0.060184058 -0.07213911 0.014089959 0.020481367
0.12734775 -0.037838977 -0.05027318 0.07915399 0.02708872 -0.019597387 0.031368494 -0.13182737
0.0063420776 -0.15209766 -0.058931302 -0.16630903 -0.18854216 -0.00048643793 0.06975342 -0.0016333757
-0.12568256 0.0060917004 -0.01756613 0.035390463 -0.15787748 -0.19469376 0.015328607 0.0018602547
-0.062223215 -0.03845781 -0.0030589586 0.01643349 0.037730068 0.13342413 -0.11743035 0.0138647985
-0.06582674 -0.028874744 -0.080753624 -0.08082654 -0.0059598726 0.022427041 -0.13061348 0.08568492
0.026138522 -0.0142868105 0.037944037 -0.047257178 -0.13188368 0.07630969 -0.045846652 -0.021714557
-0.12561508 -0.037155084 -0.058386844 -0.1460616 -0.13680564 -0.03969896 -0.055587865 -0.007104335
0.025007602 -0.110814475 -0.03631378 0.0039086575 -0.10662124 -0.038549993 0.050241705 -0.04103343
-0.051576037 -0.14840612 -0.15933137 -0.05243649 -0.06807222 0.10940402 -0.056414858 0.08496126
-0.004495452 -0.094335586 0.10929289 -0.0276887 -0.018643837 -0.075881176 0.042497464 0.015871044

network_body._body_endoder.seq_layers.2.weight f4 [256, 256]
00000000: 43cd cbbd 9a77 853c eea4 1f3c 0ea0 75bd
00000010: 07de bdbd 90c7 7f3d d47a 133c ef2e 633d
00000020: ac15 c53d 97e0 093d 301a c0bd eb55 d6bd
00000030: dcd2 d73d 24f7 9cbd bdb1 00be 1fc2 27bd
00000040: d31d edbd 5be7 20bd 40e6 353d 4b8b 1abe
00000050: c887 89bc 0996 ad3d 360a 953d c6a8 a63d
00000060: b2b0 a5bd 0e15 f1bd 48cf 65be c5e9 3c3e
00000070: 437c 0cbe b0ac 823d 1764 b9bd 0e7e 85bc
00000080: dec1 56bd 991e 663d 1e1a 0abe 53ba fb3c
00000090: cc41 9ebd da80 413d c108 ab3c c666 2c3c
000000a0: 17a7 11bd b08b 77bc bfa4 063e 31b0 44be
000000b0: c7b9 39bd 835c 313c f2be 2a3c 46f3 113d
000000c0: 42f2 d9bd 6244 993d 66e0 703d 5ffb a4bd
000000d0: 6e4f 223d 7ebd 713d 4f4d 8bbd 8a88 07be
000000e0: 0e49 2b3d 0414 853c cf54 46bc 7a4e 21bd
000000f0: 6ff1 cdbd b34b 03bd 4d62 2abe d1ce 28bd
00000100: d94f 833c 3556 90bd c1b9 06be 0d04 56be
00000110: d2a2 8c3d ab2a f5bc aacb a6bd e45c 64be
00000120: cabd 92bd f078 96be aaad 913d eaa1 45bd
00000130: 715b 6d3d ef30 28be 4002 16bd 1c6c 343d
00000140: cbfa d8bd 06c2 11bc 6955 cfbd ae5b 333d
00000150: 41f8 cdbd bd7f d4bb a4d0 28be fcdd a6bd
00000160: 5ef2 e6bd d8a2 4bbd 4f55 63be 3f49 90bd
00000170: da36 a4bc 219a 023d 1a00 83bc 82fc 89bd
00000180: b415 49bc 9c97 05ba cb41 76bd ae5a 8bbd
00000190: cc35 babd 32f8 f3bd da94 0c3d 0848 94bd
000001a0: 9c6f 5bbd a2d3 f63d 1143 d63d cbb9 78bd
000001b0: d32a d3bd 7bd5 90bd d8e5 a3bc 27bd 10be
000001c0: 81c5 83be 9ab6 19be 1e43 b8bd d9ad c43d
000001d0: a2d0 a1bd ae60 a7bd 2557 573b cb0d 98bd
000001e0: 0f9c 933c 5f4b 55bd f9ac 693d 69f1 e63b
000001f0: 208d 1dbe 2c37 babc 57d3 8ebd 5a83 2dbe
00000200: afbd 273b c8e0 8b3d 8a52 193e 709b d9bd
00000210: a5e8 eebd 58ab 4bbd 159d 9bbd f95a ff3c
00000220: da50 82bd cf89 01be 8acd f13c 0fd8 b23c
00000230: 809d 08be c9f7 823d c079 6abc b2b1 34bd
00000240: e04d 3f3d 9962 8cbd ce2f 843d 8fee 5cbd
00000250: 76d3 88bd b5fc fabd f05b 59bd a28b 863d
00000260: b03c 03bd 1bdf 2ebe ffcb 0fbe 979e 35bb
00000270: 7c55 61bd 8050 593d 9385 00be 1a72 95be
00000280: 7bdf 2fbe 7479 833c 8ea1 12bd 6769 63be
00000290: 2e7f ba3d c188 99bd 5938 29be b68c 21be
000002a0: 9e8c 49bc 5ca5 7abe d876 dfbd 8234 bebd
000002b0: d9cb 5ebd f447 18bd e402 5e3d 4ad7 1dbe
000002c0: f308 2ebe b541 9ebc 6af9 933d 750b 903d
000002d0: 21e5 43bd efb0 9ebd ea88 8d3c 4328 f43b
000002e0: 6e95 093d a43a 3b3d bcde 81bd 5962 22bd
000002f0: 46d0 293d 6332 06bd 7d43 c7bd 0e97 e63b
00000300: 4e98 c1bd 6598 75bd 6c51 12be 7468 363d
00000310: 988a a23d 5a1c d1bd 4049 b0bd 88e2 853d
00000320: e1d0 dcbd f7ba 3c3b e046 b7bc 3004 553d
00000330: 589d ecbd 6116 e6bd a1a0 133d 296d 17be
00000340: 8cb6 b03c c072 473d f4bb 87bc 5644 f0bc
00000350: e3d6 0ebe 5a69 d6bc da9a 5dbd 469f dfbd
00000360: a903 8ebd d84a b9bd 1938 a5bd b458 123d
00000370: 88af 87bd 2b30 8ebd 0230 843b 4426 cdbd
00000380: bf38 bb3c efe7 ac3c 0d97 aabd 5b6e bd3d
00000390: fdd6 9d3c aa74 263c 5cee b33d 260e 97bd
000003a0: 73f2 ecbd 678c 93bd 4777 01be 6218 b7bc
000003b0: 227d 5b3c 6653 9d3b 96a6 dd3c 4018 e33d
000003c0: e252 fcbd 67a3 9ebd 1f31 733d 5f1f 34be
000003d0: d2b4 dabd 185c 35be 8ec1 8cbd c178 24bd
000003e0: 64a1 dabc 932f f1bc 3530 e9bc cc60 27bc
000003f0: 995e 6dbb fc3b 493d 1197 b9bd fad0 09bd
-0.0995126 0.016292382 0.009743912 -0.059967093 -0.09270864 0.062446177 0.0090014525 0.05546468
0.09623274 0.03366145 -0.09379995 -0.10465606 0.10538265 -0.07664326 -0.12567802 -0.040956613
-0.11577954 -0.039283138 0.044409037 -0.15092199 -0.016788378 0.084758826 0.07277338 0.0813766
-0.080903426 -0.11771594 -0.22442353 0.18448551 -0.13719277 0.06380594 -0.09052294 -0.01629546
-0.05243098 0.056181524 -0.13486525 0.030728495 -0.077273935 0.047242023 0.020878198 0.01052255
-0.03555974 -0.015108988 0.13148783 -0.19207837 -0.045343187 0.010825279 0.0104215015 0.035632394
-0.1064191 0.07483746 0.058807753 -0.08055758 0.03962653 0.059018604 -0.06801855 -0.1323568
0.041817717 0.016244896 -0.012105181 -0.03938148 -0.100558154 -0.032054614 -0.16639061 -0.04121286
0.016029285 -0.07047693 -0.13156797 -0.20899983 0.06866993 -0.029927572 -0.081443146 -0.2230106
-0.07165106 -0.29389143 0.07113202 -0.048250116 0.057948533 -0.16424917 -0.03662324 0.044048414
-0.1059471 -0.008896356 -0.101237126 0.043788604 -0.10057116 -0.006484954 -0.1648584 -0.08147809
-0.112766966 -0.049715847 -0.22200511 -0.070452206 -0.020045687 0.03188527 -0.01599126 -0.06737615
-0.012273241 -0.0005096139 -0.06012134 -0.06804405 -0.09092292 -0.11912574 0.034321643 -0.07240301
-0.053573236 0.120520845 0.10462011 -0.06072406 -0.103109024 -0.07071968 -0.020007059 -0.14134656
-0.2573662 -0.15011063 -0.089971766 0.09603471 -0.07901122 -0.08172737 0.0032858339 -0.07424506
0.01801875 -0.052073833 0.057049725 0.0070478213 -0.15385866 -0.022731386 -0.069739036 -0.16944638
0.0025595238 0.06829983 0.14972892 -0.106253505 -0.11665467 -0.049723953 -0.075983204 0.031171309
-0.063630775 -0.12650226 0.029516954 0.02183154 -0.13341331 0.063949175 -0.014311254 -0.044114776
0.046705127 -0.068547435 0.064544305 -0.053938445 -0.06680958 -0.12255231 -0.053066194 0.065696016
-0.032040298 -0.17077295 -0.14042662 -0.0027712935 -0.055013165 0.053055286 -0.12550955 -0.29188615
-0.17175095 0.016049124 -0.0357986 -0.22208177 0.09106289 -0.07496787 -0.16525401 -0.15776333
-0.012301592 -0.24477142 -0.109113395 -0.09287359 -0.054393623 -0.037177995 0.054201975 -0.15414158
-0.16995601 -0.01931844 0.07225306 0.07033435 -0.047825936 -0.07748591 0.0172772 0.0074510886
0.033589773 0.04571022 -0.06341311 -0.039644573 0.04145839 -0.032762896 -0.09729669 0.00703705
-0.09452878 -0.059959788 -0.14288872 0.044533208 0.07936591 -0.10210486 -0.08607721 0.06537348
-0.10782028 0.0028797963 -0.022372663 0.052005947 -0.115534484 -0.11234737 0.03604186 -0.14787735
0.02157142 0.04869342 -0.016569115 -0.02932946 -0.1394916 -0.026173282 -0.054102756 -0.10919051
-0.06934292 -0.090474784 -0.080673404 0.035729125 -0.06625277 -0.06942781 0.0040340433 -0.10017064
0.022854207 0.021106688 -0.08329592 0.09249564 0.019267553 0.010159651 0.08785698 -0.073757455
-0.11569681 -0.07204514 -0.12643157 -0.022350494 0.013396533 0.0048012016 0.027056973 0.1108861
-0.12320496 -0.0774601 0.059373017 -0.17590092 -0.1067902 -0.17710912 -0.06872855 -0.040154222
-0.026688285 -0.02944163 -0.02846537 -0.010215949 -0.0036219715 0.04912947 -0.09062017 -0.03364656

network_body._body_endoder.seq_layers.2.bias f4 [256]
00000000: 9279 a2bd e596 82bd fbfd 133d a25f acbc
00000010: 8531 853c d978 fabd 58e0 b7bd 7e80 00be
00000020: f4d3 b8bd 5f87 6bbd ecdb 7e3d aeaa 01be
00000030: cb14 a23d 611a 57bd e89b 963d 6a53 ef3d
00000040: 538b f4bd 9717 03be 9bac 083a da52 2e3c
00000050: 87c9 c4bd 157d c73d 241e a7bd eab7 f6bd
00000060: b284 72bd 30de 1ebd d77e 93bc 5d70 92bd
00000070: 6b7d 743d c5a8 2bbe 2f0a 16be cae7 02be
00000080: 4d70 3bbe 01f5 47be 43f8 f5bd b217 14be
00000090: 4270 08be 2c52 77bd 56f0 b5bd 35c4 f5bd
000000a0: ae1a a93d fcac ffbd ab8f 15be 301a adbd
000000b0: 39f1 1bbe b1f2 c1bd 831a 10be f4f3 a2bd
000000c0: 823a 1b3d b38f 00be 2f53 a6bd 971f 483c
000000d0: a569 08be 7908 cd3d 96b8 87bd ba71 0ebd
000000e0: 4797 74bd 99bb d8bc b002 9f3c 4277 22be
000000f0: 4b40 fabc 6419 373d 4da3 d4bc bd4d d33d
00000100: 2263 debd a0f4 c0bd 1a59 09be b221 6abb
00000110: c09d d0bd d8f4 bcbd e2d1 11bd 03aa 96bd
00000120: e743 afbd 131f 9abc ccc1 8e3d 04a1 dcbc
00000130: 3e08 1a3c 0ee8 923d 6179 18be 3e3c a43b
00000140: 981b 21be 794e 7fbd af66 05bd 7124 75bd
00000150: d12d 31be 7f6f 01bc 27e1 5ebd 2195 91bd
00000160: 9eb1 66bd 94a6 92bd bff2 35be f87e a23b
00000170: c363 febd 8954 e3bd 1ae3 65bd f55b 49bd
00000180: 6c2b 0abe 0480 2bbd 01c9 12be 69dd 06be
00000190: 5fdb 2fbe 6a09 b1bc a924 b6bd c429 78bd
000001a0: 587f 8abd c4db 71bd 4362 003d 3ea3 9cbd
000001b0: 19c3 f3bd cc75 92bd bfc0 933d 3b99 a9bd
000001c0: 5ab6 8fbd f1ba fc3b 6a42 e2bd 0fcb a8bd
000001d0: e65c 3bbe 36fe 093e 6a94 1dbe a457 f2bd
000001e0: 1aca 62bd 1552 9abd b10c 0ebe 0d42 2bbe
000001f0: 5faa 0bbd 3c57 bfbc 2f0c 17be 464b febd
00000200: cf12 1abe e029 8cbd 7d13 acbd b5c1 24be
00000210: 52a8 1ebe 9878 4b39 9a61 25be 299d 18be
00000220: 1992 2fbe 0a92 59bd 7a86 09be 2023 92bd
00000230: d498 85bd 075e e1bd 43fa 00be 8ccc 643c
00000240: a93a 94bd 0641 07be 1446 b3bd 1bf4 c7bd
00000250: 9095 0cbe 04b5 e0bd 46a7 ad3d f676 8cbd
00000260: 4c77 01be bf11 23be f521 efbd bd35 2abd
00000270: 3c6b 0bbd 28ef cfbd baf3 b5bd cc5e a8bd
00000280: d1be 1dbd ed1b 1cbe 3cfa b0bc 9078 65bd
00000290: 4011 dabd 16db b0bd 7cfd 3abe cd9a 26bd
000002a0: eda2 6abd da2c f7bd b446 f8bd abcd 5f3c
000002b0: 4b7f eebd f375 b6bd 0592 71bd f428 80bd
000002c0: f1e8 483d 1c29 24be 62c8 b8bd b534 17be
000002d0: dbbf c9bd b3fd 62bd b5c5 92bd c795 b2bd
000002e0: 2171 403d 3797 92bd 25e6 2fbe 6806 07be
000002f0: 6348 93bd 27fa 0cbe 5afd 0fbe 61d8 e2bd
00000300: 537f 00be 548e 04bd 0203 173d 78a6 2dbd
00000310: 73e8 00be 1427 edbd 6e6e 31be a50d fabd
00000320: 826f c8bc 2f49 b6bd 6eb6 96bd c131 88bd
00000330: c1f9 07be 5370 abbd de36 05be 7941 07be
00000340: 7258 04be a0a0 1ebe 539b 43be 88f5 13be
00000350: bae9 27be 390c 13be eaf6 76bd 5f2c 02be
00000360: 00c3 18be 1418 36be 8992 f5bc fd90 0dbe
00000370: 121a 56bc c31c a23d a473 e5bd e357 d0bd
00000380: cae7 1ebe b351 e8bc 2c3f 20bd 91b7 3ebd
00000390: d383 eabd e7f3 aabd 91ab c1bd b01a 4a3c
000003a0: 62da c33c 6abb 56bb e75f ffbd ac4b f1bd
000003b0: 55a8 86bd e15d 0bbe 62d7 cabd f6dd 783d
000003c0: 397b f3bd c455 17be 18c8 0dbe 4ee1 e6bd
000003d0: 685e 0abe e225 3abe 5326 19be 39cc 90bd
000003e0: 2e69 0fbe 6dcd 823d 3868 25be 1f6b c0bc
000003f0: 8b82 2abe 9dae 1ebe 744b 02be 13cc 33be
-0.07933344 -0.06376437 0.036130887 -0.021041695 0.016258964 -0.12230081 -0.08978337 -0.12549016
-0.09024802 -0.057502147 0.062221453 -0.12662765 0.07914122 -0.05251539 0.073539555 0.11685832
-0.119406365 -0.12801968 0.00052137085 0.010639871 -0.09608751 0.097406544 -0.08160046 -0.120467976
-0.05920858 -0.038786113 -0.018004818 -0.07150338 0.05968992 -0.16763599 -0.14652322 -0.12783733
-0.18304558 -0.19527055 -0.12010243 -0.14462164 -0.13324073 -0.0603811 -0.08883731 -0.12000314
0.08257042 -0.12484166 -0.14605586 -0.084522605 -0.15228738 -0.09470118 -0.14072613 -0.079566866
0.037897594 -0.12554817 -0.08121335 0.012214563 -0.1332155 0.10011382 -0.06627004 -0.034776427
-0.05971458 -0.026456641 0.019410461 -0.15865806 -0.030548235 0.04470195 -0.025956774 0.10317562
-0.10858752 -0.094216585 -0.13412896 -0.003572565 -0.101863384 -0.09226388 -0.03560055 -0.07356646
-0.08557873 -0.018813645 0.069705576 -0.026932247 0.009401379 0.07173167 -0.14890052 0.0050120642
-0.15733182 -0.062330697 -0.03256863 -0.059849206 -0.17302634 -0.007900118 -0.05441394 -0.07108522
-0.056321733 -0.071606785 -0.17768382 0.0049589835 -0.12421372 -0.11100108 -0.056124784 -0.049159963
-0.13493127 -0.041870132 -0.1433449 -0.13170399 -0.17173527 -0.021610934 -0.08893711 -0.060586706
-0.0676257 -0.059047475 0.03134371 -0.076483235 -0.11902446 -0.07151374 0.07214498 -0.082811795
-0.07017203 0.007712715 -0.11047824 -0.08241855 -0.18297157 0.1347588 -0.15388647 -0.118331224
-0.05536852 -0.07535187 -0.13872029 -0.16724415 -0.034098025 -0.023357026 -0.14750741 -0.12416701
-0.15046237 -0.068439245 -0.084021546 -0.16089518 -0.15493897 0.00019404513 -0.16150513 -0.14903702
-0.17145576 -0.05311779 -0.13430205 -0.07135606 -0.0652329 -0.110042624 -0.12595467 0.013964783
-0.07237751 -0.13208398 -0.08753601 -0.09763356 -0.13728929 -0.10972026 0.084791705 -0.068586275
-0.12643164 -0.15924738 -0.11676399 -0.041555155 -0.034037814 -0.10153037 -0.08884378 -0.08221206
-0.038512055 -0.15245028 -0.021603696 -0.05602318 -0.106478214 -0.08635537 -0.18260759 -0.040674973
-0.057284284 -0.12069102 -0.121228606 0.013659875 -0.11645373 -0.08909216 -0.058977146 -0.06257811
0.049050275 -0.16031307 -0.09022595 -0.147662 -0.09851047 -0.055417728 -0.07166616 -0.08719974
0.046982888 -0.07157748 -0.17177637 -0.13186038 -0.07191541 -0.137673 -0.1406149 -0.11076427
-0.1254857 -0.032362297 0.036868103 -0.042395085 -0.12588672 -0.11579719 -0.17327282 -0.12209634
-0.024467234 -0.089006774 -0.073590145 -0.06650115 -0.13278867 -0.083710335 -0.13009211 -0.1320857
-0.12924364 -0.15490961 -0.1910222 -0.14449131 -0.16397753 -0.14360131 -0.06029407 -0.12712239
-0.14918137 -0.17782623 -0.0299771 -0.1382484 -0.013067739 0.07915642 -0.11203697 -0.10173013
-0.15518108 -0.02835927 -0.039122745 -0.04656178 -0.11450925 -0.08347302 -0.09456552 0.012335464
0.023907844 -0.0032765516 -0.12469464 -0.117820114 -0.065750755 -0.1361003 -0.09904362 0.060758553
-0.11888737 -0.1477881 -0.13845861 -0.11273442 -0.13512576 -0.18178514 -0.14956026 -0.070702024
-0.14004967 0.06386838 -0.16153038 -0.02348858 -0.1665136 -0.15496297 -0.12724096 -0.17558317

action_model._continuous_distribution.log_sigma f4 [1, 2]
00000000: f792 83bf 6101 74bd
-1.0279225 -0.059571628

action_model._continuous_distribution.mu.weight f4 [2, 256]
00000000: fffd 0b3d e6a7 993c f8d5 2abc 2186 88bc
00000010: 3095 8f3d 08d4 2cbd e5e5 083d c43d 0a3c
00000020: 0438 2c3b c05a 56bc acd4 98bc ac2e 583d
00000030: 5c5a b43c 944d d9bb dcd5 50bd ecef aabb
00000040: ed32 7dbc 03a9 acbc 5c6f e2bc 1e3c b83a
00000050: b4c7 f4bc 7416 113d 8002 6cb9 4ad0 463d
00000060: 4124 d53c 01c6 10bb 3c02 bebc 3eb6 0abd
00000070: ee92 183d a8ec 9f3d 5117 b73c c3f0 3a3d
00000080: c35c 2bbc c0c8 cf3b a73e d5b8 30c4 f43c
00000090: 55a5 a5bc 3584 9dbc 832f 98bb 0dd2 3fbc
000000a0: bd75 51bd 32f4 7e3c cef1 12bd 51aa 3f3b
000000b0: 08e2 2bbd ce30 67bb b45c 033c cae1 a63c
000000c0: aa7e 4d3d 8998 3dbd 1f48 27bd 8056 6b3d
000000d0: b716 d0bc 99d8 c23b 6654 8bbc 1a2c 123d
000000e0: c471 093a 2c3f 863d 2148 cfbc abad 3ebc
000000f0: f3f0 f3bb 2373 00bd dbc5 2cbb 6302 debc
00000100: 4f8e 14bd 0500 3d3d f5c2 763d b678 953d
00000110: 9e9b 993c 3ddc 0c3c 46f4 58bc 4cb1 863d
00000120: 0f39 28bd 5dfa 0b3c 7fb1 753d 3d3f 94bb
00000130: aefe 1abd e709 eb3b 8ef4 a93c 907f b6bc
00000140: 2bcf dd3c 1d28 a13c ebe1 39bb 2240 ec3c
00000150: eafb 14bc 7b2e 2abb a3ad d1bc e570 913d
00000160: 3e5d 513d 8929 053d a09d 97bc 568b 453c
00000170: 5cc4 993c 700d 83bc 41e4 ac3d 99db ce3d
00000180: d18e a7bc f417 16bc 720d 9d3c 1f25 2bbc
00000190: f654 233c 43a7 df3c 19be aa3c 2c4f 95bc
000001a0: 1f66 2c3d b326 05bd 6b42 8abc 4a1e d2bb
000001b0: d90a 123c 0488 3e3c fd0a 38bd c701 ccbd
000001c0: fcb1 193c 7cd9 d8b9 979a b6bc 5762 8ebd
000001d0: 245d 0f3c 0b76 133d d5cc d9b8 fa43 1abb
000001e0: 695f e4bd 2e78 afbc 3706 e4bc 2bfa c0ba
000001f0: e964 023c 723d f2bb 7788 863a 2e95 25bd
00000200: a645 e03b 2d95 96ba f258 b2bb b4b6 823c
00000210: 659c 4d3c 62e3 613d dee9 d8ba ba0c 9a3b
00000220: b7a0 bb3b 54f0 b63c b51a 8fbc 1b24 3a3d
00000230: 70ef 543d 3335 d3bc ffbe b93a 6692 80bd
00000240: f5b5 d8bc beb9 fe3c 8d60 61bd 142b 0e3c
00000250: 01ff ff3b ba37 423b f605 4ebd 71af 9d3b
00000260: 015a 07bd 5da4 e63d 88b9 2dbd 5f00 f83b
00000270: 41f4 6e3d d8db f83c 174e 623d 341b 9a3d
00000280: 7b70 d73c dfc6 3cbc c00a ca3c 2568 f1bb
00000290: f924 2b3c 7662 a4bc 5de0 453c a9af ca3b
000002a0: bce0 c53c 7c1d ee3b b6ce 54bc 0ac5 983b
000002b0: 5c56 cf3c be05 0cbd c69f 0e3d b45a f93a
000002c0: 0580 803d c53a d73c a487 6d3d 51dc 16bb
000002d0: 1679 89ba 9bf5 b13c e1d5 c93a 9e22 57bd
000002e0: acc6 f0bb 65f7 b8bc e1c7 d33c 43c7 27bd
000002f0: fd34 14bc da8c b73b e1d9 6bba 5ca4 bf3d
00000300: 44dd 0b3d 8903 1cba 2d23 ce3b d0f6 8036
00000310: 6e3c a63b f74b f5bc e4de ee3c c8ad 83bd
00000320: 78ba 5d3d f78f b73b 037e 013c 5c7d fa3a
00000330: bc5a 423c d42e 29bd bbdf 7a3c 5d0d 4bba
00000340: d3d0 aabc add3 3abc 30dc 51bc 1793 a83c
00000350: 1efe f9bc 3017 afbc 2500 84bc a6d9 e83c
00000360: c4d7 d73c d1de 9f3b 6b8d 1b3c 0782 803c
00000370: e4ae 213a 2308 30bd adde 983c 9cf4 2ebc
00000380: a24f dcbc 5f3e 4d3d 109e 893b c235 723a
00000390: 1070 4bbb 953e 27bd 1167 593d f22f b9bb
000003a0: b067 f23c c19c 20bc b5b4 69bc f0af 4f3d
000003b0: 0195 01bc daba d33c d588 f4bb a448 4cbd
000003c0: cd1b fcbb b3e1 ef3b 74e4 edbb c783 d4ba
000003d0: c3fa fbba c7c0 b83a 63c8 71bc ee73 263c
000003e0: 1f16 033c 43e6 103d c34c 08bc 5f8c 5abc
000003f0: fe82 24b9 eb34 da3c ff6f 593c 8ac7 143c
0.034177776 0.018756818 -0.010426991 -0.01666552 0.07010877 -0.042194396 0.03342237 0.008437578
0.0026278505 -0.01308316 -0.018656097 0.052778885 0.022015743 -0.0066315625 -0.050985202 -0.005216589
-0.015454036 -0.021076685 -0.02764099 0.0014056002 -0.029880382 0.035421804 -0.00022507645 0.048538484
0.026018264 -0.0022090676 -0.023194425 -0.033865206 0.037249498 0.078088105 0.022349985 0.045639765
-0.010459128 0.00634107 -0.000101683014 0.029878706 -0.020220438 -0.01922808 -0.0046443357 -0.011707795
-0.051137675 0.01556115 -0.035875134 0.0029245804 -0.041963607 -0.0035276893 0.008017708 0.020371336
0.050169624 -0.046288047 -0.040840264 0.05745554 -0.025401456 0.0059462306 -0.017008018 0.03568659
0.00052430877 0.06555018 -0.025302948 -0.011638085 -0.007444495 -0.031359803 -0.0026363048 -0.027100747
-0.03626853 0.046142597 0.06024452 0.072984144 0.018750962 0.008597431 -0.013241833 0.065767854
-0.04107004 0.008543578 0.059983727 -0.00452414 -0.037840538 0.0071728113 0.020746496 -0.022277623
0.027076324 0.019672448 -0.0028363417 0.028839175 -0.009093264 -0.0025967646 -0.025595492 0.07101611
0.051114313 0.032510314 -0.018507779 0.012057146 0.01877039 -0.015997618 0.084419735 0.10100479
-0.020453842 -0.009160984 0.01917145 -0.010445862 0.009968987 0.027301436 0.020842599 -0.018226229
0.042089578 -0.03250761 -0.016877374 -0.006412302 0.008913719 0.011629108 -0.044932354 -0.099612765
0.009380814 -0.0004136077 -0.022290511 -0.069523506 0.008750234 0.036001246 -0.00010385519 -0.0023539052
-0.111510105 -0.02141961 -0.027834995 -0.0014722993 0.007958629 -0.0073925788 0.0010264058 -0.040425472
0.0068442402 -0.001148855 -0.005442732 0.01595626 0.012549494 0.05514849 -0.001654919 0.004701224
0.005725946 0.022331394 -0.01746879 0.04544459 0.051986158 -0.025782203 0.0014171301 -0.06277923
-0.026453951 0.031094428 -0.05502372 0.008677263 0.0078123813 0.0029635266 -0.050298654 0.004812174
-0.03304482 0.112618186 -0.042413265 0.0075684036 0.058338407 0.030378267 0.055250254 0.0752472
0.026298752 -0.011522024 0.02466333 -0.0073671513 0.010445827 -0.020066481 0.012077418 0.006185491
0.024155013 0.0072666984 -0.012988737 0.0046621608 0.025309734 -0.034185164 0.03482034 0.0019024224
0.06274418 0.02627314 0.057990685 -0.0023019502 -0.0010488357 0.02172356 0.0015398824 -0.052523248
-0.0073479023 -0.022578904 0.025852146 -0.040961515 -0.0090458365 0.0056015076 -0.0008997005 0.09357521
0.034146562 -0.00059514545 0.0062908144 3.84343e-06 0.0050731217 -0.02994345 0.029159017 -0.064296305
0.05413291 0.0056018787 0.007903579 0.0019110846 0.011862453 -0.041304424 0.015312131 -0.0007745827
-0.020851528 -0.0114030065 -0.012808844 0.02057795 -0.03051668 -0.021373361 -0.01611335 0.028424095
0.026348002 0.0048788567 0.009494166 0.015687002 0.00061677233 -0.04297651 0.018660868 -0.010678437
-0.02689344 0.05010831 0.0041997507 0.0009239578 -0.0031042136 -0.040831167 0.053076807 -0.0056514675
0.029590458 -0.009802998 -0.014264275 0.050704896 -0.00790906 0.025845934 -0.0074626007 -0.049873963
-0.007693744 0.0073206066 -0.0072598998 -0.0016213589 -0.0019224513 0.0014095538 -0.014757249 0.010159476
0.00800088 0.035375845 -0.008319083 -0.013339131 -0.00015689057 0.026636561 0.013271331 0.009080777

action_model._continuous_distribution.mu.bias f4 [2]
00000000: 373b 07bc 920d 873e
-0.008253864 0.2637754

66 f4 [20]
00000000: 106a d03e 0785 f33e 1d42 843e 4c03 8a3e
00000010: f9ff ff3e 433a e03e dfc9 a23e 5e7a 9a3e
00000020: ebfa ff3e 5d32 e43e 61ab 973e 4db8 8f3e
00000030: 0476 fe3e b7e1 e33e ec3a 973e 9112 913e
00000040: 1e6d ff3e 5f6e ed3e 1043 863e c4e6 823e
0.4070592 0.4756243 0.2583169 0.2695564 0.4999998 0.4379445 0.3179464 0.30171484
0.49996123 0.44569674 0.2962294 0.28070298 0.49699414 0.44508144 0.2953714 0.28334478
0.49887937 0.4637327 0.2622304 0.25566685

69 f4 [12]
00000000: 48fe d43e f6cb f33e 92df 483e a541 533e
00000010: ea17 d63e 62e4 f33e 9d31 4b3e 72e4 543e
00000020: dc48 d53e 45d8 f33e 04a5 483e 94fb 523e
0.4160025 0.47616547 0.19616535 0.2063051 0.4181512 0.4763518 0.19843145 0.2079027
0.4165715 0.47625938 0.19594198 0.20603782

72 f4 [3]
00000000: 1105 083f ef93 153d 5d91 2a3f
0.5313273 0.036518034 0.66628057
