Assets/KartAgent.onnx (onnx, 305043 bytes, 13 tensors)

network_body.observation_encoder.processors.0.normalizer.running_mean f4 [20]
00000000: ff9c 953e 5fe0 073f b5db cb3b d1ca 603e
00000010: 3440 473f 70d0 e73d f559 733b ab31 303e
00000020: 3913 263f 630e 793e c131 be3b d231 2f3e
00000030: 42a7 443f 5b80 ec3d df9c 883b 446a 333e
00000040: 97e8 2b3f 2545 5e3e 45bf 733b 5b9b 2d3e
0.2922134 0.5307674 0.0062212595 0.21952368 0.7783234 0.11319053 0.0037132476 0.17206447
0.6487308 0.24321894 0.005804271 0.17108849 0.76817715 0.11547919 0.004169091 0.17521006
0.6715178 0.21706064 0.0037192863 0.16953795

network_body.observation_encoder.processors.1.normalizer.running_mean f4 [12]
00000000: 7c8c 963e 6403 083f d71f 9a3a 4f8e 393d
00000010: 2351 973e 0108 083f dc69 8b3a 0192 393d
00000020: 1492 983e bddd 063f a2c7 a53a 5610 393d
0.29404056 0.53130174 0.0011758757 0.04530173 0.2955409 0.53137213 0.0010636407 0.045305256
0.2979895 0.52682096 0.0012647996 0.045181595

network_body.observation_encoder.processors.2.normalizer.running_mean f4 [3]
00000000: 052d 2fbd ecef 4a3d f7ba a03e
-0.042767543 0.049545214 0.31392643

network_body._body_endoder.seq_layers.0.weight f4 [256, 35]
00000000: 1d71 333d 2f93 3d3e 8fbe 8fbe 3291 833d
00000010: 4c1d 2bbe 002a 69be f8f3 5e3d bd2c 093e
00000020: 53e3 62be d26a 42bd 05f3 2f3e 27b9 e5bc
00000030: 4942 8f3d a37e 94bd 4d40 d5bd 0c58 a8be
00000040: d102 adbe 3af7 01be f967 dbbe 7d06 f9be
00000050: 97f9 023e ba76 8dbd 1cdf 58be 3dc9 ad3d
00000060: e4ae b0bd 2e8c 8d3d 081b 873e 1fb9 1b3e
00000070: 10df 81bb 4174 833e 8390 4fbd e56d 283e
00000080: e989 cbbe 02d2 96be 0363 5bbe 5ece 1b3e
00000090: 7b2f bdbd df1e 07be a3d0 39be 7913 b3bb
000000a0: 2285 52be a3f5 133e 9c9e ee3a be65 803c
000000b0: e893 a4bc 0a2f 493d 9e28 96be edfe 503e
000000c0: 4633 a9be 31e6 5c3d 6206 0d3d edad 2abd
000000d0: 22e4 73be 5f06 a03e 2a52 a33e c634 6dbd
000000e0: c3cd a7be e4fe 3a3d d85f 51bc 3140 563e
000000f0: cc37 36be f5e8 10be cb6b bf3e 3bb3 36bc
00000100: 9eb7 c8bd dde6 d1bd 0315 b3be ff43 2f3d
00000110: 6e67 18be 3d76 923e 48c5 283e 67b9 443c
00000120: 24ef 153d 2bde b3be 5ffb c73c 910d c8bc
00000130: 37b5 5a3d 622c 4bbe 8a0f a83d 4e09 2cbe
00000140: 1336 b0bd 3d2a 243e 7495 de3d d148 b0bc
00000150: 7565 ba3d 3304 cbbe 698e 053e 8095 513e
00000160: 3460 a13d 160c 893c 6cf8 4abe 03ca 80be
00000170: dd7e 48bd 94bc 07be c6d7 513e a98a be3c
00000180: 1963 12bc 07dc 13be b998 33bd a89e 723e
00000190: 57db 293e 71e7 533e db5f cc3d 3f44 01be
000001a0: de82 163d da0f 773d 3d35 c2bd a736 703e
000001b0: 7949 cfbe d8b5 773e 012c 4e3d 2130 c43e
000001c0: 5996 ffbd 2b3d df3e 4d0e 5aba 82b1 82bd
000001d0: 7c52 1fbe 8237 473d a207 94bd 90ce 68be
000001e0: d3cd 04be 14cc de3d c293 b0bd 3046 80be
000001f0: f9b6 37be 96ef a63c 85fe 50be f4f7 a73d
00000200: 5310 99be f90e 543d 59aa 493e 06fb 1d3d
00000210: 98d3 49be 2782 7f3b c58a 4b3e ab68 4d3d
00000220: a406 74be 48c9 f23b f134 60bd 08c6 3bbb
00000230: 71ef 423d f34c dd3d 0c53 2bbd 5698 283e
00000240: 3dcb 253e 72a2 043e 89d6 403e dcbe 013e
00000250: 8398 38bd cc52 283e de52 2d3e fd71 333e
00000260: ea91 19be ed4f ab3d 79fb 153e 7556 93bd
00000270: 3735 45be 326a 203d 40c0 09be 7a1a cd3e
00000280: 7891 01be 3b44 9fbd b827 68be 0da8 8d3e
00000290: 3c36 53be fbe3 893d 61d3 8c3e 9dd5 f63d
000002a0: 4192 07be 9d30 9fbb 86ed b83e 119b 57be
000002b0: d5b6 463e 91da 043e 5a50 193d 00b2 a53c
000002c0: 4457 623e c925 473e 60d3 8d3c 366e 24bd
000002d0: 7b57 333d 8352 ae3e 401b 32be 3618 a7bc
000002e0: a3b8 eebd 996b ce3d bcc9 ee3d 2fd0 743c
000002f0: 9235 87be ceb3 f03d e9cc 86bd 0514 0f3e
00000300: 1d0e c23d 012f 1f3e da1e be3e e7c9 01bc
00000310: 06a6 d03d 5b5a 353e 6a8e 95be 9582 8a3e
00000320: d8c5 33be 0eb9 0cbe 8e89 cebe e963 4c3e
00000330: c11c 0c3d 9d52 15be 7db1 60be b2fd a13c
00000340: fd91 79be 692e cc3d 55af 4cbe 9305 bc3d
00000350: 5f06 1ebe 03f3 df3d 32d4 1d3e 4d07 233e
00000360: c98b 823d 0b0c 163e 2796 e13d ac78 083e
00000370: 04c3 313d c2e5 b4bc 336b a4be 4d42 b4bd
00000380: 0aee fabc 25ef 9abd 3298 1ebf ffac e9bd
00000390: e393 01be 3721 55bd 259a 19bd a618 d23c
000003a0: 3f2c d03c 317b 3d3e 0e13 10bd 6457 463e
000003b0: 43cc 2f3e 9686 1f3c 86db 2fbd 8626 8a3d
000003c0: c299 52be 1c51 043e 039f 1a3e ac02 aa3c
000003d0: 8a13 68bd a445 8ebd 4a1b d2be 972f 95be
000003e0: c426 2c3e db3a d23c 7e3c 1d3e eef4 7d3d
000003f0: d8ad 4dbc e9de 81bd 9212 1a3c 7db1 053e
0.043809045 0.18513177 -0.28075072 0.06424178 -0.16710395 -0.22769928 0.054431885 0.13395973
-0.2215703 -0.047465153 0.17182548 -0.02804239 0.06995065 -0.072507165 -0.10412655 -0.32879674
-0.3379121 -0.12691966 -0.42852762 -0.48637763 0.12790523 -0.06907411 -0.2117886 0.08485649
-0.08627108 0.06911503 0.2638781 0.15207337 -0.0039633587 0.25674632 -0.050674926 0.16448171
-0.39753655 -0.29457098 -0.21424489 0.15215442 -0.09237572 -0.1319537 -0.18145995 -0.005464968
-0.20558599 0.14449172 0.0018205228 0.015673514 -0.020090058 0.049117126 -0.29327863 0.20409746
-0.3304693 0.053930465 0.034429915 -0.041669775 -0.23817495 0.3125486 0.31898624 -0.057911657
-0.3277417 0.04565324 -0.012779199 0.20922925 -0.17794722 -0.14151366 0.37386927 -0.01115113
-0.09800647 -0.10249112 -0.34976968 0.042789456 -0.14883205 0.28605834 0.16481507 0.012007094
0.036605015 -0.35130438 0.024411855 -0.024420531 0.053395476 -0.1984115 0.08206089 -0.16800424
-0.08604064 0.16031738 0.1086835 -0.021519097 0.09101383 -0.3965164 0.13042606 0.20467186
0.078796774 0.016729396 -0.19821328 -0.25154123 -0.04894911 -0.1325553 0.20492467 0.023259478
-0.00893476 -0.14439403 -0.04384682 0.23693335 0.16587578 0.20693757 0.099792205 -0.1262369
0.0367459 0.06031785 -0.09482811 0.23458348 -0.40485743 0.24190462 0.050334934 0.3831797
-0.124798484 0.43601355 -0.0008318171 -0.06381513 -0.15558809 0.04863692 -0.07228018 -0.22735047
-0.1296914 0.108787686 -0.086219326 -0.2505355 -0.17940892 0.020377915 -0.20409591 0.0820159
-0.29895267 0.05177209 0.19693889 0.038569473 -0.19709623 0.003898749 0.19877155 0.050148647
-0.23830658 0.0074092485 -0.05473799 -0.0028651971 0.04759163 0.108056925 -0.041827247 0.16464362
0.1619081 0.12952593 0.18831839 0.12670463 -0.04506732 0.16437835 0.16926143 0.17523952
-0.14997068 0.08364854 0.1464671 -0.07194225 -0.19258581 0.039163776 -0.13452244 0.40059263
-0.12653148 -0.07776686 -0.22671402 0.27667275 -0.20626158 0.06732937 0.2750502 0.12052462
-0.13239385 -0.00485809 0.36118716 -0.21055247 0.19405682 0.12974001 0.037430145 0.020226479
0.22103602 0.19448008 0.017312706 -0.040144168 0.0437846 0.34047326 -0.17393208 -0.020397287
-0.116563104 0.100791164 0.116595715 0.014942213 -0.26408058 0.11753045 -0.06582052 0.1397248
0.09475348 0.15545274 0.37132913 -0.007921672 0.101879165 0.17710249 -0.29210216 0.2705275
-0.1755594 -0.13742468 -0.4033932 0.19959988 0.03420711 -0.14582296 -0.21942706 0.019774292
-0.24372096 0.099697895 -0.19988759 0.09180751 -0.15432118 0.10935023 0.15412977 0.15920754
0.06374318 0.14653032 0.110149674 0.13327283 0.043398872 -0.022082213 -0.32113037 -0.08801708
-0.030631084 -0.075651444 -0.6195098 -0.114099495 -0.1265407 -0.05203363 -0.03750052 0.025646519
0.025411723 0.18504025 -0.035174422 0.19369274 0.17167763 0.009736678 -0.042933963 0.06745629
-0.20566466 0.12921566 0.1509972 0.020753227 -0.05665926 -0.06946877 -0.41036445 -0.2913787
0.16811663 0.02566283 0.15355107 0.06200116 -0.012553655 -0.06341345 0.009403842 0.13055988

network_body._body_endoder.seq_layers.0.bias f4 [256]
00000000: be00 233d 945d 0e3d 1cf6 83bd 82c6 82bd
00000010: 63e5 fc3c 031d c4bd e0e9 803b e6ad eabc
00000020: a121 c9bd 5e47 1c3d 2c8e a0bd 1a5b 8c3b
00000030: c072 56bd 5e1d 9c3d 6029 8cbd ec9c 09bc
00000040: 8544 713c 5c7b 4fb9 86ef bebd 9853 9a3d
00000050: a704 a5bd 4e2d 703c 9b78 c4bc ace2 e2bd
00000060: 52ec d23c b18f e13d 4e7d 7a3d 2cf2 10bd
00000070: b2a7 253d f423 94bd a6fa 0b3c 5b4c 4a3d
00000080: dcbf b9bd c1ab 21bd d7fc cc3c 900f cbbd
00000090: 529a d4bd 84fd a2bc ba5d ab3d 62f2 ffbd
000000a0: 92d5 adbd 1d37 073c 0515 b03d e9a5 1dbd
000000b0: b290 93bc 56c5 2dbd c152 d4bd 5b9b 0dbe
000000c0: 01a0 ce3d 7882 89bd f6c3 583d ede4 f6bd
000000d0: a0f9 6a3d 69ba 0cbe ee9d 81bd 955d 9cbb
000000e0: 46d8 b1bd db1b 7dbc 09c9 d0bc 6b1b c83d
000000f0: 96bd d6bd d76d a0bd b496 85bd c7ac 2a3d
00000100: 029f c2bd 7543 9aba 0c64 663d df78 15be
00000110: b610 a8bd 14df bcbd 07a8 40bd eaa4 29bd
00000120: f4f0 e53d 9ae3 80bc d76b 503d 85cc f43b
00000130: 30d6 89bc 47a9 bfbd 2e7b 5bbd 646e a43a
00000140: a1e6 d33c efb5 45bc 7560 173d 3068 8cbd
00000150: ce95 23bd 961d c3bd 1fa6 52bd 6a82 ebbd
00000160: 9d7b c1bd eb99 1a3d 6196 3e3d 4328 19be
00000170: 2784 a73c db5c 5ebc 4c34 d9bc d702 bcbc
00000180: dad6 bdbd 3e2d 213d f7ce 4dbd bad5 17be
00000190: 1c54 993c f576 04bc 692c 32bd c41b 81bc
000001a0: 4bce d93d 1c68 c7bd 9a22 86bd a636 cabd
000001b0: edfb 5e3d 82c5 0dbc 8381 1bbd 1aa7 173d
000001c0: 0122 5ebd 1cce dabd c03e af3d af40 22bc
000001d0: ebe6 cbbc 339f a5bc a1d0 1ebd 607a 1b3c
000001e0: 8491 bdbd a820 873d 0a15 503c 62dc 06bd
000001f0: 6488 a23c ce2b ad3d f8c2 35bb 9b76 e5bd
00000200: 5194 74bd e87d 783c 95b9 3abd 69fe 093e
00000210: 4725 4e3c 036e 71bd b691 a23d 78f6 dc3c
00000220: e46c 1b3c 4c31 a03d d4a8 b3bd a5ba 25bb
00000230: dea3 4d3b 9b05 8e3c a6fb 0b3d 4409 86bc
00000240: c072 583c f0c9 e7bd 3419 29bc 85e8 bbbd
00000250: 93bb a5bc dc60 893d 2b17 a9bd c553 8fbd
00000260: 4ca8 63bd ac4e eabd bf3a 1d3d 5897 6cbd
00000270: ae87 b9bc 3e4c 10bd e6cd 423d 0be1 a13b
00000280: f5cc c73c caf2 9cbd 4240 283c b343 503c
00000290: a821 b8bd ddda 963d f7ca 8a3b 119d 4fbd
000002a0: 70e8 0bbd 462c 923c b465 0e3d 5a94 bebd
000002b0: 2ffe edbd 8c10 88bd 9846 20bd 4c93 08bd
000002c0: 061d 393d 888a 283d 9e31 f53d 32d6 01be
000002d0: 54bc cf3d 0202 44bc cd29 6fbb f269 54bd
000002e0: e71d 9d3c 85da 323d 6635 713d c175 82bd
000002f0: a6cc 82bd 9d02 5a3c 815d d4bd 6d6b 08bd
00000300: 4c43 acbc 92ab a9bd fe3e 11bc 326c 823d
00000310: 1a16 e8bd 9426 a73d 3c0c 0abd 9a09 c9bd
00000320: 7f4e c9bc e91d 973d dc48 92bc 1283 e23d
00000330: b298 913b 9c06 84ba 0d35 3bbd 4671 2cbd
00000340: 16b2 863d 8aec 643d 61aa 01be 0e00 5b3a
00000350: ca63 b0bd ba22 aa3d c1aa 123d 8b13 6a3d
00000360: 7326 8a3d 027c ccbd 434d 543d b7ae e33d
00000370: ac3a 39bd da98 27bd 9e3e 323d 20c3 c8bb
00000380: a559 123d 055f dfbc af9b 393d b8c0 c0bb
00000390: 0434 f6bb 400b 14bd 0391 dfbd d780 4f3d
000003a0: 3b94 87bd 530c ba3c 317e c5bc d090 abbc
000003b0: 9245 a73c 59ec a4bc c9d8 a7bd 9f7c 03bd
000003c0: 1d48 b9bd 152c 283d 01b5 023c 9231 9ebd
000003d0: 7c62 963d d30c 41bc 81bc c83d 549f c2bb
000003e0: a8c2 bfbd bf86 d4bd f0be 253d 9787 a63d
000003f0: 8998 edbd ccee 99bd 6227 b3bd ab61 7ebc
0.03979563 0.03475721 -0.06443426 -0.063855186 0.030871099 -0.09575846 0.00393413 -0.028647374
-0.09820867 0.038154 -0.07839617 0.004283321 -0.052355528 0.07622789 -0.06843829 -0.0083992295
0.014725809 -0.00019787013 -0.09323029 0.075354755 -0.08057528 0.014659239 -0.02398329 -0.110783905
0.025747452 0.11013735 0.061154656 -0.035387203 0.04044313 -0.0723342 0.008543646 0.049389224
-0.090697974 -0.039470438 0.025022907 -0.09915078 -0.10380997 -0.019896276 0.08367486 -0.12497403
-0.08488001 0.008252886 0.08597759 -0.038488302 -0.018013332 -0.042424522 -0.103673466 -0.13828795
0.10089112 -0.06714338 0.052921258 -0.12055383 0.057366967 -0.13742985 -0.06328951 -0.004771898
-0.08683829 -0.015448536 -0.025486486 0.097708546 -0.104853794 -0.0783345 -0.06522885 0.04166868
-0.095029846 -0.0011769371 0.056247756 -0.1459689 -0.08206312 -0.09222236 -0.047035243 -0.04141704
0.11227599 -0.015733529 0.050884094 0.0074706697 -0.016825765 -0.09358459 -0.05358427 0.0012545106
0.025866808 -0.012067302 0.036957223 -0.0685581 -0.039937787 -0.095271274 -0.051427957 -0.11499484
-0.094474055 0.037744444 0.04653013 -0.14956765 0.020448757 -0.013571943 -0.026514195 -0.022950573
-0.09269495 0.039349787 -0.050246205 -0.14827624 0.018716864 -0.008085002 -0.043499384 -0.01576031
0.106350504 -0.09736654 -0.065495685 -0.098737046 0.054439474 -0.008653047 -0.03796531 0.037024595
-0.054231647 -0.106838435 0.085568905 -0.009903117 -0.024890384 -0.020217514 -0.038773183 0.009489626
-0.092562705 0.065980256 0.012700329 -0.032925017 0.019840427 0.08455621 -0.0027734619 -0.11204263
-0.059711758 0.015166737 -0.04558714 0.13475956 0.01258213 -0.058942806 0.079379484 0.026972994
0.009486411 0.07821903 -0.08772436 -0.002528825 0.003137819 0.017336657 0.034175538 -0.01636184
0.013210952 -0.113178134 -0.01032095 -0.09175209 -0.020231044 0.067079276 -0.08256372 -0.069984
-0.055580422 -0.11440787 0.038386103 -0.05776152 -0.022647705 -0.03522896 0.04755964 0.0049401573
0.024389723 -0.07663496 0.0102692265 0.012711453 -0.089907944 0.073659636 0.004235621 -0.0506869
-0.034157217 0.017843377 0.03476496 -0.093056396 -0.11620747 -0.06643781 -0.039129823 -0.0333436
0.045193695 0.04114774 0.11972354 -0.12679365 0.101433426 -0.011963369 -0.003649342 -0.05185885
0.019179298 0.043665428 0.058888815 -0.06370116 -0.0638669 0.013306287 -0.10369397 -0.033305574
-0.021028183 -0.082846776 -0.008865116 0.06368293 -0.113323405 0.08161655 -0.033703074 -0.098162845
-0.024573563 0.07378752 -0.017857008 0.11060156 0.0044432515 -0.001007277 -0.04570489 -0.042100213
0.06576936 0.055889644 -0.1266265 0.0008354195 -0.08612783 0.08307405 0.035807375 0.057147544
0.06745615 -0.0998459 0.051831495 0.111173086 -0.04522197 -0.040917255 0.043516748 -0.0061267763
0.035730023 -0.027266989 0.045314487 -0.005882349 -0.007513525 -0.03614354 -0.10916331 0.05065998
-0.066200696 0.022710955 -0.024108024 -0.020943075 0.020418916 -0.02013223 -0.08195645 -0.03210127
-0.09046958 0.041057665 0.007977725 -0.077242985 0.07343003 -0.011782843 0.09801579 -0.0059394035
-0.093632996 -0.10377263 0.040465295 0.081313305 -0.116013594 -0.0751625 -0.08747746 -0.015526216

network_body._body_endoder.seq_layers.2.weight f4 [256, 256]
00000000: e3ac 3cbd 1e2b 0d3c 445e 88bd 0dd3 9dbb
00000010: 5f63 a5bd d66d 913d 9179 913d 763b 1f3c
00000020: 8185 433d 3b38 eabd 3893 333d 52d7 89bd
00000030: c1b6 b3bd 740f f3bd b7a1 2d3d aa38 893d
00000040: 8e98 d63d 7eaf ecbd 16da 49bc 83ec a73d
00000050: 83f5 a3bb 6cf8 893d d6c4 d63a 3e2b 183d
00000060: 0acc b43d fc27 ecbd 0712 4fbd e71e 323d
00000070: 81f6 5bbd 3a6f c0bd e5a5 8d3d 224e 983a
00000080: 1521 993c 247d 29bb 9f66 bcbc a4ef dcbb
00000090: 8798 1d3e 602f a5bd 00ed 01be 9b97 24bd
000000a0: e619 123d 6ce2 90ba a988 a8bc 596b 39bd
000000b0: 64aa 9539 cf0a a13d f615 eabc a13d e33d
000000c0: e9da 72bc 3821 d33d 3d45 ef3b 3483 b7bd
000000d0: f1ff b1bd 0a3d 1fbe 780d f0bd 6299 c83c
000000e0: 5953 2d3d 3451 01be ebee 5abe 9cb2 cf3d
000000f0: 8766 2e3d a1ab 6abd 8d75 25bd bc78 94bb
00000100: 85e9 103c a5dc 69bd de82 16be 3b3c 483c
00000110: 7bad 0abd eb22 093b 03c6 003c e516 babd
00000120: 5fa1 60be 6125 bf3b 9168 c73b 8651 b6bc
00000130: 97e3 93bd 5c73 15be dba1 c53d 54b7 b0bd
00000140: e5df 9abd 9eb1 043d e066 04bd b4bc 2c3d
00000150: 20f5 843c 8a5d 243e bd95 113e 863b 243d
00000160: 77ed 883d 242e b0bc 0779 01be 9fc6 3dbd
00000170: 2755 97bd b211 c43d bb95 87bd d929 8bbd
00000180: e335 3a3c 6db5 223c 5233 3bbb 3372 a8bc
00000190: cb37 f93c 3f08 5dbd c2b0 17be 4b8e 39bd
000001a0: 0866 9abd bb9c bd3b 97da a0bc c659 323e
000001b0: ccb7 4ebe 6d72 c7bd 59d1 0bbd 6c09 f23d
000001c0: 3e81 17be fc2c 19bd 2ef2 6fbd 8643 9fbd
000001d0: 5c1c 0cbd f38c 123c f291 dbbd e759 1fbd
000001e0: d558 bbbd 3f8a 983d 6b1b cdbd b428 bb3c
000001f0: 9f66 e1bc 87e4 fdbc 5377 47bd ea14 b03d
00000200: 6d07 dcbc 8303 fbbd 3dfe ccbc ed1b 3ebe
00000210: 9fa4 f7bb d110 a7bd a2ed a9bd 0c38 df3c
00000220: 93b0 973c add2 cfbd 76a5 e3bb 86f8 c7bd
00000230: 6f8d b9bd c3e7 8fbb 7355 543d 8579 1f3e
00000240: e8c4 e2bd 4fe1 1dbc 73c3 4abe 54a9 f8bc
00000250: 56fd 05bd d619 f5bd dc6b 9e3c 59fd 29be
00000260: 8ce4 b2bd 2625 e9bd f458 a8bd f5e7 5ebc
00000270: 838f a73c aa21 183c a6b5 e7bc 3c61 6e3c
00000280: 6bea 80bc 6981 5e3d 5839 d73b f2ec 893b
00000290: 87e4 4e3c 30a0 4dbc 5813 76be 76be fabc
000002a0: 31bd 5cbd eb3d 42bc 3436 4c3d 43d8 053d
000002b0: 1b78 3539 8123 fe3c 6490 433d 3bc8 3dbe
000002c0: 5363 d4bc 3d23 113c c73c 143d 25e1 073e
000002d0: 675e 1bbe 33ca 1f3d e818 42bc e319 14bd
000002e0: 40aa b6bd ae89 04bd 9040 f03c ffe8 26be
000002f0: 61b4 7fbd aac1 d0bd d957 6d3d aeff 7b3d
00000300: 6914 a63c 8bdf 243d 3afa 2f3d e1f1 0cbe
00000310: 5918 0f3d 1283 9dbc 7edb 403d 0ffd 183e
00000320: 3eff a43d 8c13 44be ebd6 343d eedf eabb
00000330: 8621 293d 6928 61bd d0f5 74b7 2855 ab3d
00000340: 77c1 7c3d 5669 273d c971 45bc fcff 08be
00000350: 38e3 553d 763f 6abd 23a6 95bd c10f 24bd
00000360: d1af 72bd 87c5 8a3c 929c babd 9080 72bd
00000370: 4412 c73c 3f60 d63c 65aa 8d3c 0ce2 24be
00000380: 7b75 d1bc 0884 c1bc 0392 c2bd 1147 4bbc
00000390: b67c dc3b a43f c43c d136 c6bb c607 6cbe
000003a0: 9466 983c a2a0 29bb a09d e13c 1432 24bc
000003b0: 66f8 06bb ffa8 80bd 5f1c 81bd 2247 263b
000003c0: e2f5 773d 073e 35bb 860f e3bd 6203 04bd
000003d0: 5bdc 353d 27fe a5bd 26b5 08bd d0fb cbbc
000003e0: ede5 f33c 33e2 66bc 9c85 3cbd 3ba7 953b
000003f0: 8acd cebb 4a2b ab3c b467 b53b ffc7 6b3d
-0.046063315 0.008616237 -0.06658605 -0.004816419 -0.08075594 0.07101028 0.07103265 0.009718766
0.04773474 -0.11436506 0.04384157 -0.06730522 -0.08775092 -0.11868182 0.04239055 0.06700261
0.10478316 -0.1155691 -0.012320062 0.08199408 -0.0050036325 0.06736836 0.0016385566 0.037150614
0.0882798 -0.11531064 -0.0505543 0.043486502 -0.05370188 -0.09396215 0.069164075 0.0011619965
0.018692533 -0.0025861943 -0.022998152 -0.0067424346 0.15390216 -0.08065677 -0.12688065 -0.040183645
0.03566923 -0.0011053807 -0.020572977 -0.04526839 0.00028546446 0.0786339 -0.028574925 0.11095739
-0.0148227 0.1030907 0.007301955 -0.08960572 -0.08691395 -0.15550628 -0.11721319 0.024487201
0.042315815 -0.12628633 -0.21380202 0.10141489 0.042578246 -0.057292584 -0.04039531 -0.004530994
0.008844738 -0.05709519 -0.1469836 0.012221391 -0.03385685 0.0020925354 0.00785971 -0.09086398
-0.21936558 0.0058333133 0.0060854633 -0.02225567 -0.07221144 -0.14594787 0.09650012 -0.08628717
-0.07562236 0.03239595 -0.03232467 0.04217215 0.016230166 0.16051307 0.14217277 0.04009583
0.06685918 -0.021506377 -0.12643825 -0.046331998 -0.073892884 0.095736876 -0.06620356 -0.06795091
0.011365387 0.009930951 -0.0028564525 -0.020562267 0.030422112 -0.053962942 -0.14813522 -0.045301717
-0.07538992 0.005786506 -0.019635482 0.17417058 -0.201873 -0.09738622 -0.034135196 0.11818203
-0.14795396 -0.037396416 -0.05858057 -0.07776551 -0.034206733 0.008944738 -0.10721196 -0.038904097
-0.09147803 0.07448243 -0.10014995 0.022846557 -0.027514754 -0.03099276 -0.04869778 0.08597739
-0.02685901 -0.12256529 -0.025023574 -0.1856534 -0.007557466 -0.08157504 -0.08297278 0.027248405
0.018516814 -0.10147605 -0.0069472147 -0.09764199 -0.090601794 -0.004391642 0.051839303 0.155737
-0.11072713 -0.009636237 -0.1980112 -0.03035418 -0.032712303 -0.119678184 0.01933854 -0.1660055
-0.08734998 -0.113840386 -0.082200915 -0.013605108 0.020454174 0.00928537 -0.028284859 0.01454955
-0.01573678 0.054322634 0.006568115 0.0042091543 0.012627727 -0.012550399 -0.24030817 -0.030608397
-0.053891364 -0.011855583 0.04985638 0.032676946 0.00017306248 0.031022789 0.047745124 -0.18533413
-0.025926268 0.008858499 0.036190774 0.1326948 -0.1517273 0.03901119 -0.011846758 -0.0361575
-0.08919191 -0.032357864 0.02932766 -0.16299818 -0.062427882 -0.101931885 0.057945106 0.061523132
0.020273404 0.04025225 0.042963244 -0.13764144 0.03493533 -0.019227538 0.047084324 0.14940284
0.08056496 -0.19148082 0.044150274 -0.007167808 0.041291736 -0.05497018 -1.4600766e-05 0.08365852
0.06170794 0.04087194 -0.012051054 -0.133789 0.052218646 -0.057189427 -0.07307079 -0.040054087
-0.059249703 0.016939892 -0.09111895 -0.059204638 0.024300702 0.02616894 0.017293165 -0.16101855
-0.025568714 -0.023622528 -0.09500506 -0.01240708 0.006728734 0.023956127 -0.006049015 -0.2304984
0.0186036 -0.0025883098 0.027540982 -0.010021705 -0.0020594834 -0.062822334 -0.063042395 0.0025371988
0.060537226 -0.002765538 -0.11086945 -0.03222979 0.0443996 -0.08105116 -0.03337588 -0.024900347
0.029772723 -0.014092016 -0.046025857 0.0045670546 -0.0063111233 0.020894665 0.005536044 0.057563778

network_body._body_endoder.seq_layers.2.bias f4 [256]
00000000: bd0c dbbd e3a8 61bd 60f5 683d 8734 b3bd
00000010: e47c eb3d ddc1 95bd b4a8 3fbd b8a1 c3bd
00000020: 68a9 d93c b92d bb3d f100 50bd 6dac a1bd
00000030: d1e2 c4bd 7295 7b3d b3fb c8bd bcb8 9fbd
00000040: 09d1 383c 754d 81bc 56fe 033d 3d1a aabd
00000050: 0fea 02be e6c1 c2bd 116e aebd f97a 983c
00000060: d081 d0bd 333f a6bd 3423 863c ff98 153d
00000070: 85c9 e9bd 7cb5 b8bd 855b 9dbd b40c f3bc
00000080: 0a63 bdbd a7e6 3bbd 4f05 78bd 6c24 abbd
00000090: 9835 8dbd 5142 0fbe 1964 f9bd 8648 c9bd
000000a0: e260 9bbd 1e9c ad39 a778 41bd 34c8 8ebd
000000b0: ea4b 883d 7a9a 7a3c 6ac5 9fbc 42f8 b0bd
000000c0: ae81 653d e8d0 28bd a5a9 a0bd ddab 31bd
000000d0: 5185 24bd 0b4f d7bc 1657 f03d c2b4 a73d
000000e0: c647 08bc 9bb5 1bbd de12 f9bd b4f2 1bbc
000000f0: 29a8 dabd d532 1a3d e34d fabd 2cef 83bd
00000100: 778f 673d b277 a03d 4495 cfbd cc11 ebbd
00000110: 86a4 c7bd 0836 0fbd 6484 70bd 0ab0 533d
00000120: e251 7d3c 1489 37bd 68c5 c5bd 4b8f c1bd
00000130: a281 79bd 5c5c 8abd 9055 89bd 0919 6bbd
00000140: f66a 70bd 949a b7bd 6d21 a3bd 7d97 30bd
00000150: 5344 e9bd 06a7 2cbc 35d7 d7bd 1d5f c5bd
00000160: 8274 4b3d 5720 15bd 3cf1 8abd ab0b c83c
00000170: 1fb2 b1bd 4030 30bd 7fbc 693d fdc6 9c3c
00000180: 1ee2 dbbd cde8 b8bc fd0b a43d 151e 803c
00000190: 0a5b 06bd 2d30 99bd b806 a3bd 4f62 3bbc
000001a0: 9329 00bd 5a53 57bd 420d e5bc 34a6 f4bd
000001b0: 22d7 09be e94b 2abc 0fef a1bd 5906 85bc
000001c0: cfab b3bd 009d ff3d 903d 73bc b439 08be
000001d0: c276 91bd 97d2 86bd 07cb aa3d 2b4b f23b
000001e0: 610a 6fbd 142d dc3c 6e2d ffbd f201 58bd
000001f0: 7e45 4d3d 74bc ebbd 959b bfbb 4af3 883c
00000200: 3774 82bd 61eb 5ebd d6d6 a8bd e3a0 93bc
00000210: 6c89 07be 40bb e03b d048 00be 3409 e7bc
00000220: cf30 6e3d 44bb a1bd 031a 05bd 6d2e 23bd
00000230: 4a06 aabd eac0 91bd 4c87 04bd 464b 62bc
00000240: 868d c7bd 4ef4 3dbd 8d1e 83bd d54e d0bd
00000250: 89cf 69bd cd42 73bd 0b12 41bd ba31 1a3d
00000260: 4ce8 673d 05a0 cd3d 6b3d d8bd 85a6 33bd
00000270: d6dc e439 fade 64bd 2a75 55bd 3e29 debd
00000280: 6801 97bd edf4 84bd f14f 9bbd 77d0 a7bd
00000290: b5a8 8dbc 8c43 093d de8a cfbd e6c7 88bd
000002a0: fb53 20bd cf39 89bd 48d8 8ebc d236 99bd
000002b0: c6c1 9a3d 4b84 a23c e3e5 ebbd 142d ffbd
000002c0: 9a00 babc b782 953d 67f2 1dbd bd21 dcbd
000002d0: b249 2f3d 032d 7ebd 453a 85bd 7741 09be
000002e0: 598f dfbd d634 67bd 1b09 cfbd d3ca 82bd
000002f0: c0bb 503c e8ff babd 505f febc 2e56 cebd
00000300: fbe7 c5bd e173 76bc 0c5f 80bd 1301 e5bd
00000310: 3468 75bd 6922 01bd bea1 9ebd 135b ae3d
00000320: 12c6 a7bc 8bcd eebd 4770 3abd 4af0 08be
00000330: 8b2e 66bd 8c7b 55bd 7134 e2bd ba5c 30bd
00000340: 70f6 83bd 4068 aa3d 8e80 52bd f817 c1bd
00000350: b375 e4bc 378d 833d 84ff 5f3d 113a 10bd
00000360: 4daa f0bd 45c4 92bd a9ad b4bd fb5f dbbd
00000370: a3b3 cfbd d1eb d53b 7ff9 813c 250b b0bd
00000380: f21d 92bd a8ce 8fbd 427d dcbb d067 8fbd
00000390: eb33 823c 9650 b83d 4764 1f3a 7662 1fbd
000003a0: 5838 9cbb cfb1 a6bd 9602 aabd 51d9 f1bc
000003b0: a76b d2bd db47 bebd 169e e0bd ccdb 47bd
000003c0: d58d 91bd 0a8d 393d 3747 89bd 728a ecbd
000003d0: 51b2 10be 792b c0bd 60ae 70bd 8871 c7bd
000003e0: 7e60 7fbd 79d2 d4bd 7f8a d4bc 0771 18bd
000003f0: dff9 0f3d e7eb 87bd f21f b2bd c0b2 28bd
-0.10695789 -0.055092704 0.056874633 -0.08750253 0.1149843 -0.07312367 -0.046791747 -0.0955233
0.026570037 0.0913958 -0.050782148 -0.07894216 -0.09613574 0.06142182 -0.09813633 -0.07798907
0.011280307 -0.015784005 0.032224976 -0.08305786 -0.12784599 -0.095096394 -0.08517087 0.018613325
-0.1018101 -0.08117523 0.016374208 0.03652286 -0.1141539 -0.090189904 -0.076834716 -0.029669143
-0.09247406 -0.045874264 -0.060551938 -0.08356556 -0.06894988 -0.13990141 -0.12177295 -0.09828286
-0.07586838 0.00033113448 -0.047234204 -0.069717795 0.066551045 0.015295619 -0.019503314 -0.086411014
0.056031875 -0.041214854 -0.07844857 -0.043376792 -0.040166203 -0.026282808 0.1173536 0.08188774
-0.008317893 -0.03801499 -0.12161802 -0.009518314 -0.10676605 0.037646133 -0.12221887 -0.06442103
0.056533303 0.0783533 -0.10135892 -0.11478004 -0.09748177 -0.034963638 -0.058720008 0.051681556
0.015461417 -0.044808462 -0.09656793 -0.09451159 -0.060914643 -0.067558974 -0.06705773 -0.057396922
-0.058695756 -0.0896503 -0.0796536 -0.04311322 -0.11389985 -0.010537868 -0.10539094 -0.09637282
0.049671657 -0.036407795 -0.06784293 0.024419626 -0.08676552 -0.043014765 0.05706453 0.019137854
-0.10736488 -0.022571946 0.08010099 0.015639344 -0.032801665 -0.07479892 -0.07960266 -0.011437013
-0.03128965 -0.052569725 -0.027960423 -0.11945763 -0.13460973 -0.010394075 -0.07906925 -0.016238378
-0.08773004 0.12481117 -0.014846221 -0.13303262 -0.071027294 -0.065831356 0.08339506 0.0073942146
-0.058359507 0.026876964 -0.12459837 -0.05273623 0.0501151 -0.11510554 -0.0058474042 0.016717572
-0.063698225 -0.054423694 -0.08244102 -0.018021053 -0.13236016 0.0068582594 -0.12527776 -0.02820263
0.058152016 -0.07897046 -0.03249551 -0.039839197 -0.08301981 -0.071168736 -0.03235559 -0.013811892
-0.0974379 -0.046375565 -0.064023115 -0.10171286 -0.057082687 -0.059389878 -0.047136348 0.03764508
0.05661802 0.10040287 -0.105585895 -0.043859977 0.00043652084 -0.05587671 -0.05211369 -0.1084771
-0.07373315 -0.064920284 -0.07583607 -0.081940584 -0.01729236 0.033511683 -0.10133909 -0.066787526
-0.03914259 -0.06700479 -0.017437115 -0.07481159 0.075564906 0.019838473 -0.11518457 -0.1245977
-0.022705365 0.073003225 -0.03856125 -0.107486226 0.04279489 -0.062054645 -0.06505255 -0.13403879
-0.10916013 -0.056446873 -0.101091586 -0.06386342 0.012740076 -0.091308415 -0.031051308 -0.10075031
-0.096633874 -0.015042276 -0.06268129 -0.111818455 -0.05991383 -0.031526957 -0.077456936 0.08513465
-0.02048019 -0.11660298 -0.045517232 -0.13372913 -0.05619673 -0.052119777 -0.11045159 -0.04305718
-0.064434886 0.08320665 -0.05139213 -0.094284 -0.027888155 0.06423419 0.054687038 -0.035211626
-0.11751232 -0.07166342 -0.088221855 -0.10711666 -0.10141685 0.0065283556 0.01586604 -0.08595876
-0.07134618 -0.070218384 -0.006728799 -0.070022225 0.015893897 0.089997455 0.0006080311 -0.03891226
-0.004767459 -0.08139383 -0.083012745 -0.02952257 -0.10274439 -0.09291049 -0.109676525 -0.0487936
-0.071071304 0.04530052 -0.06703036 -0.11549844 -0.14130522 -0.09383292 -0.058760047 -0.09738451
-0.06234788 -0.10391707 -0.025944946 -0.037217166 0.035150405 -0.06636792 -0.08697499 -0.041186094

action_model._continuous_distribution.log_sigma f4 [1, 2]
00000000: d09a a0be 29d2 4a3e
-0.31368113 0.19806732

action_model._continuous_distribution.mu.weight f4 [2, 256]
00000000: 620d a1bb 3487 2b3a efcf e6bb 56ec 843b
00000010: 5810 613c 40ca 933b 9361 1e3c 4931 493c
00000020: 3f45 593c 785c 07bc 0e14 433d 0417 c4ba
00000030: 6ea8 623c 9a6f 503c dfe3 63ba 9161 093c
00000040: 2c1c 9c3b bcd8 05bd b510 883d 757c c73b
00000050: 3a60 cb3a bffb 07bc 5885 15bc b989 18bd
00000060: 4846 803c 4585 b3bc 61cc 20bd 64ec 303c
00000070: cd2a debb 6baf 2c3b f804 003c 8914 c0bb
00000080: 93d2 383c 69fe 09bd ec29 193c c768 0f3d
00000090: 6aeb f73c 483f 3f3c 68b6 e93c 73b6 cb3c
000000a0: 0b3c 563c 6a46 ef3a 04ea 903c 1f6e 153d
000000b0: aa05 993c 4803 b9b9 a675 a23c 1990 9d3b
000000c0: 1952 4abc 90d1 a03c e635 db3b 99a8 0fbc
000000d0: 0a12 153d 0b18 8bbd 705e 00bb 0995 19bc
000000e0: f512 473a 69a7 70ba 89f3 683a d992 033c
000000f0: 9010 f63b 30a4 a33b ba1c b23b 88ef fa3b
00000100: 7b24 3dbb e64a d6b9 6f04 dabb 6088 cf3c
00000110: a5aa 60bc 604c 04bc dbea cebc 57d7 003b
00000120: 9a41 a9ba 0600 8ebc ffae f73b 0691 a4bc
00000130: 7c61 e23b 65e9 dc3c de83 183c 1605 8a3b
00000140: 8d57 6bba 4935 5a3c 5ef6 bb3c a1b6 dabc
00000150: a94a 833c 7421 5bbb 80cf c5bb 501d dcba
00000160: e931 823b e7f3 853c db6c 72bc 4a25 fc3b
00000170: 40fc 5c3c dd23 dcbc 99e4 593d 3cdf be3a
00000180: e457 7cbc 86ee 8fbc c5a3 553c 0204 c73c
00000190: 7092 4c3c 82af d63c 3185 313c 7511 6fbd
000001a0: 9691 5a3d 1e6f 413d ea97 20bb 3e6f 9b3a
000001b0: 7e06 51ba 6571 48bd 44f6 e7bb 0269 1abb
000001c0: 380d 1abc 2cb0 9c3a b7be c13a 8f7f b13b
000001d0: 3028 09bd 21b2 4f3b f33b 49bc 3b6f debc
000001e0: 1b7c 033d af83 413b 9804 e4b9 b190 2b3b
000001f0: f797 00bd a1de 35bc 3d29 8d3d 9a90 b73a
00000200: 146c 293d c53e ac3c 9f39 b9bc 3f01 363d
00000210: 0346 06bc c4ab 3dbc f144 5ebc 31f0 213d
00000220: 712b d4ba 7904 64bc 9114 aebd 608a 38bd
00000230: 77bc acbc c77d f3b9 56f1 a03d 561d efba
00000240: 8dde 0abc 92c5 933c 21ba 343b b10c 85bb
00000250: 60a7 7d3d 4c0a 5c3b 4ea2 f9bb 2ddf 3dbc
00000260: 965b aabd 5d2a 153c 80c7 a3bc ec9a 3b3d
00000270: 328d 60bb b5bf 6f3d 450e 4abb 7839 d03c
00000280: c357 193d e086 e2bc a65f cb39 994c fc3a
00000290: 7e84 4bbd fbca d1bd 9630 cd3b 3721 a7bc
000002a0: b752 343b 2183 ca3a fac3 86bc 8fc1 883b
000002b0: 9fa7 833c 1adf 23bd 9d8c 49bc c0ca 6e3a
000002c0: 785f 883b f116 a83c 28e1 1bbc 419c 5dbb
000002d0: 65ff 1c3d 19b4 183c 708a 0f3d 2dae 27bc
000002e0: 2e7d 4ebc a3f4 993c bb5f c6b9 b88d 223d
000002f0: c339 7f3c 780c c23b bc8e 7cbb 167c 763b
00000300: 451a d53c fd2a 2cbb 51b6 02bc a7f2 893c
00000310: 478c 263d 7d7d 61bd 8f7f bcbc b05a e1bc
00000320: c246 4d3c 2e3d 3a3c 69a0 8ebc e4c9 9ebb
00000330: f51f 32bd b99a 48bd 5f37 04bb cac2 593b
00000340: 5d9d a1bc 9080 873c 3946 943d aa73 a7bb
00000350: df06 373c 65e2 febc 09fe 8f3c a717 7d3d
00000360: 18f7 b43b 6c0b 183d 4ee8 df3c ad41 603c
00000370: c84a 50bc d97f 143b f131 2dbc 509a 42bc
00000380: 5f0f e83b 530f c3bc 0344 a13a 45f5 c8bb
00000390: c51a a8bb 171c b6bb 5f8b 1d3d 2b9d b63d
000003a0: 2cda 8f3c 6ab7 1dbd c549 a1bc bc17 c4bd
000003b0: 9ee6 143b 3a08 14bb 2517 213c 6c93 aab8
000003c0: fdca 273c 5335 dcbb af0f 91bc 81f8 1f3b
000003d0: 907d 513c 5671 f93b db02 513d 1e9f 8d3b
000003e0: 9292 0dbd 81ee 66bc c5a2 95bb d0fe 78bc
000003f0: 81d4 3a3c 2dcf 85bc 9818 01bd 80dd 113c
-0.0049149254 0.0006543279 -0.0070438306 0.0040564938 0.013736807 0.004510194 0.009666818 0.012279817
0.013261138 -0.008261792 0.047626548 -0.0014960472 0.013834102 0.01272192 -0.0008693318 0.008385078
0.0047641005 -0.032677397 0.066438116 0.0060878345 0.0015516349 -0.008299767 -0.00912603 -0.037240718
0.015658513 -0.021914134 -0.03925741 0.010798547 -0.0067800046 0.0026349674 0.007813685 -0.005861823
0.011280674 -0.03368989 0.009348374 0.035012033 0.030263621 0.011672802 0.02852936 0.024867272
0.013075839 0.0018255238 0.017689712 0.036481973 0.018679459 -0.00035288394 0.01983149 0.0048084375
-0.012348675 0.019631177 0.006689775 -0.008768224 0.036394157 -0.06791695 -0.001958754 -0.009373912
0.00075940724 -0.00091802195 0.0008886387 0.008030617 0.0075092986 0.004993938 0.0054355534 0.007657949
-0.0028860855 -0.00040873064 -0.0066533606 0.025333583 -0.01371256 -0.00807485 -0.025258472 0.0019659603
-0.0012913228 -0.017333996 0.007558703 -0.020088684 0.0069085937 0.02696676 0.009308783 0.004212032
-0.00089775847 0.013318368 0.022944625 -0.026698412 0.016026812 -0.0033436688 -0.006036699 -0.0016793404
0.003973235 0.016351653 -0.014796461 0.007694875 0.013487875 -0.02687257 0.053196523 0.0014562379
-0.015401814 -0.017569792 0.013039534 0.024293903 0.012486085 0.026206736 0.010834978 -0.058366258
0.053361498 0.04722511 -0.002450461 0.0011858714 -0.00079736847 -0.048936266 -0.0070789177 -0.0023561125
-0.009402566 0.0011954359 0.0014781569 0.0054168175 -0.03348559 0.0031691866 -0.012282359 -0.027152648
0.032100778 0.0029527952 -0.0004349097 0.0026178772 -0.031394925 -0.011100442 0.06892631 0.0014004887
0.041362837 0.021026025 -0.022610484 0.044434782 -0.008195403 -0.011576597 -0.013566242 0.039535705
-0.0016187263 -0.013917082 -0.085000165 -0.04505384 -0.02108596 -0.00046442283 0.07858531 -0.0018242996
-0.008475912 0.018038545 0.0027576762 -0.004060351 0.0619272 0.0033575473 -0.007618225 -0.011588854
-0.0831825 0.0091043385 -0.01999259 0.045802042 -0.0034263846 0.058532435 -0.003083126 0.025418028
0.03743721 -0.027652204 0.0003879044 0.0019248902 -0.0496869 -0.102437936 0.0062618954 -0.02040158
0.0027515122 0.0015450456 -0.01645087 0.0041734646 0.016071139 -0.040007688 -0.012301591 0.00091091916
0.0041617714 0.020518752 -0.009514131 -0.0033815058 0.0383295 0.009320282 0.035044134 -0.010234398
-0.012603087 0.01879341 -0.00037836828 0.039685935 0.015577736 0.0059218965 -0.0038537225 0.0037610582
0.026013503 -0.002627074 -0.007978038 0.016839338 0.040661123 -0.055051316 -0.023010043 -0.027509063
0.012529077 0.011367125 -0.017410474 -0.0048458446 -0.043487508 -0.04897568 -0.0020174605 0.0033227676
-0.019728357 0.016540796 0.072399564 -0.005110224 0.011171072 -0.031113813 0.017577188 0.061790135
0.00552262 0.037120268 0.027332451 0.013687533 -0.012713142 0.002265921 -0.010570989 -0.011877611
0.0070819105 -0.023811018 0.0012303594 -0.006132754 -0.0051301443 -0.005557548 0.038462993 0.08916696
0.017560087 -0.038504995 -0.019688496 -0.095748395 0.0022720466 -0.0022587911 0.009832178 -8.133691e-05
0.010241267 -0.006720224 -0.017707674 0.0024409594 0.012786284 0.0076123876 0.051028114 0.0043219468
-0.03456361 -0.01409495 -0.004566523 -0.015197471 0.011403204 -0.01633414 -0.031517595 0.008902907

action_model._continuous_distribution.mu.bias f4 [2]
00000000: 7b8f 4abc 6dfd 0d3e
-0.01236331 0.13866206

66 f4 [20]
00000000: 09d9 e83e eb83 ff3e 460b a13d e247 323e
00000010: 23ac d43e 2437 a23e 2b29 793d 500c 043e
00000020: 8769 f43e 74a9 db3e 2596 9b3d 945d 073e
00000030: f90f d83e b7a2 a33e 5bf9 833d 0917 113e
00000040: 8b77 f03e cf11 d33e de5c 793d b5a6 0a3e
0.45478085 0.49905333 0.07863478 0.17410234 0.4153758 0.31682694 0.060830276 0.12895322
0.4773676 0.4290272 0.07596997 0.13219291 0.42199686 0.3196008 0.06444045 0.14168943
0.46966204 0.41224524 0.06087958 0.13540156

69 f4 [12]
00000000: e145 e93e 937f ff3e cc6c 0c3d 051a 4d3d
00000010: 629e e93e ff7e ff3e 7d91 053d 6fda 483d
00000020: 262d ea3e c6a1 ff3e bda0 113d 7a8b 503d
0.45561126 0.4990202 0.034283444 0.050073642 0.4562865 0.49901578 0.03260945 0.04903644
0.4573757 0.4992811 0.035553683 0.050914265

72 f4 [3]
00000000: 10f5 7d3e 4300 5a3c 02d0 ba3e
0.24800515 0.013305726 0.36486822
