Assets/KartAgent.onnx (onnx, 305043 bytes, 13 tensors)

network_body.observation_encoder.processors.0.normalizer.running_mean f4 [20]
00000000: f319 4c3e 9034 bd3e 2e22 913d 1ef7 4d3e
00000010: 376d 0d3f a71e 6f3e 87c1 af3d 412c 7e3e
00000020: c474 073f b113 873e cadb 9d3d 22b0 723e
00000030: a9c3 1f3f 822f 773e 1b6f 6b3d c68b 6e3e
00000040: 49d5 1f3f c05a 823e 64da 253d 89d7 5f3e
0.19931774 0.36954165 0.070865974 0.20113799 0.55244774 0.23351537 0.08581834 0.24821569
0.52912545 0.2638221 0.07707937 0.23700002 0.6240793 0.24139217 0.057479005 0.23295507
0.6243482 0.25459862 0.040491477 0.21859564

network_body.observation_encoder.processors.1.normalizer.running_mean f4 [12]
00000000: 2ae0 553e f5b6 bd3e 7d65 4e3d 39e7 ae3d
00000010: c95d 583e 78e7 bc3e 1f04 523d d2f1 af3d
00000020: cac0 553e d8b3 bd3e 5e41 4d3d 4844 af3d
0.20886293 0.37053648 0.050389756 0.08540196 0.21129526 0.36895347 0.05127346 0.085910454
0.20874324 0.37051272 0.050111167 0.085579455

network_body.observation_encoder.processors.2.normalizer.running_mean f4 [3]
00000000: 8c58 5abd 0317 443d 6902 3bbd
-0.0533071 0.04787351 -0.045656595

network_body._body_endoder.seq_layers.0.weight f4 [256, 35]
00000000: 6c67 35be f99b aa3e 91a8 83bd 2c1a 3abe
00000010: 009d bd3d 4948 483e 3781 ef3d a185 693d
00000020: 4548 063e bf69 0ebe c18f 063e 9f4d 02bf
00000030: af50 ae3e 4a76 193e 1d1c f33d ecaa 953e
00000040: 2e7a 833e 489f 93bd 90ab 1ebe 756e 1d3e
00000050: a3fa 6b3d d726 4d3e 3b90 4ebe 263d 0bbe
00000060: 8fbc 8a3e dba2 08bd 4051 e4bd ae97 923d
00000070: 1225 0bbe 16e2 ff3d 8518 243e 8875 66be
00000080: b335 623d 5e09 5cbe 7e86 a3bd f393 ecbd
00000090: f258 833d 67f5 05bd d7b8 25be ac7b e23d
000000a0: a101 e23d 7b67 4f3e 1208 9d3e ae65 c93c
000000b0: d070 913d 3dd0 7cbd 070e 09bf df40 483d
000000c0: c81b d63e 8860 36be c9bf 793d 3920 a33d
000000d0: 7deb 643e 31ce 16be 3f95 afbe e1de bbbc
000000e0: 87ec d03d 8703 05be fc80 683e 19fc 9cbe
000000f0: c350 89be 67fe 60bb 45fe 653d 2937 8abd
00000100: 884d 2e3e 4682 0cbe aaa7 4dbe 334b 1e3e
00000110: ea89 4dbe dc03 d5bd 4ef1 67be 041a 01be
00000120: ea94 373d 96ed 3dbd 7da6 60be 1884 e53d
00000130: 582c 90bc ca68 943d 6b6c 4f3d 000c 0dbe
00000140: 0e8a d5ba caf0 c9be d16e 893e 6ece 4fbe
00000150: 0f4f 8dbc 35c8 6d3b 9d37 7cbd f6f0 5b3e
00000160: d71c f43d 527f 98be 64c5 94bd 1b67 493c
00000170: 6930 a2bd 9bf4 a83d bdcb 0e3d f94a 9c3d
00000180: 66b2 2a3e d003 ee3d 2b9e 59be 5f35 0dbe
00000190: b441 703c 2f6b 403d 9755 66be 6d41 143e
000001a0: ce4f 9e3e 421e 12bc a86f 953d a278 2e3c
000001b0: 5cc5 473d 4bd0 4fbe a7bd 053e bbd6 15be
000001c0: bc30 323e 5860 e0be 8b5e 40be 20cf 09bc
000001d0: 5074 e23d 821f 46bd d92d f3bd b22a 96bd
000001e0: a420 db3b d0de 38be 2b09 2d3e c970 013e
000001f0: d3cf 54be f629 a3bc 32b9 db3d c98e 413e
00000200: c04f dc3d e759 68be 2be0 583d 2aa2 a4be
00000210: 6098 bc3a 2478 a03e f19f fcbd 18a1 303c
00000220: 2090 afbe 9103 95bb 017b 8ebd aa86 cb3e
00000230: d524 303e 7c1a d3be 211d b9be 8211 78be
00000240: 8a3c 6f3e 53f1 853d 1a4b d9bd 4aa8 afbd
00000250: 9b0b 963e 57b9 d1bd b0ff b6bd f8fb d5be
00000260: 4ff6 febc f4f7 0bbc c2c9 b6be 4c4d 343e
00000270: abf9 8d3e 9433 863d 6241 dabd ca18 febd
00000280: 469a d3bd 8303 a8ba bad6 883d 2539 4e3d
00000290: 204b 26be caca 8d3d 6ea1 d8be a5d2 013e
000002a0: e123 9fbd 9ed9 83be 69bb 2f3d 3f94 94be
000002b0: 4756 163e 3329 33be 42ec a93e b308 9b3c
000002c0: 71c7 a6be f6a9 56be 7d01 e1bb 924a 2cbe
000002d0: 7140 233e ed38 82be 2bb8 0e3e dc65 cbbc
000002e0: 8ce1 02be d4f6 f33d d7e1 383d 44d9 873e
000002f0: 76f3 13be 0739 27be d595 d63d aff1 aabe
00000300: 7e4d 32be 4e7d 2abc 049f c3bc f75c d6bc
00000310: 56b2 803e 329f c1bd 51fe f83d ae0f b8be
00000320: 82bb 07bd 3fe1 203e 09b2 85bd 9f7f 733e
00000330: 0714 e8bd 5572 dbbc cbfb b0be 7eb0 02be
00000340: 7dd6 323e e5e2 733d 9591 673d 755a 41be
00000350: 301a 743e b853 e7bd 55b1 de3e 7b71 d93e
00000360: 26c9 373e f8c4 613e a5a3 d93e 5603 93be
00000370: b08c 983d 107a c4be 13e4 58bd 7acb 06be
00000380: d8fb d43d f62c 24bc ae60 73be 027c 993d
00000390: 724b f7bc 0086 d23d dbfc 95be a8f8 0ebe
000003a0: 708f 7c3d 2a00 bd3d 1a61 3abe 3b3e 10be
000003b0: 1054 33bc 9d96 bb3d 707b 28bd 3f6f efbe
000003c0: 0ec0 20bd 82cf 0fbe 6169 23be ac38 53bd
000003d0: 8bb0 64bd c635 29bd e0d9 6c3e b130 0b3e
000003e0: 2e2b 213d daae e63d 08da 1d3e 3b5c 75bd
000003f0: fc4c 253e f311 dd3d 941f c03d a9d2 81bd
-0.17715234 0.33322123 -0.06428636 -0.18174046 0.09258461 0.19558825 0.11694568 0.057012204
0.13113506 -0.13907526 0.13140775 -0.5089969 0.34045932 0.1498653 0.118705966 0.29231966
0.25679153 -0.07208115 -0.15495133 0.15374167 0.057612073 0.20034347 -0.20172207 -0.13597545
0.27096984 -0.033358436 -0.1114831 0.07157837 -0.1358836 0.12494294 0.16024978 -0.22505772
0.055226993 -0.21487948 -0.07984637 -0.115516566 0.06413449 -0.032704737 -0.16183792 0.11058745
0.11035467 0.20254318 0.3067022 0.024584617 0.071015954 -0.06172203 -0.5353703 0.04888999
0.4181807 -0.17810261 0.060973916 0.0796513 0.22355457 -0.14727093 -0.34293553 -0.022933425
0.10201364 -0.12989627 0.22705454 -0.30661085 -0.2681943 -0.0034331323 0.056150693 -0.06748802
0.17021763 -0.1372157 -0.2008349 0.15458374 -0.20072141 -0.10401127 -0.22650644 -0.1260758
0.04481975 -0.046369158 -0.2193851 0.112068355 -0.01759927 0.072465494 0.050640505 -0.13774109
-0.0016291754 -0.3944152 0.2684236 -0.2029359 -0.017249612 0.0036282663 -0.061576474 0.21478638
0.11919563 -0.29784638 -0.07264212 0.012292649 -0.0791939 0.0824978 0.03486227 0.076314874
0.16669616 0.11621821 -0.21251743 -0.1378989 0.014664102 0.04697722 -0.22493587 0.14478083
0.3092026 -0.008918347 0.07296687 0.010648878 0.0487722 -0.20294301 0.13060628 -0.14632694
0.17401403 -0.43823504 -0.18786065 -0.008411199 0.11057341 -0.048369892 -0.11873979 -0.07332362
0.0066872407 -0.18053746 0.16898029 0.1264068 -0.20782404 -0.01991747 0.107286826 0.18902124
0.107573986 -0.22690545 0.05294816 -0.3215497 0.0014388673 0.3134166 -0.12335194 0.010780595
-0.34289646 -0.0045475443 -0.06957055 0.39751178 0.1720155 -0.41231143 -0.36155036 -0.24225429
0.23362938 0.065401696 -0.106100276 -0.085770205 0.2930573 -0.10240429 -0.08935487 -0.417938
-0.031123308 -0.008543003 -0.35700804 0.17607611 0.27729544 0.065528065 -0.10657002 -0.12407072
-0.1033216 -0.0012818429 0.06681581 0.050347466 -0.16239595 0.069234446 -0.4231066 0.12678011
-0.07770515 -0.25751966 0.042903338 -0.29019353 0.1468135 -0.17496185 0.33188063 0.018925047
-0.32574037 -0.20963272 -0.0068666325 -0.16825321 0.15942551 -0.25434056 0.13937442 -0.024828844
-0.12781352 0.11912313 0.045137253 0.26532948 -0.14448342 -0.16330348 0.10477797 -0.33387515
-0.17412373 -0.0104058515 -0.023879535 -0.026167376 0.2513606 -0.09454192 0.12157882 -0.35949463
-0.033137806 0.15710925 -0.06528098 0.23779152 -0.11331945 -0.026787916 -0.34567103 -0.12762639
0.17464633 0.059542555 0.056535322 -0.18882163 0.23838115 -0.11295265 0.4349467 0.4246939
0.17947826 0.22047794 0.42507663 -0.28713483 0.07448709 -0.38374376 -0.052951884 -0.13163558
0.10399598 -0.010020485 -0.23767349 0.07494356 -0.030187342 0.10279465 -0.29294476 -0.13962042
0.06166023 0.09228547 -0.18201104 -0.14086239 -0.010945335 0.091595866 -0.041133344 -0.46764562
-0.039245658 -0.14044002 -0.15958168 -0.05156772 -0.055832427 -0.041311048 0.23129988 0.13592793
0.03934782 0.11263819 0.15415204 -0.05990241 0.16142648 0.10794439 0.09381023 -0.06339008

network_body._body_endoder.seq_layers.0.bias f4 [256]
00000000: d7fa 963d 034f 533d c39f b9bd 967c 0bbd
00000010: f775 823c 6afc ffbc fe68 8f3b a812 aa3d
00000020: 4c90 26bc 2844 9fbd 3740 90bc 6347 8f3d
00000030: fa2f 84bd fd36 c3bc a418 66bd 6ed8 b63c
00000040: 2712 873c 4098 c9bc dd60 46bd 5eec f537
00000050: 2a76 b03c da40 c73c da57 db3b 5184 05bd
00000060: bafe 143a 578a 0ebd 3fc5 d03c 281e 003c
00000070: fb9b 873d 8d5e 7cbd d5b3 49bc 1f86 90bc
00000080: 39bc 5e3b e561 9fbd 2c20 88ba c6a4 ac3c
00000090: 5710 56bd f111 a43a d784 32bd 0a31 363d
000000a0: aef1 acbd 0415 9d3d 487a 0e3d 92b6 8abc
000000b0: 760a 87bc 6878 71bd e7ad 6b3c 14e9 febd
000000c0: c73b 813c 9ab2 ee3c b3c5 e1bc 4c95 613d
000000d0: 7b57 863c 6d8a c7bc a54c 38bd 399d 6ebd
000000e0: 44fd 54bb eb94 62bc 7232 03be 1b3e a7bc
000000f0: 69f1 91bd 3ce1 a23d 9658 5eba edee d2bc
00000100: d1e1 c7ba b48c 5ebd 39a3 71bd 0cf5 dabd
00000110: ea6e 1e3d a60c 9cbc 8b1e db3b 34cb 913c
00000120: 7134 a8bd fbfa 133d 9e88 a1bd 1d3c 043d
00000130: 685c 0fba bd15 dbbd 04ab 6ebd 1690 bfbc
00000140: b6c5 89bd 2be3 24bd 8782 cd3b 55cb aebc
00000150: 316e 863b 89be 723d 13fe 0dbc e3aa 843c
00000160: e197 abbd 7f03 063d 92f8 79bd fd79 b9bd
00000170: 621a 86bc c66a 823b 8848 a3b9 1662 7bbc
00000180: 9b51 aa3c a539 dbbc 92c7 86bd 7882 953c
00000190: 05ae 04bd 2c92 bcbd 709f 9cbd e935 f1bc
000001a0: 2de4 d8bc 4db6 59bd 5331 71bd f57d ecbc
000001b0: c132 473c 6868 02bd 549a bcbc 8e03 d73d
000001c0: 6e23 cbbd a2da 1e3d 84e7 3f3c e8b8 7e3d
000001d0: e50e b8bd 6330 10bc f510 f33b 66b0 2dbb
000001e0: 171d 70bc 8653 a83c 005d 9f3c 7196 8a3d
000001f0: eab7 e43c 3052 693c b8e5 9f3c 271a a63d
00000200: c759 2bbd f725 e8bc 8d5c 07bd 715c 443c
00000210: 858e 80bd cbd6 9ebd a170 2c3d 6940 3cbd
00000220: 7add 37bc 157d 113c fa20 87bd 3e37 e93d
00000230: cb3e 983c cf90 01bc a1d2 003d c9e8 f83c
00000240: 37ab 833c ebd9 54bd c3d8 5ebd 0ced 4a3d
00000250: 402a b3bd 7ffe fe3c 9abe 783d f9a1 1d3d
00000260: 0aca e1bb 3eee 2f3b 2591 ef3c 863a abbd
00000270: 69b3 1f3c 59cc 0cbd b5d7 97bd b8ea 3a3d
00000280: d61f a73c f029 0bbd d03c 9fbd 7988 58bc
00000290: 6c5e 50bb bd56 5e3d 5963 0cbd 2d1a 0bbd
000002a0: 0fff bcbd e336 ecbb d9d0 5dbd f125 4bbd
000002b0: 8b5a c8bc ef9d c73c 8d80 8abd bd9c 78bd
000002c0: 45d3 6b3c ce7b 46bd 267f 05bd e7bf bdbc
000002d0: 3bc1 13bc 3820 df3c 4422 4e3d aa8b 9b3c
000002e0: b117 473d 7890 643b fd79 0ebe 3579 d53b
000002f0: 48f0 05bc d8a9 f73c 9da2 203d 683b 70bc
00000300: 940e a03c 768e 88bc a14a 18bd d04a 2dbc
00000310: 62c9 953c ce2e c9bd ecec 8bbd e5f4 523c
00000320: 3421 983c f9a3 66bd f840 ca3c 6314 76bd
00000330: 56fc b8bd 1882 0cbd c55e 8cbd 3377 a93c
00000340: c916 0abd 66c9 a43d 6fd1 d53b 18ef d1bb
00000350: 63de bd3d 5bec e23c 4c1d 8cbd efcf 793d
00000360: 3c76 013d db9e 1ebd d686 033a 5ebf e339
00000370: b5ed 18bd ca0e 6cbc 555e 4fbc d3b5 6f3c
00000380: cd7c 13bd 0d6a 6c3d 042e 3dbd 297e 96bd
00000390: 3adf 963d debd 57bc 7e0f abbc 7c0a 683d
000003a0: b80c 7d3d 3a2b c3bd ebb3 0f3d 67d5 80bd
000003b0: 968a afbc d226 1dba 7dcb ddbc f0c3 7bbd
000003c0: b447 163d a209 21bd 6df2 623c 4ee5 3dbd
000003d0: 4ba8 0e3d c0e8 9abc ee3b ebbc 6904 97bd
000003e0: 63ba 67bc 6c09 34bd 1eb5 57bc 72a9 21bc
000003f0: 1bfe 01bc ced4 ac3c 6798 a53d c351 34bd
0.07372063 0.051589023 -0.09063675 -0.03405436 0.01592539 -0.03124829 0.0043765297 0.0830434
-0.010166239 -0.07776672 -0.017608745 0.06996038 -0.06454463 -0.023829931 -0.056175843 0.022319999
0.016488148 -0.024608731 -0.04843222 2.9316343e-05 0.02154072 0.024322916 0.0066938223 -0.03259689
0.0005683709 -0.0347999 0.02548468 0.00781969 0.06621548 -0.06161361 -0.012310942 -0.017642079
0.0033986701 -0.07782344 -0.0010385565 0.021074664 -0.052261677 0.0012517554 -0.043583717 0.04448036
-0.08444534 0.07670024 0.034784585 -0.01693276 -0.01648448 -0.05895272 0.014384723 -0.124468
0.015775574 0.029137898 -0.02756009 0.05507402 0.016399136 -0.024357999 -0.04499497 -0.058255408
-0.003249959 -0.01382945 -0.12812212 -0.020415356 -0.071261235 0.07953116 -0.0008481828 -0.025748694
-0.0015249794 -0.054333404 -0.058993552 -0.1069127 0.038679995 -0.019049 0.0066869906 0.01779709
-0.082131274 0.036128026 -0.07887386 0.03228389 -0.00054687867 -0.106975056 -0.058268562 -0.023384135
-0.067271635 -0.040255707 0.0062716636 -0.02133719 0.0041024913 0.05926374 -0.008666533 0.016194766
-0.08378578 0.032718178 -0.06102807 -0.090564705 -0.016370002 0.0039800135 -0.00031143823 -0.01534321
0.020790866 -0.026760885 -0.06581034 0.018250689 -0.03239252 -0.092075676 -0.07647598 -0.029444652
-0.02647599 -0.05315237 -0.05888493 -0.028868655 0.012158097 -0.03183785 -0.023022808 0.10498725
-0.09918867 0.038782723 0.0117129125 0.06218806 -0.08987216 -0.008800599 0.007417793 -0.0026502847
-0.014655373 0.02054764 0.019453526 0.06766976 0.027919728 0.014240786 0.019518718 0.08110457
-0.041833665 -0.028338416 -0.033047248 0.01198493 -0.062771834 -0.07755812 0.0420996 -0.045959864
-0.011222238 0.00887992 -0.06598087 0.1138749 0.01858463 -0.00790806 0.03145087 0.030384438
0.016072853 -0.051965635 -0.05440594 0.04954247 -0.08748293 0.031127213 0.060728647 0.038484547
-0.00689054 0.0026844884 0.029244015 -0.08360772 0.009747365 -0.03437457 -0.0741419 0.045634
0.020400923 -0.03397554 -0.07775271 -0.013216131 -0.003179456 0.05428194 -0.034274433 -0.03396051
-0.09228336 -0.0072086914 -0.05415425 -0.04959673 -0.024457237 0.0243673 -0.067628 -0.060696352
0.014393632 -0.048457913 -0.03259196 -0.023162795 -0.009018238 0.027237043 0.050325647 0.018987495
0.04860658 0.003487615 -0.13913722 0.006514693 -0.008174963 0.030232355 0.03921758 -0.014662601
0.019538201 -0.016669493 -0.037180547 -0.010576919 0.018284503 -0.098233804 -0.06832299 0.01287577
0.01857052 -0.05630872 0.024689183 -0.060078036 -0.09032504 -0.034303755 -0.06854013 0.020686721
-0.033713136 0.08046226 0.0065252106 -0.006406676 0.092709325 0.027700594 -0.068415254 0.060989317
0.031606898 -0.038725715 0.00050173455 0.00043439394 -0.03733607 -0.014407823 -0.012656768 0.014630753
-0.03600769 0.057718325 -0.046186462 -0.07348282 0.07366796 -0.013167826 -0.02088141 0.056650624
0.061779708 -0.09529729 0.035083693 -0.06290703 -0.021428388 -0.00059948594 -0.02707457 -0.061466157
0.036689475 -0.039315827 0.013851744 -0.04636126 0.034828465 -0.018909812 -0.0287151 -0.07373888
-0.014143559 -0.043954298 -0.01316574 -0.009867059 -0.007934119 0.021097567 0.08085709 -0.044023287

network_body._body_endoder.seq_layers.2.weight f4 [256, 256]
00000000: a739 c7bb 3ab6 ca3d 0cd8 823c 157e 54bd
00000010: d87e e73c ee1e bf3d eb93 363d d278 ef3c
00000020: 06c3 26be f3e2 903d 564f a9bd 6f39 23bd
00000030: ebd0 9bbc 5507 40bd 940f 9bbc 6a35 b13d
00000040: 633a 8ebd 61e1 d7bd fe1a 123e fd06 153b
00000050: be0b cd3d 28b5 8ebd 1fdf 3dbd 47e0 a6bc
00000060: 55bd 9bbd cb1d 3c3d ace4 513e 680e 5dbc
00000070: dfae b0bd 1f2c 00be 781b 17be ad9d ed3c
00000080: 81a1 113c 4baa d0bb ca71 64be b028 8d3d
00000090: 684e 3bbe f827 003d bf12 4b3d 4e97 dbbd
000000a0: fb9a 74bd c342 ddbb 268a 123e 415b f7bc
000000b0: ddd9 be3c 6baf babb 9520 d4bd c878 4ebd
000000c0: 6471 eb3d 732f f5bc 0cbf 00bc 2e96 9bbd
000000d0: 51ae 4fbd 4271 7cbd 8201 3bbe 56b5 c7bc
000000e0: 770f dfbd c218 d1bc a5d1 b43d 8ea5 fe3d
000000f0: cef2 debc 30d8 c0bc a4ba d9bc 52d3 81bd
00000100: ddf9 0b3c ad75 6f3d 30a5 02be f2cd a2bd
00000110: a17f fb3c 8ce1 bf3d 946d 31bc 3d96 083e
00000120: a193 c4bd 9fbc c3bd 8fe3 1e3e 2827 11be
00000130: 665e c53c 663d 5a3d 1fb1 acbd a66a 8fbd
00000140: 1b7a e13d 95e0 a1bd 692f 2abd 37cb 90bd
00000150: 5bda f4bd 7483 0bbe 21e9 04be 67f4 afbc
00000160: 64a3 51bd 3d0b c3bb ebd0 1fbd 206d b538
00000170: 04ac d7bd 6eb9 bdbd d166 593e 1501 db3c
00000180: 7e16 70bd 5510 06bd a2e4 0cbd d2f9 0abe
00000190: fd1a afbd 1858 d5bb 292b abbd b3fc 84bd
000001a0: df98 85bd 174b 6c3c 1f70 75bd ba53 43bd
000001b0: 3ae9 d8bd c6a5 453c 73cc 5bbe b14e 133c
000001c0: 2900 42be 3626 d4bd 8df0 223e d4ac 463d
000001d0: e12d a7bc 5b6d ef3d 28b3 5dbc 4b9f 11be
000001e0: 8751 80bd 5150 b8bb 4389 433c 3c54 cbbc
000001f0: 3e1f d6bd a63c 3dbd 675e a73d 7833 273d
00000200: fd55 633d 4200 d2bd 4721 4dbe 0364 42bd
00000210: 68b8 623d 68a3 cbbd 15f8 e6bd 44d6 fbbd
00000220: dcf1 80bc 9077 e93c bd3a 553d df63 7f3d
00000230: ded7 883d 81cc b5bd a648 f7bd ae2c 42be
00000240: e9bf a3bb 2256 9cbc 6fc7 2abc dec0 073d
00000250: 206d fbbd c377 95bd e064 e2ba c7d2 b7bd
00000260: daed 1bbe ce63 7e3d 7dee b63d 5776 bdbd
00000270: 2758 2cbd e6b3 5dbd 92bc 88bd 6f67 00be
00000280: d71d 2bbe ac7d babd 1e11 f4bb 3cf0 15be
00000290: 3518 5dbd f0e1 cb3d d29f 5ebe 1c0f 00bd
000002a0: 58bb 6bbd d343 0abe c272 a5bd c6b9 6f3d
000002b0: 4abb 27be dbc4 5b3d 7392 6f3d afe4 86bc
000002c0: cf08 72bd 37da 013e 3f2c 23bd bf75 6d3d
000002d0: 829e 2c3d ea2b e43b 2d41 3a3e 0fe9 a53d
000002e0: b5aa 623c a848 18be cb5d c13c 581e e6bd
000002f0: e8ab a8bd a57f f7bd 8300 0bbd 4a0b 53bd
00000300: 3758 fcbd 6242 593d da9a eabd 6c64 533e
00000310: c638 093e fca7 80bc e4b4 c2bc 2d94 48be
00000320: 1123 a5bd 6082 6a3c 4c84 983c b4c0 6ebd
00000330: 2d57 20be 109f 813d 4121 d3bb 683c 883d
00000340: 314b a2bd c60e 0bbe c8d1 cd3d bb12 d93d
00000350: b1c6 20be b2c6 fbbd 4528 21bd 5b75 773d
00000360: a2d2 a4bd 5470 ddbc 31f9 72be c51c 0cbe
00000370: 2b01 53bc abe7 623a 5e09 0cbd 0521 e2bd
00000380: 23c8 013e 37f0 33bd cc52 bebc 4777 8abd
00000390: ce99 913c 88d2 1bbe 62ec 95bc c8dd 5bbc
000003a0: 8650 133d 2b5b 28be a11f 543b 8702 a43d
000003b0: 976b 53bc d22d 08be 205c 1ebd 0b57 1bbe
000003c0: 93f2 b8bd bfdb d4bd 23cb ccbc 67d1 0d3d
000003d0: 8a89 58bc 7094 6c3d 5b9a 793e 1307 43bd
000003e0: 0294 88bc 014c e5bb 43f2 eb3c 5a84 9a3c
000003f0: 3bcc e4bc 5a53 3bbd aded 5ebc a3d9 84bd
-0.0060798707 0.09898038 0.01597216 -0.051878054 0.028258726 0.09332071 0.04457466 0.029232416
-0.16285333 0.07074537 -0.08267085 -0.039849695 -0.019020518 -0.046881992 -0.018928327 0.08652766
-0.0694473 -0.105410345 0.14268109 0.002273976 0.10012005 -0.069681466 -0.046355363 -0.020370616
-0.076044716 0.04592685 0.20497388 -0.013492204 -0.08627104 -0.12516831 -0.14756572 0.02900585
0.008888603 -0.0063679568 -0.22309032 0.06892526 -0.18291628 0.031288117 0.049578425 -0.107222185
-0.059718113 -0.0067523434 0.14310512 -0.03019488 0.023297245 -0.005697181 -0.10357777 -0.050408155
0.11496237 -0.029929852 -0.007858049 -0.07597004 -0.05070335 -0.06163145 -0.18262294 -0.02437846
-0.108916216 -0.0255245 0.08829049 0.12433921 -0.027215388 -0.023540586 -0.026578255 -0.06339134
0.008543459 0.058461834 -0.12758327 -0.07949437 0.030700507 0.093691915 -0.010829348 0.13338561
-0.095984705 -0.09557461 0.15516494 -0.14175093 0.024092864 0.05328121 -0.08432221 -0.070027635
0.11009618 -0.07904164 -0.04154912 -0.0707001 -0.119557105 -0.13624364 -0.12979557 -0.021478845
-0.051181212 -0.0059522674 -0.0390176 8.651079e-05 -0.10530856 -0.092638835 0.21230628 0.026733914
-0.0586152 -0.03273042 -0.03439773 -0.13571861 -0.085500695 -0.0065107457 -0.083578415 -0.06493511
-0.065232985 0.0144222 -0.05992138 -0.04768727 -0.105913594 0.012063449 -0.2146471 0.008990929
-0.18945374 -0.10358851 0.15912075 0.048504665 -0.020407619 0.1169078 -0.013531484 -0.14220922
-0.0626555 -0.005624809 0.011934581 -0.02482044 -0.10455178 -0.046200417 0.08172303 0.04082057
0.055501927 -0.102539554 -0.20032226 -0.04745866 0.055351645 -0.09943277 -0.11277787 -0.12296727
-0.015740328 0.028499395 0.05205797 0.062351104 0.066817984 -0.08876897 -0.120744035 -0.18962356
-0.0049972427 -0.01908404 -0.010423525 0.033142917 -0.12276673 -0.07298233 -0.0017272495 -0.089757495
-0.15227452 0.0621069 0.08932207 -0.09251087 -0.042076256 -0.054126643 -0.06676592 -0.12539457
-0.16710602 -0.09106001 -0.0074483296 -0.14642423 -0.053978164 0.099552035 -0.21740654 -0.03126441
-0.05755171 -0.13502435 -0.08078529 0.058526777 -0.16380039 0.053654533 0.058489274 -0.016466467
-0.05909043 0.12680899 -0.03983712 0.05797362 0.042143352 0.006963243 0.18188925 0.08101093
0.013834645 -0.14871466 0.023604294 -0.11236256 -0.082359135 -0.12084893 -0.033936035 -0.051524438
-0.12321513 0.053041823 -0.11455317 0.20643777 0.13400564 -0.015705101 -0.023767896 -0.19587775
-0.08063329 0.01431331 0.018617772 -0.058289245 -0.15658255 0.06329167 -0.006443173 0.066521466
-0.07924498 -0.13579854 0.10049778 0.10599276 -0.15700795 -0.122937575 -0.039345045 0.060414653
-0.080479875 -0.027031101 -0.23727871 -0.1368285 -0.012878696 0.0008655737 -0.03418862 -0.11041454
0.12674002 -0.04393026 -0.02323284 -0.067610316 0.017773535 -0.1521703 -0.018301193 -0.013419576
0.035965465 -0.16441028 0.0032367485 0.080082946 -0.012904069 -0.13298729 -0.038662076 -0.15169923
-0.09030642 -0.10393476 -0.024999207 0.03462353 -0.013216386 0.05775875 0.24375288 -0.04761417
-0.016672138 -0.0069975858 0.028802043 0.018861938 -0.027929416 -0.045733787 -0.013606471 -0.064868234

network_body._body_endoder.seq_layers.2.bias f4 [256]
00000000: a439 1dbc d200 f2bd 3e03 6c3b da45 9fbd
00000010: 085e f6bc 664d 8bbd 7fef 93bd c3eb 8a3b
00000020: 010b a3bd 16dc 95bd 7f5a a0bd 2255 3dbd
00000030: 14a1 12bd 301b 96bd 1f3c 9fbd 46eb 93bd
00000040: 13f9 9b3d dfae 9fbd 6537 b3bc 57cf abbd
00000050: 0029 3a3d 1e67 93bd e25f 34bd be17 333d
00000060: 470b 9ebd 1e82 c0bd 94f7 2fbd c6fd 12bd
00000070: be22 9ebd 3e13 fabc 0bd9 cdbd 4519 7fbd
00000080: 2ff6 c3bc 684f 1cbd aa23 8ebd 25a2 443d
00000090: ae75 93bd 661e 3dbc 9f3f febd e9d0 a6bd
000000a0: dc1c 19bd 874f b03d 857f 8ebd bcf3 9cbd
000000b0: 6390 8fbd c903 aebc 64c7 aabd 75f1 bcbd
000000c0: 6e1f 90bd dead 583c c83b d7bd f0f8 93bd
000000d0: ec3d 86bd 27e6 33bc 985e c3bd b10d bdbd
000000e0: 038b 37bd 6ae7 63bb ba76 a03d 2eed c4bd
000000f0: 8511 0fbd 6120 453d df6e d3bc 472e 063d
00000100: 6e3f 7fbd f0fa 853c 2bc6 88bd abbd c3bd
00000110: 7451 b5bd e151 c1bd 17f0 a5bc f232 05bc
00000120: 968a 26bd 1b02 cfbd a9e1 96bd c856 5a3c
00000130: 96b0 9cbc b94a 2fbd 5d5c bdbd 6656 b0bd
00000140: ce43 b0bd 5ebb 0dbd a26e 0dbd 55ac 843c
00000150: f0a2 fbbb afc6 46bd 18d6 f13c eb75 9bbb
00000160: 61f0 843c 36d3 b3bc 2f45 4cbd ad18 f6bd
00000170: 0e71 7dbd a24c bbbd 3159 61bd a34e adbd
00000180: c404 383c 94ac 41bd 9ead b5bc 59ec 9a3a
00000190: e42c e0bd 16ea 59bd 7469 383d 6477 96bd
000001a0: f7a6 39bd dafd 7bbd aae5 f23c dd1d a6bd
000001b0: dcbb fa3b 2537 e4bd 04d8 92bb ca7f bcbd
000001c0: 5cd1 2bbd c129 81bd ef66 3a3d 4447 e93c
000001d0: f53d 0cbd c58d 56bd 01e9 b9bd 19c4 ecbc
000001e0: 7b6c 3abd 2e97 3dbc a9d1 91bc ffe6 dabd
000001f0: 8810 4e39 103e ef3b 5da7 32bd b351 87bd
00000200: 9b12 f8bd 75db a5bd 493e ddbd 8c7f 69bd
00000210: aa28 e4bd b6ad 35bd 79d4 39bd 9e24 39bd
00000220: b060 9abd cf85 44bd 457a 5a3d bc54 b2bd
00000230: 55ae 95bd f2c2 8ebd b47d 6eba 58ac a4bc
00000240: 973f 0c3c 8e08 f5bd 91f3 8dbd 87f2 a7bd
00000250: 39be 1bbd 5db9 e5bd bf0c c7bc bede cabc
00000260: 2063 e9bd 6d0f fabc 54b2 6dbd 3e75 3cbd
00000270: 575b e1bc 43f7 93bd 641c e0bd 0242 8fbd
00000280: 47cf 69bd 02d6 bbbd c320 c4bd d057 dbbc
00000290: 369e 51bc fc8b 86bb c145 92bd 32bf a3bd
000002a0: 51b1 bfbd dd6e 04bd bb7b 99bd 94c9 bcbd
000002b0: e513 f8bd e58c adbd cce3 bebd 5b88 b3bd
000002c0: fed9 0cbd 887e 193d 5721 f3bd 84e4 2c3d
000002d0: a936 20bc 8df6 03bd ae0a 433d 25dc 7ebd
000002e0: f4b9 e7bd 7ba7 6fbd a799 a5bc 06fe 71bd
000002f0: ddbe b0bd 6683 79bd 9faa 4bbc cd8a 44bd
00000300: e4ae 343c 864f 32bd e200 97bd 76b6 c9bd
00000310: e8b3 a3bd 3a3d e2bd 5357 58bd fa12 bfbd
00000320: fb90 c0bd 32a5 b1bc 860b 83bd 86aa 9bbd
00000330: efe7 99bd f7f7 9abd 8ae4 cbbd 020d ab3c
00000340: 1120 f0bd c4cd e5bd 122c c7bd 7025 2f3d
00000350: 80e1 ce3b 49d4 93bb ec44 cbbd 4bf0 bc3d
00000360: d538 86bd 1580 f8bd 4c83 ffbd e9a9 88bd
00000370: 4645 a8bc 8b39 103d d702 92bd afca 80bd
00000380: 1fa2 333d 352a 80bd e458 eebb 683a dbbd
00000390: cae0 57bc b7a2 02be 8744 8dbd 8ed1 90bd
000003a0: a752 81bb 24d7 27bd 4c9f 80bd 7a0e 223d
000003b0: f5f8 1e3d 6fc3 8c3a 7ae8 8fbd 4ae6 bfbd
000003c0: 5e1a 99bd 1f0d d9bc 8fe2 8dbd 8573 803d
000003d0: 86cc 98bd e295 24bd 8f81 8dbd 3cc0 c3bd
000003e0: 6b5e 1f3c 38ce 41bd 81fd 68bc 5daf c63c
000003f0: 13c5 91bd 8e30 9dbd f262 00bc 4cf0 9dbd
-0.009596262 -0.11816563 0.0036012675 -0.07776995 -0.030074134 -0.06801872 -0.07223415 0.004239531
-0.07961083 -0.07317369 -0.07829761 -0.046223767 -0.035798147 -0.07329404 -0.07775139 -0.07222609
0.076158665 -0.07797026 -0.021877 -0.08389156 0.045449257 -0.071974024 -0.044036753 0.043723814
-0.07716995 -0.09399818 -0.04296072 -0.03588655 -0.0772147 -0.030526754 -0.10051163 -0.06227996
-0.0239211 -0.038161665 -0.06940396 0.048006196 -0.0720018 -0.011542892 -0.124144785 -0.08145315
-0.037381038 0.08608919 -0.06957916 -0.07663676 -0.070099615 -0.02124204 -0.08338812 -0.09225742
-0.07037245 0.013225047 -0.10509449 -0.072252154 -0.065547794 -0.010980166 -0.09539527 -0.09231127
-0.044810306 -0.0034775385 0.07835145 -0.09615551 -0.034928817 0.048126582 -0.025809703 0.032758977
-0.06231635 0.016355008 -0.066784225 -0.09557661 -0.088534266 -0.09439445 -0.020256085 -0.008129822
-0.04065951 -0.101078235 -0.0736726 0.013326354 -0.019127171 -0.04279587 -0.092461325 -0.08610229
-0.08606683 -0.034602515 -0.034529336 0.016195456 -0.007679336 -0.048529323 0.029521033 -0.0047442815
0.016227903 -0.0219513 -0.049870666 -0.12016425 -0.061875395 -0.09145476 -0.0550167 -0.084622644
0.011231605 -0.047283724 -0.022177514 0.0011819705 -0.10946062 -0.053201757 0.045022443 -0.07346991
-0.045325246 -0.06152139 0.029650528 -0.08111165 0.007651789 -0.111433305 -0.0044813175 -0.09204061
-0.041947708 -0.06306792 0.04550832 0.028476365 -0.034238774 -0.052381296 -0.09077645 -0.0289021
-0.04551361 -0.011571689 -0.017800169 -0.1068859 0.0001965185 0.0073010996 -0.04361664 -0.0660738
-0.12112924 -0.08098499 -0.108028956 -0.057006404 -0.111405686 -0.044355117 -0.045368645 -0.045200936
-0.07537973 -0.047979172 0.05333926 -0.08707568 -0.07308642 -0.069707766 -0.0009097711 -0.020101711
0.008560083 -0.11964522 -0.06931222 -0.08200555 -0.038023207 -0.11216996 -0.02429807 -0.024764415
-0.1139586 -0.030524934 -0.058031395 -0.04601025 -0.027509375 -0.07224896 -0.10942915 -0.06995012
-0.05708244 -0.09171678 -0.09576561 -0.02677527 -0.012794068 -0.004106043 -0.07142211 -0.07995452
-0.09359992 -0.03233229 -0.07494303 -0.092181355 -0.121131696 -0.08474139 -0.093207926 -0.08766242
-0.03438758 0.037474185 -0.118715934 0.042210117 -0.009778657 -0.03221755 0.047617607 -0.062221665
-0.113147646 -0.05850933 -0.020214869 -0.059080146 -0.08630154 -0.060916327 -0.012430816 -0.047983933
0.011028025 -0.04353287 -0.07373215 -0.09849255 -0.07993299 -0.11046834 -0.052817654 -0.09329791
-0.09402653 -0.021685217 -0.06398682 -0.07600884 -0.07514941 -0.07566827 -0.099557 0.020880226
-0.11724866 -0.11220887 -0.097252026 0.042760313 0.006313503 -0.0045113903 -0.09925255 0.0922552
-0.065538086 -0.12133805 -0.12476215 -0.06673033 -0.020540845 0.035211127 -0.07129448 -0.06288659
0.043855783 -0.0625805 -0.00727378 -0.107044995 -0.0131761525 -0.12757383 -0.06897836 -0.070712194
-0.0039466205 -0.04097666 -0.062803835 0.039564587 0.038811643 0.0010739396 -0.07026763 -0.09370096
-0.07475732 -0.026495514 -0.06927978 0.062720336 -0.07460885 -0.040182002 -0.06909477 -0.0955815
0.009727101 -0.047315806 -0.014220596 0.024253542 -0.07117667 -0.07675277 -0.00783609 -0.077118486

action_model._continuous_distribution.log_sigma f4 [1, 2]
00000000: 955f cabe 2418 3e3e
-0.39526048 0.18563896

action_model._continuous_distribution.mu.weight f4 [2, 256]
00000000: b41b da3d 4893 8abc 8839 96bb 4c84 84bb
00000010: 2c97 83bd 3f4b c93c 3a7b 29bd a011 893d
00000020: 0caa ecbc 3675 273d 11b5 9c3d 5b97 1e3b
00000030: aab5 68bc 9452 f4ba d4cf 83bc fdf7 663c
00000040: 4e27 f4bb 74ae d0b7 ce58 0c3c 8851 9f3c
00000050: 4592 5f3b 813d bbbc 0d9b 083d 3ed3 97bd
00000060: bce1 593d 5272 78bc a190 393d 5d28 813c
00000070: fa13 13bd ad98 b73d b74f 6abc ebfc 10bb
00000080: 5b7b b1bb 9a32 e13a 6ec6 39bd 0214 a8bd
00000090: 3f0d 26bc 3c52 a0b8 1277 45bc 6f18 ebbc
000000a0: 8cb9 053d 7a1e 433c 127c 66bb b45f 54bd
000000b0: 4c29 8c3b 3dc1 5abd c856 0dbc e7ca 26bd
000000c0: ab78 c13a 359e 61bd 1f6f bbbc 5c2f e7bc
000000d0: bf76 0ab9 dd46 333a dfa7 38bd bc3d 37bc
000000e0: a49e 15bd 7d96 81b9 8b96 c4bb 8b14 f5bc
000000f0: bf30 dc3b 79ee 8a3c 7b3e aeba 849d a4bb
00000100: db4b 223d f4c4 9339 5693 a93d 546b 9abc
00000110: 8347 943c dcef d13b 2aa9 653d cc1a 53b8
00000120: ff59 e9bc 5702 033b bd3b 3b3d 90f9 15bd
00000130: f323 10bb 73d6 0d3d 152e 4fbc f023 073c
00000140: 34e3 a338 c0c9 a23d b975 95ba c460 7dbd
00000150: 0894 5ebc fb86 473d 16bf 513d 05f8 463b
00000160: b628 a3bd 98ee 15bd 2cf9 ee39 dae1 4abc
00000170: b11f 713d 41f0 e5bc 1fd6 e83c 2c5a 12bd
00000180: 51ba ac3c f703 8b3c 5f03 8d3b 960d 8b3d
00000190: 382f a0ba 54fe 5ebd a73d 80bd 5b23 27bc
000001a0: 608f 15bc 085b 0abb 6e90 4b3d 9bcc 43bb
000001b0: a35c 793d 07cb 46bd bb84 053b 477d c3bc
000001c0: 6784 8a3d 6382 36bc 8a36 c13a be79 21bc
000001d0: 5306 0f3b 37f4 583b 9279 41bc a067 ecba
000001e0: b2d3 b4bc ea65 03bd e5e0 8ebb e88f 88bc
000001f0: e83c ab3c 5e97 5fbb b79f 4b3b 4ed8 333c
00000200: 16f5 a83c 0a25 0eba 69b4 c53b ce16 973d
00000210: dc6a 303c 8206 97bb af31 adbd 2ad1 6739
00000220: d3ca 033c 6582 4c3d 6593 6cbc 209a 133d
00000230: 99fa b53b c54e 1dbb c888 23ba 2ad4 37bd
00000240: e4cc 3dbb 2919 8ebb 9f54 4ebc 3101 98bc
00000250: e15d 5dbd 7d1c 86bc 941f 7bbc 695a 12bb
00000260: dc96 33b9 1bf6 31bd 13ef f3bc 26ce 853a
00000270: 3e75 1fbb 6fd4 f13c 3664 47bc ba59 b73c
00000280: 3a67 a53c 4a27 003d 923f c23b 3b5d 6a3c
00000290: c97c 4dbc 1d58 92bc 4f79 ddbc f131 df3b
000002a0: 2bcc 773c cc8c 0c3c f656 1e3c 527a d23b
000002b0: 6eb6 bb3c eeb1 9e3c 3e09 c03c 0808 b73c
000002c0: b3ec eaba c4ef 8c3d 0a83 343c 4edc 3a3d
000002d0: 295a 053c 81af 0f3d 9540 2e3c 17d1 6fbd
000002e0: 19fe f53c 898c 763c bae0 5abb dabc f13c
000002f0: d2bf ac3a 469a a1bd 2686 3e3c eb2e 97bb
00000300: ae1e 463d a96f 803c 2d42 0b3c 7d03 48bb
00000310: 0d1c 2d3c 7634 bdbb 7fdb 16bd a65d 95bc
00000320: 9e6a 773c c85f 623d ca0f 7a3d 076f e0bb
00000330: 3439 85bc 4d8f 6cbc 248f 96bb 2ab2 453c
00000340: 12ba 2abb 8c0d b13b 2e39 d03c 626b 453b
00000350: 62c3 13bd 9d9d 093b 3c81 62bc b6a2 18bd
00000360: 3557 673c 9932 853b 10e1 3dbc a041 513c
00000370: 5c20 60bd c03a 47bd fe61 8638 dc4f 2f3c
00000380: 7837 e6bb df5e 1bba 38e3 3abc 1216 57bc
00000390: 9005 5cbc 3907 c1bb 53d4 413a 218e 013d
000003a0: 245a 663c 0fb7 81bd 8c53 90bb 1d64 7fbd
000003b0: 0299 82bc c688 d6bb 2cde 273d 84a3 783a
000003c0: 4b08 c53b c34d 46ba 9da7 a83a 7dd5 67bd
000003d0: 382d e4bc 46e0 4bbb d21c ddba dc04 14bc
000003e0: 591d d9bc ab18 98bb 6cbc e13b 8924 423c
000003f0: 6653 013a 1797 ba3a 8f6f 963a c724 89bc
0.10649815 -0.016915932 -0.004584495 -0.0040440913 -0.06425318 0.024572013 -0.041377284 0.06692815
-0.028889678 0.040883265 0.07651723 0.0024199102 -0.014203468 -0.0018640333 -0.016090311 0.014097211
-0.0074509745 -2.4876768e-05 0.008566095 0.019448057 0.0034114283 -0.022856476 0.033350993 -0.07413338
0.053193793 -0.015163975 0.045303944 0.015766317 -0.035907723 0.089646675 -0.014301232 -0.0022123407
-0.0054163164 0.0017181218 -0.045355253 -0.08206941 -0.010134994 -7.644712e-05 -0.012052314 -0.028698174
0.032647654 0.011909122 -0.0035169167 -0.051849082 0.004277384 -0.053406943 -0.008626647 -0.040720847
0.0014760693 -0.05508252 -0.022880135 -0.028220825 -0.00013204942 0.00068388676 -0.04508197 -0.011184152
-0.036528245 -0.0002471692 -0.0059993914 -0.029917022 0.006719678 0.016959416 -0.0013293767 -0.00502366
0.039623123 0.00028184766 0.08280055 -0.018850006 0.018100506 0.0064067673 0.05606953 -5.0331277e-05
-0.028485296 0.0019990408 0.045711268 -0.036614954 -0.0021994084 0.034628343 -0.012645264 0.008248314
7.8147656e-05 0.07948637 -0.0011402882 -0.06185986 -0.013585098 0.04871271 0.051207624 0.0030360234
-0.07966749 -0.036604494 0.00045580545 -0.012382949 0.058868114 -0.028068664 0.028422413 -0.035730526
0.021084936 0.016969664 0.0043033804 0.06789701 -0.0012221104 -0.054441765 -0.06261759 -0.0102013005
-0.009128422 -0.0021111388 0.049698286 -0.0029876593 0.06087936 -0.048533466 0.0020373303 -0.023863448
0.06763535 -0.011139485 0.0014740985 -0.009855686 0.0021823838 0.0033104548 -0.01180877 -0.0018036254
-0.0220736 -0.032079615 -0.0043603056 -0.016670182 0.020903066 -0.0034117321 0.003107054 0.010976864
0.020624679 -0.00054223894 0.0060334695 0.073773965 0.010767665 -0.00460893 -0.08456742 0.00022107796
0.0080439625 0.04992904 -0.0144394385 0.036035657 0.005553555 -0.002400325 -0.00062383385 -0.04488007
-0.0028961236 -0.0043364954 -0.012593417 -0.018555256 -0.054044608 -0.016371006 -0.015327353 -0.002233172
-0.0001712697 -0.043447595 -0.029777085 0.0010208532 -0.0024331356 0.029520242 -0.012169888 0.022381652
0.020190824 0.03128747 0.0059279883 0.014304454 -0.012541958 -0.017864281 -0.027035384 0.0068113734
0.015124361 0.0085784905 0.009664288 0.006423273 0.022914138 0.019371953 0.023441907 0.022342697
-0.0017923325 0.06881669 0.01101757 0.045620255 0.008139172 0.035079483 0.010635515 -0.058549013
0.03002839 0.015048155 -0.0033398108 0.029508997 0.0013179726 -0.078907534 0.011628663 -0.0046137474
0.048369102 0.015678244 0.008499664 -0.0030519657 0.01056577 -0.005774076 -0.03683042 -0.018233132
0.015101103 0.055267125 0.061050214 -0.006849173 -0.016262628 -0.014438462 -0.0045947004 0.012066403
-0.0026050848 0.0054032262 0.02541789 0.003012382 -0.036075003 0.0020998486 -0.013824757 -0.03726455
0.014119913 0.0040648696 -0.011589304 0.012771994 -0.05471836 -0.048640013 6.4078704e-05 0.010700192
-0.0070256554 -0.00059269177 -0.011406712 -0.013127821 -0.013429061 -0.0058907536 0.00073940045 0.031629685
0.014059577 -0.06333744 -0.004404491 -0.062351335 -0.0159421 -0.0065470664 0.040983364 0.0009484815
0.0060129515 -0.0007564688 0.0012867335 -0.056600083 -0.027853593 -0.003110902 -0.0016869551 -0.009034362
-0.026503252 -0.0046416125 0.0068889167 0.011849531 0.0004933387 0.0014235702 0.0011477339 -0.01674117

action_model._continuous_distribution.mu.bias f4 [2]
00000000: 6fe3 cc3a 12d5 173e
0.0015631745 0.14827374

66 f4 [20]
00000000: c989 cc3e 1122 f73e 6b61 833e 9b7c 8a3e
00000010: 9696 fe3e 699c d83e ed68 8f3e 1f0b 8c3e
00000020: d690 ff3e 18a4 e13e 6a8f 883e 106c 833e
00000030: 1bfe f73e 7e19 db3e 0658 6e3e b322 753e
00000040: 13f5 f73e c10b df3e 8fd7 493e c7ce 5b3e
0.39948872 0.48268178 0.25660262 0.2704819 0.49724263 0.4230683 0.2800974 0.27352235
0.4991519 0.44070506 0.26671916 0.25668383 0.48436055 0.42792886 0.23275766 0.23939018
0.48429164 0.43563655 0.19711135 0.21465598

69 f4 [12]
00000000: 7a20 d03e 2945 f73e 0200 603e b4a4 633e
00000010: 5803 d13e 280d f73e bad9 613e dee5 643e
00000020: 2d15 d03e 4f44 f73e ab69 5f3e 4f9f 633e
0.40649778 0.48294953 0.21875003 0.22230798 0.40822864 0.48252225 0.22055712 0.22353312
0.40641156 0.48294303 0.21817653 0.2222874

72 f4 [3]
00000000: 05d8 143f 5c53 073d cebb 8c3f
0.5814212 0.033038482 1.0994813
