results/firstry3/KartAgent.onnx (onnx, 305043 bytes, 13 tensors)

network_body.observation_encoder.processors.0.normalizer.running_mean f4 [20]
0	0x3dc3eb0a	0.095663145
1	0x3f434fc7	0.76293606
2	0x3de3c166	0.11120872
3	0x3e88386d	0.2660555
4	0x3f0a3e8e	0.540017
5	0x3eb0d542	0.34537703
6	0x3dc1b380	0.09458065
7	0x3e81062f	0.2520003
8	0x3f02966e	0.5101079
9	0x3ead5851	0.33856443
10	0x3e0d3616	0.13790163
11	0x3e87ccea	0.26523525
12	0x3f27b748	0.6551404
13	0x3e99fadd	0.30074206
14	0x3cf82c4e	0.030294564
15	0x3e533605	0.20626076
16	0x3f06f06c	0.52710605
17	0x3ec92299	0.39284208
18	0x3d860d2f	0.06545483
19	0x3e5b39a3	0.21408705

network_body.observation_encoder.processors.1.normalizer.running_mean f4 [12]
0	0x3e1fd35f	0.15607975
1	0x3f43583b	0.76306504
2	0x3d4f83aa	0.050662674
3	0x3df4ee9b	0.11959573
4	0x3e174875	0.14773734
5	0x3f444aab	0.76676434
6	0x3d5e6a43	0.054300558
7	0x3df485d3	0.119395874
8	0x3e3065ba	0.17226306
9	0x3f407cc9	0.7519041
10	0x3d402614	0.046911314
11	0x3df60b53	0.12013879

network_body.observation_encoder.processors.2.normalizer.running_mean f4 [3]
0	0xbc1d53dc	-0.009602513
1	0x3d4aed1b	0.049542528
2	0x3949c6fc	0.00019242981

network_body._body_endoder.seq_layers.0.weight f4 [256, 35]
0	0x3e74ddf7	0.23912798
1	0x3e1fd63e	0.1560907
2	0xbb66c07e	-0.003520995
3	0x3d83f8fa	0.06443973
4	0x3e5c954d	0.21541329
5	0xbeb23b2a	-0.34810764
6	0xbe9471c4	-0.28993046
7	0xbee47faf	-0.44628665
8	0x3d88ccb2	0.066796675
9	0x3ccd31dd	0.02504819
10	0xbe61c86b	-0.2204911
11	0x3c99ce36	0.018775087
12	0x3e19be17	0.1501392
13	0x3e8a1aec	0.26973665
14	0x3e2758bd	0.16342445
15	0xbd9b516e	-0.07583891
16	0xbe4f9fb7	-0.2027577
17	0x3d1d592c	0.03841512
18	0x3de9629c	0.11395761
19	0x3c9f020f	0.019410161
20	0xbd48a14c	-0.04898195
21	0xbdd7ccc2	-0.10537101
22	0xbe137f41	-0.14404012
23	0x3d9b771b	0.07591077
24	0x3e7811b4	0.24225503
25	0xbd20200e	-0.03909307
26	0xbdfbedca	-0.12301214
27	0x3d3548f6	0.044259034
28	0xbcbdd3ad	-0.023172224
29	0xbe40dcb5	-0.18834193
30	0xbdbebeb8	-0.093137205
31	0xbca60907	-0.020267976
32	0x3bf5ae77	0.0074976045
33	0xbd371ac8	-0.044703275
34	0xbba1e517	-0.0049406397
35	0xbe3aa5df	-0.18227337
36	0x3e90e303	0.28298196
37	0xbeb4536d	-0.352199
38	0x3d4d60e6	0.050141238
39	0x3d61c400	0.05511856
40	0x3e8ddf8b	0.27709612
41	0x3ea0da09	0.31416348
42	0x3ece7091	0.40320256
43	0xbe0ce5ee	-0.13759586
44	0x3e886ccf	0.26645514
45	0xbe650840	-0.22366428
46	0xbdd67d6e	-0.104731426
47	0xbebc322c	-0.36757028
48	0x3e10ad9a	0.14128724
49	0x3e0dfa25	0.13864954
50	0x3dae9a54	0.085255295
51	0xbdfed6a4	-0.12443283
52	0x3e9fd449	0.31216648
53	0x3ab3e997	0.0013726231
54	0xbdae22e8	-0.085027516
55	0xbcc42476	-0.023943167
56	0x3d9e4289	0.07727534
57	0x3e3a6001	0.18200685
58	0x3da6da74	0.081471354
59	0xbe5daa7b	-0.21647064
60	0x3d52b98f	0.051446494
61	0xbbd9be5e	-0.006645008
62	0xbea4cbad	-0.32186642
63	0xbe42305e	-0.18963763
64	0xbe60254a	-0.21889225
65	0xbcb8a209	-0.022538202
66	0xbe961dca	-0.29319602
67	0x3bd611d9	0.0065328893
68	0x3e453e1b	0.19261973
69	0x3dc97f88	0.09838778
70	0x3d5b4581	0.05353308
71	0x3e35c78a	0.177519
72	0x3e21787f	0.15768622
73	0xbe88c4ca	-0.26712638
74	0x3cdb7f7e	0.026794191
75	0x3e72c6cc	0.23708647
76	0xbea81070	-0.3282504
77	0x3e129fac	0.14318722
78	0xbd90fa74	-0.0707902
79	0x3e5e9da0	0.21739817
80	0xbdf101c1	-0.11767913
81	0xbe5eee6c	-0.21770638
82	0xbd817788	-0.06321627
83	0xbe551f28	-0.20812666
84	0xbe64b008	-0.22332776
85	0xbd2f1748	-0.042746812
86	0xbeba8cfe	-0.36435694
87	0x3d9d480b	0.07679757
88	0x3e542145	0.20715816
89	0x3e7a69be	0.244544
90	0x3d605522	0.05476869
91	0xbcff8dd0	-0.031195551
92	0x3e687401	0.22700502
93	0xbe21b214	-0.15790588
94	0x3da78b96	0.08180921
95	0xbdd930c9	-0.10605008
96	0xbe3c17f2	-0.1836851
97	0xbd6a4609	-0.057195697
98	0x39e9e970	0.00044615148
99	0xbe2bac97	-0.16765057
100	0x3db6ce1f	0.08926033
101	0x3ebe5214	0.37171996
102	0xbe5776e1	-0.21041442
103	0x3e7c7ac7	0.24656211
104	0x3e3f0a6a	0.18656316
105	0x3e70cb2f	0.23515008
106	0xbc96e14f	-0.018417982
107	0xbe8054ef	-0.250648
108	0x3d7b7aed	0.061396528
109	0xbe3f6a79	-0.1869296
110	0xbe183110	-0.14862466
111	0x3b1a0689	0.002350243
112	0xbcfefacd	-0.03112545
113	0xbddcb020	-0.10775781
114	0x3e52a5f6	0.20571122
115	0xbe08379d	-0.13302465
116	0xbe31cc44	-0.17363077
117	0xba8a8afe	-0.0010569987
118	0x3e265409	0.16242994
119	0x3ead8bb0	0.33895636
120	0xbe302cf4	-0.17204648
121	0x3e44964b	0.19197957
122	0x3e469345	0.19392116
123	0x3dbc8b70	0.09206283
124	0x3d407973	0.046990823
125	0xbefee07d	-0.49780646
126	0xbe52b0d9	-0.20575275
127	0xbd13fbf3	-0.03612895
128	0xbd3d9f7b	-0.04629467
129	0x3e1aeb8a	0.15128914
130	0x3e3fd86f	0.18734907
131	0xbcfbbf02	-0.030730728
132	0xbd3146bc	-0.04328035
133	0x3dc25769	0.094893284
134	0x3dc7d622	0.097576395
135	0x3e805bbe	0.25069994
136	0x3dfebca1	0.12438322
137	0xbd652de6	-0.055951975
138	0xbe9569ac	-0.29182184
139	0x3ea53625	0.32267871
140	0x3e26086c	0.1621415
141	0xbe44f2c5	-0.19233234
142	0x3eb82f1f	0.3597345
143	0xbe37e26c	-0.17957467
144	0xbe0533fb	-0.1300811
145	0x3e5ce57c	0.21571916
146	0xbd19ae0a	-0.037519492
147	0xbdd55ea9	-0.104184456
148	0xbe626911	-0.22110392
149	0x3e0486bf	0.12942027
150	0xbed4f36f	-0.41591975
151	0xbdbd6ee7	-0.092496686
152	0xbd1e49a4	-0.038644448
153	0x3da3332e	0.07968746
154	0xbd01fb60	-0.03173387
155	0xbe029344	-0.1275149
156	0x3c440d7f	0.011966108
157	0xbcfe91ba	-0.031075347
158	0xbc12bec0	-0.008956611
159	0x3e79227e	0.24329564
160	0xbe3b6456	-0.18299994
161	0xbe4cf8a0	-0.20016718
162	0xbe255b10	-0.16148019
163	0xbe84da38	-0.25947738
164	0x3e1bae01	0.15203096
165	0x3c57410c	0.013138067
166	0x3e1152c6	0.14191732
167	0xbdad9093	-0.08474841
168	0x3bcf5bd2	0.0063280845
169	0x3d9c0c97	0.07619589
170	0x3cdb8baf	0.026800005
171	0xbd9ad63e	-0.07560395
172	0x3d8b440c	0.06800088
173	0xbd85b4e2	-0.06528641
174	0x3ccdd218	0.025124595
175	0x3e89e6b2	0.2693382
176	0x3d27f571	0.041005556
177	0x3e10f95d	0.14157625
178	0x3c946425	0.018114159
179	0xbd9c300d	-0.076263525
180	0xbe9f132b	-0.31069311
181	0xbcd81f5b	-0.026382139
182	0xbd1c6217	-0.038179483
183	0xbd36008c	-0.044434115
184	0x3e82dafe	0.25557703
185	0xbbb9179b	-0.005648566
186	0x3d942601	0.07233811
187	0xbe14b653	-0.14522676
188	0xbe989aac	-0.29805505
189	0xbd81847d	-0.06324098
190	0xbe406775	-0.18789466
191	0x3e75445d	0.2395186
192	0x3e056fb7	0.13030897
193	0x3e613872	0.21994188
194	0x3e1b23ff	0.1515045
195	0x3d3a4144	0.0454724
196	0x3e38d9dd	0.18051858
197	0x3da0783b	0.07835432
198	0x3de3f46f	0.111306064
199	0x3d9a9d13	0.07549491
200	0xbdaa41d3	-0.08313336
201	0x3e16650e	0.14686987
202	0xbe998fcc	-0.2999252
203	0x3caa1135	0.020760158
204	0x3dab3852	0.083603516
205	0xbd25e792	-0.040504046
206	0xbe090f89	-0.13384832
207	0xbe419655	-0.18905003
208	0x3dc0f00d	0.09420786
209	0x3e84143c	0.25796688
210	0x3db7231c	0.089422435
211	0x3d9d94c6	0.07694392
212	0x3cd7e0e9	0.026352363
213	0x3e3c3b5f	0.18382023
214	0xbe58f9b4	-0.21189004
215	0x3d8d244e	0.0689169
216	0xbd8c65d6	-0.06855361
217	0x3e4c9732	0.19979551
218	0xbe31db06	-0.17368707
219	0xbd91b9ee	-0.071155414
220	0x3d83bcaf	0.06432473
221	0x3e2fd549	0.17171206
222	0x3de6715e	0.11252092
223	0xbcfb08fb	-0.03064393
224	0xbe9c21be	-0.30494493
225	0x3e5fd536	0.21858677
226	0x3de26a0f	0.11055385
227	0xbd92e69f	-0.07172894
228	0xbe28f7ce	-0.1650078
229	0x3def2f8a	0.11678989
230	0x3eae177d	0.34002295
231	0x3eb0c34d	0.34524003
232	0xbe66a2e7	-0.2252308
233	0xbdae8e1d	-0.085232
234	0x3d9c311b	0.076265536
235	0xbcd3ab15	-0.025838414
236	0x3eaf316f	0.34217402
237	0xbed34841	-0.41266063
238	0x3ce62298	0.028092667
239	0xbe8b826b	-0.2724794
240	0xbd256d20	-0.040387273
241	0x3e982865	0.2971832
242	0xbd20a92f	-0.039223846
243	0x3e3fbbb2	0.18723944
244	0xbdb4f7a2	-0.08836295
245	0x3d353661	0.044241313
246	0x3ca58c63	0.020208543
247	0x3c3daf28	0.011577405
248	0xbd87e33e	-0.0663514
249	0xbde02c76	-0.1094598
250	0xbe01a9cd	-0.1266243
251	0x3d9b4a92	0.075825825
252	0x3d418e8e	0.04725509
253	0xbea0e4c5	-0.31424537
254	0x3df955d0	0.121745706
255	0x3e4f78ec	0.20260972

network_body._body_endoder.seq_layers.0.bias f4 [256]
0	0x3ace66f1	0.0015747232
1	0xbbc5effc	-0.0060405713
2	0xbcb4cd21	-0.02207047
3	0xb99b2fc0	-0.0002959948
4	0xbd534d35	-0.051587302
5	0xbc2128c1	-0.009836377
6	0xbbbb9dcb	-0.0057255975
7	0xbcd46c75	-0.025930623
8	0x3b7b88d9	0.0038381128
9	0xbcbfc13a	-0.023407567
10	0xbd24f1c2	-0.04026962
11	0xbce37afb	-0.027768603
12	0xbca9a2ae	-0.020707455
13	0x3c1e9f99	0.009681606
14	0xbc602464	-0.013680551
15	0xbc474cd3	-0.012164312
16	0xbb6eadbe	-0.0036419476
17	0xbd158fd1	-0.036514107
18	0xbcebfbba	-0.028806556
19	0xbc99bc03	-0.018766409
20	0xbcfe3ab7	-0.031033857
21	0xbdb88f34	-0.09011689
22	0xbc7ea9fb	-0.015543456
23	0xbd58977b	-0.052878838
24	0xba9d85f6	-0.0012018073
25	0xbc9d57c5	-0.01920689
26	0xbd054456	-0.032535873
27	0xbd07c996	-0.03315123
28	0xbd1d5166	-0.038407706
29	0xbc5fcdf3	-0.013659942
30	0xbbc69a9b	-0.006060911
31	0xbd928f20	-0.07156205
32	0xbcebff91	-0.028808387
33	0xbc3e17d3	-0.01160236
34	0xbcda6b4f	-0.026662497
35	0xbd9498e9	-0.07255728
36	0xbca50d92	-0.020148072
37	0xbc83a124	-0.016068049
38	0xbc20d837	-0.009817175
39	0xbd169a9b	-0.036768537
40	0xbd6412ca	-0.05568198
41	0xbd2a2ae0	-0.041544795
42	0xbd079ab9	-0.03310654
43	0xbd233fd9	-0.03985581
44	0xbc75339b	-0.014965917
45	0xbd69adbb	-0.057050448
46	0xbd49da1a	-0.049280263
47	0xbd7e5efc	-0.062102303
48	0xbc8c684e	-0.01713958
49	0x3bb68751	0.00557033
50	0xbd5472bf	-0.051867243
51	0xbcdd10df	-0.026985584
52	0xbd67db83	-0.056605827
53	0xbc7d2d00	-0.015452623
54	0xbd4d5fb6	-0.050140105
55	0xbd300a28	-0.042978436
56	0xbd65b012	-0.056076117
57	0xbd35d8b9	-0.044396136
58	0xbd721030	-0.05909747
59	0xbce17227	-0.027520252
60	0xbcdaf352	-0.026727352
61	0xbcf2fb7b	-0.02966093
62	0xbcae5635	-0.021281341
63	0xbd2d67ce	-0.042335324
64	0xbd153763	-0.036429774
65	0xbda090d2	-0.07840122
66	0xbb22b27a	-0.0024825619
67	0xbc05708a	-0.008144507
68	0xbd250703	-0.04028989
69	0xbcb51768	-0.022105888
70	0xbd3e9011	-0.04652411
71	0xbc89180c	-0.0167351
72	0xbb3399a5	-0.0027404812
73	0xbbb95ef3	-0.005657071
74	0xbd3b95d3	-0.04579718
75	0xbc934e3b	-0.01798164
76	0xbc44f0fd	-0.012020347
77	0xbc8542fa	-0.016267288
78	0xbd151590	-0.036397517
79	0xbc7dd63f	-0.015492975
80	0xbbdd6c4c	-0.0067572948
81	0xbd2d49a6	-0.042306565
82	0xbd5d5bbe	-0.05404257
83	0x3c30064b	0.010743688
84	0xbda2592a	-0.07927163
85	0xbc6b06e5	-0.0143449055
86	0xbcdfe65b	-0.027331522
87	0xbcf65f09	-0.030074613
88	0xbd4135db	-0.0471705
89	0xbc3ccf47	-0.011524028
90	0xbd2f825a	-0.042848922
91	0xbcf48e6f	-0.029853074
92	0xbc6999fc	-0.014257904
93	0xbd0d9117	-0.034562197
94	0xbcf6bff8	-0.030120835
95	0xbcc44022	-0.023956362
96	0xbc81eb1f	-0.015859185
97	0x3ced7370	0.028985709
98	0xbc8d0ac0	-0.01721704
99	0xbd8c9f38	-0.06866306
100	0xbc2156dc	-0.009847369
101	0xbc4ab759	-0.012372815
102	0xbd2fe888	-0.04294637
103	0xbc376d4a	-0.01119549
104	0xbc5f1a72	-0.013617145
105	0xbd1b5261	-0.03792036
106	0xbc570bdb	-0.013125385
107	0xbc4629f1	-0.012094961
108	0x3b8f0aba	0.0043652924
109	0xbd4b3af2	-0.04961676
110	0xbd5aed3b	-0.053448897
111	0x3cd0c9bd	0.025486821
112	0xbd568617	-0.05237397
113	0xbcec73c3	-0.028863793
114	0xbd8ba9b9	-0.068194814
115	0xbcdef745	-0.027217517
116	0xbd5ce749	-0.05393151
117	0xbca23fa6	-0.01980574
118	0xbd56ec12	-0.052471228
119	0xbd4587e8	-0.048225313
120	0xbd7ba5a5	-0.061437268
121	0xbd9d7018	-0.07687396
122	0xbd6373f2	-0.055530496
123	0xbd7cf54f	-0.061757382
124	0xbd0f15aa	-0.03493277
125	0xbcb564c1	-0.02214277
126	0xbcee6f12	-0.029105697
127	0xbd3cafab	-0.046065968
128	0xbceceb12	-0.028920684
129	0x3c4f4ff5	0.012653341
130	0xbd6515ee	-0.055929117
131	0x3d1195d6	0.035543285
132	0xbd2594c5	-0.04042508
133	0xbd3d752e	-0.04625433
134	0xbd758d03	-0.059948932
135	0xbcab1754	-0.020885147
136	0xbc1db6d3	-0.009626108
137	0x3bafea82	0.0053685317
138	0x39510676	0.000199342
139	0xbd24b535	-0.040211875
140	0xbc12b82c	-0.008955043
141	0xbc9c4821	-0.019077362
142	0xbbf41f6e	-0.007450036
143	0xbbded579	-0.0068003503
144	0x3b8ec984	0.0043575186
145	0xbbc70481	-0.006073535
146	0xbd801efc	-0.0625591
147	0xbc0a0bc9	-0.008425661
148	0xbd4e0553	-0.050298046
149	0xbc92c17d	-0.017914528
150	0xbd382ee1	-0.044966582
151	0xbc1bef72	-0.009517537
152	0xbd1d702f	-0.038437065
153	0xbc577aa8	-0.013151802
154	0xbd3e3054	-0.046432808
155	0xbc8699b1	-0.016430708
156	0xbb96ebaf	-0.0046057324
157	0xbbd89983	-0.006610097
158	0xbbd4498e	-0.006478495
159	0xbd1374c4	-0.03600003
160	0xbd5ba027	-0.05361953
161	0xbcbca7e9	-0.023029285
162	0x3cad5811	0.021160157
163	0xbcbc7cdf	-0.023008762
164	0xbade1f24	-0.0016946536
165	0x3bf9e75a	0.007626456
166	0xbd53563b	-0.051595908
167	0xbd51e34b	-0.051242154
168	0xbc96d264	-0.018410869
169	0xbdb8993c	-0.09013602
170	0xbd1eef1f	-0.038802262
171	0xbd15ee1c	-0.036604032
172	0xbca1892a	-0.019718725
173	0xbc884f9d	-0.016639525
174	0xbd4b76a2	-0.049673684
175	0x3c2be3b4	0.0104913
176	0xbcaf26d3	-0.021380818
177	0xbcc32584	-0.0238216
178	0xbce848f6	-0.028355103
179	0xbd05b175	-0.03263994
180	0xba9a2934	-0.0011761547
181	0xbcbb9d14	-0.02290205
182	0xbd674f94	-0.056472376
183	0xbc94f781	-0.018184425
184	0x3cce1259	0.025155233
185	0xbca41f99	-0.020034598
186	0xbd733a4c	-0.059381768
187	0xbc1694cb	-0.009190748
188	0xbd053141	-0.032517675
189	0xbcd58eff	-0.026069162
190	0xbcedac0e	-0.029012706
191	0xbcb2abde	-0.021810468
192	0xbbd0b861	-0.006369636
193	0xbd0547ab	-0.03253905
194	0xbd806c3c	-0.06270644
195	0xbd2ce023	-0.04220594
196	0x3bf40750	0.007447161
197	0xbd371cc0	-0.044705153
198	0xbce69953	-0.028149283
199	0xbc0ad1ea	-0.008472899
200	0xbb0e3fb9	-0.0021705462
201	0xba55c61a	-0.00081548246
202	0xbcb57837	-0.02215205
203	0xbd7300c1	-0.05932689
204	0xbce0ead0	-0.027455717
205	0xbcbc5da2	-0.022993866
206	0xbc97d127	-0.018532349
207	0xbd4f12de	-0.050555103
208	0xbd359a27	-0.044336464
209	0xbd919f9f	-0.071105234
210	0xbd7908eb	-0.06079952
211	0xbb9833bd	-0.0046448396
212	0xbc139173	-0.009006846
213	0xbd34a6b6	-0.0441043
214	0xbd74492a	-0.059640087
215	0x3b6d64c6	0.0036223396
216	0xbd0515cb	-0.032491487
217	0x3ada10ad	0.001663705
218	0xbda2c03f	-0.07946824
219	0xbcddd0e0	-0.027077138
220	0xbc09511b	-0.008381153
221	0xbdd185e9	-0.102306195
222	0xbcd09d52	-0.025465641
223	0xbc201721	-0.009771139
224	0xbc2e496f	-0.010637625
225	0xba873d76	-0.0010317999
226	0xbc6b8751	-0.014375524
227	0xbc58f039	-0.013240867
228	0xbd8e95c0	-0.06962156
229	0xbd0bc602	-0.03412438
230	0xbc3e1cd6	-0.011603555
231	0xb994cc33	-0.000283809
232	0xbd68fa58	-0.05687937
233	0xbcaf8fdc	-0.021430902
234	0xbd1b295f	-0.03788125
235	0xbc0efd8f	-0.008727445
236	0xbd3e6902	-0.046486862
237	0x3b35f38e	0.0027763578
238	0xbc4add61	-0.012381882
239	0xbd174568	-0.036931425
240	0xbd2cf70a	-0.042227782
241	0xbd97d068	-0.07412797
242	0xbbda8bd2	-0.0066695
243	0x3b52f616	0.0032190136
244	0xbce77d50	-0.028257996
245	0xbc381d82	-0.011237504
246	0xbc971198	-0.018441007
247	0xbccf3772	-0.025294993
248	0xbcdfa247	-0.02729906
249	0xbd3a2a66	-0.04545059
250	0xbd74e766	-0.05979099
251	0xbd32dadc	-0.04366575
252	0xb926adb6	-0.00015895706
253	0xbb6441d7	-0.0034829283
254	0xbc8e9a56	-0.017407577
255	0xbd0b2dd6	-0.03397926

network_body._body_endoder.seq_layers.2.weight f4 [256, 256]
0	0xbc382e0a	-0.011241445
1	0x3de7f51f	0.1132605
2	0x3de3d902	0.11125375
3	0x3d37c9cd	0.044870187
4	0x3cba74e5	0.022760818
5	0xbd828ecb	-0.06374892
6	0x3d390b28	0.045176655
7	0x3dc0bf92	0.09411539
8	0xbd9167b5	-0.07099859
9	0xbe019d92	-0.12657765
10	0x3d4e4407	0.050357845
11	0x3d82a683	0.06379416
12	0x3dcf6e61	0.10128475
13	0xbe0f5aba	-0.13999453
14	0x3cc0a6a1	0.023516955
15	0x3da42d3a	0.08016439
16	0x3ca52764	0.020160384
17	0x3e1d8fd3	0.15386896
18	0x3c53b98b	0.012922655
19	0xbd3898d3	-0.04506762
20	0x3d491f9b	0.049102407
21	0xbdbed9bf	-0.093188755
22	0xbdc44093	-0.09582629
23	0xbd0cd08d	-0.034378577
24	0xbce13df0	-0.027495354
25	0xbdf52b21	-0.11971117
26	0xbd815257	-0.06314533
27	0xbd0df9a7	-0.034661915
28	0x3c1cb9c7	0.009565777
29	0x3d11366a	0.035452284
30	0x3c7741a9	0.015091338
31	0x3c0f2f10	0.008739248
32	0xbd26e1a8	-0.040742546
33	0x3c0abc4e	0.008467747
34	0x3db51ee9	0.08843786
35	0x3cfa0f83	0.030524975
36	0x3c84c7e1	0.016208591
37	0x3d073861	0.03301275
38	0x3dc8baec	0.098012775
39	0x3d52a013	0.05142219
40	0x3d6b20b7	0.057404246
41	0xbd479b92	-0.048732348
42	0x3da0d2d9	0.07852716
43	0x3decfa75	0.115712084
44	0xbdec034e	-0.11524068
45	0x3d7d8e2f	0.061903175
46	0xbd3fb453	-0.04680283
47	0x3d25a86b	0.04044382
48	0x3c997ac2	0.018735293
49	0xbd8bc96c	-0.068255275
50	0x3cbaf095	0.022819797
51	0xbd899c01	-0.067192085
52	0x3d8266c7	0.063672595
53	0x3d318cf2	0.043347307
54	0x3cb30268	0.021851733
55	0xbd8e6fb1	-0.06954897
56	0xbd4f57b1	-0.05062074
57	0xbd5378ab	-0.05162875
58	0x3d349d4b	0.04409532
59	0x3c1276de	0.008939473
60	0xbd04c0cc	-0.032410428
61	0xbdf19d7b	-0.11797615
62	0x3d0dbe1f	0.03460514
63	0x3d791742	0.060813196
64	0x3d62d04c	0.05537443
65	0x3cd923ba	0.026506294
66	0x3bf1a7b7	0.0073747295
67	0x3ce5ad22	0.028036658
68	0xbbb45f33	-0.0055045127
69	0xbdc1b6bd	-0.09458683
70	0xbdb690b6	-0.0891432
71	0x3c3f5580	0.0116781
72	0xbc81c865	-0.015842626
73	0xbd11893c	-0.035531268
74	0x3c90d19e	0.017678078
75	0xbb5ef6bd	-0.003402158
76	0x3d404e3e	0.046949618
77	0x3df0558b	0.11735066
78	0x3ddf852c	0.109140724
79	0xbde890d7	-0.11355751
80	0x3d6a79e7	0.05724516
81	0x3dbd96c8	0.09257275
82	0x3c958ea7	0.018256499
83	0x3d4f4b80	0.05060911
84	0x3ce0bdf5	0.027434329
85	0xbcf90355	-0.030397097
86	0x3d72a0e4	0.05923547
87	0xbd062fae	-0.032760315
88	0xbc7c4d30	-0.015399262
89	0x3a1d3e02	0.00059983146
90	0x3d19ae3d	0.037519682
91	0xbc40790b	-0.011747609
92	0xbd64378d	-0.05571704
93	0xbd7977d3	-0.06090529
94	0xbc94a363	-0.018144315
95	0xbdb9d30f	-0.09073459
96	0x3d0c6e91	0.03428513
97	0x3d341dfb	0.043973904
98	0xbc689ae7	-0.014197088
99	0xbd2ccf3d	-0.042189825
100	0xbe24dd01	-0.16099931
101	0x3d3cac22	0.046062596
102	0x3e245dae	0.16051361
103	0xbcb68950	-0.022282273
104	0xbd31a091	-0.04336602
105	0x3d1a7fb5	0.037719447
106	0x3ce10e7e	0.02747273
107	0xbe03d493	-0.1287406
108	0x3d1ff8aa	0.039055504
109	0xbd151f4e	-0.036406808
110	0x3d3a9436	0.0455515
111	0x3e0ae2fa	0.13563147
112	0xbe0481b6	-0.12940106
113	0xbd8fe25e	-0.07025598
114	0x3dd6be90	0.10485566
115	0xbcf63aba	-0.0300573
116	0x3c5e5fe3	0.013572666
117	0x3ded9951	0.116015084
118	0xbab8807e	-0.001407638
119	0x3d142542	0.036168344
120	0xbda6334a	-0.08115251
121	0x3e21ba7d	0.15793796
122	0xbb892275	-0.004185016
123	0xbd04bbcd	-0.032405663
124	0x3ca931f0	0.020653695
125	0xbdb13f6b	-0.08654674
126	0x3dab40e2	0.08361985
127	0xbd295e7d	-0.041349877
128	0xbc2805f1	-0.010255323
129	0x3ceea350	0.029130608
130	0x3d10e1e1	0.035371665
131	0x3cf6ed7e	0.030142542
132	0x3ca4c31f	0.020112572
133	0x3c188f73	0.009311545
134	0x3da78866	0.08180313
135	0xbda9bb3f	-0.082876675
136	0x3cd6dd6d	0.02622863
137	0xbdbcd20b	-0.0921975
138	0x38db3c02	0.00010453911
139	0xbd758ec4	-0.059950605
140	0xbd4ec8f4	-0.050484613
141	0x3dd75e44	0.105160266
142	0x3df75ca1	0.120782144
143	0x3e116e46	0.14202222
144	0xbd1491bd	-0.0362718
145	0x3dc2f4a1	0.095193155
146	0xbbf38a28	-0.007432241
147	0x3d465807	0.048423793
148	0x3cb6ec32	0.022329424
149	0x3c57ecc9	0.013179013
150	0xbd2f5f40	-0.042815447
151	0xbcf409ae	-0.029789772
152	0x3c9a2220	0.0188151
153	0xbd52d97a	-0.051476933
154	0xbccff999	-0.025387572
155	0xbd018105	-0.031617183
156	0xbd13ed3b	-0.036114912
157	0xbe084b97	-0.13310085
158	0x3d7b6bbe	0.061382048
159	0xbd06815f	-0.03283822
160	0xbbd27567	-0.006422687
161	0x3ad11c69	0.0015953901
162	0xbc3c7055	-0.011501391
163	0xbc3f186d	-0.011663538
164	0xbe3d2a10	-0.18473077
165	0xbe357ca5	-0.1772333
166	0xbd8aeb7b	-0.067831956
167	0x3cbf6b68	0.023366645
168	0xbda9d3d5	-0.08292357
169	0xbc9732a0	-0.018456757
170	0xbd5b8be6	-0.053600214
171	0xbca535c0	-0.020167232
172	0xbd8cf9f1	-0.0688361
173	0xbd81489d	-0.06312678
174	0x3d3e2341	0.04642034
175	0xbd25aaa9	-0.040445957
176	0x3d06a857	0.032875385
177	0xbb3779b9	-0.0027996136
178	0x3df871f5	0.121311106
179	0xbd31447c	-0.043278202
180	0x3d816e52	0.0631987
181	0xbd18e410	-0.037326872
182	0xbd65e6ad	-0.056128193
183	0xbd6ad6d4	-0.057333782
184	0xbd854592	-0.0650741
185	0x3d802db9	0.06258721
186	0x3c96072f	0.018313972
187	0xbdb4cc34	-0.08828011
188	0x3de2ca8c	0.11073789
189	0xbd65a035	-0.05606099
190	0xbb716a3b	-0.0036837
191	0x3d1b7337	0.037951674
192	0xbd3ef823	-0.04662336
193	0xbd945e68	-0.07244569
194	0xbd9026a9	-0.07038624
195	0xbd295271	-0.041338388
196	0x3bf0b66d	0.0073459656
197	0xbddd636f	-0.10809981
198	0x3d1c9bc0	0.038234472
199	0x3cf89ef8	0.03034924
200	0x3bf8e9f3	0.0075962483
201	0xbda9069a	-0.08253212
202	0x3caad2f2	0.02085254
203	0xbd8a6fd1	-0.067596085
204	0xbc6c3f23	-0.01441935
205	0xbd4b40ea	-0.049622454
206	0xbce559cd	-0.027996922
207	0xbe08ae2c	-0.13347691
208	0xbd60e1cc	-0.054902837
209	0xbd4e227d	-0.05032586
210	0xbd88ee1c	-0.06686041
211	0xbd9ff3be	-0.07810162
212	0xbdd2054d	-0.10254917
213	0x3d0ea63f	0.034826513
214	0xbd094801	-0.033515934
215	0x3c66e6ba	0.014093095
216	0xbc3fb886	-0.011701709
217	0x3d3ba4dc	0.04581152
218	0x3dc0344b	0.09384974
219	0xbc96136c	-0.018319808
220	0x3d62a8d4	0.05533679
221	0xbcc0709d	-0.023491198
222	0x3d39d913	0.045373034
223	0x3d73b058	0.059494346
224	0xbd52335a	-0.051318504
225	0xbd8eb90c	-0.06968889
226	0xbc912ac0	-0.01772058
227	0xbd7c8146	-0.061646722
228	0x3e0ab7da	0.13546696
229	0x3d9c196b	0.076220356
230	0xbdbe75e2	-0.09299828
231	0xbd162f24	-0.03666605
232	0x3d94dc8e	0.0726863
233	0xbd1942ef	-0.03741735
234	0x3d66fd01	0.056393627
235	0x3d64d18a	0.055863895
236	0x3d5677f2	0.052360483
237	0xbda718b2	-0.08159007
238	0xbd3de8cc	-0.04636459
239	0x3cfa2de5	0.030539462
240	0x3cc359a5	0.023846457
241	0xbc06926a	-0.008213619
242	0x3e046c46	0.12931928
243	0x3b45c491	0.0030176977
244	0x3df1ae6f	0.11800849
245	0xbdc2489f	-0.094865076
246	0x3d82f928	0.06395179
247	0x3db1f8c9	0.0869003
248	0x3da7a1ab	0.081851326
249	0xbdbba52b	-0.09162363
250	0xbd0d0760	-0.03443086
251	0xbe28e6ba	-0.16494265
252	0x3ddf93be	0.109168515
253	0xbd3d55d4	-0.04622443
254	0x3db85ed7	0.09002464
255	0xbd3d1052	-0.046158142

network_body._body_endoder.seq_layers.2.bias f4 [256]
0	0xbcbe9d32	-0.023268316
1	0xbc3ff761	-0.011716695
2	0xbb63421b	-0.0034676853
3	0xbc470e78	-0.012149446
4	0xbc53a052	-0.012916641
5	0xbcdde563	-0.02708692
6	0xbd0c510b	-0.034256976
7	0xba3b8e93	-0.0007154729
8	0xbcc2f1a2	-0.02379686
9	0x3b16c0b0	0.0023003034
10	0xbc95257a	-0.018206347
11	0xbc639c6e	-0.013892276
12	0xbba7b4a8	-0.0051179715
13	0xbca6d1c6	-0.0203637
14	0xbc92bdc3	-0.017912751
15	0xbb9da486	-0.0048108725
16	0xbc568a5b	-0.01309451
17	0xbcf2d88f	-0.029644279
18	0xbcfa052a	-0.03052004
19	0xbd2c66f1	-0.04209036
20	0xbb8429ff	-0.0040333266
21	0xbcca16da	-0.0246691
22	0xbcc405ba	-0.023928512
23	0xbc5e2c52	-0.0135603715
24	0xbc98ed52	-0.01866785
25	0x3a055bd5	0.00050872314
26	0xbd3042b2	-0.043032356
27	0x3ba2c69b	0.0049675233
28	0xbcc082d8	-0.023499891
29	0xbce7d84c	-0.02830138
30	0xbc78bcfb	-0.015181775
31	0xbce46c1c	-0.027883582
32	0xbd5cdc1b	-0.053920846
33	0xbc9acb6a	-0.018895824
34	0xbd146d1b	-0.036236864
35	0xbc16970e	-0.009191288
36	0xbcb3836b	-0.02191325
37	0xbcc3c1e4	-0.023896165
38	0xbcdecfed	-0.027198756
39	0xbc1ec068	-0.009689428
40	0xbca0d9f8	-0.019635186
41	0xbcaa3c96	-0.020780843
42	0xb92e6403	-0.0001663119
43	0xbcfbbac2	-0.030728702
44	0xbc95a41d	-0.018266732
45	0xbcbe16f7	-0.02320431
46	0xbc9e2dc8	-0.01930894
47	0xbcd819cf	-0.026379494
48	0xbca359fb	-0.019940367
49	0xbcbcd116	-0.023048919
50	0xba718705	-0.000921354
51	0x3a2a234d	0.00064902456
52	0xbc7947ac	-0.015214842
53	0xbc825e81	-0.015914204
54	0xbc43866c	-0.011933904
55	0xbc72dd71	-0.014823304
56	0xbc3ca51d	-0.011513975
57	0x3bc3d62a	0.005976458
58	0xbc8ab2cf	-0.016930966
59	0xbcbf218d	-0.023331428
60	0xbc7062de	-0.014672009
61	0xbbbe2016	-0.005802165
62	0xbd42efed	-0.047592092
63	0xbcba5a5f	-0.02274817
64	0xbcae00a3	-0.021240538
65	0xbc7e1308	-0.015507467
66	0xbbe2e12c	-0.0069238152
67	0xbccbee16	-0.024893802
68	0xbd13acf1	-0.0360536
69	0xbcc1614a	-0.023605961
70	0x3b534fdb	0.0032243642
71	0xbcefeeab	-0.02928861
72	0xbd0e9763	-0.034812342
73	0xbc9fbe8b	-0.019500038
74	0x3b44fa6d	0.0030056492
75	0xbcbb1b9f	-0.02284032
76	0xbba2a81b	-0.0049638874
77	0xbcd69104	-0.026192196
78	0xbb9127b0	-0.00442978
79	0xbc2affbd	-0.010436949
80	0xbcba5a6f	-0.0227482
81	0xbcb0165c	-0.021495037
82	0xbd2a41a7	-0.041566517
83	0xbd353348	-0.04423836
84	0xbc82c172	-0.015961383
85	0xbc77254f	-0.015084579
86	0xbab09db6	-0.0013474736
87	0xbc868fab	-0.016425928
88	0xbc98d378	-0.018655524
89	0xbcdd416a	-0.02700873
90	0xbc3b9d7c	-0.011451121
91	0xbc2381dd	-0.009979692
92	0xbc70beb0	-0.014693901
93	0xbc6357fa	-0.013875956
94	0xbca1e702	-0.019763473
95	0xbd0eb10e	-0.03483682
96	0xbcfabfc3	-0.030609017
97	0xbd30b994	-0.04314573
98	0xbc2e57cd	-0.0106410505
99	0xbc3f9a59	-0.011694514
100	0xbc032499	-0.008004331
101	0xb83f1577	-4.555794e-05
102	0xbc1d8e03	-0.009616378
103	0xbbde6778	-0.006787237
104	0xbc0c42c3	-0.008560839
105	0xbc7dcd5b	-0.015490855
106	0x3b927bac	0.0044703092
107	0xbc1a4df8	-0.009418003
108	0xbd1f7e2a	-0.03893868
109	0xbc3c8c64	-0.011508081
110	0xbb5e280f	-0.0033898389
111	0xbbcf86cf	-0.006333209
112	0xbc92e9d3	-0.017933762
113	0xbc5ad8c2	-0.013357343
114	0xbcf94a05	-0.030430803
115	0xbcb0055d	-0.021486932
116	0xbcb4c04b	-0.022064349
117	0xbc99e383	-0.018785244
118	0xbd2bfd04	-0.04198934
119	0x3aaffee4	0.0013427404
120	0xbc9eacf7	-0.019369585
121	0xbc8ba9f5	-0.017048815
122	0xbcece0c8	-0.028915778
123	0xbc9b55da	-0.018961836
124	0xbc1f8ab6	-0.009737661
125	0xbd13fc90	-0.036129534
126	0xbcaf4263	-0.02139396
127	0xbcdaa3ee	-0.026689496
128	0xbcd2f76c	-0.025752746
129	0x3b09e1b6	0.0021039075
130	0xbc7fb21d	-0.01560643
131	0xbcf69118	-0.030098483
132	0xbc7a0e56	-0.015262207
133	0xbc920edb	-0.01782935
134	0xbc500abb	-0.012697871
135	0xbce91b04	-0.028455265
136	0xbc25b879	-0.0101147825
137	0xbc24f4f8	-0.010068171
138	0xbca05eff	-0.019576548
139	0xbd31aa9b	-0.043375593
140	0xbc4ddef2	-0.012565361
141	0xbcd94798	-0.026523396
142	0xbccf8793	-0.025333202
143	0xbc85b319	-0.016320752
144	0x3bd28da9	0.0064255786
145	0xbcad5c52	-0.021162186
146	0xbc9c3a41	-0.019070746
147	0xbb8a82ae	-0.004227004
148	0xbbc0b7bd	-0.0058812783
149	0xbc5c2c48	-0.013438292
150	0xbca1abdf	-0.019735275
151	0xbbdeb02b	-0.006795903
152	0xbbbd508e	-0.005777425
153	0x3b2dce52	0.0026520682
154	0xbc1e8c67	-0.009677029
155	0xbb8bcd3c	-0.004266409
156	0xbcb722d2	-0.02235547
157	0xbccf9d50	-0.025343567
158	0xbac0db74	-0.001471384
159	0xbb4215ac	-0.0029614968
160	0xbcbae230	-0.022812933
161	0xbcedfd3e	-0.02905142
162	0xbcf55744	-0.029948838
163	0xbce8eb16	-0.02843241
164	0xbd0c2213	-0.034212183
165	0xbc95a640	-0.01826775
166	0xbcfeec5f	-0.03111857
167	0xbc6ac248	-0.014328547
168	0xbc7de034	-0.015495349
169	0xbc3d78e6	-0.011564469
170	0xbd12cc5f	-0.035839435
171	0xbc9f8aff	-0.019475458
172	0xbb683941	-0.0035434517
173	0xbcee5dd4	-0.029097475
174	0xbc01a53d	-0.007912931
175	0xbcca720a	-0.024712581
176	0xbd3444bf	-0.044010874
177	0xbcb34dbe	-0.021887656
178	0xbcbd36f7	-0.023097498
179	0xbc307db9	-0.010772162
180	0xbcbe106a	-0.023201186
181	0x3c6b5835	0.014364292
182	0xbc50bd6f	-0.012740477
183	0xbcbea1af	-0.023270456
184	0xbc792105	-0.015205626
185	0xbc4c5524	-0.012471471
186	0xbc841cb4	-0.016126968
187	0xbce3c620	-0.027804434
188	0xbc5b3090	-0.013378277
189	0xbc64b9ee	-0.013960345
190	0xbc2b46d6	-0.0104539
191	0xbcf279c7	-0.029599084
192	0xbd45638b	-0.048190635
193	0xbc54c334	-0.012985993
194	0xbbd57718	-0.006514441
195	0xbc4b854e	-0.012421919
196	0xbc65470b	-0.013993989
197	0x3bff8530	0.0077978596
198	0xbbeb0396	-0.0071720583
199	0xbbddbc00	-0.006766796
200	0xbcb35d31	-0.021895023
201	0xbca43412	-0.02004436
202	0xbc0248c8	-0.007951923
203	0xbc1d42fe	-0.009598492
204	0xbd415d4e	-0.047208123
205	0xbd39f83c	-0.04540275
206	0xbbd067d6	-0.0063600345
207	0xbc894980	-0.01675868
208	0xbbb3177e	-0.005465447
209	0xbc40e82d	-0.011774105
210	0xbc8d99a3	-0.017285174
211	0xbcd72c96	-0.026266377
212	0xbc0fc955	-0.008776029
213	0xbb513da5	-0.0031927612
214	0xbab490e7	-0.0013776094
215	0xbcbf02c5	-0.02331675
216	0xbc409a62	-0.011755558
217	0xbc5693ec	-0.013096791
218	0xbc49bb55	-0.01231273
219	0xbccd86ea	-0.025088746
220	0xba89624b	-0.0010481564
221	0xbc871058	-0.016487285
222	0xbc64ee5c	-0.013972845
223	0xbcd962c2	-0.02653635
224	0xbaa889ef	-0.001285849
225	0xbd07dd5b	-0.033170085
226	0xbc5b7dfc	-0.013396736
227	0xbcab558f	-0.020914821
228	0xbcb57ab4	-0.022153236
229	0xbc73f5ca	-0.014890144
230	0xbc7e3242	-0.015514912
231	0xbb83f83d	-0.004027395
232	0xbcbbc420	-0.022920668
233	0xbcbaf166	-0.022820186
234	0xbc9dd67b	-0.019267311
235	0xbc91b5e0	-0.01778692
236	0xbd278db6	-0.04090663
237	0xbc794107	-0.015213258
238	0xbca8d287	-0.0206082
239	0xbc4a1f96	-0.012336632
240	0xbaa15fc4	-0.0012311866
241	0xbc925fcb	-0.017867943
242	0xbbb86333	-0.00562706
243	0xbcc788b1	-0.024357172
244	0xbc5cbc42	-0.013472619
245	0x3ac30046	0.0014877401
246	0xbc7de421	-0.015496285
247	0xbb0fb8e5	-0.0021930274
248	0xbaf256de	-0.0018489023
249	0xbcf8d9b3	-0.030377245
250	0xbc2977c3	-0.010343495
251	0xbcb85ed2	-0.022506151
252	0xbc660fb5	-0.014041831
253	0xbd3a7a76	-0.045526944
254	0xbc71cb33	-0.014757919
255	0xbd078d77	-0.033093896

action_model._continuous_distribution.log_sigma f4 [1, 2]
0	0xbdc54449	-0.09632165
1	0xbdd7bc7e	-0.10533999

action_model._continuous_distribution.mu.weight f4 [2, 256]
0	0x3c8abea6	0.016936611
1	0x3bde2b3a	0.0067800554
2	0x3c533b98	0.012892626
3	0xba1e7bfe	-0.0006045698
4	0x3a9bbb23	0.0011881333
5	0x3b9da064	0.00481038
6	0x3c147fed	0.009063703
7	0x3b94d3cc	0.0045418497
8	0xb74aa9bc	-1.2079658e-05
9	0x3b9635a0	0.0045840293
10	0xbaadd713	-0.001326295
11	0xbce2f824	-0.027706213
12	0x3b36144c	0.0027783094
13	0x3a5f1b01	0.0008510799
14	0xbb43e2f6	-0.0029889918
15	0x3d1d1ef6	0.038359605
16	0x3b8ba34c	0.00426141
17	0x3b218431	0.0024645443
18	0x3a308123	0.000673311
19	0xbbf04386	-0.007332268
20	0x3d0c89ad	0.034310985
21	0xb95e5b6a	-0.00021205624
22	0xba82b9fd	-0.0009973642
23	0x3afae2ee	0.0019141117
24	0x3ca3dbcb	0.020002266
25	0xbcfaed88	-0.030630842
26	0x3c0941f3	0.00837754
27	0x3c14b68d	0.009076727
28	0x3b2cdbde	0.0026376168
29	0xbc0ff760	-0.008787006
30	0xbac16866	-0.0014755845
31	0xbb059ee0	-0.0020388886
32	0x3bbf79b0	0.0058433637
33	0x3bf4f2d2	0.0074752355
34	0x3c46c1eb	0.012131195
35	0x3b5132b8	0.00319211
36	0xbcd84eed	-0.026404822
37	0x3bb9800e	0.0056610173
38	0x3b205a45	0.0024467867
39	0x3cea1631	0.028575035
40	0x39dc40e1	0.00042010008
41	0x3bf9c884	0.0076227803
42	0x36b82648	5.488084e-06
43	0x3ac234da	0.0014816776
44	0x3d344f41	0.044020895
45	0x3a410a1f	0.0007363874
46	0x3a9bf0c5	0.0011897316
47	0xbb3686d4	-0.002785136
48	0x3aae04ff	0.0013276635
49	0x39ecd086	0.0004516879
50	0x3d1a8d0d	0.037732173
51	0x3c4f319b	0.012646104
52	0x3d67895d	0.056527484
53	0x3ad98693	0.0016595892
54	0x3bb827c5	0.0056199753
55	0xbaf2bc02	-0.0018519165
56	0xbaf1dce8	-0.0018452676
57	0x3d56013d	0.052247275
58	0xba466961	-0.0007568803
59	0x3d021cb6	0.031765662
60	0x3c9112c8	0.01770915
61	0x3c0a999b	0.008459474
62	0xbb05309f	-0.002032317
63	0xba88a0a8	-0.0010423856
64	0x3be068b2	0.006848418
65	0x39f00727	0.00045781696
66	0x3b8ac640	0.004235059
67	0x3b601a50	0.003419537
68	0xbb238d17	-0.0024955922
69	0x3cd2e148	0.025742188
70	0xbd67474d	-0.056464482
71	0x396a3b35	0.00022338035
72	0x3cbad190	0.022805005
73	0x3cb3168c	0.021861337
74	0x3b10ba20	0.0022083595
75	0x3c9a4b81	0.018834831
76	0xbb697a69	-0.003562594
77	0x3924d1cd	0.00015718416
78	0x3b723edc	0.0036963737
79	0x390b6396	0.00013293172
80	0x3c0ecb0e	0.008715404
81	0x3860e925	5.3622894e-05
82	0x3baf1715	0.0053433278
83	0x3a4aaaba	0.0007731129
84	0xbb824ef3	-0.0039766966
85	0x3b05d857	0.0020423138
86	0xb95c88b3	-0.0002103176
87	0xbbcc607e	-0.0062370887
88	0xbab59713	-0.0013854228
89	0xb9bfa7b1	-0.000365553
90	0x3ba2a779	0.004963812
91	0xbc01d424	-0.007924113
92	0xbb7a5112	-0.0038195294
93	0x3aa45a93	0.00125392
94	0x3c3a1e4b	0.0113597615
95	0x3ace0646	0.0015718422
96	0xba17ee09	-0.0005795663
97	0xbb58bfaf	-0.0033073237
98	0xba0a0060	-0.0005264338
99	0x3a78df2e	0.00094937056
100	0x3c4cf6d0	0.012510017
101	0x3c46dde5	0.012137865
102	0x3d96949a	0.07352562
103	0x3afd356f	0.0019318293
104	0xbc3ae6ed	-0.011407596
105	0xbc629579	-0.013829582
106	0xbcc15e15	-0.023604432
107	0x3a2fa3ed	0.0006700147
108	0xb9f18f3f	-0.0004607383
109	0x3c4a92a3	0.0123640625
110	0x3cad8757	0.0211827
111	0xbb8f800c	-0.004379278
112	0xbb82c00b	-0.0039901785
113	0x3b51d92f	0.003202032
114	0x3985ed31	0.00025544458
115	0xb98c1b4c	-0.0002672322
116	0xbb5b72e8	-0.0033485238
117	0x3ce3b3cf	0.0277957
118	0x3aed9cd7	0.0018128407
119	0x3b2355e8	0.002492303
120	0x3a7730f9	0.00094296
121	0xbbf05441	-0.0073342626
122	0x3c041ba2	0.008063229
123	0x3d1d7ad6	0.038447224
124	0x3c5fe314	0.0136649795
125	0xbc1d1fe4	-0.009590123
126	0x3d164b31	0.036692802
127	0xbb9d2252	-0.004795351
128	0xbd02765f	-0.03185117
129	0x3d3b0f38	0.04566881
130	0x3a8c2127	0.0010691033
131	0xbbccfd58	-0.006255787
132	0x3bc6f91d	0.006072177
133	0x3d1bf7a7	0.038077977
134	0xba16d51c	-0.00057538017
135	0x3cfe15b7	0.031016214
136	0x3ba77756	0.0051106615
137	0xbb1061f6	-0.0022031046
138	0xbc0baa9b	-0.008524562
139	0x3bf4fe6c	0.0074766185
140	0x3bc96624	0.0061462093
141	0x3bb79175	0.0056020566
142	0x3bf39839	0.007433918
143	0x3ca139cb	0.019680878
144	0x3c794b5c	0.015215721
145	0x3a3c1ac1	0.00071756175
146	0x3a317014	0.0006768715
147	0x3ac62469	0.0015117052
148	0x3b99ff2a	0.0046996074
149	0x3accd777	0.0015628178
150	0xbb73bf98	-0.0037193056
151	0x3c78559f	0.015157132
152	0xbb03238e	-0.0020010206
153	0x3b053da1	0.0020330923
154	0x3c230239	0.00994926
155	0x3a00e08f	0.00049162743
156	0x3b80380c	0.0039129313
157	0xbba23035	-0.0049495944
158	0x3c959278	0.018258318
159	0xbb80a8b9	-0.0039263633
160	0xbbcd4b2e	-0.0062650656
161	0xbb779c2a	-0.003778229
162	0x3a11f2c1	0.0005567484
163	0xbb2e68e1	-0.0026612806
164	0x3d033161	0.032029513
165	0x3bd38860	0.006455466
166	0x3bb3f84c	0.005492246
167	0x3d31b4a8	0.043385178
168	0x3ac995d8	0.001537974
169	0xbc432346	-0.011910265
170	0xbaf3eee2	-0.0018610621
171	0x3b41e468	0.0029585604
172	0xbc757645	-0.014981811
173	0x3ab44663	0.0013753887
174	0x3ce619ec	0.028088532
175	0xbbe99274	-0.0071280543
176	0x3b5a0353	0.0033266142
177	0x3b5f1a67	0.0034042837
178	0x3ca8a37a	0.020585764
179	0x3accf6d9	0.0015637531
180	0x3c1a46d6	0.009416303
181	0x3d5956a2	0.053061135
182	0xbac429c2	-0.0014966058
183	0x3cab8a4d	0.02093997
184	0x3abae07e	0.0014257578
185	0x3b293e32	0.0025824425
186	0x39024a1e	0.00012425377
187	0x3c9c7608	0.01909925
188	0x3d3cc954	0.04609044
189	0xbc20ce8d	-0.009814871
190	0xbb1e056a	-0.0024112114
191	0x3be462e2	0.0069697956
192	0xba0eae0c	-0.0005442805
193	0xbb851ba7	-0.0040621343
194	0x3b080b02	0.0020758514
195	0x3b8655c6	0.0040995805
196	0xbb21860c	-0.0024646549
197	0x3d6cdc30	0.057827175
198	0xbb672c4c	-0.0035274206
199	0x398ed111	0.00027240117
200	0xbbaccdb5	-0.0052735456
201	0xbaec3e7c	-0.0018023993
202	0xbc5db9aa	-0.013533035
203	0x3bbc4a66	0.0057461737
204	0x3cb23d23	0.021757668
205	0x3ba6ee79	0.005094346
206	0xba9a0c1c	-0.0011752876
207	0x3bdd75ed	0.0067584426
208	0x3c7b1aa9	0.0153261805
209	0xbc664eab	-0.014056842
210	0x3b375256	0.002797266
211	0xba35fae7	-0.00069419894
212	0x3b681442	0.0035412465
213	0xbd6f3e53	-0.058409046
214	0x3a779921	0.000944512
215	0x3bb9cc6f	0.0056701223
216	0x3c8fb411	0.017541917
217	0x3c820518	0.01587157
218	0x3b53997f	0.0032287536
219	0x3bb40eb7	0.005494918
220	0xbd12ba99	-0.035822485
221	0x3a84dc77	0.0010136504
222	0xbd0d953f	-0.03456616
223	0x3c22df46	0.009940928
224	0x3a7bfe06	0.00096127426
225	0x3a9527e2	0.0011379684
226	0xbb7047b5	-0.0036663834
227	0x3b295d07	0.0025842802
228	0x38ffeac8	0.00012203079
229	0x39f02da1	0.00045810363
230	0x3d0f8335	0.03503724
231	0xba93d4a7	-0.0011278585
232	0xbb50cbe9	-0.0031859821
233	0xbae68e6e	-0.0017590055
234	0x3a4d37c2	0.0007828438
235	0x3ca46216	0.020066302
236	0x3b44be0d	0.0030020506
237	0xbc6c6dd4	-0.014430482
238	0xb9697a7a	-0.00022266238
239	0x3bc14df9	0.0058991876
240	0x3d2ce3cd	0.042209435
241	0x3d389459	0.04506335
242	0x3b3ca7f3	0.002878663
243	0xbaf480a0	-0.0018654056
244	0xbb4dfaea	-0.0031430074
245	0x3d28de14	0.041227415
246	0x3b581455	0.0032971103
247	0xba7fad62	-0.0009753314
248	0xbaa9f256	-0.0012965898
249	0xb9d0c694	-0.00039820804
250	0x3cc0e2a8	0.023545578
251	0x3b769ae7	0.003762895
252	0xbb68dcc6	-0.0035531982
253	0xbc4a65e4	-0.012353394
254	0x3cde33a5	0.027124235
255	0xba6caa2e	-0.00090280443

action_model._continuous_distribution.mu.bias f4 [2]
0	0xbc4ec0b9	-0.012619191
1	0xbaa390a6	-0.0012479022

66 f4 [20]
0	0x3e969888	0.29413247
1	0x3ed9bee3	0.42528448
2	0x3ea0f83f	0.31439397
3	0x3e9365d4	0.28788626
4	0x3eff2e14	0.49839842
5	0x3ef373e6	0.4754936
6	0x3e95d4be	0.29263872
7	0x3e884756	0.26616925
8	0x3efff2e6	0.49990004
9	0x3ef24a65	0.47322384
10	0x3eb089a2	0.34480006
11	0x3e9e0600	0.30863953
12	0x3ef35dcf	0.47532508
13	0x3eeacb6e	0.4585833
14	0x3e2f8455	0.17140324
15	0x3e37c56e	0.17946407
16	0x3eff9fed	0.499267
17	0x3efa0d88	0.4883845
18	0x3e7d4465	0.24733122
19	0x3e6da7ec	0.23208588

69 f4 [12]
0	0x3eb9d280	0.3629341
1	0x3ed9b471	0.42520478
2	0x3e60939d	0.2193131
3	0x3e822ed9	0.25426367
4	0x3eb5adf2	0.35484272
5	0x3ed88582	0.42289358
6	0x3e680db8	0.22661483
7	0x3e82e651	0.25566342
8	0x3ec15659	0.3776119
9	0x3edd235c	0.4319104
10	0x3e58877a	0.2114543
11	0x3e81a52e	0.25321335

72 f4 [3]
0	0x3e439dec	0.19103211
1	0x3acf7e78	0.0015830537
2	0x3e6b3bb9	0.22972001
